data/parameters/deephit_model_feature_concat.pth (torch, 209121 bytes, 32 tensors)

se_block.0.weight f4 [4, 17]
-0.25472566 0.10199313 -0.011035073 -0.18244901 -0.06206163 -0.09984722 0.0067754444 -0.12613355
-0.053857643 0.086351745 -0.021020982 0.20833573 -0.120402336 0.02812283 0.0091444915 -0.11383327
0.053862415 -0.019892398 0.14230314 -0.10384021 -0.11292703 -0.19155674 -0.09988667 -0.18506089
-0.058469098 -0.14536689 -0.065761305 0.07781207 -0.2025493 -0.20656833 -0.027166182 0.052800335
-0.057835713 -0.13434415 -0.34985757 -0.17605197 -0.01321646 -0.27150553 -0.101673186 -0.2537332
0.1147187 -0.027496293 -0.17673941 0.112505674 -0.05107879 0.32503152 0.20845868 0.049997617
-0.092106864 -0.28378847 -0.032594703 0.07387074 -0.24119772 -0.09889812 -0.1971273 -0.24677786
-0.09706572 0.038953774 -0.34722447 0.03377578 -0.18585911 0.027082033 0.020217635 0.077601776
-0.10037954 -0.26236707 -0.031301744 0.016921828
00000000: 676b 82be c6e1 d03d 73cc 34bc ead3 3abe
00000010: 5634 7ebd b37c ccbd 8c04 de3b 2729 01be
00000020: d599 5cbd 2fd9 b03d 3234 acbc f655 553e
00000030: 8095 f6bd d961 e63c c7d2 153c 6b21 e9bd
00000040: d69e 5c3d 62f5 a2bc eab7 113e 2daa d4bd
00000050: 4946 e7bd 7327 44be 6291 ccbd 9a80 3dbe
00000060: 4b7d 6fbd 0fdb 14be ddad 86bd ef5b 9f3d
00000070: 1569 4fbe a686 53be 9d8b debc 2a45 583d
00000080: 24e5 6cbd 8391 09be 8820 b3be f846 34be
00000090: da89 58bc c602 8bbe 083a d0bd 51e9 81be
000000a0: a3f1 ea3d e83f e1bc 2dfb 34be 6069 e63d
000000b0: fe37 51bd 886a a63e 3176 553e 4dca 4c3d
000000c0: 86a2 bcbd b94c 91be 0682 05bd 8b49 973d
000000d0: 89fc 76be 198b cabd bddb 49be 56b3 7cbe
000000e0: 64ca c6bd fe8d 1f3d 68c7 b1be 7958 0a3d
000000f0: da51 3ebe 24db dd3c 749f a53c aeed 9e3d
00000100: ca93 cdbd fa54 86be 4236 00bd a59f 8a3c

se_block.0.bias f4 [4]
-0.030363595 0.035803344 -0.19891581 -0.22779791
00000000: 13bd f8bc 87a6 123d 96b0 4bbe db43 69be

se_block.2.weight f4 [17, 4]
-0.39789918 0.32372102 0.07043547 0.36803484 -0.19477198 -0.22733878 -0.19693546 0.15178938
0.11230537 -0.35363597 -0.095480755 -0.24778917 -0.275201 0.34449396 -0.114245266 -0.4710201
0.09672018 -0.3000814 0.0010872321 -0.13928702 0.2055184 -0.4235643 -0.33329076 -0.13187723
0.13413152 -0.025794214 0.10894523 0.37618342 0.45468953 0.1496462 -0.16888236 -0.08619538
0.37414697 0.46882188 0.0772701 0.045135077 0.2970568 -0.39324304 0.449377 -0.14929117
0.06445611 0.22240573 0.14887671 0.30308652 -0.051202238 -0.1330398 -0.032686763 -0.49968132
0.43892714 0.49935883 -0.13753788 0.114718564 0.032589193 0.30108467 -0.15889607 -0.21353146
-0.14570327 0.047369745 -0.27642322 -0.3688019 0.36576906 -0.10718062 -0.030011585 -0.035725184
0.38460523 0.43557277 -0.31286535 0.37412158
00000000: 71b9 cbbe c3be a53e 7940 903d 106f bc3e
00000010: 4e72 47be 7fcb 68be 73a9 49be ad6e 1b3e
00000020: 5c00 e63d c60f b5be 6a8b c3bd 72bc 7dbe
00000030: 25e7 8cbe 8361 b03e 6cf9 e9bd 8c29 f1be
00000040: 3b15 c63d 45a4 99be 7581 8e3a 42a1 0ebe
00000050: 6a73 523e 6cdd d8be 16a5 aabe d30a 07be
00000060: c659 093e 634e d3bc ad1e df3d 1d9b c03e
00000070: 11cd e83e da3c 193e 7fef 2cbe 3487 b0bd
00000080: 3190 bf3e 6c09 f03e c93f 9e3d 8fdf 383d
00000090: d417 983e 2757 c9be be14 e63e c9df 18be
000000a0: 9101 843d 54be 633e 2373 183e 282e 9b3e
000000b0: 70b9 51bd 963b 08be 8ee2 05bd 3bd6 ffbe
000000c0: 0fbb e03e f6ab ff3e bbd6 0cbe 91f1 ea3d
000000d0: 3f7c 053d c527 9a3e a7b5 22be fea7 5abe
000000e0: 3d33 15be c706 423d 5887 8dbe 9ad3 bcbe
000000f0: 1546 bb3e 8381 dbbd dbda f5bc 9254 12bd
00000100: faea c43e 6503 df3e e32f a0be dd8c bf3e

se_block.2.bias f4 [17]
-1.16723 -1.156276 0.53665954 -2.2766066 -2.97065 -3.3701022 -1.301175 -3.5593035
-1.7364683 -0.1165826 -2.2351577 -1.7764503 1.1231562 -1.0218303 -4.1035504 -1.0639195
-2.6304207
00000000: cb67 95bf da00 94bf 8562 093f ecb3 11c0
00000010: 211f 3ec0 c1af 57c0 e78c a6bf a1cb 63c0
00000020: 9844 debf dcc2 eebd d30c 0fc0 b962 e3bf
00000030: 95c3 8f3f 56cb 82bf 4950 83c0 842e 88bf
00000040: d058 28c0

se_block_event.0.0.weight f4 [16, 64]
-1.2298126 0.42893165 0.28337693 -0.13875316 -0.18622229 -0.8167319 0.30937394 0.41810083
-0.4369077 0.03581797 0.0038808875 0.780298 -0.39793622 0.060430802 0.24723293 -0.18355499
0.17274292 -1.1484172 -0.53481966 -0.016441321 0.49899283 -1.0837075 0.23268788 -0.40683722
0.49252114 -0.9279693 0.041826036 0.08601211 -0.079154424 -0.64820695 0.04227883 0.29570198
-0.22727078 0.3919929 -0.20566767 -0.17063649 0.2009182 -0.057614934 0.17183271 -0.1115506
0.39461902 0.2367641 0.2121447 0.40287173 -0.32573915 -0.00997158 0.7456904 -0.23256086
0.319597 0.17076916 0.121117614 -0.023231026 -0.17079403 0.18885383 -0.31501436 -0.55286497
-0.2044906 0.59903234 -0.33468834 0.2188844 -0.103026226 0.31400096 0.65128416 -0.0053232033
-0.50461197 -0.5138615 -0.15085536 0.20031728 -0.11769968 0.5351772 -0.2783539 0.4399173
0.5861917 -0.16220117 0.06875001 -0.13549227 -0.56982076 -0.56392854 0.46051815 0.15050033
-0.18658489 1.2189995 0.13349554 0.078873836 -0.5250604 1.0730242 -0.12834701 0.40503326
0.8030835 1.3155198 0.31418955 -0.3694703 -0.4296933 -0.469308 -0.15318932 -0.66889715
0.19623755 -0.00067930704 0.27536976 -0.12346456 0.11895447 0.30354476 -0.15030952 -0.5301657
-0.18346766 -0.8438374 -0.3556359 -0.5384177 0.5936521 0.5107722 -0.65986186 -0.022608403
-0.10530489 -0.044220425 -0.2429178 0.13071755 0.036779374 -0.39568788 0.004582986 -0.3650458
0.15207571 0.11771082 0.50740904 0.04852792 0.13930129 0.95206034 -0.2562219 -0.07786144
-0.63185 -0.39470226 -0.028221657 0.043547425 -0.74063927 0.38008744 0.010698795 1.1098733
0.7386478 -0.0779363 0.2803451 -0.017345479 0.24156415 -0.43686596 0.7223129 -0.067953914
0.1926589 1.2878934 0.28416118 0.13362835 -0.38128045 1.1715877 -0.0011769241 0.43201926
-0.08769427 1.2602856 0.22011098 0.092056416 -0.08527924 -0.25684685 0.09463114 0.068170466
0.42691162 0.057508055 0.100319326 0.10095004 0.1910721 0.3882472 0.09719326 -0.3411146
-0.095682815 -0.0788307 0.4529392 -0.29583007 -0.1251502 0.11210519 -0.516022 0.38938224
-0.29335743 0.15706144 0.13358103 0.2860618 0.060252015 -0.097957596 -0.27579764 -0.056174926
0.030481815 -0.06172637 0.6575927 0.40672365 -0.25928244 0.45517457 -0.31596166 -0.056697637
0.21967891 0.1676434 0.10706929 0.72028947 -0.10570842 0.17516257 0.33749107 0.36011565
0.23424046 0.2877392 -0.17333168 0.5856615 0.5690269 0.8356781 0.7057732 -0.056290038
-0.105916016 0.21500175 -0.11415447 -0.2792272 0.7639172 0.061894495 0.06381001 0.08315868
0.24078509 -0.23444247 -0.079752825 0.022348762 0.45652586 0.8683126 0.28970993 0.095863685
-0.027816573 -0.094831936 0.09864443 0.06171201 0.20721282 -0.111318976 0.23787951 0.43160766
0.23078616 0.5342241 0.1646704 0.40907604 0.4945058 -0.33202782 0.03424057 0.56481904
0.3265319 0.46099392 0.72287744 0.25061247 0.40008718 0.057120614 0.61341286 0.24863087
0.5403918 0.46966898 -0.33451882 0.4209414 -0.22719471 -0.21916148 0.62830883 -0.058558453
00000000: 806a 9dbf ee9c db3e c816 913e 4f15 0ebe
00000010: 0eb1 3ebe 5815 51bf 4366 9e3e 5011 d63e
00000020: 5eb2 dfbe ddb5 123d 7d56 7e3b 9cc1 473f
00000030: 4cbe cbbe 4a86 773d a12a 7d3e d7f5 3bbe
00000040: 85e3 303e 56ff 92bf f1e9 08bf f3af 86bc
00000050: fd7b ff3e edb6 8abf bb45 6e3e f84c d0be
00000060: bb2b fc3e 658f 6dbf c751 2b3d 1e27 b03d
00000070: b71b a2bd e4f0 25bf 912c 2d3d 4066 973e
00000080: acb9 68be 4bb3 c83e 8c9a 52be 55bb 2ebe
00000090: 80bd 4d3e a3fd 6bbd eaf4 2f3e a474 e4bd
000000a0: 810b ca3e 4a72 723e 763c 593e 3445 ce3e
000000b0: 48c7 a6be d65f 23bc 91e5 3e3f 6f24 6ebe
000000c0: 38a2 a33e 1cde 2e3e 830c f83d fe4e bebc
000000d0: a1e4 2ebe e662 413e 9049 a1be 8f88 0dbf
000000e0: fc65 51be 2f5a 193f 455c abbe 3b23 603e
000000f0: 6aff d2bd bcc4 a03e 8fba 263f 446e aebb
00000100: 402e 01bf 6d8c 03bf d479 1abe f91f 4d3e
00000110: 880c f1bd 5f01 093f 6784 8ebe d73c e13e
00000120: a910 163f 1018 26be cecc 8c3d 7cbe 0abe
00000130: c6df 11bf 9f5d 10bf 09c9 eb3e c21c 1a3e
00000140: 1c10 3fbe 2d08 9c3f 0eb3 083e 9b88 a13d
00000150: 5c6a 06bf db58 893f 666d 03be 8560 cf3e
00000160: e196 4d3f f462 a83f 74dd a03e 362b bdbe
00000170: c300 dcbe 2349 f0be a9dd 1cbe d83c 2bbf
00000180: 7ff2 483e 8613 32ba 44fd 8c3e fdda fcbd
00000190: 679e f33d 386a 9b3e bdea 19be f0b8 07bf
000001a0: f2de 3bbe ba05 58bf e915 b6be bed5 09bf
000001b0: 96f9 173f f8c1 023f b5ec 28bf 4235 b9bc
000001c0: 17aa d7bd 7a20 35bd 72bf 78be d2da 053e
000001d0: f8a5 163d 9a97 cabe df2c 963b 48e7 babe
000001e0: bcb9 1b3e 5f12 f13d 8fe5 013f 36c5 463d
000001f0: ffa4 0e3e 3aba 733f 842f 83be d275 9fbd
00000200: ecc0 21bf 6a16 cabe 1b31 e7bc c95e 323d
00000210: 899a 3dbf d29a c23e 004a 2f3c 5410 8e3f
00000220: 0618 3d3f 119d 9fbd 6589 8f3e 1b18 8ebc
00000230: 985c 773e e5ac dfbe 80e9 383f 6c2b 8bbd
00000240: 6048 453e b1d9 a43f 937d 913e dfd5 083e
00000250: 3137 c3be 96f6 953f 0543 9aba a131 dd3e
00000260: 0e99 b3bd 0a51 a13f c664 613e 1388 bc3d
00000270: e2a6 aebd 6e81 83be f9cd c13d f59c 8b3d
00000280: 2994 da3e 918d 6b3d 3874 cd3d e5be ce3d
00000290: 68a8 433e 56c8 c63e 430d c73d 93a6 aebe
000002a0: 5af5 c3bd fd71 a1bd a6e7 e73e 0a77 97be
000002b0: 6027 00be 6897 e53d 051a 04bf 1c5d c73e
000002c0: f232 96be b7d4 203e 77c9 083e b176 923e
000002d0: d1ca 763d fe9d c8bd 5935 8dbe ae17 66bd
000002e0: 00b5 f93c cad4 7cbd ff57 283f 153e d03e
000002f0: abc0 84be a40c e93e bac5 a1be c83b 68bd
00000300: 82f3 603e b6aa 2b3e 2547 db3d e464 383f
00000310: a87d d8bd d15d 333e a1cb ac3e 1461 b83e
00000320: bbdc 6f3e 8d52 933e dc7d 31be e9ed 153f
00000330: bfab 113f 00ef 553f 8dad 343f 6290 66bd
00000340: 7fea d8bd 6b29 5c3e d2c9 e9bd def6 8ebe
00000350: 1490 433f 1585 7d3d d3ae 823d 194f aa3d
00000360: 5e90 763e b011 70be 7355 a3bd c014 b73c
00000370: c2bd e93e bc49 5e3f dc54 943e 2e54 c43d
00000380: 95df e3bc 3f37 c2bd 1706 ca3d bcc5 7c3d
00000390: 992f 543e 34fb e3bd b096 733e aefb dc3e
000003a0: 3553 6c3e e9c2 083f 5b9f 283e 6a72 d13e
000003b0: dd2f fd3e 8dff a9be d73f 0c3d fb97 103f
000003c0: 302f a73e 6507 ec3e 7f0e 393f 4750 803e
000003d0: 3ad8 cc3e 4ef7 693d a008 1d3f 1799 7e3e
000003e0: 1e57 0a3f 7478 f03e 0d46 abbe a285 d73e
000003f0: bba5 68be de6b 60be d9d8 203f fdda 6fbd

se_block_event.0.0.bias f4 [16]
0.84569865 -0.4647601 -0.5723213 -0.82529867 -0.7593242 -0.37072772 0.1359967 -0.08042823
-0.4172928 -1.0811749 -0.41819382 -0.43341863 1.1904554 0.06966891 0.39712253 0.42380774
00000000: b57f 583f 09f5 edbe a683 12bf c646 53bf
00000010: 1263 42bf 06d0 bdbe b842 0b3e 8eb7 a4bd
00000020: 67a7 d5be f063 8abf 801d d6be 0ce9 ddbe
00000030: d860 983f 93ae 8e3d a553 cb3e 54fd d83e

se_block_event.0.2.weight f4 [64, 16]
0.66325057 0.28867927 1.1667608 0.31774375 0.22895452 -0.13620934 0.18264934 0.14974172
0.6062884 0.80833685 0.7956618 0.58222705 1.0990216 -0.48665527 0.8492746 0.03282605
0.3253268 -0.0021604765 0.13583663 0.56440896 0.42351708 0.5867288 0.77820724 0.19264257
-0.0052643665 0.79165435 -0.398035 0.033556327 0.19583517 0.86432534 -0.07743292 0.731697
0.9188842 0.28036144 0.26514205 -0.045607448 -0.19125989 -0.00035650202 -0.3579488 0.09719904
0.37623224 -0.21015793 0.82367843 0.009108375 0.44616297 0.17898458 0.6026712 0.70087147
0.23136774 -0.2516209 -0.27403933 0.89383477 -0.2512335 -0.20488808 -0.18533358 0.1349422
-0.28365025 0.5310507 -0.05872805 0.02242145 0.27341846 -0.04247548 0.03063429 0.2465413
0.33608443 0.4968882 0.90760076 0.57952267 0.28818136 -0.39865655 0.29533702 0.19776627
0.4304277 0.19495809 0.21427728 0.81878114 -0.36842602 -0.20213589 0.4525774 0.20510921
1.0090959 -0.3007992 -0.16143496 0.68881196 1.0666888 -0.4040692 0.20208289 -0.9102615
-0.3280148 0.43856707 -0.61158335 -0.499672 1.2169895 1.0668335 0.032975886 0.06896804
0.70902306 -0.12205792 0.0013385776 0.19518472 -0.28135136 0.22257188 0.33091778 -0.029968346
0.29719418 0.7641265 0.29413423 -0.27459913 0.53120023 0.22847147 0.34602362 0.6229961
0.6040342 0.29507408 0.53082395 1.2900432 0.6908416 -0.16452545 -0.004373432 0.98994446
1.930237 1.1210513 1.5197296 0.34363627 -0.012921093 0.9705403 0.26485756 0.23562685
0.91892254 -0.6541422 -0.27506614 0.33797574 1.2496148 0.04289817 0.44329864 -0.08521409
-0.87331593 0.7046452 -1.0970697 0.12064838 0.5711496 0.871182 0.1614289 0.380134
1.8763571 -0.20972309 0.5627677 0.24720278 0.079274364 -0.014382523 0.6187648 1.0679128
0.53421205 0.91489875 1.2755675 -0.07014363 -0.5301544 -0.29298395 1.8369365 0.9145882
0.101636104 -0.37341973 -0.70786065 0.58041215 0.7205467 -0.6196646 -0.4788703 0.065145455
-0.43700984 0.1699664 0.48487487 0.007259323 -0.1416788 -0.6205475 -0.4263732 0.17180857
0.1468608 0.12288652 0.11526988 0.7467606 0.2122351 0.2954717 0.4351687 0.56169456
0.2769237 0.36196232 0.31401914 0.08086881 0.37906575 0.51918244 0.13742806 0.460972
0.366851 0.0628532 0.1045768 0.92350614 0.1009751 0.5741838 0.43784422 0.6858834
0.12937868 0.214554 0.34040713 -0.032260202 0.6163705 0.8541112 -0.01598169 0.3303222
-0.09024488 -0.03941085 -0.2382071 0.7413206 -0.017976755 0.0356611 0.37208948 0.2231844
-0.03436837 0.25370216 0.06600964 -0.35307255 -0.23634975 0.17491642 -0.18970713 0.1716163
0.789933 0.8540296 1.0044978 0.52550423 0.67664385 1.1362814 1.175658 0.36806813
0.38489553 0.6818144 0.3732613 0.27750877 1.2135181 0.6588825 0.57318425 0.81842285
-0.037068196 -0.20400092 -0.19492488 0.040139146 0.22037698 -0.3339829 0.089939505 0.226328
0.40341842 0.2518769 0.3650019 0.27041456 0.1589257 -0.13508272 0.55917907 -0.13672572
00000000: caca 293f c5cd 933e 6b58 953f 4faf a23e
00000010: 0e73 6a3e 767a 0bbe 6e08 3b3e e555 193e
00000020: b735 1b3f 2aef 4e3f 7eb0 4b3f d50c 153f
00000030: bdac 8c3f e12a f9be 0f6a 593f 9c74 063d
00000040: 3c91 a63e c896 0dbb c218 0b3e 1b7d 103f
00000050: 3bd7 d83e dc33 163f 9738 473f 1844 453e
00000060: b580 acbb dca9 4a3f 3ecb cbbe 5c72 093d
00000070: 0489 483e 6d44 5d3f 2795 9ebd 7f50 3b3f
00000080: ff3b 6b3f 898b 8f3e b3c0 873e e0ce 3abd
00000090: a2d9 43be e4e8 bab9 1145 b7be 4a10 c73d
000000a0: 83a1 c03e a433 57be 97dc 523f 4b3b 153c
000000b0: 796f e43e bc47 373e a948 1a3f 506c 333f
000000c0: aaeb 6c3e 74d4 80be e24e 8cbe 5bd2 643f
000000d0: ada1 80be 2ece 51be 16c8 3dbe 4a2e 0a3e
000000e0: 9b3a 91be f0f2 073f d38c 70bd 30ad b73c
000000f0: 81fd 8b3e c5fa 2dbd c3f4 fa3c 5375 7c3e
00000100: 4213 ac3e 2168 fe3e 8658 683f 995b 143f
00000110: 828c 933e b61c ccbe 6a36 973e 3e83 4a3e
00000120: 0561 dc3e 18a3 473e 816b 5b3e a49b 513f
00000130: 56a2 bcbe b6fc 4ebe 3ab8 e73e 2608 523e
00000140: 0e2a 813f 5a02 9abe 354f 25be fb55 303f
00000150: 4289 883f 28e2 cebe d1ee 4e3e e606 69bf
00000160: 8ef1 a7be dd8b e03e ba90 1cbf 02d5 ffbe
00000170: 50c6 9b3f 008e 883f b911 073d 1e3f 8d3d
00000180: 8982 353f 81f9 f9bd 3673 af3a 81de 473e
00000190: 490d 90be e2e9 633e 0e6e a93e 2d80 f5bc
000001a0: d629 983e cb9d 433f c398 963e 4298 8cbe
000001b0: bdfc 073f 6df4 693e 022a b13e ac7c 1f3f
000001c0: fca1 1a3f f313 973e 14e4 073f 2320 a53f
000001d0: ffda 303f 5c79 28be 024f 8fbb 006d 7d3f
000001e0: 0212 f73f 9c7e 8f3f 8086 c23f 18f1 af3e
000001f0: feb2 53bc 5475 783f 699b 873e 2a48 713e
00000200: 823e 6b3f dd75 27bf 78d5 8cbe 280b ad3e
00000210: 61f3 9f3f feb5 2f3d 0af8 e23e ba84 aebd
00000220: a291 5fbf a163 343f c86c 8cbf 7f16 f73d
00000230: dc36 123f c905 5f3f 9e4d 253e eca0 c23e
00000240: 782c f03f a6c1 56be 8b11 103f ba22 7d3e
00000250: 995a a23d aca4 6bbc 5f67 1e3f 5eb1 883f
00000260: 1fc2 083f ce36 6a3f cc45 a33f 77a7 8fbd
00000270: 33b8 07bf fe01 96be bc20 eb3f 7422 6a3f
00000280: 9726 d03d df30 bfbe 5b36 35bf e495 143f
00000290: c075 383f 57a2 1ebf 7d2e f5be fb6a 853d
000002a0: c1bf dfbe ac0b 2e3e 8541 f83e 9ddf ed3b
000002b0: 3f14 11be 33dc 1ebf 974d dabe 96ee 2f3e
000002c0: ad62 163e eeab fb3d 9d12 ec3d b42b 3f3f
000002d0: 2854 593e 1148 973e 6fce de3e 37cb 0f3f
000002e0: f1c8 8d3e 2053 b93e 1ec7 a03e 8c9e a53d
000002f0: e814 c23e 24e9 043f f1b9 0c3e 8604 ec3e
00000300: e5d3 bb3e 2eb9 803d 5c2c d63d e66a 6c3f
00000310: 09cc ce3d b6fd 123f 1e2d e03e 0e96 2f3f
00000320: d87b 043e 0bb4 5b3e d849 ae3e 4623 04bd
00000330: 75ca 1d3f 08a7 5a3f 08ec 82bc fe1f a93e
00000340: 4fd2 b8bd 456d 21bd 90ec 73be 30c7 3d3f
00000350: fd43 93bc 6011 123d 8382 be3e 748a 643e
00000360: d9c5 0cbd 40e5 813e 1030 873d edc5 b4be
00000370: ab05 72be 4a1d 333e 9642 42be 2fbc 2f3e
00000380: 0d39 4a3f afa1 5a3f 6293 803f 7287 063f
00000390: 8838 2d3f ab71 913f f67b 963f 6d73 bc3e
000003a0: 0711 c53e 638b 2e3f 1b1c bf3e a115 8e3e
000003b0: 9054 9b3f 86ac 283f 34bc 123f 2984 513f
000003c0: d2d4 17bd 9ee5 50be 639a 47be f268 243d
000003d0: 81aa 613e cfff aabe 3432 b83d 87c2 673e
000003e0: dc8c ce3e 02f6 803e 87e1 ba3e c773 8a3e
000003f0: 6bbd 223e 2053 0abe 5c26 0f3f d401 0cbe

se_block_event.0.2.bias f4 [64]
0.59520173 0.029501144 0.09355411 -0.15996791 0.7340407 0.8900245 0.23803245 -0.37982258
0.52376974 0.76361406 0.14000052 0.11246556 -0.1538267 -0.26057187 0.7608465 0.15300259
0.5738498 1.3383684 1.237518 0.30565012 -0.5789256 0.16446924 -0.56598634 0.5014836
0.20481029 -0.21282576 0.03873976 0.22606361 -0.074000865 0.68384 0.5351412 -0.089029916
-0.17597273 0.005617374 -0.47895834 0.21682389 0.74831676 0.32139453 -0.13672708 3.2720582
-0.15583183 0.13547486 0.10619846 0.020525042 1.3442886 0.5029153 -0.32028508 -0.59213066
-0.13136292 0.057789847 -0.29765835 1.2536281 0.4073587 0.11019766 2.5566423 0.115674525
0.15889612 0.1872776 0.3443097 -0.30940732 0.6847433 0.22198609 -0.18101448 0.72391474
00000000: 245f 183f 62ac f13c 4c99 bf3d a1ce 23be
00000010: 17ea 3b3f a5d8 633f c7be 733e 1b78 c2be
00000020: c615 063f 367c 433f 4c5c 0f3e 5854 e63d
00000030: bf84 1dbe ad69 85be d6c6 423f b6ac 1c3e
00000040: d2e7 123f a84f ab3f fd66 9e3f 2c7e 9c3e
00000050: 7834 14bf a06a 283e 7be4 10bf 3b61 003f
00000060: cab9 513e ffee 59be 95ad 1e3d 387d 673e
00000070: c48d 97bd 2310 2f3f 04ff 083f 5155 b6bd
00000080: 3232 34be f311 b83b 073a f5be 1507 5e3e
00000090: b091 3f3f d38d a43e 2f02 0cbe 6769 5140
000000a0: 6192 1fbe ecb9 0a3e 947e d93d 2224 a83c
000000b0: a611 ac3f 0fbf 003f 68fc a3be e095 17bf
000000c0: 0084 06be 0cb5 6c3d ad66 98be e376 a03f
000000d0: 5291 d03e 50af e13d 07a0 2340 c4e6 ec3d
000000e0: aab5 223e b3c5 3f3e 5c49 b03e a36a 9ebe
000000f0: 564b 2f3f 5250 633e dc5b 39be 7a52 393f

se_block_event.1.0.weight f4 [16, 64]
-0.0802861 0.9231799 0.4747564 0.94621366 -0.120380156 0.34658942 0.8045001 1.2550048
0.21541874 0.47121787 -0.51455617 0.793224 0.8812608 0.827196 1.229598 -0.30812055
0.29635978 0.4012232 -0.120512806 0.17154604 0.8472339 0.35017022 0.3837961 0.19158286
0.8709084 0.347371 -0.13428475 0.18190499 0.6622173 1.6299102 0.42067456 -0.044344738
0.7766778 0.639902 0.51511496 -0.083083406 0.7614771 -0.18022248 1.2418233 0.46789247
0.5962487 0.24052538 0.04810321 1.2464082 0.37223095 -0.16958897 1.0269836 1.4768685
0.7329148 0.7071748 0.86884844 0.9025284 0.51415473 0.17624983 -0.2875607 0.10507118
0.9469761 1.3504113 0.023237849 1.4957713 -0.13648225 0.18110777 1.0132222 -0.17798859
0.1666771 1.6081308 0.9502023 0.9148558 0.059816338 0.2852707 1.3585789 1.1337537
0.15382488 0.17408809 -0.28648835 1.2318399 1.8391792 1.8047106 1.6883545 -0.5572803
0.3656137 0.29776907 -0.09149084 0.7169175 1.7580338 0.09654731 0.6456961 0.5642676
1.2715181 0.8305192 -0.05333184 -0.034584332 1.9751107 1.7510277 0.9317285 0.34631532
0.7282896 0.8976177 0.38237545 0.052665286 0.68743914 0.09131925 1.1862794 0.7462658
0.8565579 0.7546552 -0.2126512 2.1594155 0.5948379 -0.2192641 1.0649086 1.8140239
1.5332646 0.40607426 1.2410672 0.46986726 0.81378365 0.24718681 0.50817037 0.03716488
0.98934853 1.2887878 0.18848786 1.7090105 -0.17748511 0.016938074 1.0016158 -0.009348491
-0.18279965 -1.0861452 0.51972234 -0.4979644 -0.015905283 0.47177133 -0.0055628866 0.8712642
0.25937778 0.6723523 0.04618055 -0.0071479683 -0.7719489 -0.52806324 -0.4445233 -0.111947775
-0.2711242 1.7370652 -0.028169764 -0.7415585 -0.2665144 1.458968 -0.08769485 -0.23265545
-0.60244447 1.1907251 0.07688509 -0.08273617 -0.5586274 0.54504955 0.05336555 0.34350052
0.20751835 0.21959727 -0.56839055 -0.68897 -0.27419809 0.27818334 -1.0120859 -0.12143859
-0.94021857 0.32543778 0.17751889 -0.58502716 0.32428363 -0.10107304 -1.5834353 -0.29565808
0.35923377 -0.21177411 0.33938855 0.31648108 -0.2951571 0.002890783 -0.39485705 -0.040628348
-0.817006 -0.4931444 0.44694772 -0.33733493 -0.15645969 0.4446884 -0.91133124 -0.10950423
0.14171146 1.691516 0.077588305 0.21286827 0.045648713 -0.016498433 0.50798374 0.42739633
0.037714534 -0.16898867 -0.21992041 0.7277793 0.29185882 0.5857822 0.7048701 -0.10612575
0.41485855 0.18371312 0.10286189 0.5898455 0.54393125 0.16683142 0.39713106 0.4190834
0.24763824 0.07801318 0.18356931 0.017322926 0.9264201 1.9120231 0.66406995 0.11423121
-0.13669668 0.643799 0.20192212 -0.38152295 0.46758723 -0.18360595 0.4495014 0.18637891
0.42253256 0.45211092 -0.009989542 0.7651227 0.35573432 -0.22243305 1.7023836 0.8967923
0.26917157 0.37737134 0.67098176 0.7568786 0.6243422 0.121372014 0.049563356 0.04352782
1.0781469 1.1139833 -0.026257351 0.3366169 -0.10670915 0.07865228 0.6383003 -0.26999223
00000000: 0a6d a4bd 8555 6c3f 4513 f33e 0f3b 723f
00000010: df89 f6bd 2b74 b13e b8f3 4d3f ffa3 a03f
00000020: bb96 5c3e 7843 f13e f4b9 03bf ba10 4b3f
00000030: 4f9a 613f 1ec3 533f 7863 9d3f fac1 9dbe
00000040: 78bc 973e 216d cd3e 6bcf f6bd c4a9 2f3e
00000050: 52e4 583f 8349 b33e ec80 c43e 4c2e 443e
00000060: daf3 5e3f 9dda b13e f181 09be 4d45 3a3e
00000070: 1387 293f e6a0 d03f a862 d73e d4a2 35bd
00000080: 5bd4 463f 9ed0 233f 93de 033f a227 aabd
00000090: 2af0 423f 3e8c 38be 11f4 9e3f 9a8f ef3e
000000a0: c1a3 183f 494c 763e df07 453d 4e8a 9f3f
000000b0: 0e95 be3e bba8 2dbe 3374 833f 070a bd3f
000000c0: 4ea0 3b3f 6809 353f da6c 5e3f 1a0c 673f
000000d0: a59f 033f d67a 343e 283b 93be 8f2f d73d
000000e0: 076d 723f 47da ac3f 4d5d be3c 6f75 bf3f
000000f0: 01c2 0bbe 5174 393e 44b1 813f a442 36be
00000100: 67ad 2a3e 3bd7 cd3f 7540 733f fd33 6a3f
00000110: fa01 753d 000f 923e eae5 ad3f d71e 913f
00000120: 4584 1d3e 2644 323e 9aae 92be eeac 9d3f
00000130: 396a eb3f c200 e73f 001c d83f eca9 0ebf
00000140: b831 bb3e 3075 983e 8d5f bbbd e887 373f
00000150: 4007 e13f 99ba c53d 574c 253f d773 103f
00000160: 1bc1 a23f e89c 543f 7d72 5abd 4da8 0dbd
00000170: 6dd0 fc3f ad21 e03f c285 6e3f 3e50 b13e
00000180: 3071 3a3f 46ca 653f b7c6 c33e 8eb7 573d
00000190: 03fc 2f3f 9605 bb3d 01d8 973f 470b 3f3f
000001a0: 6147 5b3f 1531 413f 3cc1 59be dd33 0a40
000001b0: 4c47 183f c586 60be ed4e 883f ef31 e83f
000001c0: 0442 c43f f7e8 cf3e 4adb 9e3f 7192 f03e
000001d0: 2054 503f 8a1e 7d3e 7417 023f 343a 183d
000001e0: f245 7d3f 00f7 a43f f602 413e dbc0 da3f
000001f0: a8be 35be b7c1 8a3c f234 803f 6a2a 19bc
00000200: d52f 3bbe ce06 8bbf 860c 053f 31f5 febe
00000210: cc4b 82bc 038c f13e e048 b6bb 2c0b 5f3f
00000220: 2acd 843e 481f 2c3f d127 3d3d 8139 eabb
00000230: 719e 45bf 272f 07bf 8f98 e3be e044 e5bd
00000240: cbd0 8abe 2758 de3f 47c4 e6bc c7d6 3dbf
00000250: 9374 88be 77bf ba3f 5c99 b3bd 3b3d 6ebe
00000260: cd39 1abf ae69 983f ee75 9d3d 9571 a9bd
00000270: 3502 0fbf 5e88 0b3f d695 5a3d 4ddf af3e
00000280: b17f 543e 1bde 603e 0b82 11bf 5760 30bf
00000290: b163 8cbe 0c6e 8e3e 088c 81bf ccb4 f8bd
000002a0: 2ab2 70bf c89f a63e 83c7 353e 57c4 15bf
000002b0: 8108 a63e 62ff cebd 02ae cabf 7f60 97be
000002c0: 7ded b73e 50db 58be 56c4 ad3e cf09 a23e
000002d0: d51e 97be 4a73 3d3b b42a cabe e969 26bd
000002e0: 4e27 51bf 6c7d fcbe 55d6 e43e 2ab7 acbe
000002f0: f836 20be 33ae e33e 014d 69bf c143 e0bd
00000300: cf1c 113e 9983 d83f 9ee6 9e3d 24fa 593e
00000310: 25fa 3a3d b927 87bc 390b 023f b1d3 da3e
00000320: 8e7a 1a3d 5e0b 2dbe d132 61be bf4f 3a3f
00000330: 856e 953e d2f5 153f 5e72 343f 7558 d9bd
00000340: 5768 d43e 4b1f 3c3e 41a9 d23d 1d00 173f
00000350: 143f 0b3f dbd5 2a3e c354 cb3e 1992 d63e
00000360: e194 7d3e 60c5 9f3d 98f9 3b3e cfe8 8d3c
00000370: de29 6d3f 2cbd f43f 7d00 2a3f 0df2 e93d
00000380: 37fa 0bbe 03d0 243f acc4 4e3e fa56 c3be
00000390: 9867 ef3e 3303 3cbe 0c25 e63e 1dda 3e3e
000003a0: 3056 d83e 157b e73e 2dab 23bc 15df 433f
000003b0: cf22 b63e 7dc5 63be b5e7 d93f 2e94 653f
000003c0: dbd0 893e d136 c13e 76c5 2b3f ccc2 413f
000003d0: e4d4 1f3f e491 f83d f202 4b3d 3a4a 323d
000003e0: b800 8a3f 0197 8e3f a819 d7bc 0d59 ac3e
000003f0: 548a dabd 7214 a13d a667 233f 6c3c 8abe

se_block_event.1.0.bias f4 [16]
-1.0196356 -1.6477388 -1.0527517 -0.92547715 -0.20209697 0.34332263 -0.8410692 -1.8409582
0.110264 -1.2618216 -1.4908383 -1.30984 -0.19005923 -0.28348613 -0.80939966 -0.29651606
00000000: 6b83 82bf 1be9 d2bf 91c0 86bf 12ec 6cbf
00000010: 82f2 4ebe fcc7 af3e 5050 57bf 85a4 ebbf
00000020: 18d2 e13d 5f83 a1bf cad3 bebf d6a8 a7bf
00000030: e39e 42be 1825 91be d134 4fbf f4d0 97be

se_block_event.1.2.weight f4 [64, 16]
0.24999371 0.7428139 1.0859153 0.44946975 -0.19220722 0.6007642 0.11019233 1.8792006
0.18009153 0.73301 1.1001947 1.3287759 0.019222753 -0.4136867 0.34774652 0.12062317
0.6014101 0.95307827 0.8494394 1.1579653 0.9290858 1.3264405 0.26529762 0.36921975
1.2351803 0.88695514 0.8737075 0.37573525 1.297565 1.067859 0.87885624 0.6124186
1.0346893 0.46168008 0.36544257 0.13796371 0.14768158 -0.046935823 1.9117928 0.8895049
0.084404804 0.75544524 0.50381315 0.6252516 1.8459144 0.9617484 0.20423971 2.723855
0.61988527 0.7879049 0.33934537 0.4346483 0.4340129 0.777729 0.04101179 1.0640607
0.37245253 0.64860016 0.62034076 1.1103759 0.8878187 1.1829747 0.5226129 0.50755554
0.6612888 0.3293526 0.795233 0.20365636 0.21948406 0.2629417 0.21486701 0.7220156
-0.25349686 0.039796025 0.47590715 0.47326958 -0.11744948 -0.040553637 0.14900449 -0.26875404
0.7666435 0.995083 -0.6406734 0.03270179 -0.108522534 0.8594812 0.21166942 0.70024234
-0.5091329 -0.06712642 -0.43451157 0.10977385 1.2054851 0.40025175 0.5390631 0.918823
0.6339708 0.9950764 0.7452285 0.49399632 1.632757 0.65668654 0.27684745 0.88204354
0.7557285 1.0640168 0.8189105 1.1002213 1.5647892 1.1771646 0.30411732 0.4121589
1.3427691 0.7657306 1.2593248 1.0060544 0.5242457 0.14183219 0.92400837 1.4460328
-0.19623354 1.0012333 1.3127625 0.49308592 -0.06548424 0.35097358 1.1264932 -0.03117641
0.4443812 0.770732 -0.36350876 -0.3276572 -0.086426824 0.26667017 1.6003188 0.5737437
-0.7541219 0.49253935 -0.21556275 1.1718208 0.58053726 0.59563863 0.412858 1.5651858
1.0568148 0.9869833 1.0111666 0.70654726 0.36951175 1.1234419 0.11952619 1.4371217
-0.27272117 1.0571047 0.8414071 1.0974932 0.8166178 0.36090338 0.5577832 -0.39665142
0.1635399 1.1689715 -0.5177713 -0.13166638 -0.30153015 0.03269323 1.0602399 0.64029765
-0.7767086 0.9256607 0.09293284 0.39445803 -0.73442537 0.32075968 0.08313481 0.31397167
0.7043707 0.7534319 0.14852673 0.46476325 0.83616376 1.3923783 0.26428688 0.71112853
0.500128 0.750654 0.5651025 0.8286475 0.8672226 1.5863726 1.1088092 0.56477475
0.6765022 0.6682202 0.95777893 0.8606367 0.7081723 1.3316909 0.13719532 1.0395448
0.81242186 0.5221177 0.534359 0.4952981 1.2912211 1.16666 1.1055256 0.52582437
0.67050874 1.454464 0.28776792 0.2540672 0.76558906 0.91161835 0.66618055 0.749149
1.1311477 0.64417225 1.0909632 0.92214024 0.98038375 1.171557 0.9020084 1.0016375
0.9839589 1.1795576 0.90122265 0.7449277 0.5051038 0.98633957 1.0182303 1.4823645
0.31103635 0.48429325 1.1606778 1.2411956 1.3815081 2.1016443 0.10051572 0.75731176
0.38671675 0.11025446 -0.119684435 -0.13600512 -0.13581583 0.18306068 0.3528336 0.6072083
-0.39076373 0.7611286 -0.026297513 0.16284855 0.29853958 0.21613015 0.21089226 0.16739391
00000000: 5afe 7f3e 0d29 3e3f 46ff 8a3f e620 e63e
00000010: f8d1 44be afcb 193f 84ac e13d a589 f03f
00000020: ea69 383e 8ba6 3b3f 2ed3 8c3f 5415 aa3f
00000030: 0979 9d3c bece d3be d50b b23e 4809 f73d
00000040: 03f6 193f f0fc 733f dc74 593f 3538 943f
00000050: 91d8 6d3f cdc8 a93f 17d5 873e 5f0a bd3e
00000060: 631a 9e3f 7e0f 633f 4bab 5f3f 5f60 c03e
00000070: 9c16 a63f 9baf 883f b9fc 603f 77c7 1c3f
00000080: b370 843f 5561 ec3e 4a1b bb3e 5c46 0d3e
00000090: d739 173e c73f 40bd a0b5 f43f 98b6 633f
000000a0: 6ddc ac3d dc64 413f e6f9 003f 7d10 203f
000000b0: ec46 ec3f 2535 763f 3724 513e a453 2e40
000000c0: cdb0 1e3f 23b4 493f adbe ad3e 398a de3e
000000d0: f036 de3e 3f19 473f fbfb 273d 2433 883f
000000e0: 19b2 be3e a90a 263f a7ce 1e3f cc20 8e3f
000000f0: 1648 633f b76b 973f f6c9 053f 29ef 013f
00000100: 394a 293f e7a0 a83e 6494 4b3f 4b8b 503e
00000110: 6ec0 603e 4ba0 863e 1906 5c3e 04d6 383f
00000120: 57ca 81be 2801 233d 1aaa f33e 6450 f23e
00000130: 5a89 f0bd 921b 26bd a294 183e 219a 89be
00000140: c042 443f c2bd 7e3f 2c03 24bf 50f2 053d
00000150: 1041 debd f606 5c3f debf 583e 1543 333f
00000160: 8956 02bf 9479 89bd 4d78 debe 1dd1 e03d
00000170: 564d 9a3f cced cc3e 0a00 0a3f fc37 6b3f
00000180: e94b 223f 54bd 7e3f 4cc7 3e3f 16ed fc3e
00000190: 2efe d03f 9c1c 283f f3be 8d3e 9bcd 613f
000001a0: 6c77 413f b431 883f 1ea4 513f 0dd4 8c3f
000001b0: 034b c83f 54ad 963f 44b5 9b3e 7e06 d33e
000001c0: dcdf ab3f ec06 443f 8e31 a13f 64c6 803f
000001d0: f734 063f 753c 113e d08b 6c3f 9a17 b93f
000001e0: 72f1 48be 6a28 803f 9a08 a83f c275 fc3e
000001f0: 9a1c 86bd cfb2 b33e ee30 903f ac65 ffbc
00000200: ef85 e33e b14e 453f d21d babe afc2 a7be
00000210: 8c00 b1bd fe88 883e 3fd7 cc3f dee0 123f
00000220: 220e 41bf 1e2e fc3e 7bbc 5cbe 39fe 953f
00000230: 179e 143f c67b 183f 2062 d33e 0258 c83f
00000240: b545 873f f0aa 7c3f e86d 813f 48e0 343f
00000250: a530 bd3e f2cc 8f3f 26ca f43d 9bf3 b73f
00000260: 1ca2 8bbe 354f 873f 7566 573f a87a 8c3f
00000270: dd0d 513f 54c8 b83e e1ca 0e3f e515 cbbe
00000280: 0177 273e dca0 953f a98c 04bf 8dd3 06be
00000290: 2962 9abe 56e9 053d f1b5 873f 8cea 233f
000002a0: 60d6 46bf 1af8 6c3f 9353 be3d 67f6 c93e
000002b0: 4d03 3cbf 9d3a a43e 9542 aa3d e5c0 a03e
000002c0: a351 343f eae0 403f 6417 183e 73f5 ed3e
000002d0: d40e 563f 7439 b23f 9c50 873e 850c 363f
000002e0: 6308 003f dc2a 403f 8faa 103f 3e22 543f
000002f0: 4d02 5e3f 420e cb3f 76ed 8d3f 1495 103f
00000300: 402f 2d3f 7b10 2b3f 0031 753f b052 5c3f
00000310: c84a 353f d974 aa3f ee7c 0c3e ce0f 853f
00000320: e1fa 4f3f 81a9 053f c0cb 083f b697 fd3e
00000330: bc46 a53f 1d55 953f dd81 8d3f 6d9c 063f
00000340: 76a6 2b3f e02b ba3f 5156 933e 1915 823e
00000350: a5fd 433f d25f 693f cf8a 2a3f 3bc8 3f3f
00000360: 73c9 903f 79e8 243f afa4 8b3f 6211 6c3f
00000370: 6efa 7a3f 94f5 953f 06ea 663f a835 803f
00000380: bbe4 7b3f befb 963f 87b6 663f 95b3 3e3f
00000390: 7c4e 013f c080 7c3f 5f55 823f 1fbe bd3f
000003a0: 2840 9f3e 49f5 f73e 1791 943f 7fdf 9e3f
000003b0: 42d5 b03f 5781 0640 30db cd3d 2fdf 413f
000003c0: bdff c53e 17cd e13d 1d1d f5bd ed44 0bbe
000003d0: 4e13 0bbe 4274 3b3e 9ba6 b43e 0172 1b3f
000003e0: 2f12 c8be 53d9 423f e26d d7bc c5c1 263e
000003f0: 2eda 983e 3951 5d3e 24f4 573e 4f69 2b3e

se_block_event.1.2.bias f4 [64]
-0.46917397 0.93272394 0.21211234 0.44720817 -0.4075465 -0.11584972 1.0266999 -0.515655
-0.04548362 0.8819719 -0.3915824 0.99648154 1.0660839 1.3162594 0.54806334 0.0035548394
-0.12046896 0.00090299355 0.33204708 -0.20650873 0.836952 -0.027842088 0.42514676 0.4117872
0.12298962 -0.28647757 -0.3600418 0.66001505 1.2836583 0.3308415 -0.470195 -0.15561864
0.47365737 1.2629842 0.13387632 -0.29154173 0.5330413 -0.4647023 1.1379284 1.1722255
0.8423578 -0.41308463 0.2486809 0.87132466 0.73129493 -0.27963609 1.1709431 1.2262025
1.0273814 -0.32452008 0.41252702 0.31085086 -0.13377485 0.26615703 0.3250239 0.15171622
1.1720501 1.3144308 0.44368234 1.605731 0.031907223 0.5014281 1.5853379 -0.23821035
00000000: 9237 f0be ffc6 6e3f fa33 593e 78f8 e43e
00000010: efa9 d0be 9e42 edbd e76a 833f f701 04bf
00000020: 084d 3abd e9c8 613f 7d7d c8be 6a19 7f3f
00000030: 7075 883f 307b a83f e14d 0c3f 4ff8 683b
00000040: 6eb8 f6bd dfb6 6c3a 1302 aa3e 0677 53be
00000050: 7c42 563f 1715 e4bc d6ac d93e c6d5 d23e
00000060: fbe1 fb3d 30ad 92be 6657 b8be bff6 283f
00000070: ea4e a43f 0f64 a93e 66bd f0be 7e5a 1fbe
00000080: 3883 f23e 77a9 a13f e016 093e f544 95be
00000090: 6575 083f 76ed edbe a3a7 913f 7c0b 963f
000000a0: c3a4 573f d47f d3be 35a6 7e3e 220f 5f3f
000000b0: 2536 3b3f 762c 8fbe 77e1 953f 34f4 9c3f
000000c0: 3c81 833f 7f27 a6be be36 d33e d827 9f3e
000000d0: 46fc 08be bc45 883e 8869 a63e 7f5b 1b3e
000000e0: bd05 963f 453f a83f 552a e33e 9888 cd3f
000000f0: 26b1 023d 985d 003f 5aec ca3f 6aed 73be

se_block_event.2.0.weight f4 [16, 64]
-1.1523135 2.0963223 0.3572325 0.52234674 0.101800784 -0.11474588 1.2117807 0.51076084
0.07335796 -0.34619153 -0.013645989 1.0395004 0.6836521 1.0271842 2.0809686 0.13733888
0.2795544 0.5620033 0.0918424 -0.0010709029 1.0058625 0.18619359 -0.30756876 0.65607303
0.56591123 0.22391652 -0.19038664 0.2211169 1.2769544 1.9661788 0.10983935 -0.1729262
0.39009824 1.2658027 1.0235469 -0.17807409 0.021554459 -0.042982053 1.1743149 -0.40249202
0.65850455 0.15309103 0.182979 1.4488173 0.1988881 0.0052556447 1.1616193 1.5451583
1.134567 0.53099144 1.2570926 1.115121 0.31849027 0.018040417 -0.11977805 0.13287082
1.1472105 1.4675292 -0.197959 1.5363429 0.03601034 0.23123755 0.7274595 0.073307686
0.016219782 1.5148617 0.6644951 1.0888333 -0.115127966 0.10760853 0.71245164 0.57874936
0.11041113 0.023432085 -0.20057067 1.3375397 1.7391943 1.0511882 2.0062788 -0.23074974
0.77336276 0.3784495 0.086710736 0.65806663 1.2844601 0.10347934 0.2207173 0.6805469
1.1670742 0.72364885 0.1596119 -0.13475277 1.7088096 1.6958822 0.073096514 0.5123241
0.57185084 1.0152991 0.26489654 0.27825674 0.3421557 0.15401353 0.75701106 0.4237376
0.8517135 0.7027079 0.33001375 0.7099485 0.43086338 -0.09697616 0.3594411 1.3091798
0.9294099 1.0932794 0.70561 1.3855338 0.4592626 -0.019620158 0.39669758 0.07250505
1.9229653 0.44741648 -0.10728907 0.76431334 -0.24372607 -0.0683669 0.7960015 -0.20724681
-0.540854 1.0003926 0.90813404 0.5041249 -0.05365797 -0.16169176 1.1579516 0.9471285
0.25122896 0.015124693 -0.22276384 0.41236705 -0.21491815 0.62823653 0.7133572 0.17801942
0.81649727 -0.072752595 0.071132794 0.24276882 0.4531229 0.07575752 0.00974456 0.3184674
0.2978724 0.6069511 0.061188586 -0.093159854 0.15367351 0.7913602 0.45748544 0.22307871
0.53765035 -0.34277254 -0.11016338 -0.19076817 0.72700155 -0.06603855 0.7380201 0.39450115
0.60691434 0.31820515 -0.08055092 0.5739 0.44321102 0.056435626 0.65703386 0.16865888
0.63960266 0.79764766 0.5230111 0.963741 -0.02191968 0.23632379 0.67126817 0.23672698
0.06461603 0.79897517 0.34254253 0.49749953 -0.15657954 0.06601257 0.33192697 -0.09919121
1.1097025 -1.9803267 0.72261065 -0.42116398 0.22815794 0.7891435 -0.9149074 0.3057038
0.41249388 0.5361285 0.054516695 -1.3721848 -1.2642083 -0.5170014 -0.98167413 0.50905854
0.24405608 1.5923903 0.1901665 0.12320473 -0.6899735 1.7287418 1.0373925 -0.2867737
-0.54124016 1.5664699 0.32061312 0.29914764 -0.5081939 -0.93685603 0.68256897 0.7241754
0.06340419 -0.28397107 -0.14314647 0.78122365 0.41412753 0.21771446 -0.94174826 0.33751592
-0.73994714 0.018924754 0.42016056 -0.5258425 0.6944282 0.2884793 0.0028904253 -0.94587207
-1.0422094 0.4552329 -0.21624044 0.40677983 -0.28517187 -0.07288133 0.13804737 0.38953725
-0.58671325 -0.68580866 1.663065 -1.0988283 0.119760536 2.06562 -0.7827676 0.08185023
00000000: 027f 93bf 252a 0640 2ee7 b63e 84b8 053f
00000010: ee7c d03d e3ff eabd a11b 9b3f 39c1 023f
00000020: b33c 963d 0440 b1be 6d93 5fbc 590e 853f
00000030: d303 2f3f c67a 833f 972e 0540 90a2 0c3e
00000040: c121 8f3e 73df 0f3f de17 bc3d 8a5d 8cba
00000050: 1ac0 803f 88a9 3e3e a779 9dbe 67f4 273f
00000060: 8fdf 103f 5f4a 653e b7f4 42be 786c 623e
00000070: 3e73 a33f bfab fb3f 74f3 e03d 9113 31be
00000080: f5ba c73e d305 a23f 9603 833f 0e59 36be
00000090: fa92 b03c f30d 30bd f34f 963f 6f13 cebe
000000a0: c193 283f e5c3 1c3e d95e 3b3e d872 b93f
000000b0: 52a9 4b3e 8b37 ac3b f1af 943f bfc7 c53f
000000c0: 7e39 913f 0eef 073f 69e8 a03f 49bc 8e3f
000000d0: 2811 a33e 7fc9 933c 324e f5bd 4a0f 083e
000000e0: cbd7 923f ffd7 bb3f c4b5 4abe e2a6 c43f
000000f0: 947f 133d 89c9 6c3e c93a 3a3f 5722 963d
00000100: 59df 843c fde6 c13f 5a1c 2a3f e45e 8b3f
00000110: 36c8 ebbd dc61 dc3d 3b63 363f eb28 143f
00000120: 3b1f e23d a5f4 bf3c 6662 4dbe 8034 ab3f
00000130: eb9d de3f 568d 863f df66 0040 a949 6cbe
00000140: 1afb 453f 22c4 c13e 6695 b13d 0e77 283f
00000150: 3069 a43f faec d33d b703 623e 5238 2e3f
00000160: b062 953f 0d41 393f 4d71 233e a1fc 09be
00000170: 46ba da3f ab12 d93f a0b3 953d ac27 033f
00000180: d164 123f 52f5 813f 85a0 873e ab77 8e3e
00000190: 082f af3e b9b5 1d3e 7acb 413f 22f4 d83e
000001a0: e509 5a3f aae4 333f 90f7 a83e 2fbf 353f
000001b0: 209a dc3e 709b c6bd aa08 b83e 3493 a73f
000001c0: cfed 6d3f 94f0 8b3f dba2 343f 2c59 b13f
000001d0: 7824 eb3e 74ba a0bc f21b cb3e 877d 943d
000001e0: ba23 f63f c613 e53e 5fba dbbd 0aaa 433f
000001f0: 5493 79be f203 8cbd c1c6 4b3f 8238 54be
00000200: 6875 0abf dd0c 803f 797b 683f 540e 013f
00000210: 76c8 5bbd 8692 25be c237 943f 0377 723f
00000220: 15a1 803e 8fcd 773c 341c 64be c621 d33e
00000230: 8113 5cbe 1cd4 203f 949e 363f b94a 363e
00000240: f705 513f 50ff 94bd 12ae 913d 6498 783e
00000250: baff e73e c226 9b3d a6a7 1f3c 290e a33e
00000260: bb82 983e 2661 1b3f e2a0 7a3d 98ca bebd
00000270: 975c 1d3e 9596 4a3f 883b ea3e bf6e 643e
00000280: 74a3 093f e27f afbe 579d e1bd bb58 43be
00000290: c61c 3a3f 383f 87bd e3ee 3c3f 0efc c93e
000002a0: bd5e 1b3f c9eb a23e e1f7 a4bd 1ceb 123f
000002b0: 8eec e23e 0b29 673d 5f33 283f eab4 2c3e
000002c0: 00bd 233f a332 4c3f 0ee4 053f bbb7 763f
000002d0: e790 b3bc ddfe 713e 3bd8 2b3f 8f68 723e
000002e0: 6955 843d a389 4c3f bc61 af3e 42b8 fe3e
000002f0: 6356 20be 9931 873d 55f2 a93e c324 cbbd
00000300: bb0a 8e3f 587b fdbf 03fd 383f cea2 d7be
00000310: 3ca2 693e 4f05 4a3f 5f37 6abf 3585 9c3e
00000320: 6632 d33e b83f 093f e64c 5f3d c0a3 afbf
00000330: 94d1 a1bf 345a 04bf ff4e 7bbf a951 023f
00000340: d6e9 793e 72d3 cb3f 02bb 423e c352 fc3d
00000350: 1aa2 30bf 6947 dd3f 47c9 843f 01d4 92be
00000360: b78e 0abf 1682 c83f 6727 a43e e129 993e
00000370: ff18 02bf ccd5 6fbf d7bc 2e3f 8f63 393f
00000380: 0eda 813d a864 91be fd94 12be 46fe 473f
00000390: 8608 d43e 8af0 5e3e 6a16 71bf e3ce ac3e
000003a0: 2d6d 3dbf 1608 9b3c 491f d73e 9d9d 06bf
000003b0: 0cc6 313f 8fb3 933e 4a6d 3d3b ac24 72bf
000003c0: 1e67 85bf 4914 e93e 226e 5dbe 7245 d03e
000003d0: 0c02 92be cf42 95bd 4a5c 0d3e 6d71 c73e
000003e0: d732 16bf 2891 2fbf 50df d43f 68a6 8cbf
000003f0: 0345 f53d 1e33 0440 7563 48bf 18a1 a73d

se_block_event.2.0.bias f4 [16]
-0.5717428 -1.6707894 -1.0843318 -0.06913765 -0.97368693 -0.6061755 -1.8998644 -0.7983966
-1.3720523 -0.45649454 -1.0553737 -0.5904518 -1.2712123 -0.15688491 -1.1048615 -1.4610318
00000000: bc5d 12bf 6ddc d5bf 62cb 8abf 0a98 8dbd
00000010: 8c43 79bf 512e 1bbf c22e f3bf b863 4cbf
00000020: 699f afbf a7b9 e9be 7c16 87bf d927 17bf
00000030: 16b7 a2bf 70a6 20be 1a6c 8dbf 1703 bbbf

se_block_event.2.2.weight f4 [64, 16]
-0.2615973 0.6807739 0.3116174 0.14179389 0.5711091 -0.09157261 0.8417836 0.5459404
0.36039343 0.5251161 0.19130416 0.21698277 0.8971335 -0.030812247 0.67753625 0.45978683
1.5220064 0.8887249 0.7148313 1.5277818 0.43897697 0.31559795 0.5496504 0.8112802
0.54453146 1.1316855 1.0357403 0.59547764 1.7104208 1.4152719 0.09774945 0.737946
0.92236274 -0.19436148 0.38031003 -0.1426144 0.83070725 0.2078205 -0.5302176 0.016487295
1.0692403 -0.13711199 0.52643037 1.3785696 0.48020965 0.10821396 0.15570389 -0.059621625
0.6991641 0.7276235 0.71640605 -0.066397235 0.6527564 -0.15353936 0.9545552 -0.1660809
0.75041354 -0.12296012 0.50515276 0.79582864 0.826578 0.20553939 -0.09820254 0.8155887
0.017736314 0.9116812 0.26152202 -0.2252988 0.3491023 0.11368203 0.19981645 -0.24824323
0.20941156 1.008095 -0.08084003 -0.04506595 0.25230515 -0.3493381 0.17915693 0.21126446
0.5545787 1.2985674 0.45943496 -0.51989794 0.9975461 -1.1134571 0.250694 -0.7333661
0.76234335 -0.12943217 0.53202266 1.2658404 1.1107333 0.14370365 -0.45558575 0.28687376
1.3038975 0.8694687 0.47242612 0.56854427 0.7673161 0.58966297 0.61277235 1.2497954
0.8025993 1.289618 0.7674561 0.30764198 0.63269365 0.15744758 0.887456 0.8258094
0.44860557 1.259966 1.2555226 -0.16834174 1.5037711 1.5620754 0.9855392 1.078133
1.1270065 1.2060679 0.8513645 0.46688968 0.63353384 -0.30664217 0.67247915 0.91042805
0.5642487 0.85750854 1.2597393 -0.5698497 0.7793971 -0.8198338 0.5850135 0.021768302
0.9989219 -0.17702909 0.20033044 1.1415536 -0.06280725 -0.3442001 -0.21792094 0.15634203
-0.07137096 0.19735128 0.32645738 0.030773044 1.2425672 0.07652232 0.35480648 -0.10999413
0.37995982 1.1859887 0.7124558 -0.073506564 0.48344022 -0.26780596 0.49693516 0.7481685
0.4281572 1.1566691 0.1417226 -0.44927046 0.39121184 0.17414996 0.5529311 -0.20551564
0.32264876 -0.42289707 0.33755204 0.13367188 0.04363171 -0.67229784 0.3455922 0.33764413
1.1802634 0.55135965 0.063124955 0.46174556 0.3198392 -0.20287438 0.37128398 -0.6701923
0.53744423 -0.6401722 -0.1140944 0.3952194 0.54154116 0.5045064 0.3025953 -0.07398471
0.9757986 0.978656 0.7495048 0.77981174 1.1998452 0.4153178 0.6097769 0.5850158
1.3142931 0.9512548 0.46646398 0.50834084 0.8885448 0.5965695 0.065437384 0.9776542
1.4085286 0.51908195 0.3427211 0.8122067 0.9942551 0.27720967 0.29351315 0.543473
0.98334897 0.80995643 1.0161678 0.45966536 1.0907167 0.2725011 -0.087267414 0.56507045
2.4270048 1.2079273 0.8812796 1.7887572 1.3067861 0.52228576 1.1847837 0.68960583
1.0611025 1.2067704 1.7171534 1.2192746 1.2395922 0.91998416 0.35735622 1.185
0.108784854 0.48736444 0.3188555 -0.21910131 -0.3226335 0.34144184 0.11751648 -0.22495762
0.31409675 -0.19888344 0.09794104 -0.25330192 0.29130617 -0.07018682 -0.13995737 0.21494897
00000000: 15f0 85be 3347 2e3f 518c 9f3e 6b32 113e
00000010: 3534 123f 6c8a bbbd 217f 573f c0c2 0b3f
00000020: 7d85 b83e 026e 063f 3de5 433e bb30 5e3e
00000030: 8baa 653f f769 fcbc 0473 2d3f 2e69 eb3e
00000040: 1bd1 c23f 7a83 633f 2fff 363f 5b8e c33f
00000050: 97c1 e03e 0e96 a13e e3b5 0c3f 0fb0 4f3f
00000060: 6a66 0b3f 12db 903f 2393 843f 3971 183f
00000070: 12ef da3f a127 b53f dd30 c83d 07ea 3c3f
00000080: f71f 6c3f b206 47be ffb7 c23e 8209 12be
00000090: 3ba9 543f e6ce 543e 57bc 07bf 5d10 873c
000000a0: dedc 883f 1667 0cbe 24c4 063f f874 b03f
000000b0: 0ade f53e 489f dd3d d770 1f3e ce35 74bd
000000c0: 6bfc 323f 8945 3a3f 6366 373f 46fb 87bd
000000d0: 0b1b 273f 6c39 1dbe bb5d 743f 1d11 2abe
000000e0: 1a1b 403f 84d2 fbbd b151 013f 6dbb 4b3f
000000f0: 9e9a 533f eb78 523e 6a1e c9bd 6cca 503f
00000100: bf4b 913c f063 693f 37e6 853e bbb4 66be
00000110: 89bd b23e 20d2 e83d af9c 4c3e 7933 7ebe
00000120: fc6f 563e 4209 813f 758f a5bd 1397 38bd
00000130: 242e 813e 72dc b2be ea74 373e b655 583e
00000140: dff8 0d3f 7537 a63f 0f3b eb3e 0818 05bf
00000150: 2e5f 7f3f c385 8ebf f75a 803e e1bd 3bbf
00000160: ef28 433f de89 04be a332 083f 0f07 a23f
00000170: 822c 8e3f 0d27 133e 8942 e9be 1ee1 923e
00000180: 1de6 a63f 8095 5e3f d6e1 f13e 1e8c 113f
00000190: d46e 443f 27f4 163f a6de 1c3f 4cf9 9f3f
000001a0: 2677 4d3f 3412 a53f 0178 443f 4083 9d3e
000001b0: 36f8 213f f039 213e 5130 633f 3f68 533f
000001c0: a1af e53e 9146 a13f f7b4 a03f c761 2cbe
000001d0: 927b c03f 16f2 c73f 4c4c 7c3f 4300 8a3f
000001e0: c041 903f 6f60 9a3f 06f3 593f 2a0c ef3e
000001f0: 462f 223f 3400 9dbe 9827 2c3f d011 693f
00000200: 9a72 103f ae85 5b3f 233f a13f ace1 11bf
00000210: 9186 473f a1e0 51bf 72c3 153f 7053 b23c
00000220: 58b9 7f3f 1d47 35be 6c23 4d3e 6e1e 923f
00000230: 16a1 80bd ff3a b0be ab26 5fbe 2018 203e
00000240: f02a 92bd 7416 4a3e 6c25 a73e c017 fc3c
00000250: 710c 9f3f bcb7 9c3d 32a9 b53e 9a44 e1bd
00000260: 188a c23e 7ace 973f 8163 363f 9c8a 96bd
00000270: 7a85 f73e dd1d 89be 496e fe3e f987 3f3f
00000280: 6c37 db3e bc0d 943f bb1f 113e c706 e6be
00000290: eb4c c83e 5e54 323e e48c 0d3f b172 52be
000002a0: 3832 a53e f785 d8be 9fd3 ac3e 48e1 083e
000002b0: 2ab7 323d b61b 2cbf 76f1 b03e b1df ac3e
000002c0: df12 973f e825 0d3f a847 813d ea69 ec3e
000002d0: f7c1 a33e 4dbe 4fbe ef18 be3e b991 2bbf
000002e0: f295 093f 53e2 23bf 53aa e9bd 325a ca3e
000002f0: 71a2 0a3f 5527 013f c5ed 9a3e 4c85 97bd
00000300: f0cd 793f 3389 7a3f 8cdf 3f3f bea1 473f
00000310: 8794 993f 89a4 d43e 571a 1c3f 98c3 153f
00000320: c23a a83f 6f85 733f 5ed4 ee3e a022 023f
00000330: ac77 633f c7b8 183f 0904 863d 8c47 7a3f
00000340: aa4a b43f 8ee2 043f 2479 af3e c7ec 4f3f
00000350: 8187 7e3f 6dee 8d3e 5b47 963e 0c21 0b3f
00000360: c2bc 7b3f 4e59 4f3f c911 823f 4259 eb3e
00000370: 9b9c 8b3f 4485 8b3e 42b9 b2bd 75a8 103f
00000380: 0c54 1b40 5d9d 9a3f 8a9b 613f fff5 e43f
00000390: c444 a73f 85b4 053f fea6 973f 028a 303f
000003a0: 35d2 873f 7477 9a3f afcb db3f 3111 9c3f
000003b0: f5aa 9e3f 1584 6b3f 65f7 b63e 14ae 973f
000003c0: 98ca de3d d587 f93e 0741 a33e 185c 60be
000003d0: 3830 a5be 77d1 ae3e 7bac f03d 4a5b 66be
000003e0: 4ad1 a03e 1aa8 4bbe 5095 c83d cab0 81be
000003f0: 1526 953e 1cbe 8fbd fc50 0fbe 951b 5c3e

se_block_event.2.2.bias f4 [64]
-0.50642693 1.405955 -0.17903891 0.51896435 -0.07238161 0.60600126 0.6839453 -0.1913836
0.27750808 0.7816811 -0.380821 0.84930944 1.065749 0.8434525 1.7946013 0.3384517
0.030162962 0.29675156 0.1549692 -0.40860885 0.6290771 0.3129057 0.32337326 0.63758934
0.59047276 0.69276035 0.09891858 0.6111048 0.81442386 0.9088524 -0.24229153 0.49087968
0.09766748 0.3802618 -0.13104711 -0.03724589 0.19402575 0.14006086 0.9839911 0.95986956
0.4681406 -0.6334198 0.22302283 1.1375792 0.7837036 -0.12554674 0.6644466 1.2436771
1.0064747 -0.07736177 0.31526035 0.004201107 -0.21152753 0.034190588 0.48782405 0.07089471
0.61320025 0.5437633 -0.006913031 1.0464234 0.3086683 -0.13175271 0.99156874 -0.035384424
00000000: 32a5 01bf 55f6 b33f fa55 37be d9da 043f
00000010: cf3c 94bd e622 1b3f 0a17 2f3f 10fa 43be
00000020: 8a15 8e3e 411c 483f f8fa c2be 586c 593f
00000030: 776a 883f 81ec 573f 7fb5 e53f 8b49 ad3e
00000040: 5118 f73c d2ef 973e 3fb0 1e3e 2e35 d1be
00000050: 320b 213f 2d35 a03e 2e91 a53e 0e39 233f
00000060: 3929 173f be58 313f d395 ca3d 5d71 1c3f
00000070: 157e 503f 8daa 683f 451b 78be 9554 fb3e
00000080: e305 c83d adb1 c23e 3731 06be 258f 18bd
00000090: b0ae 463e 1d6c 0f3e d7e6 7b3f 03ba 753f
000000a0: 20b0 ef3e cd27 22bf 1960 643e 329c 913f
000000b0: cda0 483f 538f 00be 2c19 2a3f d030 9f3f
000000c0: 2ad4 803f d96f 9ebd ce69 a13e 71a9 893b
000000d0: ac9a 58be 6e0b 0c3d 13c4 f93e 3f31 913d
000000e0: b1fa 1c3f 1234 0b3f b586 e2bb 34f1 853f
000000f0: c509 9e3e 2fea 06be 73d7 7d3f 42ef 10bd
