data/parameters/deephit_model_feature_SE.pth (torch, 189597 bytes, 37 tensors)

se_block.0.weight f4 [4, 17]
00000000: 04c4 3cbe 189d d7bc 4098 263d ee29 b7bd
00000010: c018 cabb 0408 34bd 8008 2c3d eec3 8fbd
00000020: 6007 683c 0c29 bd3d e86f 93bd 201f e3bb
00000030: 0a1c 9bbd cc7d 9d3d b030 343d 96e5 8bbd
00000040: 80e3 383e 00b5 523b 4c99 273e 9c0e 00be
00000050: 842f 94bd b870 34be e223 adbd fa59 10be
00000060: 9071 10bd 964e 3ebe 5499 99bd 4cca ec3d
00000070: a3b1 3abe 38c0 42be 3071 39bc b0e8 b83d
00000080: c8ca adbc 5089 7fbd 67b1 40be 60f9 19bc
00000090: 4216 1d3e 4091 0dbc 007c a53d acee 91bd
000000a0: 3442 b73d b0aa 723d 7420 4abd 6ac1 bebd
000000b0: 700a a8bd 6810 35bd 30e0 733e 1eea 1b3e
000000c0: 3ccc 573e 6b24 75be b081 ab3c a4db 293e
000000d0: 6638 d1bd 30c7 59bc cea6 d8bd 458d 3fbe
000000e0: 90fc 18bd beb5 0f3e 00d5 71be 4644 573e
000000f0: ce98 0bbe 4c8c 383e 1cba c33d 3a46 273e
00000100: 08d5 a3bc 2e9e 2cbe 68d8 a53d 6857 013e
-0.18434149 -0.026320025 0.04067254 -0.08943544 -0.006167501 -0.043952957 0.042000294 -0.070197925
0.014161915 0.09236345 -0.07199079 -0.0069312006 -0.075737074 0.076900095 0.043991745 -0.068308994
0.18055534 0.0032151341 0.16367072 -0.12505573 -0.072356254 -0.17621124 -0.0845411 -0.14096823
-0.03526455 -0.18584666 -0.07499948 0.115620226 -0.18231826 -0.19018638 -0.01131849 0.090287566
-0.021214858 -0.06238681 -0.18817674 -0.009397835 0.15340522 -0.008640587 0.08080292 -0.07125601
0.08948174 0.05924481 -0.049347356 -0.093142346 -0.08205116 -0.0442051 0.2381599 0.15226027
0.21074003 -0.23939674 0.020935863 0.16587692 -0.10215835 -0.013292119 -0.105786905 -0.18706234
-0.037350237 0.14034173 -0.2361641 0.21022138 -0.13632509 0.18022269 0.09556982 0.16335383
-0.019999042 -0.16857216 0.08097917 0.12630999

se_block.0.bias f4 [4]
00000000: f00c a83c 8020 733d 1658 43be 66f7 eabd
0.020513982 0.059357166 -0.19076571 -0.11472969

se_block.2.weight f4 [17, 4]
00000000: ec2f e4be 687d f03e 601f 333e 3410 c23e
00000010: 7c30 07be 94c1 08be a8fe fdbd d463 073e
00000020: 18c4 473e 8014 a7be b82c 61be 1a4d 8dbe
00000030: 9a9d aabe e0ba d53e d868 8abd 0cb4 f9be
00000040: d07f 22bd 9c95 b7be 0054 783b 803e e5bd
00000050: 90ab 9b3e 4474 f2be 4c88 24be 346a 0dbe
00000060: c435 03be aca1 11be 2071 a0bd 403f b63e
00000070: 04a9 c13e e0a0 d33d 9875 eabe 18be a7bd
00000080: cc00 e23e aa1e f03e d004 913e 107a 2d3d
00000090: 7016 923d a444 bfbe f024 fb3d 548b 1fbe
000000a0: 00f6 2e3d fc77 373e 6034 dd3d 9e5c b03e
000000b0: 5ceb 77be 4801 e7bd 7010 b93d 28d9 edbe
000000c0: ba41 9b3e 523e de3e 628a 94be a89b d83d
000000d0: 6034 8ebc e0b3 5a3e 5606 8dbe a891 4dbe
000000e0: 00fe 5abd f058 7d3d 324e 9abe 38b3 c6be
000000f0: 0843 a03e 2cb5 70be 402a cfbe b8b3 b6bd
00000100: 9c41 df3e 422e f03e e4a8 bebe 22c9 bf3e
-0.4456781 0.46970677 0.17492437 0.37902987 -0.13202089 -0.13355094 -0.124020875 0.13221675
0.19508398 -0.32632828 -0.21989715 -0.27597886 -0.33323365 0.41744137 -0.067582786 -0.48770177
-0.039672673 -0.3585633 0.0037891865 -0.111935616 0.3040433 -0.4735433 -0.16067618 -0.13810045
-0.12813479 -0.14221829 -0.07834077 0.3559513 0.3782426 0.10333419 -0.45792842 -0.081905544
0.44141233 0.46898395 0.28323984 0.042352736 0.07133186 -0.37357056 0.12262905 -0.15580493
0.042715073 0.17916864 0.10801005 0.3444566 -0.24210876 -0.11279541 0.09036338 -0.4645474
0.30323583 0.43406922 -0.29011828 0.10576564 -0.017358959 0.2135768 -0.27543896 -0.20075095
-0.05346489 0.061852396 -0.30137783 -0.38808608 0.3130114 -0.23506612 -0.40461922 -0.089209974
0.43604743 0.46910292 -0.37238228 0.3745814

se_block.2.bias f4 [17]
00000000: bcb4 c33e 2e52 bd3e da77 d13e eca1 d53e
00000010: a057 c1bd bc08 4f3e d207 a8be 442f d2be
00000020: bc7c 2bbe 5e76 8cbe b029 123d 54c4 c23e
00000030: 243b cb3e a439 39be 0459 e6be 6850 68be
00000040: a0d4 05bd
0.38223827 0.3697676 0.40911752 0.417251 -0.09440541 0.20218176 -0.32818466 -0.41051686
-0.16746801 -0.27434057 0.035684288 0.3804041 0.39693558 -0.18088394 -0.4498979 -0.22686923
-0.032673478

se_block_event.0.0.weight f4 [16, 64]
00000000: 08f1 c0bc 2208 85bd 782d d63c 0c3c 673d
00000010: e828 263d 081f 18bd cc53 fbbd 08d3 e63c
00000020: a637 d13d ae19 b93d 1e4b b53d dca8 8c3d
00000030: b08b c2bd 6815 9dbc c098 d63d 4a04 b03d
00000040: 2070 8f3c 50a7 22bd 9eaf ecbd f6ca c6bd
00000050: c255 f13d c8a8 e63c 5874 8a3c f8f7 67bd
00000060: f48f f2bd 04f3 683d 5c4b 4cbd 2837 da3c
00000070: 207d edbb 20a5 59bc e470 313d f8d6 8fbc
00000080: fcdc c63d 1e3e ce3d 0068 e838 e8c6 613d
00000090: 9071 51bc c0f8 00bb 0ec5 b4bd 5a88 cf3d
000000a0: 904d 13bd d826 f3bc 50a5 9ebc c04a dbbb
000000b0: 42d8 f83d 6030 2d3c a859 f23d 50a4 2a3c
000000c0: ec30 043d e426 e43d ae90 e83d f474 f0bd
000000d0: 4c5a 563d 121a c8bd 8c76 493d e489 8abd
000000e0: 6074 bfbc e605 993d 46a1 f5bd cef0 9dbd
000000f0: 6802 aabc 00c8 6f3a bcaf f23d e4a2 56bd
00000100: 24af e53d 340c 06bd 846e e6bd 301d 863d
00000110: e058 9f3d 7016 fd3c ee41 ecbd 30fd 9e3c
00000120: 5cce 613d 00ef fc3a a6d9 f8bd 78ae d03d
00000130: 70b3 563c 6048 73bc 8c10 e0bd e06c f03b
00000140: f455 54bd d6dc cb3d 809f 32bd e0d9 c73c
00000150: 886a f5bc eccd f03d c01b cebb 6049 8a3c
00000160: be80 a53d 6c2f 38bd ca6f aebd f842 2fbd
00000170: d8bf 65bd 0085 aebd f8b2 de3d f4d0 e13d
00000180: b644 b9bd 481d 82bd 20fd e03c ecac e8bd
00000190: 506b bb3d 1088 a33d d847 bf3d 1082 eebc
000001a0: e20d c3bd e0b3 0ebc a850 a73d 8c21 4cbd
000001b0: c831 9e3d 60a7 4c3c 189c e6bd 52a3 ccbd
000001c0: 3c02 ff3d 54ca 87bd 28e9 c0bc 0c8a 15bd
000001d0: c89b f2bd 48ed d4bd 4007 2ebc d8e4 59bd
000001e0: 0059 bd3b 20a9 f83d 8052 283b 207b d0bd
000001f0: a09c adbd caac b03d 4039 e7bb 5ca3 07bd
00000200: 1025 6abc a041 2abc 9086 fdbd ee29 fe3d
00000210: 9874 4a3d 20e9 8bbd 3077 f1bd 6ca0 4b3d
00000220: 8085 fb3d 0834 be3c 98b2 e23d 7005 c33d
00000230: d860 103d 7011 6abd e0a4 0bbd 68b9 c4bd
00000240: 0e3a 923d 7a76 c13d 9e10 a2bd 0066 a33a
00000250: 7867 903d 940e 6abd b0b6 64bc b8c9 d93d
00000260: 1898 c1bd a8f1 843c 84b7 f0bd ecc8 0e3d
00000270: 78e1 98bd 6035 afbd 660c bbbd 401b 003c
00000280: 0c77 553d 089e 1c3d a882 58bd 7eb1 ed3d
00000290: de32 e73d e4e0 42bd 8086 dc3d d830 bbbc
000002a0: 96bc febd 4403 54bd 7a3b b4bd 1421 32bd
000002b0: 6065 37bc 60f8 a0bb 62d9 cdbd e800 303d
000002c0: 1c75 18bd 9c7a 0f3d cccb 70bd 0cf8 013d
000002d0: 60bf fdbc 7494 b33d 7c08 78bd 449e fc3d
000002e0: 4a1f e73d 2c86 2b3d 685a 9ebc ac94 40bd
000002f0: 10f3 ddbd b898 49bd b662 aabd c65f e93d
00000300: ce6e eabd 80b3 f03b 34b7 98bd 905c e8bc
00000310: 5cf8 78bd d0c2 27bc 08b2 56bd c063 43bc
00000320: f0ba f23d f087 a1bc eea2 d4bd 28e5 fbbc
00000330: 404b 8e3c 1c08 a9bd 70f3 70bc aec1 943d
00000340: f816 5d3d 402a a2bd 80cc 2dbc e810 6a3d
00000350: 5806 953c e4af 063d 7a92 f93d 18cd 273d
00000360: c06c 1ebb 2063 cabd 44c1 7ebd 8e63 98bd
00000370: f48e ee3d 6c07 46bd d23e f7bd 1469 cabd
00000380: 6026 b23d 6835 9bbd a472 15bd 8610 973d
00000390: be72 81bd 4076 a4bb 2069 133d cc64 e53d
000003a0: 0cd3 283d 74b1 c8bd 447c 5b3d 64aa 2c3d
000003b0: a8ce 493d 70bd 66bd 7600 e43d 4075 39bc
000003c0: b2f4 dc3d 80d2 b23b 30db 483c 829a ea3d
000003d0: bae8 803d 280b 093d 40c7 cebd b82d 503d
000003e0: e84b eb3c b8a4 e0bd a0cf fd3d 68c3 b33c
000003f0: 2e9e 9c3d 58c2 09bd 0436 21bd 0026 ebbb
-0.023552433 -0.06495692 0.026144728 0.05645375 0.040566355 -0.03713897 -0.12271842 0.0281768
0.10215692 0.09038101 0.08852218 0.06868145 -0.094992995 -0.019175246 0.104783535 0.08594568
0.01750952 -0.039710343 -0.11556934 -0.097066805 0.11783935 0.028156653 0.01690118 -0.056632966
-0.11843863 0.056872383 -0.049876556 0.026637629 -0.007247582 -0.013283998 0.04332055 -0.01755856
0.09710118 0.10070442 0.000110819936 0.055121332 -0.012783423 -0.0019679517 -0.08826648 0.10133429
-0.03596264 -0.029681608 -0.019365937 -0.0066922605 0.12150623 0.0105706155 0.11833507 0.010415152
0.032273218 0.1114023 0.113557205 -0.11741057 0.052332208 -0.097705975 0.04918532 -0.06764582
-0.023370922 0.07471828 -0.11993651 -0.077119455 -0.0207531 0.0009146929 0.11849925 -0.05240144
0.11215046 -0.03272648 -0.11251548 0.06548536 0.077806234 0.030894488 -0.115360126 0.019407839
0.05512844 0.0019297302 -0.12150888 0.10189527 0.013104305 -0.0148487985 -0.10940656 0.0073371977
-0.051839784 0.099542305 -0.043609142 0.024395883 -0.029958025 0.117580265 -0.006289929 0.016880691
0.08081196 -0.0449671 -0.08517416 -0.042788476 -0.05609116 -0.085214615 0.10873979 0.11026183
-0.09046309 -0.06353241 0.02746445 -0.11361107 0.091513276 0.07984936 0.09339875 -0.029114753
-0.09524132 -0.008709878 0.08169681 -0.04983668 0.07724339 0.012491077 -0.11260241 -0.099920884
0.12451598 -0.06630388 -0.023548678 -0.036508605 -0.11846119 -0.1039682 -0.010621846 -0.053196758
0.005778432 0.12141633 0.002568394 -0.10179734 -0.084771395 0.08626707 -0.0070563853 -0.033114776
-0.014291063 -0.010391623 -0.123791814 0.12410341 0.0494276 -0.068315744 -0.11790311 0.049713537
0.122813225 0.02321817 0.1106922 0.095225215 0.035248607 -0.057145536 -0.034092784 -0.09605676
0.07139979 0.09446426 -0.07913326 0.0012466311 0.07050985 -0.05714281 -0.013959572 0.10634178
-0.09452838 0.016228512 -0.11753753 0.034859583 -0.0746488 -0.08555102 -0.09133224 0.007818997
0.052115485 0.038236648 -0.05285898 0.116061196 0.11288999 -0.047577754 0.10767841 -0.022850439
-0.12438314 -0.051760927 -0.08800407 -0.043488577 -0.011193603 -0.004912421 -0.10051228 0.042969614
-0.03722106 0.03502904 -0.058788106 0.031730697 -0.030975044 0.087685496 -0.060554966 0.12334874
0.11285265 0.041876003 -0.019330218 -0.047016785 -0.10837376 -0.04921791 -0.08319609 0.113952205
-0.114469156 0.007345617 -0.07456818 -0.02836445 -0.06078373 -0.010239318 -0.052415878 -0.011925638
0.11852062 -0.01971814 -0.10382639 -0.030748919 0.017369866 -0.082535 -0.0147064775 0.07263504
0.053976983 -0.07918215 -0.010607839 0.05714503 0.018191501 0.032882586 0.12186141 0.040967077
-0.0024173707 -0.09882188 -0.06219603 -0.074408635 0.1164836 -0.04834692 -0.12072529 -0.09883323
0.08698726 -0.07578546 -0.036486283 0.073761985 -0.063207135 -0.0050189793 0.035988927 0.11200866
0.041216895 -0.097994715 0.053585306 0.042154685 0.04926935 -0.056333005 0.111329004 -0.0113194585
0.107888594 0.0054572225 0.01225929 0.11455251 0.06294389 0.033457905 -0.10096598 0.05082485
0.028722718 -0.109689176 0.12393117 0.021943763 0.07647358 -0.033632606 -0.039358154 -0.007176161

se_block_event.0.0.bias f4 [16]
00000000: 1898 aabc 242e 7abd 4053 0c3c e0bb f83d
00000010: 6088 5abc 9a63 ccbd 6e98 8bbd 40a4 1cbd
00000020: 9c4a 26bd ec8e bc3d 803c 533b e885 28bd
00000030: 48fc e13c 6002 1c3c 66a5 f5bd 14a1 773d
-0.020824477 -0.06107916 0.00856477 0.12145209 -0.013338178 -0.09979935 -0.06816183 -0.03824258
-0.040598497 0.09206948 0.0032232106 -0.041143328 0.027586117 0.009522051 -0.11994438 0.06045635

se_block_event.0.2.weight f4 [64, 16]
00000000: d818 38be e0e3 8bbd c04c 2e3d 0876 263e
00000010: 48dd 7fbd 7e10 2a3e 48cc 813d e604 063e
00000020: 30c9 74bd fa7f 103e 20eb 08bd 98ba 0f3d
00000030: 049e c73d 3243 49be 7abb 5dbe 00a5 5f3b
00000040: 1cbb 19be ecfe 9e3d cc2d 453e 728b 0b3e
00000050: c6d9 153e 66bc 3d3e 002f fabc f4c6 333e
00000060: c036 db3c 94f2 a93d fc34 d6bd 1ccc 713e
00000070: 58fb 48bd c05d ea3d d00a 14bd 8c3b 8abd
00000080: eaaf 4e3e 001c 2c3e f4e3 4c3e d8ad 8abd
00000090: 40da e93c 6e4c 70be 9cfa a93d 0c43 6ebe
000000a0: 088e 9f3d 1c4e 59be e6dd 113e fc75 313e
000000b0: 64b6 513e 505c 883c 4054 923c 0090 a13c
000000c0: e082 26be 9453 06be 3014 e3bd c8d7 713e
000000d0: f60d 76be c47d abbd f87e 4ebe 92d9 0cbe
000000e0: 08af 003d e073 b23d 3c37 ac3d 247c 023e
000000f0: 50d6 9ebd c8dc 40bd 90fd 39bd 98fd c73d
00000100: 78b6 7e3e e024 f7bd 94e3 0b3e a4e0 ff3d
00000110: 5c3f 513e 640f aabd 0462 1a3e b653 683e
00000120: 4477 433e 7004 013d 441b c93d 4c3a 72be
00000130: 9244 36be d06c 0dbe 2817 4dbd 4ced a0bd
00000140: 3445 60be 8c69 363e 8c0c c83d c087 c7bc
00000150: 64ba 4bbe 2079 72be 60a8 5cbd e0d9 393e
00000160: 94e5 2dbe 9860 3e3e 34be 7d3e 0c1d 7cbe
00000170: 2ee1 553e e83a 663e 9040 f83d 188b 77be
00000180: d459 ef3d 180f 27bd 189c be3d f8d6 463d
00000190: 02db 60be 003c 2f3d d089 b23d 40bb 50be
000001a0: 5261 6e3e 1ed1 273e 3439 5e3e 9898 11be
000001b0: c0d2 883d d0f1 bbbc 68b2 6b3d 08fb 7abd
000001c0: 581e 2dbe 5069 c5bc c058 333d f0ef 6cbd
000001d0: 6094 6ebd ac48 79be 00e7 64be 90bf 1e3d
000001e0: 2cd4 bb3d dcb4 ab3d 00e6 0c3b d466 a43d
000001f0: e4ef 13be fc93 1ebe 8c35 c3bd 74d0 0cbe
00000200: 8073 b3bd 709d 69be 18c3 b13d c0c9 e13c
00000210: d21c 273e 8297 24be 1887 bc3d fcb7 c8bd
00000220: 4ead 5ebe 945f 043e 705e 6fbe a856 39be
00000230: 720f 3c3e 1872 35bd 98cd dc3d cc2d e03d
00000240: 9c74 babd d40f 45be ccbb 21be 7c88 6abe
00000250: 9857 a2bd 80ce 28bc 005d 8a3c f275 113e
00000260: 301c a8bd acf6 0f3e 00d2 d1bb 485b 143d
00000270: 0854 2dbe 606f 78bc 54c3 9f3d 32d4 263e
00000280: 4cbd 6ebe f09f dabd 02a0 37be f008 0c3d
00000290: 6cf0 f5bd c47f c33d e844 6ebd 54f5 c83d
000002a0: 300c 00be ec81 67be bec8 2b3e 440f 60be
000002b0: 04c2 0a3e 863d 633e a02f 8ebd 2e42 3d3e
000002c0: dac9 2bbe 405c 6b3c d4cb 873d a28a 3e3e
000002d0: 04da c0bd ecec 12be 0881 413d a4d7 393e
000002e0: aab7 203e 8223 5bbe f48d 693e f85e 983d
000002f0: 802b 013d 60c1 363d c47f 6dbe fc99 06be
00000300: bef8 0ebe bc62 eb3d 3e8f 303e 7276 583e
00000310: 8ed8 193e 48d6 2bbe e0b9 e83c 60bb da3c
00000320: 52e8 6ebe 404c 54be 10cc 553e b080 cb3d
00000330: 8060 68bb 8e83 243e 480e 3e3d 3885 ee3d
00000340: 2c5c 07be aa8d 4e3e 00b1 603d 8836 1b3e
00000350: 4810 be3d 6419 513e b060 753e ace9 793e
00000360: 3c4c 9ebd 18a0 f8bd 688b abbd a87c 62be
00000370: c4ab b8bd 6c8d d0bd 6891 eabd c8ce 603d
00000380: 505f 8ebc 54fb 02be a04f 013c 8449 3d3e
00000390: 10da c8bc 6ccc a03d f8b6 d63d b05f 6a3e
000003a0: 08b7 d73d bcf9 0b3e b0c9 17be 28ff 25be
000003b0: 208a 6b3e 6867 673d 0081 e93b 9860 1a3e
000003c0: cc8e 87bd d289 3dbe b06b 863c ecc6 84bd
000003d0: f640 393e 90be 503d e266 44be 0c67 b53d
000003e0: 2c84 a1bd b693 33be a431 d0bd e46e bbbd
000003f0: ca15 26be c0a4 83bc 149f 463e e804 99bd
-0.17978227 -0.06830573 0.042553663 0.16255963 -0.06246689 0.16607854 0.06337792 0.13087806
-0.05976218 0.14111319 -0.033427358 0.03509006 0.09746936 -0.19654539 -0.21653548 0.0034125447
-0.15012783 0.07763466 0.19255751 0.13627413 0.14633855 0.185289 -0.03053999 0.17556363
0.026759505 0.08298221 -0.10459325 0.23613018 -0.049067825 0.11443663 -0.036143124 -0.06749639
0.20184293 0.16807556 0.20008832 -0.06771439 0.028546453 -0.23466656 0.08299753 -0.23267764
0.07790762 -0.21221203 0.14244804 0.17330164 0.20479733 0.01664558 0.01786244 0.019721985
-0.16260862 -0.1311782 -0.11087835 0.2361747 -0.24028763 -0.08373597 -0.20165622 -0.13754871
0.031416923 0.08713508 0.084089726 0.12742668 -0.077557206 -0.047085553 -0.04540783 0.09765166
0.24874294 -0.1206758 0.13661033 0.12494019 0.20434326 -0.08303717 0.15076452 0.22688183
0.19088465 0.031498373 0.09819654 -0.23655051 -0.17799595 -0.1381104 -0.05007091 -0.07857761
-0.21901399 0.178137 0.09768018 -0.024356723 -0.19895321 -0.23679018 -0.053871512 0.18149519
-0.16982108 0.18591535 0.24779588 -0.24620456 0.2088668 0.22483408 0.12121689 -0.24174154
0.11687055 -0.04078588 0.09307116 0.048544854 -0.21958545 0.04278183 0.08717692 -0.2038393
0.23279312 0.16388366 0.21701509 -0.14218366 0.06680822 -0.022942454 0.05754319 -0.06127456
-0.16906106 -0.024098068 0.04378581 -0.05784601 -0.05824697 -0.24344128 -0.22353745 0.038756907
0.09171328 0.083841056 0.0021499395 0.080274254 -0.1444698 -0.15486139 -0.09531698 -0.13751394
-0.08762264 -0.22813964 0.08679789 0.027562022 0.16319588 -0.1607342 0.092054546 -0.09800717
-0.21745798 0.12927085 -0.23375869 -0.18099463 0.18365267 -0.04429826 0.107814014 0.10946235
-0.09104273 -0.19244319 -0.15794295 -0.22903627 -0.079268634 -0.01030314 0.016890049 0.14205149
-0.08208501 0.14058942 -0.006403208 0.036219865 -0.16926587 -0.015163273 0.07800928 0.16291884
-0.23314399 -0.10675037 -0.17932132 0.03418821 -0.120087475 0.09545854 -0.058171183 0.098124176
-0.12504649 -0.22608155 0.16775796 -0.21880823 0.13550574 0.22191438 -0.069426775 0.18482277
-0.16776219 0.014365256 0.06630674 0.18607572 -0.09416583 -0.14348191 0.047242194 0.18148667
0.15695062 -0.21400264 0.22808057 0.07439989 0.031535625 0.04461801 -0.2319327 -0.13144678
-0.13962075 0.114934415 0.17242143 0.21138933 0.15024015 -0.1678096 0.028408945 0.026700675
-0.2333081 -0.20732212 0.20878625 0.099366546 -0.003545791 0.16065809 0.04640034 0.11646503
-0.13218755 0.20171228 0.0548563 0.15157521 0.09280449 0.20419842 0.23962665 0.24405545
-0.07729384 -0.121399105 -0.08376199 -0.22117865 -0.09017137 -0.10183224 -0.11453515 0.054884702
-0.017379433 -0.12791187 0.007892519 0.18485075 -0.024518043 0.078514904 0.10484117 0.22888064
0.10532957 0.13669485 -0.14823031 -0.16210616 0.2300191 0.0564951 0.0071259737 0.1507591
-0.06619033 -0.18509606 0.016408771 -0.06483254 0.18091187 0.050962985 -0.19179872 0.08857545
-0.07886538 -0.17536816 -0.10165718 -0.0915201 -0.1621925 -0.01606977 0.19396621 -0.07471639

se_block_event.0.2.bias f4 [64]
00000000: 8646 48be 38fb e9bd a209 4d3e a8c7 a63d
00000010: 94f9 643e 74c1 fd3d 285b dc3d 2461 7fbe
00000020: 1015 fabd 92a4 00be 3c3f 8abd 406f 5f3d
00000030: cafc 3cbe 101b 213e c4c8 30be a0ee 3d3d
00000040: e0c9 0fbc 9a76 1d3e 144c 8cbd 98fc c0bd
00000050: f08c 6bbe 6672 28be da42 57be 70d4 513e
00000060: 6862 043e a647 7c3e 2cb1 84bd 70b6 a63d
00000070: 5888 cf3d 7465 acbd 80ea 34be 80fd c83b
00000080: d0ae 73be a0b6 00be 9ed8 73be 78ac 37bd
00000090: 70af 38bd acff d2bd fcfb b63d acd5 873d
000000a0: fc07 8e3d bc1c 45be 9039 313d 1045 143e
000000b0: e06f de3c 1063 d6bd 44a3 273e e42f cdbd
000000c0: 2c2c 51be 3e73 73be 6efc 22be b89a d2bd
000000d0: 8cff 14be 0cc4 503e 285a 6a3e 001f 9e3d
000000e0: 8e68 483e 7e96 283e e097 033e 7044 ae3d
000000f0: 909b c23c d86a de3d 76d2 0bbe 2e6e 133e
-0.19558153 -0.11424869 0.20023206 0.0814355 0.22360831 0.12390414 0.10759574 -0.249394
-0.122110486 -0.12562779 -0.06750342 0.054549456 -0.18455806 0.1573298 -0.17264086 0.04637015
-0.008776158 0.15377274 -0.06850448 -0.094231784 -0.23002982 -0.1644989 -0.21021596 0.20491195
0.12928164 0.24636707 -0.06479105 0.08140266 0.101334274 -0.08417788 -0.1766758 0.006133735
-0.23797154 -0.12569666 -0.23813102 -0.044842213 -0.045089185 -0.10302672 0.08934781 0.066325516
0.06935117 -0.19249243 0.043267787 0.1447947 0.027152956 -0.104681134 0.16370875 -0.100189
-0.20427006 -0.2377443 -0.15916607 -0.102834165 -0.14550608 0.20387286 0.22885954 0.077207565
0.19571134 0.16463658 0.12850904 0.08509147 0.023755819 0.108602226 -0.13654503 0.14397499

se_block_event.1.0.weight f4 [16, 64]
00000000: 8477 dbbd d0e2 a8bd c027 da3c 8c4d 003d
00000010: 4005 f2bd 12f6 e53d 2076 27bc 0845 323d
00000020: dc3d dcbd 4e61 fd3d b806 8d3c 7c91 37bd
00000030: 20cc 843b eee8 f4bd e0b0 ebbb 5827 a43d
00000040: ccbb 13bd a0dd a13d e4d6 c83d 6016 013c
00000050: 344c 413d 38c9 a8bc 9c13 893d 403a 5b3b
00000060: 68be aebd 586d f1bd 96a8 e83d ecda 623d
00000070: f4cd 31bd 88c2 38bd bc3a 7c3d 6684 c93d
00000080: 9e8a b43d d030 3a3d 28ec 52bd 00ec 2fbd
00000090: 4a7e cd3d f0d8 f7bc 4a35 9dbd f46e 373d
000000a0: 6acb b7bd eeb4 ed3d 7805 233d 34cc b2bd
000000b0: 0835 ce3c 7c26 283d 689f 8bbc 909d f13d
000000c0: 08b1 debc c082 533c f413 ddbd 40ab ef3d
000000d0: 88d8 bdbd e033 f53c 2a46 813d f8c0 d8bc
000000e0: 3889 803c 768f c43d b6d3 b23d f04c 5e3c
000000f0: 909d 713c 80bb 863c 30af 933c e8d9 20bd
00000100: c0db 003d 0007 78ba 44e9 013d 9ea0 883d
00000110: e87d e9bd 58c7 ae3c dc38 463d 403d 453b
00000120: ee6b 903d 94d3 a4bd 6071 c53c 86b5 aa3d
00000130: 0c5e 373d 325f e2bd b627 93bd 1ade d93d
00000140: 0013 abbc 4c91 d6bd f28b 9bbd e83c bcbd
00000150: fc51 a0bd a06b 5ebc 20c3 35bc 1a67 a43d
00000160: 1ce4 ff3d 9008 1f3c 123b ca3d 8416 163d
00000170: b636 ecbd 1e65 cebd b0ba 973d 2434 b3bd
00000180: 0c37 a33d a6bb a93d cc9f cfbd c4f9 79bd
00000190: c6d1 ff3d 6608 b9bd 1403 fa3d 9e19 f3bd
000001a0: 0cb9 983d 3ed2 e7bd 3c8b d5bd 36a2 ac3d
000001b0: c08b e9bc fc1f ebbd 5054 af3c 4c4e 0d3d
000001c0: deb4 c93d 5446 65bd da73 b7bd a0cb 9abd
000001d0: f0b7 093c 08aa 30bd ca59 af3d 1071 4bbc
000001e0: 4802 1f3d e0f6 8fbb 2ca7 72bd 5eab 9d3d
000001f0: 9eca debd 7ae3 84bd 38d5 173d 90df 533d
00000200: 92df fc3d aee8 cabd a058 ac3c 60e3 d33b
00000210: 4442 43bd de1f e83d 9889 a53d 1476 67bd
00000220: 96e8 a83d a077 893d e00b 1fbc c037 bc3d
00000230: b4bc e2bd 86e7 f13d 0c4b 6dbd 9237 e73d
00000240: 12e6 97bd 60d7 793c 3c1a 40bd d0a3 c23d
00000250: 0e29 8dbd 5cfe 9dbd e04d 45bc 68c6 ad3d
00000260: 1aa0 d63d cc7c 7e3d 90fa 7f3d 20e5 a8bc
00000270: 4c2d 55bd 2040 b63d 340b 7cbd c0ef c7bd
00000280: 40b2 613b 90f5 483c 7008 f1bc 4080 863d
00000290: 2077 4cbd fcda 77bd a8ed d9bd f8b9 d2bd
000002a0: 4e82 923d d0c5 933c ce17 c03d eab7 d33d
000002b0: d01f a0bd 9cbb aabd 3c6d 783d 247e ef3d
000002c0: ee4f e13d 0c21 56bd c048 da3b b4b2 723d
000002d0: b4e5 5fbd 409c 0c3d 2442 efbd 587d a13d
000002e0: 9264 c5bd a09b 193c 206f 8ebd d079 773d
000002f0: c4c8 bdbd 7aaa a6bd a80f d03d dac6 fb3d
00000300: 3c93 47bd 3473 bb3d 2268 b1bd 740b ccbd
00000310: 380c 2c3d e0cf 363c c89a d13c a4e7 c53d
00000320: 98dc 3dbd 4eb8 863d 84dc 563d 28fb 9bbd
00000330: e46f 93bd 402a 053d 36fb cd3d 28f4 c63d
00000340: ac26 2fbd 18cb 953c aa83 cbbd 8017 993d
00000350: fe0a b7bd 0091 933b 98b4 c3bd 1435 a53d
00000360: d02d 74bc 80ee 8e3a c0cc 8dbb a024 f4bd
00000370: 64b4 51bd 20db 4c3c 0870 e93d 84c4 81bd
00000380: 5004 743c 68ff 61bd 5c45 91bd 601d 85bc
00000390: 1000 443d f04e aebd b045 d13d 804f db3b
000003a0: 9011 6cbd 0e86 ff3d 3c59 85bd 14d7 72bd
000003b0: e2a9 fc3d c899 b03d 50e3 fb3d c026 dfbc
000003c0: 18f0 f2bd 4e68 a13d 046a eebd f42f 5f3d
000003d0: 60eb febd 2424 0a3d f6ec 93bd 6ab3 e03d
000003e0: dce3 203d 807f a53b d6cf b4bd f6b3 863d
000003f0: 3e1e b8bd cceb 9a3d 00a4 7cba e0dc c9bd
-0.10716155 -0.08246386 0.026630282 0.031323954 -0.118174076 0.11228575 -0.010221034 0.043522865
-0.10753986 0.12372075 0.017215118 -0.04481648 0.004052654 -0.1195849 -0.007192716 0.08015317
-0.03606777 0.079036 0.09806612 0.00787887 0.047191814 -0.020603761 0.06693193 0.0033451468
-0.08532411 -0.11788434 0.1136028 0.05538456 -0.043409303 -0.045107394 0.06157945 0.09839706
0.08815502 0.045456707 -0.051494747 -0.042949677 0.10033853 -0.030254811 -0.0767618 0.044783548
-0.08974345 0.11606775 0.039800137 -0.08730355 0.025171772 0.041052327 -0.017043784 0.11797631
-0.027184024 0.012909591 -0.107948214 0.11702585 -0.09269816 0.029931962 0.06312211 -0.026459202
0.015690431 0.095976755 0.08731787 0.013568148 0.0147470385 0.016446829 0.018027872 -0.03927031
0.03145957 -0.00094614923 0.0317166 0.0667126 -0.11400968 0.021335289 0.04839407 0.0030096322
0.07051836 -0.08048168 0.024101913 0.08335404 0.044767424 -0.11053313 -0.07185309 0.10638066
-0.020883083 -0.10476932 -0.07595052 -0.091913044 -0.07828137 -0.0135754645 -0.011093885 0.080274776
0.1249468 0.009706631 0.09874548 0.036642566 -0.11533873 -0.1007788 0.07408655 -0.087501794
0.07969484 0.08287744 -0.10137901 -0.06102921 0.12491183 -0.09034805 0.12207618 -0.118701205
0.0745717 -0.113193974 -0.104269475 0.08429377 -0.02850902 -0.1148071 0.021402508 0.034498498
0.09848951 -0.055975273 -0.08957644 -0.0755837 0.0084056705 -0.043130904 0.08562048 -0.012417093
0.038820535 -0.0043934435 -0.05924146 0.07698701 -0.1087849 -0.064887 0.037068576 0.051726878
0.1234733 -0.099076614 0.021038353 0.006466314 -0.047670618 0.11334203 0.080828846 -0.056509092
0.08247487 0.0671227 -0.009707421 0.09190321 -0.110711485 0.11811738 -0.0579329 0.11289896
-0.07416929 0.015249103 -0.04690002 0.09503901 -0.06892596 -0.07714531 -0.012042493 0.084851086
0.10479756 0.062130734 0.062494814 -0.020617068 -0.05204515 0.088989496 -0.06153412 -0.097625256
0.003443852 0.012265578 -0.029422969 0.065674305 -0.049918294 -0.060511574 -0.106410325 -0.10289377
0.0715376 0.01803866 0.093795404 0.10337813 -0.07818568 -0.08336565 0.06065105 0.11693981
0.110015735 -0.05227761 0.0066615045 0.059252456 -0.05466242 0.0343287 -0.11682537 0.078852355
-0.09638323 0.009375483 -0.06954789 0.060418904 -0.09266809 -0.081379846 0.10159236 0.12293787
-0.048724398 0.091528326 -0.0866244 -0.09963122 0.04200384 0.01115796 0.0255865 0.096633226
-0.046352953 0.06578122 0.052456394 -0.07616264 -0.07199076 0.032510996 0.1005768 0.09714538
-0.04276149 0.01828532 -0.09937222 0.074751854 -0.089376435 0.0045033693 -0.0955593 0.080667645
-0.014903501 0.0010904819 -0.0043273866 -0.11921048 -0.051197425 0.012503415 0.113983214 -0.063363105
0.014893606 -0.055175215 -0.070933074 -0.016249359 0.047851622 -0.0851115 0.1021837 0.0066928267
-0.057633936 0.12476741 -0.06511161 -0.059287146 0.1233709 0.086230814 0.12299216 -0.027240157
-0.118622005 0.07881223 -0.116413146 0.05448909 -0.12447238 0.033725873 -0.07222931 0.109717205
0.039279804 0.0050505996 -0.08828704 0.065772936 -0.08990143 0.07564506 -0.0009637475 -0.09856582

se_block_event.1.0.bias f4 [16]
00000000: 2298 d83d e28f dfbd 0881 95bd de15 bf3d
00000010: 2621 aebd 80cc f13d 70e8 9fbd bc31 76bd
00000020: a09a 743c 10ec 11bc e4f3 32bd 2035 a6bb
00000030: b07d 8ebd 7a99 ef3d 4078 e43c 802e ad3d
0.10575892 -0.10916115 -0.073000014 0.09330343 -0.08502416 0.118065834 -0.07808006 -0.060106024
0.014929444 -0.008906379 -0.043689623 -0.005072251 -0.06957567 0.11699195 0.02788937 0.08456135

se_block_event.1.2.weight f4 [64, 16]
00000000: bec8 5ebe c8fa b6bd 8810 0b3d 94d2 a23d
00000010: c0e0 26bc e4e2 b53d d44a c0bd 3627 02be
00000020: 62b0 3d3e 4064 28bc 86c3 123e dc0d fd3d
00000030: dcf7 aebd 1217 14be 3e35 09be 8c71 28be
00000040: 8099 05bc 4ce2 323e 0079 593d 62e5 5a3e
00000050: c80b 0c3d 2406 f1bd f076 ddbc 084e 2f3e
00000060: 20ef f93d 4cf6 d43d 6852 193e 240a a2bd
00000070: 34ec fe3d 58e3 aa3d 2477 6a3e d8ad c43d
00000080: 7059 73bd 1025 4bbe d074 6b3e 5411 11be
00000090: c2de 6cbe d8e8 4ebd 58ea 4a3e a421 efbd
000000a0: f866 c8bd 20fb 76bd ae5a 5bbe a8df 193d
000000b0: 5e28 1abe a8a8 433e 745e 97bd 9aa6 4c3e
000000c0: 1ef0 79be ae9b 453e dc29 193e 70f7 463d
000000d0: 402c 323e 764f 463e 08c5 3fbe f089 85bd
000000e0: a8b7 51bd 3815 88bd b8d5 06be 823c 673e
000000f0: 0024 fc3d caa8 793e 02c1 26be 00c0 45b9
00000100: dcbb 643e e84e c5bd 5898 533e 7411 f93d
00000110: c06c d7bc 80a2 543c e432 56be 3a9b 0f3e
00000120: 70fa c83c 00b2 503a 6049 543c e863 61bd
00000130: c8d6 2dbe 20ce e3bc 8c3e 50be ca3c 5dbe
00000140: f893 743e a489 6e3e 60c5 423c e0f3 fe3d
00000150: a025 b7bc 1688 7e3e 62d4 7abe 4051 36bc
00000160: 7abc 0ebe e0a3 503d 004a 083a a492 dd3d
00000170: 7831 68be 4a54 7e3e 0002 dd3a 808b 7d3b
00000180: b097 fbbd f8c6 10be fe72 213e 407c 6e3c
00000190: d8ee 253e ccc8 ff3d 5070 49be 1293 4d3e
000001a0: 982d 363e b615 083e 1064 353e 0801 35bd
000001b0: dc00 473e 0023 303b 0e2a 29be 74e9 4dbe
000001c0: 90e0 b9bd d0b1 22bd e497 413e 90ad 133d
000001d0: ac07 57be d6ce 203e 5c5e 563e dea8 3cbe
000001e0: f047 5e3d b690 47be 5c26 5bbe 4c44 97bd
000001f0: 80d1 86bc 243c 683e 8061 dcbd 7050 02be
00000200: 20f8 7e3c 80ec 59bb 80d7 80bd e87e b03d
00000210: 143e babd 6843 04be 2656 22be 0830 f9bd
00000220: a086 1ebd b0ad 853d c2a9 26be e458 473e
00000230: a04a 8abd c012 f93d b030 d73d fca3 12be
00000240: fed6 27be 6815 cfbd 0078 f439 e063 0abd
00000250: 7889 4f3e 985a 34bd a65c 0ebe 1890 8b3d
00000260: 40e8 60bc 88a5 f9bd 427f 79be 582b 0a3d
00000270: 6eab 123e 74a4 3c3e 3802 71be 2a97 6cbe
00000280: 7cef fcbd 402d 333e 1014 f03d 4081 983d
00000290: 84ab df3d 3adc 7f3e 84b0 583e 70ec d93c
000002a0: ea42 00be bcbc b03d c049 cfbc 60a0 53bd
000002b0: a41e 27be e423 91bd b0aa 443e 34c5 2d3e
000002c0: 9a56 0f3e 78e2 73bd 58bc 39be 2490 8f3d
000002d0: 302a a73c 548a 843d 3c60 aa3d 72b7 2a3e
000002e0: b086 e8bd 5c7e 9b3d b085 72bd 966b 413e
000002f0: cc97 7b3e ec19 1d3e fa31 0e3e 78e9 ebbd
00000300: 7ec9 043e a012 adbd 1aaa 04be 74f6 013e
00000310: b4f4 7abe d8a7 3fbd 3839 69be 9caf d23d
00000320: 8234 3dbe dcae f73d 78ee 3b3e 5a77 0cbe
00000330: 187d 3e3d 00cb be3c 8cc4 603e 7aee 45be
00000340: d4d9 77be 9ad3 1f3e c805 0abe 52e0 05be
00000350: 6859 43bd 94b1 dcbd f8dc 5ebd 00e4 eb39
00000360: eced cc3d 62d1 103e 4063 95bb 563b 023e
00000370: d08d d63d 4839 613e 68e9 443e a8ff 9c3d
00000380: 1ae1 7abe 489b 47be e066 b33d 7ccd a7bd
00000390: 1413 903d 1051 e7bc 30c0 3dbe 000f 4a3c
000003a0: ac01 a93d deb5 59be 20d7 08be 30a3 87bc
000003b0: e625 083e d008 4cbd b02f d8bd 42e9 38be
000003c0: 1c3d 223e d84a f23d a62b 393e 801f f4bd
000003d0: fcf4 06be 3a5a 3d3e 3aac 293e 0c50 553e
000003e0: e40d 9f3d 0811 f23d d067 81bd 2847 573d
000003f0: a0e2 77bc 1629 34be 38a4 3a3e 1058 763d
-0.21756265 -0.089345515 0.033951312 0.07950321 -0.0101854205 0.088811666 -0.09389272 -0.1271027
0.18524316 -0.010277808 0.14332399 0.12356159 -0.08543369 -0.14461926 -0.13399217 -0.16449565
-0.008154273 0.17469138 0.05309391 0.21376565 0.034190923 -0.11768749 -0.027034253 0.1711961
0.122038126 0.1039854 0.14972842 -0.079120904 0.12447396 0.08344144 0.22897011 0.096034706
-0.059411466 -0.19838357 0.22993779 -0.14166766 -0.2313185 -0.050515026 0.19815958 -0.11676338
-0.09785265 -0.060298085 -0.2142131 0.03756681 -0.15054461 0.19107306 -0.073910624 0.19985428
-0.24408004 0.19297668 0.14957374 0.04857582 0.17399693 0.1936625 -0.18727505 -0.0652045
-0.05120054 -0.06644672 -0.13167465 0.22581676 0.12311554 0.24380794 -0.16284564 -0.0001885891
0.22337288 -0.09634191 0.20663583 0.12161532 -0.026296973 0.012978196 -0.2091785 0.14024058
0.02453348 0.00079610944 0.012956947 -0.05502692 -0.16976464 -0.027808249 -0.2033636 -0.2160522
0.2388457 0.23294693 0.011887878 0.12448859 -0.022356808 0.248566 -0.2449508 -0.01112777
-0.13939086 0.050937533 0.0005199015 0.10818985 -0.22675121 0.24836841 0.0016861558 0.0038687885
-0.122847915 -0.141384 0.15766522 0.014555991 0.16204393 0.12489471 -0.1967175 0.20075634
0.1779083 0.13289532 0.17713952 -0.044190437 0.19433922 0.002687633 -0.16519949 -0.20108587
-0.09076035 -0.039720356 0.18905598 0.036054194 -0.2099902 0.15703902 0.20934433 -0.18423793
0.054267824 -0.19488797 -0.21401352 -0.073860735 -0.01645732 0.22679192 -0.10760784 -0.12725997
0.015562087 -0.0033252537 -0.06291103 0.086179554 -0.09093872 -0.12916338 -0.15853176 -0.12167364
-0.038702607 0.06527269 -0.16275695 0.19467503 -0.06752515 0.121617794 0.10507333 -0.14320368
-0.16390607 -0.10111505 0.00046628714 -0.033786654 0.20267284 -0.04403171 -0.1390253 0.06814593
-0.013727248 -0.12189776 -0.24364951 0.033732742 0.14323208 0.18422109 -0.23536003 -0.2310454
-0.123503655 0.1749773 0.117225766 0.074465275 0.10921386 0.24986354 0.21161085 0.026602
-0.12525526 0.08629748 -0.025303721 -0.051666617 -0.16320282 -0.07086924 0.19205737 0.16969758
0.1399788 -0.05954215 -0.18138254 0.070099145 0.020405859 0.064716965 0.083191365 0.16671541
-0.113538146 0.075924605 -0.059209526 0.18888697 0.24569625 0.1534192 0.13886252 -0.1151914
0.12967488 -0.08450818 -0.12955514 0.1269167 -0.2450741 -0.046790928 -0.22775733 0.10287401
-0.18477061 0.12093899 0.18352687 -0.13717404 0.046506017 0.023290157 0.21949977 -0.19329253
-0.24204189 0.15608063 -0.13478768 -0.13073853 -0.047692686 -0.10776058 -0.05440995 0.00044992566
0.100063175 0.14142373 -0.0045589507 0.12717947 0.10476267 0.21994507 0.19229662 0.0766595
-0.24499932 -0.19492829 0.08759856 -0.0819349 0.07034889 -0.028236896 -0.18530345 0.012332678
0.08252272 -0.21260783 -0.13363314 -0.016557306 0.13295707 -0.04981309 -0.10555971 -0.18057731
0.15843624 0.118306816 0.18083057 -0.11920071 -0.13179392 0.1849145 0.16569605 0.20831317
0.07766321 0.11819655 -0.06318629 0.052558094 -0.015129715 -0.17593798 0.18226707 0.060142577

se_block_event.1.2.bias f4 [64]
00000000: 5eb5 073e 1821 e2bd 66ee 3f3e 1e0c 0e3e
00000010: 0018 3ebc 4268 73be d072 5f3d c00b 5abe
00000020: 44ee d43d 04de 5c3e b8b5 5e3d 5aa4 5b3e
00000030: fe4f 40be 6098 40bc 9ad1 093e 8870 06bd
00000040: fc95 ac3d 8018 6ebe 4466 cbbd 70ad d2bd
00000050: b04a 153e 90f7 53be 8078 f73d ac86 753e
00000060: cc89 57be 4270 54be 88cc adbd bcc6 423e
00000070: c8d4 1e3d 3450 0cbe 0ab8 283e 3641 19be
00000080: d0bb e23c aeab 1fbe c038 133d 4097 db3c
00000090: eca0 5d3e eef9 6bbe 349a 8d3d 4292 643e
000000a0: b819 da3d b4dd 4ebe 484c 733d 803d 293e
000000b0: 586f 823d 0ca7 d83d 5c2c d93d 0a44 4ebe
000000c0: 1875 a23d 36fe 2dbe cac9 25be 6847 133e
000000d0: a03b cf3d 7052 f83d 4cd2 813d e8c7 5e3e
000000e0: 68f6 ea3d 8c8c 663e 002f ecbc 20e4 c43d
000000f0: d43e 0f3e 38b1 ab3d 9c3b 2fbe 50a5 a3bd
0.1325278 -0.110414684 0.18743286 0.1387181 -0.011602402 -0.2377024 0.054552853 -0.21293545
0.10397008 0.21569067 0.05437252 0.21449414 -0.18780515 -0.011755079 0.13458863 -0.032822162
0.08427045 -0.23251534 -0.09931615 -0.10286987 0.14579272 -0.20699906 0.120835304 0.23977154
-0.21048659 -0.20745948 -0.08486277 0.19021124 0.038777143 -0.1370247 0.16476455 -0.14966282
0.027677447 -0.15592834 0.035942793 0.02680552 0.21643418 -0.2304456 0.069141775 0.22321418
0.10649437 -0.2020176 0.05939892 0.16527367 0.063688934 0.10578737 0.10604164 -0.20143142
0.0793249 -0.16991505 -0.16190258 0.14382708 0.101187944 0.12125099 0.06338939 0.21755946
0.114727795 0.22514552 -0.028831005 0.09613824 0.13988811 0.08383411 -0.17112583 -0.07990515

se_block_event.2.0.weight f4 [16, 64]
00000000: d480 c3bd 8619 dbbd 262c bbbd 60b7 263c
00000010: 40c1 10bc a0e8 c33b 9a13 eb3d ccf4 49bd
00000020: 988d 943c b43d 73bd 320b c0bd 94be 91bd
00000030: ce74 babd c2a7 92bd 10ef da3c decf ef3d
00000040: 9c8d e83d c292 d33d 7ca2 b3bd 54bd 09bd
00000050: 00fc 603d 0854 28bd 00fa 03bd cc49 a5bd
00000060: 6027 cc3c 44c8 82bd 70a8 46bd 8856 633d
00000070: f873 a7bc 2020 8bbc 7874 673d d8bf 993c
00000080: d029 91bc 00c8 0f3d 288d 6bbd 5023 babc
00000090: 80fa 603d b000 343d e0d6 483c 1822 963c
000000a0: f0fd 8abc 0ee8 ecbd 68ce 5b3d 6044 993c
000000b0: bc9d 11bd a06f 54bd dc30 51bd 8813 973c
000000c0: 38c0 e9bc e0ff cb3b c054 313c e017 e0bc
000000d0: 3806 9cbc bcd4 71bd 00e1 61bd f4be c93d
000000e0: 28c0 b43d 1072 06bd 2441 773d 6e06 c6bd
000000f0: 1ce3 4c3d be29 f8bd c0fc 573b 9ee8 9c3d
00000100: 1020 3bbd fca7 7dbd 9417 a4bd 6028 c7bb
00000110: fa60 86bd 5430 383d bcdf acbd d478 273d
00000120: 90fe 7f3c 2421 93bd bc70 023d d47c 5c3d
00000130: 1c77 563d 9ec5 d93d 5464 c0bd c0f6 253b
00000140: ccde 7bbd 8893 063d 806a 413b ba18 953d
00000150: d658 843d 9855 da3d 92e6 b63d f0f4 5f3d
00000160: 2ca0 bcbd 6c0f 6ebd 5488 413d c07c 503c
00000170: 7010 7d3d 7c01 5a3d 4ce8 75bd 685f 273d
00000180: 082a c7bc b019 0c3d e0bc 723d 44c6 8f3d
00000190: 902e ad3c 8c84 43bd 3eb5 e43d 1014 6a3c
000001a0: 3030 ef3d 002e 603d 2ab1 cd3d b616 dfbd
000001b0: e065 693d 7804 98bd 283a d1bc a023 c53c
000001c0: 703d fdbc d0a0 4dbd 80f0 c2bb aeee cdbd
000001d0: 00df 493a 2883 47bd da26 8c3d 0072 2b3a
000001e0: f0f9 803d 749d 5b3d dc1b 19bd b452 823d
000001f0: 56cb fc3d 8cc9 493d 88af 90bd acba 15bd
00000200: e8a8 343d 605e 653d 9e48 d1bd 0c9b fa3d
00000210: e8e1 1a3d 008b e2bb 14bf 7b3d 3866 1cbd
00000220: a891 1b3d 8c98 aa3d a02a ea3b 9851 e4bc
00000230: 682b a6bd 3a99 e63d 88ae a73d 309e 7b3d
00000240: ac03 01bd a0d5 933d 1014 12bd a4b9 2bbd
00000250: 9078 d83c a030 9c3c 88c1 70bd c063 99bd
00000260: 1656 8b3d 003f c6bb 4684 e83d 48ae 573d
00000270: 98ec 9d3d b8d6 64bd 50d2 e0bd bc19 313d
00000280: 802a a5bd 3064 393c a89c c9bc 08ba 39bd
00000290: 4ce6 c63d 2087 783d 38a2 333d f289 c03d
000002a0: 18af bb3d 8048 483b 4afc 8ebd 2875 2b3d
000002b0: b840 1f3d 6c33 2bbd c048 d0bd 940c 6cbd
000002c0: f014 9b3c 94c4 e53d 40e2 27bc 380a febd
000002d0: f2ed e6bd 8020 7d3b 3c59 df3d 3084 e43d
000002e0: 1a90 eebd caa8 a53d d8fc a43d 2ca7 803d
000002f0: a469 a33d 4039 3dbc e4f8 883d 087c f9bd
00000300: 5416 a03d c468 e6bd 7006 313d 80a4 9abc
00000310: 46d9 f2bd 8c0d 4f3d 288d 123d 08af 103d
00000320: ac45 5dbd 147d 89bd 4c25 ccbd 0885 a9bd
00000330: 64d4 76bd f891 5abd 2066 9b3c bc11 bb3d
00000340: 5ce4 08bd 80a9 7d3c 9cda 8d3d 588b 0f3d
00000350: 4010 cd3b 4440 cf3d d4b7 2f3d 48fd 25bd
00000360: 20a3 b7bb 18dd dc3d a24a a43d 9aaa bebd
00000370: 0afe a1bd cc7e 593d 9872 7d3d 6c7d 743d
00000380: 629f d83d 542b bdbd 9883 bdbc 7232 ca3d
00000390: 644c e23d 5ac4 8dbd b045 463c f0a5 cd3d
000003a0: 6868 4fbd 7098 2dbc e6fa dd3d e8c6 103d
000003b0: 5471 15bd e484 d13d 30f5 573d 424d d4bd
000003c0: 80b1 293b 801a 913c f08b acbd 92d8 dcbd
000003d0: 406f e2bb 00e8 633c 7640 d4bd 888c 893c
000003e0: 96c9 b93d 00a6 69ba 7238 fe3d 4023 32bb
000003f0: 10ef 9cbd 908e ad3d 3c68 4dbd 6432 17bd
-0.095460564 -0.106982276 -0.0913928 0.010175556 -0.008835137 0.005978659 0.11478348 -0.049305722
0.018133923 -0.059385017 -0.09377135 -0.07116428 -0.0910431 -0.071609035 0.026725322 0.117095694
0.11355135 0.10330726 -0.08771226 -0.033627823 0.054927826 -0.041095763 -0.03222084 -0.08070716
0.02492112 -0.06385854 -0.04850048 0.055502445 -0.02044104 -0.016983092 0.056507558 0.018768236
-0.017720133 0.035102844 -0.057507664 -0.022721916 0.054926395 0.04394597 0.012258261 0.018326804
-0.01696679 -0.115676984 0.05366364 0.018709362 -0.035550818 -0.051864266 -0.051071987 0.01844193
-0.02853404 0.006225571 0.010823429 -0.027355134 -0.019045934 -0.05904077 -0.055146217 0.098508745
0.088257134 -0.032823622 0.060364857 -0.09669195 0.050021276 -0.12117337 0.0032957047 0.07661556
-0.045684874 -0.06192778 -0.0801231 -0.006077811 -0.065614656 0.044967964 -0.084411114 0.040886715
0.015624657 -0.071840554 0.031845793 0.053829983 0.052359685 0.106333956 -0.09394136 0.0025324076
-0.061491773 0.03285554 0.0029512942 0.07280107 0.064622566 0.10660857 0.089306965 0.05467695
-0.09210238 -0.058120176 0.047249153 0.012725055 0.061783254 0.05322407 -0.06003599 0.04086247
-0.024312034 0.034204185 0.059262156 0.07020238 0.021140367 -0.04773383 0.11167382 0.01428701
0.11679113 0.05473137 0.10043557 -0.10893004 0.05698192 -0.07422727 -0.025540426 0.024064839
-0.030913085 -0.05020219 -0.00594908 -0.1005529 0.0007700771 -0.048709065 0.06843348 0.00065401196
0.06297672 0.053616956 -0.037380084 0.063634306 0.12343471 0.049264476 -0.0706473 -0.036554977
0.044106394 0.055998206 -0.10218929 0.12236604 0.037813097 -0.0069135427 0.061461523 -0.03818342
0.037980705 0.08329877 0.0071461946 -0.027870938 -0.08113748 0.112596944 0.08187586 0.061430156
-0.031497642 0.0721848 -0.035663664 -0.041925088 0.026424676 0.019066155 -0.058778316 -0.07489729
0.06803529 -0.0060499907 0.11353354 0.052656442 0.07711142 -0.055868834 -0.10977614 0.043237433
-0.08064747 0.0113153905 -0.024610832 -0.04534343 0.097118944 0.06067574 0.043855876 0.09401311
0.09164256 0.0030560791 -0.06981714 0.041859776 0.03888008 -0.041797087 -0.10170126 -0.057629183
0.018930882 0.11219135 -0.010246813 -0.12404293 -0.11275853 0.0038624108 0.10905692 0.11158025
-0.11648579 0.080888346 0.080560386 0.062818855 0.07979134 -0.011549294 0.06688097 -0.1218186
0.07816759 -0.11250451 0.04321903 -0.018877268 -0.11857848 0.05055003 0.03577915 0.035323173
-0.054021522 -0.0671331 -0.09968051 -0.08277327 -0.060261145 -0.053361863 0.018969595 0.09134242
-0.033420905 0.0154823065 0.06926462 0.035044998 0.0062580407 0.101196796 0.04289992 -0.04052475
-0.005604163 0.10784358 0.080220476 -0.093098834 -0.07909782 0.05309944 0.061876863 0.059689924
0.10577275 -0.0923678 -0.023134038 0.09872903 0.110497266 -0.06922217 0.012101576 0.10041416
-0.05063668 -0.010595426 0.10838871 0.03534594 -0.03648503 0.10230425 0.052724063 -0.10366298
0.0025893152 0.017712831 -0.084251285 -0.10783495 -0.0069102347 0.013910294 -0.103638574 0.016790643
0.090716526 -0.00089129806 0.1241311 -0.0027181655 -0.07662785 0.08474457 -0.050148234 -0.03691329

se_block_event.2.0.bias f4 [16]
00000000: b6b8 95bd fe3a eabd a4de 093d d8af 913d
00000010: 00b0 763d 06c9 e23d 40d4 2d3d 868f fabd
00000020: a89d 6dbd 049e f0bd 343e 053d 1806 b73d
00000030: 7e03 993d 90ce 073c e0f2 b63c c43b 3c3d
-0.073106214 -0.11437033 0.033659592 0.07113618 0.06022644 0.110734984 0.042438745 -0.12234406
-0.05801168 -0.11748889 0.032530025 0.08936709 0.07471369 0.008288994 0.022332609 0.045955434

se_block_event.2.2.weight f4 [64, 16]
00000000: 625e 3d3e 0add 7abe d8e2 e5bd 38ca 95bd
00000010: 2409 eebd a02c 7ebe c027 23bd 4e13 7b3e
00000020: b8a2 febd 9e75 5fbe c2d7 3f3e e00c c83d
00000030: 1891 123e 701f ffbc a82b 5e3e de75 7e3e
00000040: 8c1d 8d3d a06b 8fbc a0ed 2bbd d4cf d5bd
00000050: e42b afbd 60eb df3c 0068 ed3a 9e35 713e
00000060: 3882 0fbe a0d5 bfbd 002f 6fbc 007a d1bd
00000070: c8d4 4e3d 0abb 783e bac5 05be ccb6 6e3e
00000080: 401c 323e 8630 13be 0ef3 5bbe e03d e3bd
00000090: 501a 76bd 90f2 26bd bac9 48be 34b4 cbbd
000000a0: 34b0 74be 3001 52be d835 a43d f44f 0f3e
000000b0: a2ee 40be 18a1 963d 0ae0 243e e665 2bbe
000000c0: 603e 093d 0c15 cb3d 9cb4 1e3e 706a 5dbe
000000d0: d05e a23d e086 36be 68ea d43d ea99 2cbe
000000e0: b0c9 4fbe e8ee dbbd 5014 963c 506f f73c
000000f0: d0e1 45bd be11 033e 9015 bfbc 80f1 6d3d
00000100: 2879 7f3d fc6e c6bd 542b f3bd 24a1 b5bd
00000110: 8cb8 443e 8ab5 423e 489f 7d3d 8e28 70be
00000120: f692 533e c07e 593e 742d 393e 1807 d63d
00000130: 6089 343c a0b5 a9bd 06bd 443e 1cc6 3abe
00000140: a01f aebd 8801 243e 282e d13d cafd 7bbe
00000150: 9891 68bd 6a15 68be 802f 7f3c 9849 113d
00000160: d015 de3c 203c 053c e45e 9ebd eeb7 7e3e
00000170: f0f1 803d aedb 073e d46d 093e 001b 55bd
00000180: 0002 24bb 5214 233e b0c9 b8bc 1017 62bd
00000190: 14d7 33be 18f0 62be 0ece 2b3e 0cce ee3d
000001a0: dc40 32be 8c9e babd aedf 5d3e d845 953d
000001b0: 5c96 113e 4cd7 77be 70ff 77bd d838 aabd
000001c0: c22e 523e b093 d4bc 0c39 2c3e 4029 a0bc
000001d0: 1833 5fbe 3036 2b3d 8a1d 133e 803c ac3c
000001e0: 8491 4a3e 14ca 293e 189d 66be 10be 153d
000001f0: 406e a1bb 4898 39be c0f7 ff3c a425 fd3d
00000200: 00ea 9a3b 80a5 98bb 8826 a73d dccf 85bd
00000210: 4c4e 0fbe ee98 72be 1439 2fbe 10fc bd3d
00000220: a426 303e 006e d33c 1c88 d6bd 7865 13bd
00000230: d80c 5fbe f02f c7bd eac5 1bbe 2ce8 9dbd
00000240: 0618 1cbe eedc 243e eaca 66be b49f 1f3e
00000250: b0e2 c43c d0eb cdbc b851 ec3d aa08 1ebe
00000260: 5451 743e 4816 293e 7413 04be 80a8 4cbd
00000270: 746f 993d f82a 50bd 4c58 eabd 4a64 123e
00000280: 40a2 2b3e 3804 cabd f07e e0bd a4bd f3bd
00000290: 9a94 513e 4055 733c 7e80 2f3e 5019 e13d
000002a0: 14be a1bd e822 26be e038 5abc 7c00 dc3d
000002b0: 5ca7 803d 26ca 5bbe c2a8 62be e053 a43c
000002c0: 3886 613d 3c50 d13d 7cf7 1bbe 803f 173c
000002d0: 6034 1ebd 3acc 143e 868d 4dbe 3a0f 50be
000002e0: b48f f33d f053 5bbd 6814 69be a84f da3d
000002f0: b0e0 55be 383a e23d aaf1 5f3e 860c 1cbe
00000300: a80d a8bd be4b 0cbe 08ae 17be d0fe 3fbe
00000310: f260 1c3e c027 a63b 96f7 7abe a05d 403c
00000320: 0e02 13be d4b0 873d d29c 51be 2827 37be
00000330: 4c24 743e e879 5abe b836 61bd 00cd e0bc
00000340: ee30 35be 4097 dc3b ac62 febd 9860 3c3e
00000350: 50c9 d9bd aed3 3dbe 78bc 4bbe 6c19 513e
00000360: 4e09 233e 7cf4 1e3e b808 71be 64e4 1ebe
00000370: b662 55be e0a1 213c 2668 3abe d091 3abd
00000380: 24a3 18be d033 37be b05b 3b3d 8809 333e
00000390: acb9 c3bd fcb5 9c3d 9c13 633e a079 c43d
000003a0: be01 293e e2bf 493e c63c 41be ecec 8a3d
000003b0: 668f 5c3e a449 71be 20ef f4bd 509d 8bbd
000003c0: 4a96 39be cc1a ac3d 4e5c 77be 8631 6cbe
000003d0: a8bb a33d 2022 7dbe f814 f63d 0046 773a
000003e0: a280 0b3e 7296 58be a49d 06be 788e 283d
000003f0: a274 383e b04f 10bd d2b7 0abe 501e 993c
0.18493035 -0.24498382 -0.11224908 -0.07313961 -0.11622837 -0.2482171 -0.03983283 0.24519083
-0.1243338 -0.21822211 0.18734649 0.09768081 0.14313161 -0.03114292 0.21696341 0.2484965
0.06890401 -0.017507374 -0.041974664 -0.10440031 -0.08553293 0.027333915 0.001811266 0.2355561
-0.14014518 -0.093669176 -0.014598608 -0.10228348 0.050495893 0.242901 -0.13063708 0.23311919
0.17393589 -0.14373979 -0.21479437 -0.11095786 -0.060083687 -0.04075867 -0.19608203 -0.099464804
-0.23895341 -0.20508265 0.080180824 0.13995343 -0.18841031 0.07354945 0.16101089 -0.1673809
0.03350675 0.09916124 0.15498585 -0.21622634 0.0792824 -0.17824888 0.10396272 -0.16855589
-0.20291781 -0.10738927 0.018320233 0.030204445 -0.048311055 0.12799737 -0.023325711 0.05809164
0.062371403 -0.09689137 -0.118734986 -0.08868626 0.19211024 0.19014564 0.06191948 -0.2345297
0.2066153 0.21239758 0.18083745 0.10450572 0.011019081 -0.08286595 0.19212732 -0.18239635
-0.08502126 0.16016209 0.10213882 -0.24608532 -0.056779474 -0.22664419 0.01557529 0.035470575
0.02711001 0.008132011 -0.07732943 0.24874851 0.06296146 0.13267395 0.13420802 -0.052027702
-0.0025025606 0.1592572 -0.02255711 -0.055197775 -0.17562515 -0.22161901 0.16777822 0.11660394
-0.17407554 -0.09112272 0.21667358 0.07288712 0.14217514 -0.24203223 -0.06054634 -0.08311623
0.20525649 -0.02594933 0.16818637 -0.01955092 -0.21796834 0.041799724 0.14366737 0.021024942
0.19782072 0.16580993 -0.22520864 0.03655821 -0.004926473 -0.18124497 0.031246066 0.12360695
0.004727602 -0.004658401 0.08161646 -0.06533787 -0.13994712 -0.2369115 -0.17111617 0.09276593
0.1720224 0.025809288 -0.104751796 -0.03598544 -0.21782243 -0.0972594 -0.15212217 -0.07710299
-0.15243539 0.16099903 -0.22538343 0.15588266 0.024033874 -0.025136858 0.11539024 -0.15432993
0.23859149 0.16512406 -0.12898046 -0.04996538 0.07491961 -0.05082223 -0.114426225 0.1429607
0.16761112 -0.09864086 -0.109617114 -0.119014055 0.20466843 0.014851868 0.1713886 0.10991156
-0.07897583 -0.16224253 -0.013319224 0.1074228 0.06281921 -0.21463832 -0.22134688 0.020059526
0.05505964 0.102203816 -0.15231127 0.009231448 -0.038624167 0.14531031 -0.20073518 -0.20318308
0.118926436 -0.053546846 -0.2276169 0.106597245 -0.20886493 0.110462606 0.21869531 -0.15239152
-0.0820573 -0.13700768 -0.14812481 -0.18749547 0.15271357 0.0050706565 -0.24508509 0.011741072
-0.14356253 0.06625524 -0.20469978 -0.1788603 0.23841971 -0.21335566 -0.054983824 -0.027441502
-0.17694446 0.0067318976 -0.12421164 0.18396223 -0.106341004 -0.1853778 -0.19896114 0.20419854
0.15921518 0.15522951 -0.23538482 -0.15516812 -0.20838436 0.009865254 -0.18203792 -0.045549214
-0.14905983 -0.17890859 0.045741737 0.17484105 -0.095568985 0.07651898 0.22175449 0.09593511
0.16504571 0.19702104 -0.1887084 0.067834705 0.21539077 -0.23563248 -0.11959672 -0.06817114
-0.18123737 0.084035486 -0.24156305 -0.23065767 0.07994777 -0.24720049 0.12015718 0.0009432733
0.13623288 -0.2115114 -0.13146073 0.041151494 0.18013242 -0.035232246 -0.13546684 0.018691212

se_block_event.2.2.bias f4 [64]
00000000: d0a5 6e3d f2dd 233e 9cba 38be 8075 293e
00000010: 7898 533e ba7c 0d3e 80db e4bb 601a 4f3d
00000020: fae6 1a3e 5ad4 383e 14c6 5ebe cc8c f73d
00000030: 60c5 6abe e02e 673d 7298 743e 3284 41be
00000040: 0a99 23be c2d5 113e 744d e83d c47c 65be
00000050: a02c 3a3e e096 573c 6097 9fbc 1a90 5b3e
00000060: b845 4dbe 623f 7e3e d217 573e 6681 01be
00000070: 2a51 5fbe bcc5 51be e03a 2a3d de8b 343e
00000080: 18ae 3bbe 2e47 17be e0f2 87bd d6fa 6dbe
00000090: d6dd 543e 1c7e 703e 283d 02bd 189e d03d
000000a0: 00a9 83bc d85e 4bbe c0f5 843c 20ca 983d
000000b0: 342b 6dbe 404e 663d c25f 4bbe 1e84 28be
000000c0: 40b0 7a3d 0a9b 42be 68a9 b5bd 005b 64be
000000d0: d4d5 22be 7813 b93d 903b 35be e0f9 40bc
000000e0: 5884 6f3e 7436 78be 609a b8bd 7041 5bbd
000000f0: 5049 8a3d c846 553e a0cb 71bc e06c da3d
0.0582636 0.16002634 -0.18039936 0.16548729 0.20663631 0.1381711 -0.0069841743 0.050562263
0.15127173 0.18049756 -0.21755248 0.12087402 -0.22926855 0.056441188 0.23886278 -0.18898085
-0.15976349 0.14241698 0.11342898 -0.22410876 0.18181086 0.01315853 -0.01948136 0.21441689
-0.20046127 0.24828866 0.2100518 -0.12647018 -0.21808305 -0.20485586 0.041560054 0.1763148
-0.1832813 -0.14773247 -0.066381216 -0.23240218 0.20787749 0.23485607 -0.031796604 0.10186404
-0.016071796 -0.19860399 0.016230464 0.07460427 -0.23161012 0.05622697 -0.19860747 -0.16456649
0.06120324 -0.19004455 -0.08870202 -0.22300339 -0.15901881 0.090369165 -0.17698503 -0.011778325
0.23390329 -0.24239522 -0.0901382 -0.053529203 0.067522645 0.20827782 -0.014758021 0.106652975
