data/parameters/deephit_model_without_feature_concat.pth (torch, 184593 bytes, 32 tensors)

se_block.0.weight f4 [4, 17]
000000 91 a3 58 be 35 2a 65 bd 66 c9 58 3c a3 fc ce bd
       -0.21156146 -0.055948455 0.013231611 -0.101067804
000010 8b 41 a1 bc ae 65 6b bd da 22 f4 3a 65 a5 c5 bd
       -0.019684574 -0.057470016 0.0018626109 -0.09650687
000020 1b 90 15 ba ac 4e 86 3d f1 72 b4 bd 8a 9c 82 bd
       -0.00057053723 0.06557974 -0.08810986 -0.06377514
000030 25 68 d1 bd a4 62 4e 3d fd 2f bb 3c 3a 06 a4 bd
       -0.10224942 0.05038704 0.022850031 -0.08009
000040 0a f6 12 3e 6a 24 0c bc b8 bb 0b 3e 11 eb 1c be
       0.14351669 -0.008553604 0.13645828 -0.15324046
000050 6f a2 a6 bd 51 7d 3e be 51 3d c1 bd f3 25 25 be
       -0.081364505 -0.18602492 -0.09435523 -0.16127758
000060 8a 82 92 bd c2 c6 5d be 53 ce 07 be 38 16 95 3d
       -0.071538046 -0.21657851 -0.132623 0.072796285
000070 28 51 68 be 60 99 82 be 31 87 32 bd 37 35 73 3d
       -0.22687209 -0.2550764 -0.04358596 0.05937692
000080 34 0b 38 bd 62 7a 0e be d7 07 5e bb 7b aa b0 3d
       -0.04493256 -0.13913873 -0.0033879185 0.086262666
000090 7f 2d a6 3e 16 f7 fa 3c 70 46 be 3d a5 47 72 bd
       0.32456586 0.030635398 0.09290779 -0.059150357
0000a0 56 8b 22 bb 89 21 97 3c a0 b9 c1 3b de 4b d7 bf
       -0.002480229 0.018448608 0.005912021 -1.6820028
0000b0 36 3f 9d 3b ca 1c 1a 3c ce 6c 96 3e fc 97 c3 3b
       0.004798795 0.009406278 0.29379886 0.0059690457
0000c0 15 09 0e bc c7 bd 96 be 1e 01 b7 bd 7c a6 1a 3e
       -0.0086691575 -0.29441664 -0.0893576 0.15102571
0000d0 2f d6 95 3e 36 3a b2 3e dc 05 e9 3d 37 36 44 bd
       0.29264972 0.34810036 0.11378071 -0.047903266
0000e0 69 80 d0 3d c4 cb bb 3e e3 01 f2 3c 97 bb b2 3d
       0.10180742 0.36678898 0.029541915 0.08727186
0000f0 10 7f df 3d 2a 81 2e 3d 9b 94 35 3d 8f 85 18 3e
       0.10912907 0.04260365 0.044331174 0.14894699
000100 cd 09 25 3d 44 d8 89 3c f8 40 08 3e b6 b1 86 bb
       0.04029255 0.016826756 0.13306034 -0.0041105403

se_block.0.bias f4 [4]
000000 59 68 c4 bb 2a 2d bb 3c 9d b6 9d be 7c b9 9c bf
       -0.0059938845 0.022848684 -0.30803385 -1.2244105

se_block.2.weight f4 [17, 4]
000000 10 b1 f1 be 49 7f ee 3e 98 a6 82 bc 19 9f 97 3c
       -0.472054 0.46581486 -0.015948579 0.01850848
000010 3b 04 34 be cd c9 5d be 46 1d 0c be 8b 4a 2c 3e
       -0.17579739 -0.21659012 -0.13683042 0.16825311
000020 ab 09 0f 3e f2 9a c8 be 45 26 bc bc 6d c6 17 3e
       0.13968532 -0.39180714 -0.022967467 0.14821787
000030 d0 9f b0 be 83 5e f4 3e ad b1 fb bc 0b ba 63 be
       -0.34496927 0.47728357 -0.03072437 -0.22238939
000040 a9 26 1b bc 09 2e 99 be e1 06 01 3e 51 aa 8e be
       -0.0094696665 -0.29917935 0.1260028 -0.27864316
000050 c4 d7 98 3e 53 de df be 84 7c 57 be a6 27 65 be
       0.29852116 -0.43724307 -0.21043593 -0.22378406
000060 0c 5d 83 bd 21 6c 90 bd 27 8e ef 3e e7 e6 90 3e
       -0.06414232 -0.07051874 0.4678814 0.28301165
000070 ac db d1 3e d3 44 55 3d b8 47 b0 be c9 7f 3e be
       0.4098791 0.05206759 -0.34429717 -0.18603434
000080 78 02 df 3e 44 7e c2 3e 84 34 07 bd 1b c9 3d be
       0.4355657 0.37986958 -0.033009067 -0.18533747
000090 21 29 17 3e 3b f8 89 be fe 19 f1 3f 1f 59 ea bd
       0.14761783 -0.26947197 1.8836057 -0.1144278
0000a0 35 84 70 3d 57 20 17 3e 72 df 45 bd 2e 9a 44 be
       0.058719832 0.1475843 -0.048308797 -0.1919944
0000b0 3b 71 44 be fa fc f5 bd f2 44 48 bb 80 23 32 be
       -0.19183819 -0.12011142 -0.0030558673 -0.17396355
0000c0 3d fe ab 3e c1 5d e4 3e d8 f8 c8 3f 0c f3 14 3f
       0.33592406 0.4460278 1.5700941 0.5818336
0000d0 34 a8 4d 3c 0b 5c 83 3e f1 a6 dd bc e2 ae 4e be
       0.01255231 0.2565616 -0.027057143 -0.201839
0000e0 3d 69 7d bd 2c d9 cc 3d 78 31 83 bd f1 6f 88 be
       -0.06186794 0.1000236 -0.0640592 -0.26647905
0000f0 47 fd 9a 3e 01 ff 31 be ff d3 01 bd f0 f4 22 be
       0.3027136 -0.17382433 -0.031696316 -0.15913749
000100 05 e4 d5 3e 17 57 15 3f 60 2b 79 bf 2d eb 0b be
       0.41775528 0.58336014 -0.9733181 -0.13663931

se_block.2.bias f4 [17]
000000 a7 61 1f be a7 c7 a4 3e 1f b2 48 3e 7f b5 98 3f
       -0.15564595 0.32183573 0.19599198 1.1930388
000010 cf c1 b5 3d 8f 62 bd 3e de 82 ae be c9 dc 3e 3e
       0.08874857 0.36989257 -0.3408422 0.1863891
000020 76 58 8a 3e b7 1a 57 3f 4c 5f 15 be b9 34 0b 3f
       0.27020615 0.8402514 -0.14587134 0.54377323
000030 87 95 ab 3f da 2e 0c 3e d7 ca 20 3d 29 36 ca 39
       1.3405007 0.13689747 0.039255943 0.00038568795
000040 44 ac 9c be
       -0.30600178

se_block_event.0.0.weight f4 [16, 64]
000000 ac 68 64 be 51 6f 0c 3f 33 45 1c bf 8f 6e 64 be
       -0.22305554 0.54857355 -0.6104309 -0.223078
000010 ec 3b a0 3e 64 c5 98 bc c6 9b 8b bd 37 82 d6 3c
       0.31295717 -0.01864881 -0.06816821 0.026185138
000020 7b 3a 01 3f 4d 49 e8 bd 94 f5 cb be 0e a2 3c 3d
       0.5047986 -0.11342106 -0.398358 0.046052985
000030 e6 fb d5 bc 05 ae 56 3c 23 89 bb 3e ae a8 fb 3d
       -0.026121091 0.013103013 0.36628065 0.122880325
000040 4d f8 9a 3e 5b f5 74 be 7e 79 21 3e e4 11 ea be
       0.30267563 -0.2392172 0.15769002 -0.45716774
000050 e1 67 c0 3d 63 78 9e bd b6 c5 ef bc 0a eb 02 3f
       0.09394813 -0.07737806 -0.02926908 0.5113989
000060 14 c5 b7 37 58 60 57 39 4f 75 1b bb 16 fd 67 bd
       2.1907072e-05 0.00020539889 -0.0023721044 -0.056637846
000070 ab 05 df 3e 7b 98 3d bd 74 ec 04 3e a2 72 80 be
       0.43559012 -0.046287995 0.12980825 -0.25087458
000080 d7 67 f8 3d 73 ed 32 3d e2 4d 06 bf 9a c5 65 bd
       0.12129181 0.04368348 -0.5246259 -0.05609665
000090 60 37 83 bd b9 3a 54 bd c7 e6 b7 bf 2a d9 3f 3e
       -0.06407046 -0.051813815 -1.4367303 0.18735185
0000a0 af a3 be 3e 5d c0 ee bd d0 eb 5e 3f 90 49 31 3e
       0.37234256 -0.11657784 0.8707857 0.17313218
0000b0 27 81 21 3f ea be 47 be 2e 5d 18 3e 2f 32 aa 3e
       0.63087696 -0.19506422 0.14879295 0.33241412
0000c0 56 a0 2d be 5f 20 27 3e 04 c3 b3 be 55 15 3f bf
       -0.16955695 0.16320942 -0.35109723 -0.74641925
0000d0 1c 4c ad bd 78 b8 8a bf fe dc 49 be 1a 45 de 3d
       -0.08461782 -1.0837545 -0.19713208 0.10853024
0000e0 51 b0 3f bd 1b 07 97 3e c2 f6 3c be 2b 72 b9 bd
       -0.046799008 0.2949761 -0.18453506 -0.09054979
0000f0 d1 d5 76 3d 60 5d bd 3d cb 13 15 3d d6 c6 80 bc
       0.060262505 0.092463255 0.03639583 -0.015719812
000100 f5 f9 05 3f b3 c6 21 be ff a6 3e bd 99 c0 10 3f
       0.5233453 -0.15798454 -0.04654598 0.5654388
000110 2a 9d 40 3e c5 39 46 be 60 36 7d bc 02 9e 92 bd
       0.18809953 -0.19357975 -0.015454859 -0.07159044
000120 04 96 8b be ce 03 ba be 29 f9 0a 3e 5b af 87 3d
       -0.2726289 -0.36331028 0.1357161 0.06625243
000130 d0 93 94 bd f6 e1 04 bc 24 86 be be 30 84 fe 3d
       -0.072547555 -0.008110514 -0.37211716 0.124275565
000140 43 86 e9 bd 7f 48 4e 3f 56 90 6c 3d 5d 92 02 bf
       -0.114025615 0.8057937 0.057754837 -0.5100458
000150 88 29 0d 3f 76 b3 9d 3e ec f7 9b 3e 30 77 62 be
       0.55141497 0.3080098 0.30462587 -0.22115779
000160 46 81 26 be ee 53 3f be b5 06 11 bf fd d2 1b bf
       -0.16260251 -0.1868436 -0.5665086 -0.6086882
000170 a4 fb 17 bf 38 5f 33 bf c9 bf 70 3d f5 1e 17 3e
       -0.5936835 -0.7006717 0.05877665 0.14757903
000180 78 e4 b4 be 37 4c 68 bd 4f 4c e1 3e 72 ca 0f 3e
       -0.35330558 -0.05671331 0.4400353 0.1404207
000190 b0 9f e9 3e 3e 13 99 bd 2c 4c 3b bd 10 2c 01 bf
       0.45629644 -0.07474373 -0.04572694 -0.5045786
0001a0 23 f7 2a 3e 92 31 e3 3c ee 92 27 bf 7d 3b b5 be
       0.16695838 0.027733598 -0.6545857 -0.35396948
0001b0 d9 41 8b be 03 e6 47 3e d8 c2 94 3d 78 a4 1a 3e
       -0.27198675 0.19521336 0.07263726 0.15101802
0001c0 bc 2f ad 3f 43 f5 30 3e 09 f6 21 be 11 23 93 be
       1.3530192 0.1728106 -0.15816511 -0.2873769
0001d0 bb c0 e8 3e ac 97 3b bf 6f ed ab 3f 5b 33 2c be
       0.45459542 -0.7327831 1.3431834 -0.16816466
0001e0 d3 05 17 3f 10 1f 1f 3f 50 4e 3a 3d 81 13 d6 bf
       0.5899326 0.6215677 0.04548484 -1.6724702
0001f0 63 7b 9d 3e aa b7 a9 3e d9 61 1c be 47 8f 8c 3e
       0.307582 0.33147937 -0.15271701 0.27453062
000200 6c 51 1c bf cd 79 43 3e ca f1 91 3e 59 87 43 be
       -0.6106174 0.19089432 0.28504783 -0.190946
000210 95 d5 be 3e 02 76 35 3f 19 04 cd be c7 5e 53 be
       0.37272325 0.7088319 -0.4004219 -0.20641623
000220 f2 ab bf 3e a7 e6 3c 3f d2 ff 2a 3f da 2d 3b 3e
       0.3743587 0.7378945 0.667966 0.1827921
000230 7a 26 a1 3d 23 9c a9 be fb 49 5f be 9d e4 38 be
       0.07868667 -0.33126935 -0.21805565 -0.18055959
000240 53 44 f2 3e e2 03 ec 3d f2 c1 8d bd 10 c8 f0 3d
       0.47317752 0.11524178 -0.06921758 0.11756909
000250 70 36 51 3e b4 6b 0c be 41 36 0a 3f 6f be fa 3e
       0.20430923 -0.1371296 0.53989035 0.48973414
000260 17 f6 88 3e 25 02 1f 3d 24 a2 4a 3f 6b 92 4d 3f
       0.26750252 0.038820405 0.79153657 0.8030154
000270 2e f7 d3 3f b0 d9 0c 3f 48 d2 bb be 01 fb 83 3c
       1.6559808 0.55019665 -0.3668387 0.016110899
000280 4b b4 82 3f 32 93 84 be 28 cf 24 3e 10 78 15 3d
       1.0211271 -0.2589355 0.16094649 0.036491454
000290 a3 45 d1 3e 00 4b 16 bf 72 6e e7 3d 04 30 e8 3d
       0.4087344 -0.5870819 0.11300363 0.11337283
0002a0 c6 7d 9b 3d fd 98 2e be 56 fa 15 3f cc ce 54 3f
       0.07592349 -0.17050548 0.5858511 0.83128047
0002b0 1e 23 a3 3f 94 2a 40 bf c8 cf 26 be 3f 5f 03 3f
       1.2745092 -0.7506497 -0.162902 0.5131721
0002c0 e4 30 40 3e cf 6d b6 bd 9a 8d 37 be 53 5b 29 3e
       0.1876865 -0.08907663 -0.1792511 0.16538744
0002d0 64 1f 13 3f 6f 64 9d be 8f 8b de 3e f4 2a 35 3f
       0.57469773 -0.30740687 0.4346585 0.70768666
0002e0 73 2b 94 3c a0 df 56 3e 1d 03 fb 3e 30 af 09 3d
       0.018087124 0.20983744 0.49025813 0.033614337
0002f0 4f 24 20 3e 24 d7 a8 bd 16 e1 0d be 5b 14 00 be
       0.1563885 -0.0824416 -0.13855395 -0.12507765
000300 ce f9 c3 3e 97 63 e0 3d e3 71 9d 3e 1c 49 2e be
       0.38276523 0.10956495 0.3075095 -0.17020077
000310 3a 33 ce 3b 1c d6 4c 3d 4d 24 b8 bd 81 ce dd be
       0.006292728 0.050008878 -0.08991299 -0.43321612
000320 2e 4d a1 be 6b b2 98 be e2 ae a4 be 23 27 84 3c
       -0.31504196 -0.29823622 -0.32164675 0.016131943
000330 90 70 c0 bc 4f ea 2c 3e 16 b2 d7 be 2d 8d f1 3c
       -0.023491174 0.16886257 -0.42128056 0.029486263
000340 80 1d 62 3e a5 d1 3e 3d 9f 7b d5 3d f4 84 2b bf
       0.22081566 0.04658665 0.104239695 -0.66999745
000350 cc c8 95 be 7b e1 12 3e d4 ba ce bd ef 77 d0 be
       -0.29254758 0.14343826 -0.100942284 -0.40716502
000360 d3 73 1e be 9f e3 27 bd 44 03 6f be 10 03 36 be
       -0.15473871 -0.04098856 -0.2334109 -0.17774606
000370 22 c5 9a 3f 59 0b 1d 3e 6e 73 a9 bd 95 76 30 be
       1.209141 0.1533636 -0.082739696 -0.17232735
000380 11 12 27 3e 22 01 79 be 64 18 61 3d f5 43 09 3e
       0.16315486 -0.24316838 0.0549549 0.1340483
000390 9c d0 bf 3d 14 1e 5c 3e e5 fd 19 be 4d 9c 19 3e
       0.09365961 0.21495849 -0.1503826 0.1500103
0003a0 bd 3a cf 3d fa 0f 5f 3b f7 d8 97 bd 7f c6 a6 3e
       0.10118625 0.0034036622 -0.0741443 0.32573316
0003b0 dd b1 b6 3d 5e ed 4d 3d a4 32 ee 3d 0d aa ad be
       0.089206435 0.0502752 0.11630753 -0.339188
0003c0 56 25 0e be 1e 13 f1 bc 16 f3 36 3c f5 6b a9 bc
       -0.1388143 -0.029428061 0.011166355 -0.02068136
0003d0 32 ac 90 3e 06 85 d6 be 46 f4 83 be 05 f3 82 bc
       0.28256375 -0.41898364 -0.25772303 -0.015985021
0003e0 36 cd 2a 3e 43 c3 26 be 53 2a 61 be 33 a5 63 bf
       0.16679844 -0.16285424 -0.21988802 -0.8892395
0003f0 6f f6 0b bd 92 f4 00 c0 93 b1 2c bf 59 89 03 3f
       -0.034170564 -2.0149274 -0.67458457 0.5138145

se_block_event.0.0.bias f4 [16]
000000 02 35 28 bd 69 b7 34 3e c0 a2 2e bf 29 b7 6e 3f
       -0.041066177 0.1764809 -0.68217087 0.9324823
000010 e4 ef 0f bc 3b ee 05 bf be 3a ad 3e f9 7c b2 3e
       -0.008785222 -0.52316636 0.3383388 0.34860972
000020 20 04 c9 bd ce 15 33 bf 09 54 16 3f 10 8d 00 3f
       -0.0981524 -0.69955146 0.5872198 0.50215244
000030 c6 1b bb be ca 0f 33 be 44 c3 99 3e c8 54 22 3e
       -0.36544627 -0.17486492 0.30031788 0.15852654

se_block_event.0.2.weight f4 [64, 16]
000000 a0 43 30 3e 8a dc e3 3d f1 dc 85 be 9f 4d 1f 3f
       0.17213297 0.11126049 -0.26145127 0.62227815
000010 6d 70 fc 3e f6 f3 06 3e 19 7c 93 3e c5 3c 0e 3f
       0.49304524 0.13179001 0.28805616 0.55561477
000020 07 f1 b9 be 2d cb 49 3f e5 e6 56 3d 83 78 93 3e
       -0.36316702 0.78825647 0.052466292 0.2880288
000030 bd 6c 19 3d 0f 14 46 bf 92 85 80 3e b1 6b dc 3e
       0.037457217 -0.77374357 0.25101906 0.43050912
000040 da cc ec 3e f8 b4 a0 3f 98 5c 30 3f 88 c3 9a 3f
       0.4625004 1.2555227 0.68891287 1.2090921
000050 6d 96 ad 3e b6 7f 8d 3f e9 14 1d 3f 03 cb 97 3f
       0.33903828 1.1054599 0.6136003 1.1858829
000060 8a 48 73 3f 46 f1 0a 3f 39 05 27 3f ca 7a 85 3f
       0.9503256 0.54274404 0.65242344 1.0428097
000070 32 83 db 3e 37 5d a0 3f ad 77 7f 3f ea 25 3e 3f
       0.42873532 1.2528447 0.99791986 0.742766
000080 51 78 03 bd d4 3a c2 bd 24 90 c2 be ef c6 23 3f
       -0.032097165 -0.09483877 -0.38000596 0.63975424
000090 ed d9 f4 3e 7f b7 ad bd 54 61 bc be 9b 53 a9 3d
       0.47822514 -0.08482265 -0.36793005 0.082678996
0000a0 ff 9d 1b 3e da 3f e4 be 3b 81 3f be d3 2e 26 3f
       0.1519699 -0.44579965 -0.18701641 0.649152
0000b0 d9 80 b4 bd 23 7e 04 be 86 f8 1b 3f 41 83 05 be
       -0.08813638 -0.12938742 0.6092609 -0.1303835
0000c0 e2 78 25 3e 89 d4 5a be 4f 44 4c 3f 14 b6 6c 3f
       0.16159394 -0.21370138 0.7979173 0.9246533
0000d0 00 db 2f 3f 4a 3b 22 bf 21 f8 c1 3e 9e e2 e7 bd
       0.6869354 -0.6337172 0.3788462 -0.11322521
0000e0 46 5a 92 be b2 9b 33 3f 7e 4f b4 3f 11 75 08 3f
       -0.28584498 0.7015945 1.4086759 0.5330363
0000f0 5d 79 e7 3e 7b ed a2 bd cf cc 33 3f e4 aa 26 3f
       0.4520978 -0.07955452 0.7023439 0.6510451
000100 42 e8 55 3f 2a 51 1b bf aa cc 53 3e 83 19 f4 3d
       0.8355752 -0.6067072 0.20683542 0.119189285
000110 7d 40 6c 3f 79 81 70 bf e2 4c f5 3e e6 f0 6d 3f
       0.922859 -0.9394756 0.4791022 0.92945707
000120 e2 c6 99 bd 14 5a d8 3d 30 2e 00 3f 0a bc 45 3d
       -0.07508637 0.10564056 0.50070477 0.04827503
000130 3a 12 ac 3e fa 7c 90 be e1 56 79 be 3e b3 80 bf
       0.33607656 -0.2822035 -0.24349548 -1.00547
000140 d8 b2 3f 3e 9d bc 54 3f a5 4a 77 be 63 c0 9e 3e
       0.18720567 0.831003 -0.24149568 0.31006154
000150 51 15 90 be 0e 1c ce be 35 a4 42 be be be 7b be
       -0.28141263 -0.4025578 -0.19007953 -0.24584481
000160 de e4 20 be dc ea b1 bc 94 4d d1 3e b5 cb 29 3f
       -0.15712306 -0.021718435 0.408795 0.6632646
000170 51 34 12 3d 31 31 12 bc a1 55 c0 3e aa 02 27 bf
       0.035694424 -0.008922861 0.3756533 -0.6523844
000180 8a eb fa 3d 58 61 da 3c 18 ce 07 bf 34 2c 27 3f
       0.12251957 0.026657745 -0.5304885 0.65301824
000190 15 94 14 3f aa 56 8f bc c5 47 c6 3e f5 d4 be be
       0.58038455 -0.01749738 0.3872663 -0.37271848
0001a0 33 2f 1a 3e 06 55 1d bd e1 99 2a 3d 31 0c 0b 3d
       0.15057068 -0.038411163 0.041650657 0.033947174
0001b0 91 4b c0 3d f2 21 b8 be 14 aa 06 3e 47 dd 3f 3e
       0.09389413 -0.35963398 0.13150817 0.18736754
0001c0 60 b7 25 3e 2b 49 bd ba 3c d3 30 3d 17 87 72 3e
       0.16183233 -0.0014441361 0.0431702 0.23684345
0001d0 8a 2d c6 bd 7f 9d 6b bd c6 38 65 3e 43 71 a8 bc
       -0.09676655 -0.057523247 0.22384939 -0.02056182
0001e0 d7 2b b1 3c 73 62 43 3e 06 e7 89 3e a9 84 80 3e
       0.02162735 0.19080524 0.2693407 0.25101212
0001f0 a8 56 b9 3e ee 23 3d be d9 e1 f7 3d cc 46 7b 3e
       0.36198926 -0.18470737 0.12103624 0.24538726
000200 e0 e8 40 3f 21 cc e9 3d e7 1f a7 3f 99 d3 12 3f
       0.7535534 0.114158876 1.3056611 0.5735412
000210 9b ee 98 3f ed 50 b2 be 2a 47 59 3f 08 72 0d 3f
       1.1947817 -0.34827366 0.8487421 0.5525212
000220 9e 64 9e be d3 92 18 3f e9 bc c6 3c ec 04 1a 3f
       -0.3093614 0.59599036 0.024260001 0.6016376
000230 27 de be 3f aa 08 7b be 8b 05 28 3f 7a 71 b9 3e
       1.4911546 -0.24515024 0.6563346 0.36219388
000240 6b bb 70 be 27 32 05 3d 1a cb 81 3e 09 b9 54 bc
       -0.23508994 0.032518532 0.25350267 -0.012983569
000250 82 03 dc 3e a4 31 79 3d 5c ea db 3e c7 59 28 3f
       0.42971426 0.060838357 0.4295224 0.6576199
000260 06 af 42 3e 07 7b 6e 3d 39 be e3 3e 22 5b 3e 3e
       0.19012079 0.058222797 0.44481066 0.18589452
000270 d2 a9 80 3d 51 6b 4f be 7b e3 ff 3e 41 f9 55 3f
       0.06282391 -0.20255782 0.4997824 0.83583456
000280 5d 60 db 3e 14 49 c8 3f a6 f7 b8 3e 2f 28 a2 3f
       0.42846957 1.5647302 0.3612644 1.2668513
000290 b3 b2 2d 3e f6 cc c2 3f 5f d4 d0 3e b2 62 50 3f
       0.169627 1.5218799 0.40787026 0.814006
0002a0 37 00 c6 3f b8 f7 5a be 38 16 bb 3f 72 d7 db 3e
       1.5468816 -0.2138356 1.4616156 0.4293781
0002b0 58 bb e3 3e ee bc df 3f 3c c7 32 3f 02 b3 82 3f
       0.4447887 1.7479532 0.6983526 1.0210879
0002c0 05 00 f6 3e aa 35 08 3d f3 a5 28 3f ef 88 5c 3e
       0.4804689 0.033254303 0.6587822 0.21536611
0002d0 ee a9 d4 3d 70 76 d4 be ec 11 fb bd 7c a7 24 3e
       0.10383974 -0.4149661 -0.12259278 0.16079515
0002e0 bf 13 8b bd dc 2a 82 bf d5 71 7c 3d c4 1d 22 3e
       -0.06790876 -1.016933 0.061631996 0.15831667
0002f0 95 df 5a 3e c6 25 bd be 52 3b 84 be 64 05 c2 be
       0.21374352 -0.3694288 -0.25826508 -0.37894738
000300 66 83 4f be db 02 a0 be ae e7 2b 3f 87 55 2a bf
       -0.20264968 -0.3125218 0.6715039 -0.66536754
000310 59 ec f0 bc f1 6a dc bd 3b b2 7a bc 6e d8 76 3e
       -0.029409574 -0.10762585 -0.0153012825 0.24105999
000320 57 b5 c5 be f6 3f d8 3d b5 bc 19 be bd b9 1f bd
       -0.38614914 0.105590746 -0.15013392 -0.038995493
000330 fe a8 80 be 47 6e e2 bd 0e 8c 26 bd cd 39 8e 3e
       -0.2512893 -0.1105619 -0.04066091 0.27778473
000340 2b 25 ed bc a4 3c 05 bf 6b 36 a9 3e 3f d6 e4 be
       -0.028948387 -0.52045655 0.3304933 -0.44694707
000350 20 0e 18 be a6 fc 5c be 12 2f fe bc 4b d9 6d 3f
       -0.14849138 -0.21580753 -0.031028304 0.9290969
000360 ac 8e 1f bd f9 bd 44 3b fc ba 1d bf 5d 77 b6 be
       -0.038954422 0.003002046 -0.6161344 -0.35637942
000370 44 16 83 bf fb 7d f3 be 2f 57 31 be 5c 0a 93 3c
       -1.024117 -0.47557053 -0.17318414 0.017949276
000380 42 99 e3 3f 29 ff be 3f a3 3e 34 3f e2 9a e0 3f
       1.7781146 1.4921619 0.70408076 1.7547266
000390 3c f8 8d 3f e2 a8 0d 40 20 e5 b5 3f 0d 69 b3 3f
       1.109138 2.2134328 1.4210548 1.4016434
0003a0 88 c6 db 3f 62 b4 2b 3f 2c fa 33 3f 39 97 84 3f
       1.7169962 0.6707212 0.70303607 1.035865
0003b0 d6 1f 88 3f 0f c0 e3 3f 50 e0 cf 3f f9 b0 d2 3f
       1.0634716 1.7792987 1.624033 1.6460258
0003c0 b5 bb 47 3d 83 aa 0d bf df de 49 bc c5 00 a7 bd
       0.048762996 -0.55338305 -0.012321203 -0.08154444
0003d0 26 72 bb be ea 35 13 be f4 3d da be 61 c8 66 3e
       -0.36610526 -0.14376035 -0.4262539 0.22537376
0003e0 8c 85 a2 be 38 10 68 3e 23 c4 0e be 6f a3 ed 3e
       -0.31742513 0.22662437 -0.13942008 0.46413752
0003f0 8c 82 c1 3e 53 6e 2e be 8e eb 4e bd 72 64 01 bf
       0.37794912 -0.17034273 -0.05051761 -0.5054389

se_block_event.0.2.bias f4 [64]
000000 5c f4 f8 3d c0 ae 93 3f cb aa 88 be 9c aa dc 3e
       0.12155983 1.1537704 -0.26692805 0.43098915
000010 b4 6d c0 3f ab 06 52 3a 85 56 fc 3c f5 ec 49 3e
       1.5033479 0.0008011858 0.030802974 0.19719298
000020 5d 9f d7 3d b7 e9 05 bf 53 4f bf 3f bb bf 42 3b
       0.10528443 -0.52309746 1.4946083 0.002971633
000030 5b 1d 2a bf 4c 06 76 3e 4c 8f cf 3f 56 fc b3 3e
       -0.6645104 0.2402584 1.6215606 0.35153455
000040 81 65 c0 3e 61 e4 e4 3e 2a cd f4 3e 26 89 e7 be
       0.3757744 0.4470549 0.47812778 -0.45221823
000050 4e 75 56 3f cf 4f bb be 83 61 95 3f 33 8b e7 3f
       0.8377274 -0.36584327 1.1670383 1.8089355
000060 26 65 81 3d 82 58 33 3f e0 9f 41 be b0 d1 0f 40
       0.06318121 0.7005693 -0.18908644 2.2471733
000070 ab 40 4c 3e 17 3c d3 3e ad ef 09 bf 28 e5 ea 3f
       0.19946544 0.41256782 -0.5388134 1.8351183
000080 31 9a 0b bf 73 c3 ba be 33 5d a1 3f b9 c6 7f be
       -0.5453215 -0.3647724 1.2606567 -0.2497815
000090 0f 7d 3c 40 a0 34 9b 3d d4 58 b1 be 32 2e eb 3f
       2.945133 0.07578397 -0.34638083 1.8373473
0000a0 f7 86 24 3f 7b 02 95 3e b4 91 f1 bd 69 44 3c be
       0.6426844 0.29103455 -0.11795369 -0.18385471
0000b0 38 4c 16 be c9 ed 88 be 18 f7 0c bf 5c be 9e 3e
       -0.14677513 -0.26743916 -0.55064535 0.31004608
0000c0 89 06 9a 3f 5c a4 9f be a6 86 83 3e b7 20 ed 3e
       1.2033244 -0.31180084 0.25688666 0.46314022
0000d0 26 b4 0f 3f 0e 18 17 40 7d dc d0 3f 65 bb 04 40
       0.5613426 2.3608432 1.6317288 2.0739377
0000e0 d1 6c 1f 40 0f eb 14 3f 0d 1b 34 be 86 81 80 bd
       2.4910166 0.5817117 -0.17588444 -0.06274705
0000f0 c0 7c 27 3f a8 8f 9c be 43 c4 dd 3f 17 8e 2d be
       0.6542473 -0.3057835 1.7325519 -0.16948734

se_block_event.1.0.weight f4 [16, 64]
000000 0c 16 0c 3d 47 56 28 3f fe c8 3a 3e ca 16 27 bd
       0.034200713 0.6575665 0.18240735 -0.040793218
000010 e3 ad d4 be 84 eb 46 3f 46 95 d9 be 67 89 03 bf
       -0.41538915 0.7770312 -0.424967 -0.51381534
000020 e2 06 86 3f af 73 8b 3f 5e 31 ce 3d bc c3 76 3e
       1.047085 1.0894679 0.1006801 0.24098104
000030 8f 1a 30 be 29 9f 82 bd dd a5 57 be b9 a3 dd bc
       -0.17197631 -0.06378014 -0.21059366 -0.027055608
000040 2f 53 0d be 5b 91 69 3e f0 ae 1e 3e 5f a1 cb 3e
       -0.13801263 0.22809355 0.15496421 0.39771554
000050 88 83 76 3d 1f 9a 3d 3e 45 7b 42 3d c7 5e ae 3e
       0.06018403 0.18515824 0.04748084 0.34056684
000060 9a 89 84 3e 57 93 3e be 04 fd 88 3f d8 99 69 be
       0.25886232 -0.18610893 1.0702214 -0.22812593
000070 0e e5 b1 3f 68 c2 2b 3f a0 c3 81 3e 29 fe 9d 3d
       1.3898027 0.67093515 0.25344563 0.07714493
000080 fb d5 20 3f d0 60 c6 bb 1d ed 9f be d6 30 1b be
       0.6282651 -0.0060540214 -0.3123559 -0.15155348
000090 3d 80 eb 3d 20 fc 85 bd 63 81 cd 3e 31 c2 93 3e
       0.11499069 -0.0654223 0.40137777 0.28859094
0000a0 c7 98 24 3e 5f 95 3c be cf 0a bf 3f ee 3c ad 3f
       0.16073905 -0.18416356 1.4925174 1.3534219
0000b0 2d 2c 4e 3f b8 ca 4c be 5f b0 83 bd c5 21 5b 3d
       0.80536157 -0.19999206 -0.064301245 0.053499002
0000c0 7e 08 be 3c 69 62 7d be fc 23 d7 be 2b f7 38 3f
       0.023197409 -0.24744572 -0.4201964 0.7225215
0000d0 1f 7a f1 bc 8c a1 7c be cb cf 9e 3e b9 57 a1 3d
       -0.029477177 -0.24671 0.31017908 0.0787806
0000e0 e9 19 d2 bc 39 51 0e 3d 70 09 d5 be 4a a6 28 3e
       -0.02564712 0.03474543 -0.41608763 0.16469684
0000f0 88 da 00 be 32 e9 7a 3e 32 c5 e1 bd 03 ae 49 bf
       -0.12583363 0.2450302 -0.1102394 -0.78781146
000100 85 5f 5e be 83 8c 89 3f f0 4e 17 3f 01 44 f2 3e
       -0.21716125 1.0746006 0.59104824 0.47317508
000110 5f 72 81 bd 95 37 97 3f 3f 80 dc 3e ac 82 6a be
       -0.06320643 1.1813837 0.43066594 -0.2290141
000120 1b 2e ec 3f 53 91 44 3f 03 b5 30 3f 04 47 d3 3e
       1.845157 0.7678425 0.690262 0.41265118
000130 d7 b3 f3 be 40 f4 da be 1f e3 61 bd 5b 64 9a be
       -0.47598144 -0.42764473 -0.05514824 -0.3015469
000140 2f 2b 50 3f 04 7f 1f 3e f3 58 ec 3e 5c 72 a2 3c
       0.8131589 0.15575796 0.46161613 0.019829921
000150 54 5a f2 3e 66 e9 9f 3e 49 1b 5b 3e 80 fe ee 3d
       0.4733454 0.31232756 0.21397127 0.11669636
000160 8b db cb 3f 30 ef f2 3e b7 71 15 40 7f 04 97 3f
       1.5926374 0.4744811 2.3350656 1.1798247
000170 9e af 00 40 75 4a 85 3e 88 e8 b1 be 67 4c 00 be
       2.0107188 0.2603337 -0.3474772 -0.12529145
000180 70 67 dc 3f 9d 00 76 3e 58 ab f3 bd 42 fe 68 3e
       1.7219067 0.24023671 -0.118979156 0.22753242
000190 a9 ae 86 be 6e ca 55 3d 5a d4 1c 3f 3d b2 ff 3d
       -0.2630513 0.052195005 0.6126152 0.12485168
0001a0 ec 4b 92 3e e2 d1 8e be a4 c9 16 40 34 e3 f1 3f
       0.2857355 -0.27894503 2.3560572 1.8897462
0001b0 d7 0a da 3f 82 15 eb bd c6 68 a3 be d1 79 c5 3e
       1.7034558 -0.11478712 -0.31915873 0.385695
0001c0 91 4a 01 3f 6d 8d ab bc 73 f2 a0 3e 1b 48 87 3f
       0.50504404 -0.02094146 0.31434974 1.056888
0001d0 9f fd 82 3f aa 0d 86 bd d2 ab 41 3f aa 55 5f 3f
       1.0233649 -0.06545575 0.756528 0.8724009
0001e0 7c 20 94 3d 1f dc e1 3e 11 c1 1d 3e fe 96 2c 3e
       0.072327584 0.44113252 0.1540568 0.16854474
0001f0 95 7e 89 be 37 eb dc bd d9 fa a0 bc 7c 70 b7 bd
       -0.26854387 -0.10787051 -0.019650863 -0.089570016
000200 cc 28 f7 3e 94 c2 9e 3f 06 a0 9d be 5b ef 53 3e
       0.48273313 1.240313 -0.3078615 0.20696776
000210 80 73 2f bd 35 5e 01 40 f7 18 6f 3e 73 0c f3 be
       -0.04283476 2.021375 0.23349367 -0.47470436
000220 b4 be be 3f 79 14 8a 3f eb 04 e0 bd f3 24 c9 3e
       1.4901948 1.0787498 -0.10938438 0.39286003
000230 4f 00 b9 be 65 16 49 3b 3b c2 b2 bd fd 55 26 3e
       -0.36133048 0.0030683514 -0.08728453 0.1624374
000240 d6 ca 15 be 99 e9 ed bd 85 2e 59 3e b2 85 88 3e
       -0.14628157 -0.11616821 0.21209152 0.266645
000250 41 ac 3f be 1e ce a0 3e eb 4a 1b be 2b 6b 22 3d
       -0.18718053 0.31407255 -0.15165298 0.039652985
000260 25 34 77 3f 56 d3 e9 bd a5 a3 c8 3f 50 d6 03 3d
       0.9656394 -0.11417262 1.567494 0.032186806
000270 ce 19 ad 3f 9c d3 16 be 6e 5c a2 be 72 49 86 be
       1.35235 -0.1472916 -0.31711143 -0.2622791
000280 ce f5 96 3f 89 97 ac 3c 12 da a0 be 64 79 8c be
       1.1793764 0.021068351 -0.31416374 -0.27436364
000290 e5 ee 72 3c 9e d9 50 3c 5a 9e a9 3e ae 07 7d be
       0.014827465 0.0127471965 0.33128625 -0.24709961
0002a0 02 95 69 be a5 29 b6 bc 19 7a d3 3f 67 3e 9d 3f
       -0.22810748 -0.022236655 1.6521636 1.2284669
0002b0 be b9 ba 3f 68 f6 9b be 92 2d 0c 3d 8c 4b b4 be
       1.4587934 -0.3046143 0.034223147 -0.35213888
0002c0 3f 44 45 be 66 67 86 bd 68 35 f8 be 5a 8f e1 3e
       -0.19264315 -0.065626904 -0.48478246 0.4405468
0002d0 12 55 ec 3e 1c 83 e6 3d 7f 3d 14 3e 2a 7e 17 be
       0.46158653 0.11255476 0.14476584 -0.14794222
0002e0 6f b2 83 ba bc 69 60 bd 2d 3a 78 bd 11 a0 1a bd
       -0.0010047684 -0.054788336 -0.060602356 -0.037750307
0002f0 55 01 d5 bd 95 e9 0c be 62 34 a8 3e c2 44 95 3f
       -0.10400645 -0.1376098 0.32852465 1.1661608
000300 fc 4a 60 be 7f 9f b4 3d 9e fe ad bd cf 7d 2f be
       -0.21903604 0.08819484 -0.0849583 -0.17137836
000310 14 87 0c 3f 41 f2 94 be f9 1a 0f 3f df 03 f3 39
       0.5489361 -0.29091075 0.5590053 0.00046351456
000320 ce b4 94 bf 04 1b 99 3d 2b 08 cf 3e b5 91 8c be
       -1.1617677 0.07475856 0.4043592 -0.27454916
000330 70 4a 0c be e8 f8 ba 3d da 06 25 be 94 ce aa 3b
       -0.1370027 0.09129506 -0.16115895 0.0052126143
000340 41 de ad 3e bd cf 51 3e 97 37 57 be 5a 7a 8b be
       0.3395863 0.20489402 -0.210173 -0.27241784
000350 a3 7e e5 3b 56 b5 79 3e 49 d1 da 3c 9f e9 5c 3e
       0.0070036217 0.2438558 0.026711123 0.21573494
000360 29 59 17 bd 41 38 91 3d f3 ff 0b bf 55 22 6f bd
       -0.036950264 0.07090808 -0.5468742 -0.05838235
000370 f4 28 ef be 1f 8f a1 be 58 4e 3d 3e ae 43 b4 3e
       -0.46710932 -0.31554505 0.18486917 0.35207886
000380 68 24 83 bf b9 d4 c6 3d bd 18 29 3e 91 69 60 3e
       -1.0245485 0.097085424 0.16513343 0.2191527
000390 8e 14 1e 3e 66 5b 39 be 6d 6e 15 3f f2 87 c3 3e
       0.15437528 -0.18101272 0.5837162 0.38189656
0003a0 03 85 f8 3d 0f 00 8f 3e 72 b8 db 3d 55 7d ab be
       0.12134745 0.27929732 0.107285395 -0.33494058
0003b0 b8 3a 2e bf 3b 2f 85 3c ce 19 0d 3e 98 86 9c 3e
       -0.6805835 0.016257873 0.13779375 0.30571437
0003c0 0e 11 8e bc 0c f3 0e be 51 b6 39 3e 99 bc d3 3d
       -0.017342117 -0.13959903 0.18135954 0.103387065
0003d0 eb ab 48 3e ce 5c d7 bd ae 88 04 bf eb 98 06 3f
       0.19596832 -0.10515748 -0.51771057 0.52577084
0003e0 b6 16 9c 3e da bb 82 3d af ef c8 3e 63 92 8d 3e
       0.30486077 0.06383486 0.39245364 0.27650747
0003f0 c6 6a 3b bf 0b df 48 3e 6b ce 7a bd 17 9d ad 3f
       -0.732098 0.19616334 -0.06123201 1.3563565

se_block_event.1.0.bias f4 [16]
000000 1e 7b 13 bf 3a b4 0a c0 ee 66 0a bf 00 6b 53 3a
       -0.57609737 -2.1672502 -0.5406331 0.00080649555
000010 3d 01 4e bf 84 c9 25 3e 2a dd d9 bf 02 b8 dc bf
       -0.8047064 0.16190153 -1.7020619 -1.7243655
000020 e2 11 99 be 1c a8 a3 bf d5 09 04 be 40 bf c2 bf
       -0.29896456 -1.2785678 -0.12894376 -1.5214615
000030 ec 25 cb bf 9b 47 5e 3d 7c 9a ac bf 9c a6 bf bf
       -1.5870948 0.054267507 -1.3484645 -1.497272

se_block_event.1.2.weight f4 [64, 16]
000000 d0 c3 0c 3f d0 37 2e be 9e a8 f7 3c b2 7a a9 be
       0.54986286 -0.17013478 0.03023177 -0.33101422
000010 98 bc b0 3e 35 d8 5e 3e bf a8 31 3e 48 7d 01 3e
       0.34518886 0.21762164 0.17349528 0.12645447
000020 53 ce 1f be af 20 85 bd 42 f4 23 bf 02 3c f9 3d
       -0.1560605 -0.065003745 -0.6404458 0.12169649
000030 5f f4 07 bf e2 67 20 be 96 00 28 3e 7f a7 8d be
       -0.53107256 -0.15664628 0.16406474 -0.27666852
000040 15 0a b8 3e e5 17 01 3f 18 d8 a6 3f 40 8a ee 3f
       0.35945192 0.50427085 1.3034697 1.863594
000050 78 7f 6b 3f 36 7a ed 3e 4e e2 b2 3e c9 5f 57 3f
       0.91991377 0.46382302 0.34938282 0.8413053
000060 24 07 d2 3f 2f 23 b0 3e 53 5c 15 40 53 e8 74 3e
       1.6408429 0.34401843 2.33376 0.2391675
000070 2b 9a 15 3f 3c 9c ce 3f 72 7a 17 3f f8 7c d3 3e
       0.58438367 1.6141429 0.5917121 0.4130628
000080 f9 74 3e 3e a2 b6 4c bf 4c fc 38 3f 39 1c 69 be
       0.18599309 -0.79966176 0.72259974 -0.22764672
000090 94 17 1c bf c3 68 9c 3e c0 b6 60 3e 20 f1 bb 3d
       -0.6097348 0.30548677 0.21944714 0.0917685
0000a0 82 08 97 3e 36 86 26 3d e6 4c 45 be 17 07 ae be
       0.29498678 0.040655337 -0.19267616 -0.33989784
0000b0 04 91 38 be 32 10 27 3f 9a 8c 06 be c7 a0 c9 bd
       -0.18024069 0.6525909 -0.13139573 -0.09845119
0000c0 64 9d 90 3f 8c c7 75 3f a7 62 14 3e a4 33 0b 3f
       1.1298032 0.9600761 0.14490758 0.5437567
0000d0 1c be 4c 3e 39 d6 38 3f 24 94 f7 3e 99 c5 45 3f
       0.19994396 0.7220188 0.4835521 0.77254635
0000e0 ef 7c 82 be 24 36 25 3f ec d8 38 bf a7 25 7c 3f
       -0.25485942 0.6453574 -0.72205997 0.9849495
0000f0 e8 bf 9a 3f f2 2c ea 3e 37 3d 00 3f 00 33 82 3f
       1.2089815 0.45737416 0.50093406 1.0171814
000100 71 0a a3 3f ab 60 07 3f 57 79 57 3f 2d ed c3 3d
       1.2737561 0.5288188 0.84169525 0.09566722
000110 dc 83 af 3e 31 ab 56 3e 0b 6b 1d 3e 1d ce 4e 3f
       0.34280288 0.20963742 0.15372865 0.80783254
000120 4e 90 19 bf 8f 6b 46 3f 65 f2 8d be 0d e5 61 3f
       -0.59985816 0.7750787 -0.27723995 0.8824013
000130 dd 40 ce 3e 4a e9 30 3e b5 02 f9 bd cd ca b1 3e
       0.40283862 0.17276493 -0.121587195 0.34725037
000140 ab a2 8d 3f 7f 91 94 3f 9d 9d 14 40 4a bb f4 3e
       1.1065267 1.1606902 2.32212 0.4779914
000150 3f 98 e0 3f 43 b2 66 3f c8 e3 5e 3f 64 0a 98 3f
       1.7546462 0.90115756 0.87066317 1.1878171
000160 30 4a 9b 3f 0c eb 9a 3f 3f 17 42 3f f2 78 f6 3f
       1.2132015 1.2102981 0.7581672 1.925566
000170 a1 94 94 3f da 65 cb 3f 41 ef 88 3f c6 cf 91 3f
       1.1607858 1.5890458 1.0698014 1.1391532
000180 71 7a 3a 3f cd e6 a8 3f e5 0d 9e 3f 09 0f fa 3c
       0.7284308 1.3195435 1.234799 0.030524747
000190 44 d3 7e 3f 0c c4 4f 3f c7 8f 7c 3f 50 79 52 3f
       0.99541116 0.8115852 0.98656887 0.8221636
0001a0 87 a7 12 3f e5 9d 72 3f 1c ce 62 3d 55 3f e4 3f
       0.57286876 0.9477218 0.055372342 1.7831827
0001b0 a9 fd d5 3f 6b 8d 8d 3f b6 7d 89 3f 6e ff d0 3f
       1.6718036 1.1058782 1.0741489 1.6327951
0001c0 0c 1d 02 40 38 57 a0 3f 5b 0d 27 3f 22 41 8e 3c
       2.0330229 1.2526617 0.65254754 0.017365042
0001d0 ce 5a 31 40 72 a5 84 3f e0 e1 20 40 76 6a fe 3f
       2.7711673 1.036299 2.5137863 1.9876239
0001e0 a3 5f 58 3f 8e d9 61 3f d4 98 4e 3e 9d e0 52 40
       0.8452093 0.8822259 0.20175487 3.2949593
0001f0 6b f2 97 3f ee de a4 3f 69 44 a2 3f 4d 61 c5 3f
       1.1870855 1.2880533 1.2677127 1.5420319
000200 8f 3d 28 40 4d d3 8b 3f e7 df eb 3f 1c 0e 2b 3f
       2.6287572 1.0923859 1.8427705 0.66818404
000210 f1 0a 04 40 91 52 fd 3e 2d 51 d8 3f 6a d2 11 3f
       2.0631678 0.49477056 1.6899773 0.5696169
000220 95 58 5b 3f 42 e5 7a 3f ac 51 80 3f e6 d7 09 40
       0.8568204 0.9800607 1.0024924 2.1538024
000230 89 a9 d3 3e 72 b5 7e 3f 88 d5 ee 3f eb da d1 3f
       0.41340283 0.99495614 1.8658915 1.6394933
000240 19 87 63 3f 86 08 20 3f 67 95 31 3f 5d 21 d1 3e
       0.8887802 0.62513006 0.69368595 0.40845767
000250 d8 30 e0 3f 76 60 66 3f f8 b7 fe 3e fa c4 a5 3f
       1.7514906 0.8999094 0.49749732 1.2950737
000260 4d b6 83 3f b7 c8 f5 3e 87 4d a2 3e 88 f3 6e 3f
       1.0290009 0.48004696 0.31699774 0.9334035
000270 ee 82 bf 3f 51 21 ae 3f e1 00 5f 3f ef e0 e9 3e
       1.4961832 1.3603917 0.87110716 0.45679423
000280 61 6f a9 3e 1e 90 a2 3f 14 79 01 3f fd c9 6b 3d
       0.33092788 1.2700231 0.50575376 0.057565678
000290 57 fe 0e 3d 74 f9 6a 3f 48 62 02 3f 72 67 26 3f
       0.034910526 0.91786885 0.50931215 0.65001595
0002a0 10 c1 fb be 43 12 88 3e 61 82 b5 be 6e f7 40 3f
       -0.49170732 0.26576433 -0.35451034 0.7537755
0002b0 cd d5 5d 3f e1 48 ea bd 41 11 5d 3f 71 75 a3 3f
       0.8665436 -0.11439682 0.8635445 1.2770215
0002c0 9e 99 49 3f d2 6d 78 3f ef 4e 1e 3b 6e ed a8 bb
       0.78750026 0.9704257 0.0024155935 -0.005155257
0002d0 96 d0 f3 bd 69 97 b8 3e 99 98 45 3f 81 24 8b 3e
       -0.11905019 0.36053017 0.7718597 0.27176288
0002e0 e8 24 ef 3e f6 d3 5a 3f d1 34 07 bf 8d ed de 3e
       0.46707845 0.85479677 -0.52814966 0.43540612
0002f0 37 8c a2 3e c3 11 1a 3e bd f1 5d 3e 91 67 db 3d
       0.317476 0.15045838 0.21674247 0.10713113
000300 5d 17 00 3e 48 02 5e be 32 0b f5 bc b3 e6 fd 3b
       0.12508912 -0.21680558 -0.029912565 0.0077484488
000310 ed f4 0f be 79 cf 8f 3e 29 a9 12 3e e2 41 bf bd
       -0.14058276 0.28087977 0.14322342 -0.09338738
000320 ed d5 50 bd 74 c7 c7 3d 02 92 f1 bd de 64 73 3e
       -0.050985266 0.097548395 -0.11795427 0.23768947
000330 e4 11 83 be fd 4f 47 be 65 f4 19 be ab 86 a2 3d
       -0.25599587 -0.19464107 -0.15034635 0.07935842
000340 2e df 54 3e 59 2d dd 3e eb fe 25 be de 88 b2 3d
       0.20788261 0.4319866 -0.16210525 0.087175116
000350 b3 7e 8e ba 26 4b a9 bc 05 f3 f9 3d c5 ee e0 be
       -0.00108715 -0.020665716 0.122045554 -0.43932167
000360 71 76 35 bd e8 7b db be 34 b0 aa be c7 a6 02 3f
       -0.044302408 -0.4286797 -0.33337557 0.5103573
000370 0c 7a 04 be c8 ff 89 3e cf fe 25 3e 66 0b 1e 3e
       -0.12937182 0.26952958 0.16210483 0.15434036
000380 29 95 4f be 16 13 c1 bd ae ff 70 be b1 66 b2 be
       -0.20271744 -0.094274685 -0.23535034 -0.34843972
000390 0f 8d 51 3e b0 98 95 3e 72 e9 1f bd d5 2c cc 3d
       0.20463966 0.29218054 -0.03904099 0.099694885
0003a0 c5 a8 df bd 55 71 33 bd 8f f2 d4 be 55 a3 25 3e
       -0.10920862 -0.043809254 -0.41591308 0.16175587
0003b0 1a f8 5e be 8b a3 f9 3e 37 b3 0b 3e f2 bd 20 3e
       -0.2177433 0.48757586 0.13642584 0.15697458
0003c0 75 1c 1b 3f a7 f9 1f 3f 2a 72 97 be 0e 31 5a 3e
       0.60590297 0.62490314 -0.29579288 0.21307775
0003d0 6d 88 a2 3d 29 f6 b1 3d 00 c0 02 3f 51 f1 2e 3f
       0.079361774 0.086895294 0.5107422 0.6833697
0003e0 59 4a 55 bf e5 dc e1 3e 23 5a 9e be c0 20 fa 3d
       -0.8331657 0.44113842 -0.30928144 0.12213278
0003f0 10 53 26 bd 78 cb 3d be 98 4b 4f 3f 11 dc ce 3e
       -0.04060656 -0.18534648 0.8097472 0.40402272

se_block_event.1.2.bias f4 [64]
000000 de eb 14 be c5 20 03 40 55 5b 40 be 15 17 0c 3e
       -0.14543101 2.048875 -0.1878484 0.1368068
000010 57 41 18 3f 91 1c 04 3f 26 95 60 3c ec f7 07 3f
       0.594747 0.5160609 0.013707435 0.53112674
000020 36 2f 9a 3f 1f 8c 1b 3f cb 09 11 3f 05 94 c8 3e
       1.2045658 0.6076068 0.5665557 0.3917543
000030 f9 01 10 bd cd 57 a7 bc 7f f8 00 3f e2 6d b9 be
       -0.03515813 -0.020427609 0.50379175 -0.36216646
000040 a9 9f 94 3e 21 6e 0f 3f 7d bd 22 3e fe 48 6d 3d
       0.2902806 0.5602742 0.15892597 0.05793094
000050 a3 8e 1f 3f 34 b5 a2 be c5 42 21 3f d3 e9 b2 bd
       0.6232702 -0.31778872 0.6299251 -0.08736005
000060 b5 62 17 3f a1 e1 44 40 0a 09 65 3f 53 03 b2 3e
       0.5913499 3.0762713 0.8946692 0.3476816
000070 75 f9 89 3f bd 08 8f 3f 13 9a dc 3c 3c fc 8e 3f
       1.0779253 1.1174542 0.026928937 1.1170726
000080 ad ee a0 3f 1b 9c a1 be ec 65 32 3e 8e 6d d2 bc
       1.2572838 -0.31564412 0.17421693 -0.025687005
000090 29 27 9d 3e 44 bb 0c be af c2 52 3e 1a 1d 5b 40
       0.3069394 -0.13743311 0.20582078 3.4236512
0000a0 34 32 a1 3e 16 ee 9d 3e f1 4a df 3e 7e 7e a3 3f
       0.31483614 0.30845708 0.43611863 1.2772977
0000b0 fd ed 78 3f 6c df 4c 3e 93 bf 93 be 43 da 23 40
       0.9723814 0.20007104 -0.28857097 2.5601966
0000c0 be db df 3e 2a de a5 3d 0e 11 82 3e 44 e9 5c 3f
       0.43722337 0.08099015 0.25403637 0.86293435
0000d0 74 35 0d 3f 61 f0 47 be 2e 81 4e 3f f2 ef 46 3f
       0.5515969 -0.19525291 0.8066586 0.7770988
0000e0 4b a3 44 3f ae 23 b4 3e 04 5e d7 bd 22 d2 8b be
       0.76811665 0.3518347 -0.10515979 -0.27308756
0000f0 29 f0 19 40 0b 49 d6 bd 5e e4 a6 3e 7b 02 13 bd
       2.4052832 -0.104631506 0.32596105 -0.035891037

se_block_event.2.0.weight f4 [16, 64]
000000 c0 e5 c3 bd 81 ba 14 3f d8 9f 3c be a7 89 20 3e
       -0.09565306 0.5809708 -0.1842035 0.1567751
000010 9b 75 56 3d 2c 68 05 40 e1 94 6b 3e b9 dc 56 bd
       0.05235825 2.0844831 0.23006012 -0.05245659
000020 43 bd 71 3f 6a 61 c5 3f 55 22 96 be a4 a9 b8 3e
       0.94429415 1.5420353 -0.29323068 0.36066926
000030 f4 39 28 bf 52 1a f8 3d e5 bf d9 3d 9d db 1d 3e
       -0.6571343 0.12114395 0.10632304 0.15415807
000040 02 9a 03 be 48 1c dc 3d d9 c4 b8 be ef 7f 04 3e
       -0.12851718 0.10747582 -0.36087683 0.12939428
000050 f8 79 9d be 64 0f 4f be a1 27 41 be 03 b2 66 3d
       -0.30757117 -0.20220715 -0.18862773 0.05632211
000060 a2 0f 69 3f 58 c0 8c be 3f f7 ce 3f f3 0b 1d 3f
       0.9103948 -0.27490497 1.6169204 0.6134636
000070 9b 22 d5 3f 21 6f 8d be f4 92 ad be a4 1b 5c 3e
       1.6651186 -0.27623847 -0.3390118 0.21494919
000080 14 81 97 3f 70 45 a6 bd 8c 76 3f bd d2 53 95 3c
       1.1836267 -0.08118713 -0.046743914 0.018228445
000090 3f 8b 82 be 13 b9 91 bc 22 1b 11 3f 69 50 36 be
       -0.2549686 -0.017788446 0.56682026 -0.17804112
0000a0 48 f5 11 bd 72 c6 22 be 47 cd b5 3f 2c 94 5c 3f
       -0.03563431 -0.15896013 1.4203271 0.8616359
0000b0 9a 21 ff 3f 75 fb 77 be 71 ac f8 bd e8 cb 25 bf
       1.9932129 -0.24217017 -0.121422656 -0.6476426
0000c0 a9 fb 14 3d 1d 23 4b 3e 27 7e 56 3c e2 7e aa 3e
       0.036372814 0.19837613 0.0130916005 0.3329993
0000d0 a6 fb d3 3e 86 1f a0 3d fb 52 8c 3d e9 c2 d8 3e
       0.4140293 0.078185126 0.06851765 0.42336205
0000e0 ce 85 b5 3c b2 49 03 bd 27 99 a0 be 6a 80 24 bd
       0.02215853 -0.032052703 -0.31366846 -0.040161528
0000f0 14 a1 4f be d6 36 b9 bd f2 08 cd 3e a6 7e 39 3f
       -0.2027629 -0.09043662 0.40045887 0.72458875
000100 44 0d ad bd 80 8a 2a be ca dd 09 be e0 60 db bd
       -0.08449796 -0.16654396 -0.13463512 -0.10711837
000110 e4 5b 0f be ee f6 59 3d 91 75 58 bd cf f9 9e bd
       -0.13999897 0.053214006 -0.052846495 -0.07762491
000120 e2 b8 54 bb ab 0e ad 3c b7 1f 08 bd 7e 7d b6 bd
       -0.0032458832 0.021125158 -0.03323337 -0.089106545
000130 92 00 06 be e6 bc 7e bc 0e 27 e6 bd 3d 74 b7 bd
       -0.13086155 -0.015547967 -0.11237918 -0.089577176
000140 ab 45 16 bc 76 c6 30 bd 38 4a 83 bd ad 9a a1 3d
       -0.009171884 -0.043158017 -0.064106405 0.0789083
000150 12 ed 12 3d e4 a9 a1 3c 20 71 58 3d 57 54 86 3d
       0.03587062 0.01973433 0.05284226 0.06559055
000160 c5 29 58 be a9 0d 5a be cd 05 8d 3e 57 74 56 bd
       -0.21109684 -0.21294273 0.27543488 -0.052357044
000170 98 38 5c 3d a8 a4 37 3e 91 99 6a be 4d fc 61 bb
       0.05376491 0.17933905 -0.22910143 -0.0034482658
000180 e7 2d c4 bc 80 59 16 be d3 81 de bb 8e 61 b4 bd
       -0.02394767 -0.14682579 -0.0067903786 -0.088076696
000190 3c 59 31 bd 76 f7 14 be 05 bc e3 3b 48 25 c4 bc
       -0.04329799 -0.14547524 0.006949904 -0.023943558
0001a0 b8 1b e7 3d 77 43 dd 3b c9 ed 9f 3d c7 41 02 be
       0.11284584 0.006752427 0.07809026 -0.12720405
0001b0 48 27 03 3e 4a ab a3 bd 79 6c df bd 23 05 d7 bd
       0.12807953 -0.07991655 -0.109093614 -0.104990266
0001c0 f8 27 c8 bd 4e 01 a6 3b 05 1a 2d 3b fe 8b c7 bd
       -0.097732484 0.0050660735 0.0026413214 -0.09743498
0001d0 6e 50 05 3d 54 46 67 bd 12 d7 94 bd 53 05 10 be
       0.032547407 -0.056463555 -0.07267584 -0.14064531
0001e0 68 be 8f 3c 1a 56 5b bc 2c 72 96 bc ef 7a 87 bb
       0.017546847 -0.013387227 -0.018364988 -0.004134528
0001f0 40 d4 93 3d df 05 6e bd d5 b7 06 be 37 86 54 3c
       0.07218218 -0.058111068 -0.13156064 0.012971452
000200 8c 8e d6 3d 41 91 ff be cc d5 c5 3e 5f 5c eb 3e
       0.104764074 -0.49915507 0.38639677 0.4596891
000210 ce 5c d6 3e c1 ac d1 be 3d e6 ae 3e 8a 4f 3e 3f
       0.4186768 -0.40952113 0.34160033 0.74340117
000220 1d 9d 93 3d 33 7b 1e bf af 91 cf 3e 1a 58 cb 3d
       0.07207701 -0.6190674 0.40540835 0.099289134
000230 04 ee a8 3d e8 fe 9e 3e 35 1a aa 3d d1 3d cc 3d
       0.08248523 0.31053853 0.0830578 0.09972728
000240 42 bc 83 3e b6 d4 57 3e 11 36 d8 3e b9 3f c9 3e
       0.25729567 0.21077237 0.4222875 0.3930643
000250 4e 2e f4 3e 37 4f cb 3e ac d9 23 3f f6 eb b4 3e
       0.47691578 0.39708874 0.64004016 0.35336274
000260 76 0b b4 3e e2 4b c0 3e 55 07 3b 3e 7e 69 ab 3e
       0.35164994 0.37557894 0.18264516 0.33478922
000270 35 89 1f bf 09 a6 51 3f ec 53 b0 3e 81 53 58 3f
       -0.62318736 0.81893975 0.34439027 0.84502417
000280 28 c2 6c bf bf a6 2f 3e 8c 3b aa 3d 7b 19 99 3e
       -0.9248376 0.17153452 0.08312139 0.29902253
000290 f1 69 ee 3d ba b1 93 3e 57 64 43 3f 0c 1f 33 3f
       0.116413005 0.28846532 0.7632498 0.6996925
0002a0 8e 80 e1 3e e8 df ae 3e f4 c7 56 3e b4 14 40 bf
       0.44043392 0.34155202 0.20974714 -0.7503159
0002b0 f8 76 87 bf de 85 e3 3e c0 70 1c 3e 1b 08 3f 3f
       -1.0583181 0.4443807 0.15277386 0.7462174
0002c0 cc ff fe 3e ce ea 7c 3e 84 65 9b 3e 86 58 d3 bc
       0.49804533 0.24698946 0.30350888 -0.025799047
0002d0 a7 f7 aa 3d b4 d3 ec 3c cb 17 0d 3f fe 0c 28 3f
       0.08348017 0.028909542 0.5511443 0.65644825
0002e0 2d 55 73 3e a9 ea cd 3e 71 b7 52 3f 74 c1 5c 3e
       0.2376296 0.40218094 0.8231116 0.21558172
0002f0 52 19 fc 3e 79 89 76 3e 66 16 ca 3e 5b f1 ad 3e
       0.49238068 0.24075879 0.39470214 0.33973202
000300 25 57 aa be 68 b4 50 3f 5c 69 f1 bd 3a 79 9d 3d
       -0.3326961 0.8152528 -0.11787674 0.07689138
000310 a7 2c 5e 3e 0d 93 9d 3f a2 a9 d8 3e 67 ee f7 bc
       0.21696721 1.2310501 0.4231692 -0.030265046
000320 a9 6b 12 3f f8 30 19 3f d8 71 9f 3e eb 39 80 be
       0.57195526 0.59840345 0.31141543 -0.25044188
000330 71 10 2c be 99 c4 2a bf e8 04 16 3e ac 89 80 be
       -0.16803147 -0.66706234 0.14650309 -0.25105035
000340 ae 61 30 3e d0 d2 b2 bd 32 67 ac 3e 73 fa 9c 3e
       0.17224762 -0.087316155 0.33672482 0.30659828
000350 db 9f 33 3f 77 30 33 be c2 d5 8f 3e a0 5f fb 3e
       0.70165795 -0.17498957 0.28092772 0.49096394
000360 08 09 8f 3f 67 66 45 3f 98 79 42 3e e7 58 d3 3e
       1.1174631 0.7710938 0.18991697 0.41278765
000370 ff fb 86 3f 66 5f fa 3e f6 50 42 bc a7 b0 83 bb
       1.0545653 0.48900908 -0.011860123 -0.0040188613
000380 94 4a db 3e 27 c6 81 bb df f7 55 bd bd 21 4e 3d
       0.42830336 -0.003960389 -0.05223834 0.050325144
000390 43 6b 83 3d c2 f1 9d 3d 11 bb 71 bc dd 0e bb 3c
       0.06416943 0.07712127 -0.014754073 0.022834236
0003a0 96 0b 9f 3e c3 db 78 be e5 b0 1f 3f 23 b9 bf 3f
       0.31063527 -0.24302582 0.62379295 1.4978374
0003b0 cb 23 2e 3f 8d 34 d2 3e 67 b4 3f be 2b 85 34 3e
       0.68023366 0.41055718 -0.18721162 0.17628925
0003c0 54 4c 79 3f 52 e8 d4 be 08 c2 30 3e 89 90 04 3f
       0.9738209 -0.41583496 0.17261517 0.51783043
0003d0 c7 66 60 3e 89 9b 4c be 4f bb 81 3e 2c fd d5 3e
       0.21914206 -0.19981207 0.25338218 0.41794717
0003e0 d9 3e 95 3d 0b 9c 9f be 81 a9 f3 3d 9e da 9f 3d
       0.07287378 -0.3117374 0.11897565 0.0780537
0003f0 be 9d 0f 3e c4 fc c7 3e 15 ab 4f be 5c 26 9c 3d
       0.14025018 0.39060032 -0.20280106 0.07624504

se_block_event.2.0.bias f4 [16]
000000 b6 1f ec be 1f 7b 83 be c8 f9 66 be 7f 1b 8d bf
       -0.46117944 -0.2567987 -0.22556221 -1.1024016
000010 9f de 13 be c0 fa a0 be bb a1 fb be 3a 03 b0 bf
       -0.14440392 -0.31441307 -0.49146828 -1.3750985
000020 b6 80 fe bf ac 2d d8 bd ab 09 7d be c7 b3 f7 3c
       -1.988303 -0.10555586 -0.2471072 0.030237092
000030 7e af da bf e9 2d c9 bf d7 4f 00 c0 e2 99 a0 bf
       -1.7084806 -1.5717136 -2.004873 -1.2546961

se_block_event.2.2.weight f4 [64, 16]
000000 46 5b 97 3e ba 20 1f be 38 57 fd be 87 35 6e 3e
       0.29561824 -0.15539828 -0.49480605 0.23262607
000010 8c ab 2e 3d c5 85 03 bf 4e 12 85 3e 4d f8 17 3f
       0.04264407 -0.5137599 0.25990528 0.5936325
000020 c6 98 af bd 9d 7d 81 bf 24 bc ab bd 95 39 de 3e
       -0.08574061 -1.0116459 -0.08385494 0.43403307
000030 26 1d 33 3f da 53 d0 3d dc 76 c9 3e c5 9f 52 3f
       0.6996635 0.101722434 0.39348495 0.8227504
000040 4e 2c 7a 3f 85 ca a3 bc d2 01 be 3e b8 9b 84 3f
       0.97723854 -0.01999403 0.37110764 1.0360022
000050 58 c7 10 3f 93 9f 65 3f e8 5a ac 3f c3 9c 81 3f
       0.56554174 0.89696616 1.3465242 1.0125965
000060 b3 42 51 3f d4 a4 95 3e 51 91 34 3f 26 f1 a5 3f
       0.817424 0.29227316 0.70534235 1.2964218
000070 f1 05 be 3f 64 75 64 3f e7 d1 9a 3f 3c cc 54 3f
       1.4845563 0.89241624 1.2095307 0.83124137
000080 da eb 84 3f 87 3c d9 bd 29 64 1d be 87 e5 4e be
       1.0384476 -0.10607248 -0.1537024 -0.20204745
000090 61 1e 4a 3c 41 51 e9 3e 4b 0a f3 3e da 98 62 be
       0.012336344 0.45569804 0.4746879 -0.2212862
0000a0 cd fb ef be 1b 16 60 be 5c 1a 75 3e c1 cf 10 3f
       -0.46871796 -0.21883433 0.23935837 0.5656701
0000b0 5e ec d0 3e 6a 59 a5 be 06 e3 fe bd 22 2c ae bc
       0.40805334 -0.3229478 -0.12445645 -0.021261279
0000c0 70 5e 54 3f 0e d6 fc 3d 6c 7a f1 be 7a 2d 70 3f
       0.829566 0.12345515 -0.47163713 0.9381939
0000d0 30 4d 48 be 50 85 fd 3e c7 b9 ac 3e b3 0a 16 3e
       -0.19560695 0.49515772 0.33735487 0.14652519
0000e0 dd c6 de 3e cc 4b fb be 01 74 bf be bd eb 55 3f
       0.43511096 -0.49081266 -0.3739319 0.83562833
0000f0 98 f9 0f 3f de a8 00 3f d0 bf c8 3e 1f 53 8b 3f
       0.56240225 0.5025767 0.3920884 1.0884742
000100 9d c1 14 40 96 1e 9e bd 31 86 a7 3d b2 0e dc 3f
       2.3243172 -0.077206776 0.08179892 1.7191985
000110 2b 48 a1 3f 01 17 ed 3f 42 d0 4d 3f d9 7d 4e 3f
       1.2600149 1.8522645 0.803959 0.8066078
000120 b3 54 52 3f 4f 4d 03 3f de d4 32 3e 5a 31 e0 3f
       0.8216049 0.5128984 0.17464015 1.7515061
000130 00 f9 8f 3f 3a c6 d1 3f 33 77 6b 3f ae 52 a5 3f
       1.1247864 1.6388619 0.9197876 1.2915857
000140 68 63 24 40 b4 97 26 3e 62 99 9d 3e ac 3e 1a 3f
       2.5685673 0.16268808 0.30781084 0.6025188
000150 93 db 00 3f b9 8c 29 40 01 f0 ad 3f 42 71 3a 3f
       0.50335044 2.649214 1.3588868 0.7282907
000160 2a b1 16 3f b3 02 cc 3d c7 92 60 3f b5 81 be 3f
       0.5886408 0.09961452 0.87723964 1.4883333
000170 07 e0 76 3f 5b 9c 11 40 d7 27 8b 3f 2b 52 5c 3f
       0.9643559 2.2751682 1.0871533 0.8606288
000180 2e 0e f1 3e 88 69 1c 3e be a1 d1 bd db 51 81 3f
       0.4708113 0.15274632 -0.10235928 1.0103105
000190 97 ce ed 3e b5 54 43 3f ea 23 a5 3f 96 aa 2d 3f
       0.46446678 0.7630113 1.2901585 0.6783842
0001a0 4f 0c 28 3f 70 c9 f8 bd 92 ec 26 3f 1b 6e 31 3f
       0.6564378 -0.12147796 0.6520473 0.6930863
0001b0 b4 c1 be 3e 33 00 0a 3f 72 b7 6b 3f 27 16 89 3e
       0.3725716 0.53906554 0.9207679 0.26774713
0001c0 b0 89 19 40 9e 47 a1 3d 0a 9a fb 3f e1 7b 87 3f
       2.3990288 0.07874988 1.9656384 1.058468
0001d0 ab a4 fc 3f 78 e9 dc 3f 40 5e fe 3f 04 46 64 3f
       1.9737753 1.7258749 1.9872513 0.89169335
0001e0 dd ce 71 3f f0 a6 b1 3f 9b 0c c0 3f ea 71 92 3f
       0.94456273 1.387907 1.5003847 1.1441014
0001f0 10 67 43 3f 8c 7a 89 3f 74 5c 11 3f 51 2c 7e 3f
       0.76329136 1.0740523 0.567817 0.9928637
000200 c8 70 b4 3f fa 02 ad 3d 39 bd bd 3e 1b 8b 14 3f
       1.4096918 0.08447833 0.37058428 0.5802476
000210 f8 53 c7 3e 77 21 9b 3f 60 0b 74 3f 62 39 da 3f
       0.3893125 1.2119588 0.95329857 1.7048762
000220 c0 cd cd 3f db 86 ba 3e 4e 9d 0e 3f 6b 7d 31 3f
       1.6078415 0.36431012 0.5570878 0.69332
000230 c1 ea a5 3f d4 d7 cb 3f de 00 9f 3f 3b 73 bf 3f
       1.2962266 1.592524 1.242214 1.495704
000240 f7 8a 5b 3f 4e e8 4b 3e f6 8c d0 3e 49 17 8a 3f
       0.8575892 0.19912836 0.40732545 1.0788356
000250 17 77 38 3f ef 82 8d 3f 1f cd 9e 3f 07 c0 02 3f
       0.72056717 1.1055583 1.2406348 0.5107426
000260 d9 4e 33 3f 08 86 2d 3f 4d a6 c8 3e 96 bd 56 3f
       0.70042187 0.6778264 0.39189377 0.83883035
000270 23 43 22 3f 5d 35 4a 3f 7c fb ea 3e ae 70 ac 3f
       0.6338369 0.78987676 0.45894992 1.3471887
000280 bb 66 3b 3e 80 c3 91 bd a3 db 74 be 5b 23 35 3f
       0.18300907 -0.07117367 -0.2391191 0.70757073
000290 15 3d 94 bd f5 d7 4f 3e c2 5d e1 3e 9b 9f 29 bd
       -0.07238213 0.20297225 0.44016844 -0.041411977
0002a0 b5 59 86 3f 69 91 ae bd cb 97 36 3d fb 36 77 3f
       1.0496126 -0.085238285 0.044578355 0.9656827
0002b0 c7 34 7a 3f 5a ea ad 3e 53 a1 c0 3e 98 bc 11 3f
       0.9773678 0.3396786 0.3762308 0.56928396
0002c0 3b c4 82 3e 0d 52 cb 3d 97 e2 b0 be 1e 34 3d 3f
       0.25540337 0.09927759 -0.34547874 0.7390765
0002d0 f6 89 fd 3d 5d 6a df 3e 8f 04 3d 3e b9 8b 87 3e
       0.123798296 0.43635836 0.1845877 0.26473787
0002e0 e5 e4 14 3f 34 a3 02 bf 5a bf 2d 3f 30 de 4c 3d
       0.58161765 -0.5103028 0.67870104 0.050016582
0002f0 c8 b7 05 3f 26 ed 58 be 73 40 9a 3e 3f 9a 12 be
       0.5223355 -0.21184215 0.30127296 -0.14316653
000300 2e 72 c0 be 38 47 3d be be ee 53 be ad a2 68 3e
       -0.37587112 -0.18484199 -0.20696542 0.22718306
000310 ea 5d 01 3e 0e a4 bb 3e 9d a4 2c be 73 8c 3d 3e
       0.12633482 0.366486 -0.1685967 0.18510608
000320 bb 95 fe 3d e0 11 3e bd ec 1d 82 bd 0f 50 fc 3d
       0.124309026 -0.046403766 -0.063533634 0.123199575
000330 14 8f f6 3e 9d cd 28 be a6 1a bd 3d 1d 77 51 3e
       0.48156035 -0.16484685 0.092335984 0.20455594
000340 aa 73 9e 3d 0b 34 01 3d 14 f2 81 be f2 bc 17 be
       0.07736905 0.031543773 -0.25380003 -0.1481817
000350 4b b1 c8 bc 02 fb 48 be 29 90 7d be 96 ca cb 3d
       -0.024498602 -0.19627002 -0.24762024 0.099507496
000360 11 af 84 3e 28 9e 41 bd ce e8 a4 3c 69 31 c3 be
       0.25914815 -0.04726997 0.020130541 -0.38123634
000370 99 9e 18 bd e7 a1 21 be fd a6 cf bd 6a 98 1c bf
       -0.037260626 -0.15784417 -0.10139272 -0.61170065
000380 95 b9 48 bd 09 bc 21 be ac 9e b5 be 97 69 76 3f
       -0.04900511 -0.15794386 -0.3547262 0.9625487
000390 ea 11 60 be 42 3e 14 bd aa a7 d5 3e 6f 74 05 3f
       -0.21881834 -0.036192186 0.4172948 0.5213079
0003a0 7a 0d b4 3e ed b0 e1 3d ec 27 c4 be df d0 ab 3e
       0.35166532 0.11020074 -0.38311708 0.33557793
0003b0 43 11 18 3f 3b 40 7f 3d 52 79 96 bd 8f 62 ac 3d
       0.5940134 0.062317114 -0.07347359 0.08417236
0003c0 15 ea 8f bc fa 39 5c 3d 13 d3 c0 be 0a 24 4d 3e
       -0.017567674 0.05376623 -0.37661037 0.20033279
0003d0 ef 34 56 be cc c6 8b bd 14 7b 07 3f 1f 94 fa 3e
       -0.2091863 -0.06825027 0.5292218 0.48941132
0003e0 0f 45 3d 3f 78 a4 cf bd 42 07 54 bf 87 ba dc be
       0.739335 -0.10138792 -0.82823575 -0.4311106
0003f0 e9 62 ef 3e e1 d9 7a be 86 81 7d bd f3 7b bd 3e
       0.4675515 -0.24497177 -0.0618911 0.37008628
