data/parameters/deephit_model_feature_cnn.pth (torch, 192295 bytes, 40 tensors)

se_block.0.weight f4 [4, 17]
000000 7f 01 93 be 0d 73 fc bd 98 e7 3c 3e 83 69 80 bc
       -0.2871208 -0.12326632 0.18447721 -0.015675312
000010 6c ea 86 bd c0 4c d4 bd b2 90 31 bd 4a 1f 42 bd
       -0.06587681 -0.103662014 -0.043350883 -0.04739312
000020 f3 2a f5 bc 67 98 92 3e e4 14 ac 3d 21 d0 5b 3e
       -0.029927706 0.286319 0.08402422 0.21466114
000030 8d d0 71 be 70 3f 70 bd 50 8d 87 bd 80 ae 02 3e
       -0.23614712 -0.05865425 -0.0661875 0.12761879
000040 e0 75 4b 3e 75 1c 1e bd dd e9 4a 3e 55 18 ea bd
       0.19869184 -0.038601357 0.19815774 -0.11430422
000050 3a 14 9c bd c9 44 79 be fe 65 1b be 33 b0 45 be
       -0.076210454 -0.24342646 -0.15175626 -0.19305496
000060 eb af 9e bd 97 25 54 be 04 ab a8 bd 73 bf b2 3d
       -0.077483974 -0.20717464 -0.08235744 0.08727922
000070 18 0a 8c be f2 4f 37 be 1e f8 35 bd 29 a9 cd 3c
       -0.2735145 -0.1790159 -0.044426076 0.025105076
000080 c3 dc 70 bd 79 72 eb bb 63 82 d2 3d a7 68 46 3e
       -0.058804285 -0.007185277 0.102787755 0.19375859
000090 ed 63 0e 3f 63 27 a0 3d e5 0a bb 3d 3a c0 78 bd
       0.55621225 0.078200124 0.09132937 -0.060730197
0000a0 93 cd e2 3d 76 f2 1f 3d ff 8d 00 3d 2a cd 01 bb
       0.110743664 0.03904959 0.031385418 -0.0019806125
0000b0 46 bd af 3c 0d 7c 9c 3c 1e c7 e9 3d 3b 36 3d 3d
       0.021452557 0.01910212 0.11414932 0.046194296
0000c0 98 c2 50 3c e1 55 a3 3d c2 7d 12 bd a0 17 b3 3e
       0.012741707 0.079753645 -0.035764463 0.34978962
0000d0 56 d4 ab bd 1b 06 af be 29 2e 17 3e 06 78 80 bd
       -0.08390109 -0.34184346 0.14763702 -0.06272893
0000e0 c1 24 b2 3d 2f 98 66 bd 0b 1c 8b 3c 65 90 40 3d
       0.086984165 -0.056297477 0.016981145 0.047012705
0000f0 14 b9 1c bc 3a ae 4b 3d fd fe 3a bd 44 af f4 bb
       -0.00956561 0.049726702 -0.045653332 -0.0074671824
000100 0b d4 08 3d f5 95 c0 3c c1 11 22 3e c9 b7 37 be
       0.033405345 0.023509005 0.15827085 -0.17941202

se_block.0.bias f4 [4]
000000 d0 5a e9 be 24 ac 39 3c 47 11 90 bf 70 ea 69 bf
       -0.45577097 0.011332545 -1.1255273 -0.9137335

se_block.2.weight f4 [17, 4]
000000 9f 85 8d bc 96 a3 f1 3e 26 35 04 be 82 06 87 3d
       -0.01727563 0.4719512 -0.129109 0.06593038
000010 ad 56 3d be fe 08 7d be ad 0f 85 bd eb c5 5d 3f
       -0.18490095 -0.24710461 -0.064971305 0.86630124
000020 d3 38 a8 3c 4e 03 8b be f6 6b 71 3d 4e 08 18 be
       0.020534908 -0.2715096 0.05894085 -0.14846918
000030 e3 8c 0c bd b9 37 dc 3e 64 7c 7e be e4 df 52 be
       -0.034314048 0.43011263 -0.24852139 -0.2059322
000040 94 d6 91 bc f0 76 b4 be 4f c1 79 be 66 f7 d7 be
       -0.017802514 -0.35246992 -0.24390148 -0.42180938
000050 22 01 ae 3d 6d ca cd be aa 1b 91 be b7 eb 93 bd
       0.0849631 -0.401935 -0.28341419 -0.072226934
000060 25 90 4d bc 99 79 19 bd 5f 68 b2 bd 3e bb 93 bc
       -0.012546574 -0.03746948 -0.087113135 -0.01803362
000070 8a 7c a6 3e a1 c9 83 bb 6e 75 8a be c6 31 91 bd
       0.3251689 -0.004021839 -0.27042717 -0.07089572
000080 f0 e0 e5 bd c1 97 e5 3e aa fa 0b be 6d 1c 93 be
       -0.11224544 0.44842342 -0.1366984 -0.28732625
000090 46 ef cb bb d1 ec 96 be e0 d2 de 3a f1 ed 21 be
       -0.006223592 -0.29477552 0.0017000102 -0.15813424
0000a0 2d 20 a8 be d0 8c 85 3e a5 e1 3f be e3 47 69 be
       -0.32837048 0.26083994 -0.1873842 -0.22781329
0000b0 6b 3f 83 be 70 51 80 bc 73 08 c8 bd cd 69 c9 be
       -0.25634322 -0.015663832 -0.097672366 -0.39338532
0000c0 eb 36 b0 3d d4 b8 c6 3e fb b7 85 be da 81 23 be
       0.08604225 0.38812888 -0.26116928 -0.15967503
0000d0 fd d8 bd 3c 96 37 8d 3e a4 e0 80 be c6 2e e9 bd
       0.023174757 0.2758147 -0.25171387 -0.113858745
0000e0 02 81 21 be 31 63 3e 3d 91 c9 9d be 05 f1 44 be
       -0.15771869 0.046481315 -0.30817845 -0.19232567
0000f0 c1 ae a4 3d a6 b1 55 be 6c ad 78 be 4c 16 d3 bd
       0.08041144 -0.20868549 -0.24284905 -0.10306987
000100 c7 91 aa 3e db a4 02 3f d6 1b 4d be f2 f6 39 3e
       0.33314344 0.510328 -0.2003015 0.18160608

se_block.2.bias f4 [17]
000000 1c 1d 33 be ee 97 26 3f 61 8e 6b be 97 6a 90 3f
       -0.17491573 0.65075576 -0.23003532 1.1282529
000010 18 f1 2b 3e e9 35 e9 3e 5e 55 21 be de 3f e7 3e
       0.16791189 0.45548943 -0.15755221 0.45165914
000020 ce d0 d6 3c 97 67 5a be b8 90 6c 3d cb 41 ac bd
       0.026222613 -0.21328579 0.057755202 -0.084109865
000030 f8 17 ac 3f 39 4b df 3e b6 72 d7 bd 1d 1c ee 3e
       1.3444815 0.43612078 -0.10519926 0.46505824
000040 fc 59 2d 3e
       0.16928858

se_block_event.0.0.weight f4 [16, 64]
000000 d7 9d 44 3e 71 e0 92 3e 76 e9 0f 3f 9b 5f 50 3e
       0.19200836 0.2868686 0.5621561 0.2034897
000010 10 64 13 3f d6 3c 28 3e 90 3f 03 3f df 23 07 3d
       0.5757456 0.16429457 0.51268864 0.032993194
000020 2c 70 24 3f 05 1d 0c 3f 53 61 91 3d e0 b7 4f 3f
       0.6423366 0.5473178 0.07098641 0.81139946
000030 33 71 c8 bc 3d f1 ac 3e 8a b7 e4 3e 4c 7e 1a 3e
       -0.02446804 0.337778 0.4467128 0.15087241
000040 ea 7a 95 be dc d4 dc 3e 16 ff 8c 3d 88 00 0a be
       -0.29195338 0.4313115 0.06884591 -0.13476765
000050 14 54 31 be 98 e5 cf 3e bf 27 08 be ee ea ab bd
       -0.1731723 0.40604854 -0.13296412 -0.08394419
000060 b6 00 d8 3e 98 59 57 3f be a8 19 3f 33 21 43 bd
       0.42188042 0.84121084 0.60023105 -0.047639083
000070 fc 45 31 3f 93 1a 94 3e cf 58 31 3f be 11 0a 3f
       0.6924741 0.28926525 0.69276136 0.5393332
000080 d2 cd 51 be b2 af 46 3e a9 21 f0 3e a2 01 1f 3f
       -0.2048867 0.1940296 0.4690068 0.62111866
000090 8d ca fa 3e 7e 6b 15 3f 9b 9c 0c 3e 68 6c 15 3f
       0.4898266 0.58367145 0.13731615 0.5836854
0000a0 ac 63 88 3e a4 be 38 3d 5c 64 87 3d 30 0e 3a 3e
       0.26638544 0.045103684 0.06610939 0.18169475
0000b0 b6 1c 02 3f e7 bd d5 3e d1 68 5d 3e 90 3e 63 bd
       0.5082506 0.41746446 0.21622016 -0.055479586
0000c0 fd 81 38 3f ca d0 9b 3e 3a ce 6c 3f ec 46 f6 3e
       0.72073346 0.3043273 0.92502177 0.48100984
0000d0 27 7b 69 3e 21 65 84 3f 14 55 1e 3e 57 77 d4 3d
       0.22800885 1.0343362 0.15462142 0.10374325
0000e0 dd cb 10 3e a7 66 dd 3e 30 23 f5 3b 78 b7 ad bd
       0.14140268 0.4324238 0.0074810013 -0.084822595
0000f0 ad 27 6c 3e dd fa ce bd cb 5d 1c 3f 6c 0c 0b 3f
       0.2306201 -0.10106442 0.61080617 0.5431583
000100 f3 58 5c 3c 38 5f 86 bb 49 a8 a2 be 5b ef 00 3f
       0.0134489415 -0.0041007064 -0.31769016 0.5036523
000110 37 24 12 3e 97 81 3a 3e 16 e7 b4 bf 60 c5 93 3e
       0.14271627 0.18213497 -1.4133022 0.28861523
000120 09 7e d3 be 3a a5 38 bf 68 1b 71 3e 75 b0 5c bf
       -0.41307095 -0.72127116 0.23545611 -0.8620675
000130 d8 a4 4e be 91 13 3e 3e 31 14 4c bf d7 1b 64 bd
       -0.2018007 0.18562151 -0.7971831 -0.055690613
000140 ad a9 96 3e e9 24 0b 3e d8 41 35 bf 8e 89 a8 3e
       0.29426327 0.13588299 -0.70803595 0.32917446
000150 bc bf 45 be 19 54 26 bf 87 ff 69 bf 86 af 8e be
       -0.19311422 -0.6497207 -0.9140553 -0.2786829
000160 1c 5b dd bf c7 88 b6 bf 82 88 44 bf 0e bf e8 bf
       -1.7293429 -1.4260491 -0.76770794 -1.8183305
000170 80 69 cc bf fa 05 11 bf 96 19 72 be 21 c9 98 3e
       -1.5969696 -0.56649745 -0.23642573 0.2984095
000180 4d c6 d2 3e bc 6a ad 3e ae 78 72 bf 46 df d8 bd
       0.41166916 0.33870494 -0.9471539 -0.10589461
000190 16 a7 bc bd 6a 02 95 bf 39 89 10 bf f9 c3 31 bf
       -0.092115566 -1.1641362 -0.56459385 -0.69439656
0001a0 d0 99 04 c0 0c 7a 23 bf 70 0b ab 3e 84 c4 e5 3e
       -2.071888 -0.63858104 0.33407164 0.44876492
0001b0 bc e6 8a bf cf c7 1b bf 6b 49 97 bf 25 71 8b bf
       -1.0851665 -0.6085176 -1.181928 -1.0893904
0001c0 4d a5 7c bf 5e ca 50 bf 38 69 95 bf 7c 92 bb 3d
       -0.9868973 -0.8155879 -1.1672735 0.09158799
0001d0 9e a9 29 c0 d2 14 4e bf bb 12 2f 3f e6 3f 4a bf
       -2.6509776 -0.8050052 0.68387955 -0.7900375
0001e0 68 52 3a 3e 74 22 7f bf 86 dc 32 bf 47 79 b9 3e
       0.18195498 -0.99661946 -0.6986774 0.3622534
0001f0 12 f1 48 bf 55 fc a4 3e 8f 8c 9d be 6d ca 7d bf
       -0.78492844 0.32223764 -0.307713 -0.99137
000200 7c 8e 7e bd 38 72 45 be 4b b2 df 3e 61 97 0d 3b
       -0.062147602 -0.19281852 0.43690714 0.0021605121
000210 5a bc aa 3e 2f 91 aa 3e 1c 33 59 bd 67 27 06 be
       0.33346826 0.3331389 -0.053027257 -0.13100968
000220 99 43 a0 3e 2b 5d 6b 3d ad b3 09 3e 7e c9 50 3d
       0.31301573 0.0574619 0.13447447 0.050973408
000230 e7 01 a6 be 81 44 05 be bb 96 67 bd fd 40 cc 3e
       -0.32423326 -0.13014413 -0.056540232 0.39893332
000240 3a a0 d2 3b ae 3b 2b be 84 82 c1 3d 47 8b 37 bd
       0.006427792 -0.16721985 0.09448722 -0.04481056
000250 84 e3 3b be a4 0f 0b 3b 2d 46 bb 3f b7 6b de 3e
       -0.18348509 0.002121904 1.4630791 0.43441555
000260 c1 c6 ba 3d fd 4c d0 3d b8 0b 35 3d 2e 7d 1d 3e
       0.091199405 0.10170934 0.04420063 0.15379784
000270 f3 83 74 3c 66 13 f1 bd 22 ad b4 bd e4 94 a8 be
       0.014924037 -0.11771278 -0.08822085 -0.32926095
000280 da 3c c1 3e fe 37 14 3c 56 be 61 3e b6 27 54 be
       0.3774174 0.009046553 0.22045264 -0.20718274
000290 8c 89 27 3e be 34 03 3d 82 d9 f6 3d cb 6e 3c 3e
       0.16361064 0.03203272 0.12053205 0.18401639
0002a0 42 09 72 3e c4 44 0f 3d 84 ea 87 be 22 17 dd 3e
       0.23636344 0.03497769 -0.2654611 0.4318171
0002b0 a3 48 cd bd 1f ca b4 3e 91 4c c3 bf 69 d2 a3 3f
       -0.1002362 0.35310456 -1.5257741 1.2798587
0002c0 f5 8b 35 bb 6e 09 e3 3e 06 03 c1 be 58 a2 f6 3e
       -0.002770183 0.44343132 -0.3769762 0.48170733
0002d0 53 41 97 be 41 82 14 bf 16 ba 63 be e6 4c 94 3d
       -0.29542026 -0.5801125 -0.22238955 0.0724123
0002e0 88 be 6a 3e 16 f0 98 be 8a fb 30 3f e9 cd c7 be
       0.22924244 -0.2987067 0.6913382 -0.39024284
0002f0 11 16 b7 3d df a2 80 bd e8 8e 4a be 3d 6f ed 3d
       0.08939756 -0.06281065 -0.19781077 0.11593483
000300 2a c0 fd 3d 88 de 82 bf fc 02 80 3d f2 03 14 bf
       0.12390168 -1.0224161 0.06250569 -0.5781852
000310 8a 3d 87 3e 26 0d 91 bf 7b fe 4f be 17 0f 09 be
       0.26414138 -1.1332138 -0.2031192 -0.13384663
000320 e6 1c a5 3e 42 d4 36 3e 5c 99 9c bd e1 6c a9 3e
       0.3224861 0.17854407 -0.076464385 0.3309088
000330 6c cd 3a 3d 72 45 94 3e 84 2e 8c bf 29 55 04 3d
       0.04560606 0.28959233 -1.0951695 0.032307778
000340 ca 04 d8 be 44 37 f6 bd ee f7 0d bf bb 34 0a 3d
       -0.42191154 -0.1202226 -0.55456436 0.033741694
000350 73 c6 0d 3e 49 50 cd 3c 2f a8 4e bf 0c e0 a2 bf
       0.13845234 0.025062697 -0.8072538 -1.2724624
000360 87 98 49 be bd 29 52 bf ca 7a 9a bf 7b 73 8e bf
       -0.19687091 -0.8209494 -1.2068722 -1.1128992
000370 1f 8a 75 bf e0 83 91 be ce fb c7 be 02 7a 8d 3d
       -0.9591388 -0.28420925 -0.390593 0.06908037
000380 74 04 80 3e 88 1e 17 3d ba 2d 89 be 6a 4e c8 3c
       0.25003397 0.03689435 -0.267927 0.024451453
000390 dc 4b 4f 3e 29 a6 20 c0 9f fc be bc 4a e3 e0 bf
       0.20243782 -2.5101416 -0.023313818 -1.7569363
0003a0 0d 0b 5f bf d2 ff 7b bf 21 53 95 bc 6f 9d a3 3c
       -0.8712624 -0.98437226 -0.018228116 0.019972531
0003b0 1d bc 22 bf fe cf cd be 77 cd 83 bf b0 a0 4a bf
       -0.6356829 -0.40197748 -1.0297078 -0.7915144
0003c0 c3 da 95 bf d7 26 90 3d ef 25 0b bf 43 c0 ac 3d
       -1.1707386 0.07038658 -0.5435476 0.084351085
0003d0 59 42 3c 3d 78 4d ad bf 39 5f c6 3b a4 25 d4 be
       0.04596171 -1.3539267 0.006053832 -0.41434968
0003e0 a5 aa 4e be 8c e8 c2 bf 89 bf 1d bf 0f 0d a3 3d
       -0.20182283 -1.5227218 -0.61620384 0.07961475
0003f0 79 af 22 bf 8a f6 f0 bf b9 02 03 bf 9c 1e 07 bf
       -0.63549 -1.8825238 -0.5117603 -0.5278108

se_block_event.0.0.bias f4 [16]
000000 b4 2c 23 bf ef 88 25 3f 49 c6 86 bd e8 ef 91 3e
       -0.63740087 0.6466207 -0.06580789 0.28503346
000010 05 0c 34 3f b7 dc 38 bd a6 cf 53 bf 4d f9 af be
       0.7033084 -0.045132365 -0.8273872 -0.3436989
000020 6f 9b 05 bf 9a 69 2d bf 2f c7 bb be 83 a1 9d be
       -0.521903 -0.6773926 -0.36675403 -0.30787286
000030 70 70 f6 3e 4c e1 d1 be b0 22 d7 3d 7a 67 21 3f
       0.48132658 -0.409922 0.10504663 0.6304852

se_block_event.0.2.weight f4 [64, 16]
000000 f2 55 a0 be f9 27 f6 3e e2 16 ab be 1b f4 ef 3e
       -0.3131557 0.48077372 -0.33415896 0.46865925
000010 ad 5c b3 3d cc ba 67 bf c9 d9 26 bd 81 3f 89 be
       0.08757911 -0.90519404 -0.04073504 -0.26806262
000020 87 b7 ab 3e 35 0b 12 3f 3a 25 7b 3d d1 49 9a bd
       0.33538458 0.5704835 0.0613148 -0.075336106
000030 66 4b 7a be 83 3b 46 be f2 9e 50 3e 76 6f 80 3f
       -0.24442825 -0.1935864 0.20373133 1.0034015
000040 34 78 06 bf e1 e0 a8 3d 08 f8 51 3f 60 76 23 3f
       -0.52527165 0.08246017 0.8201909 0.638525
000050 8c 94 1e 3f cb 90 aa 3e 50 94 c0 3e b5 87 55 3f
       0.61945415 0.33313593 0.37613153 0.834102
000060 86 b9 61 be 17 6b 92 bd af b2 36 3e 9f de 6f 3e
       -0.22043428 -0.07149332 0.178416 0.23424767
000070 e0 cd 97 3d 58 14 59 3e be 6f f2 bd bc ca 93 3e
       0.074123144 0.21199167 -0.118377194 0.28865612
000080 2e 45 1c 40 f3 60 de 3f d8 b3 0c 40 65 75 d2 3f
       2.4417224 1.7373337 2.1984768 1.6442076
000090 a6 6c 20 40 47 00 31 bc 48 a6 af 3e 45 8d 58 3f
       2.5066314 -0.010803289 0.3430655 0.8459056
0000a0 2d fb 1b 40 19 a1 20 3f 1e 47 15 40 fd 7e 41 40
       2.4372056 0.62745816 2.3324656 3.0233757
0000b0 50 f1 5a 40 70 b6 74 3f 68 4a e1 3f a8 94 2f 40
       3.4209785 0.9559088 1.7600832 2.7434483
0000c0 8c fc 53 be b8 d0 94 3e ae f6 5b 3e 39 c5 22 3e
       -0.20701808 0.2906549 0.2148082 0.15895547
0000d0 82 80 24 3f 37 98 8d 3f f8 9a b8 3e 74 8c 55 3f
       0.6425859 1.1062077 0.36055732 0.8341744
0000e0 c6 d0 55 3c 40 06 d7 bd 0b 38 8e 3d 9f b9 92 be
       0.013050264 -0.10499239 0.06944283 -0.28657243
0000f0 15 0d b6 bd a0 73 d0 bd c9 d7 09 3f f5 66 b5 3e
       -0.08889214 -0.10178304 0.53844887 0.35430112
000100 15 53 19 40 16 10 d0 3f 1b 85 07 40 4f 38 bf 3f
       2.395696 1.6254909 2.117499 1.4939059
000110 81 84 30 40 cd 35 8d 3f a3 51 d9 3e 18 b1 e8 3f
       2.7580874 1.1032044 0.42445096 1.8179045
000120 72 f8 08 40 34 5e f5 3f a5 a3 21 40 80 27 02 40
       2.140164 1.9169374 2.525613 2.033661
000130 e1 04 0e 40 84 ee c0 3f 3c 48 c3 3f 16 74 45 40
       2.2190478 1.5072789 1.5256419 3.0852103
000140 ad 73 6c be 0c a1 87 bd a8 6a 09 3f 7d fc 07 3f
       -0.23091002 -0.06622514 0.5367837 0.5311964
000150 f1 cf 3d 3d 56 5f 24 bf cb 6a 4b 3f 94 92 0a 3f
       0.046340887 -0.6420797 0.7945983 0.5412991
000160 5c 7d d9 be 01 b6 a5 3d 40 d5 a5 3e 97 00 01 be
       -0.42478454 0.08091355 0.3238926 -0.12597881
000170 53 fe 0f be f0 c5 ba 3e 39 90 cd 3e a3 6b cd 3e
       -0.1406186 0.3647914 0.40149096 0.40121183
000180 f4 27 f8 3f 91 2c 03 3f 53 e1 ad 3f ea 03 b5 3f
       1.9387193 0.5123988 1.3584388 1.414182
000190 04 34 0c 40 2c 11 99 3f bb 0a 01 3f 95 d0 66 3f
       2.1906748 1.1958365 0.50407 0.9016202
0001a0 63 f0 10 40 16 61 bb 3f 40 37 9e 3f df a8 73 3f
       2.264672 1.4639003 1.2360611 0.9517955
0001b0 8b 4c 1f 40 fb fc 10 3f a7 fc 1f 40 00 9d 18 40
       2.4890468 0.5663602 2.4997957 2.3845825
0001c0 b4 5e 08 bf 6c d1 d7 3e d6 87 76 3e be 67 f1 3e
       -0.53269506 0.42151964 0.24075255 0.47149462
0001d0 19 ed 07 3f 7c 5a 6e 3e 78 1f 43 3e 60 d8 54 3f
       0.5309616 0.23276705 0.19054973 0.8314266
0001e0 9f 29 17 3e 37 29 9f bd 1c 7b d0 3d 71 c7 a2 be
       0.14761971 -0.07771533 0.10179731 -0.31792787
0001f0 7c 96 e2 be ea c2 96 be 48 6f 1a 3e 45 cb 53 3e
       -0.44255435 -0.29445583 0.15081513 0.2068301
000200 5d 05 a4 be 33 e7 3e bf e5 36 39 bd e7 09 b1 3c
       -0.32035342 -0.7457153 -0.045218367 0.021611167
000210 b8 c4 19 3f ad 69 c3 be d4 42 2e bf 1f a1 6c bf
       0.60065794 -0.38166562 -0.6807072 -0.9243335
000220 b7 70 f5 be c7 36 51 be 94 f7 90 3c 66 9c d2 be
       -0.47937557 -0.20431052 0.01769618 -0.41134948
000230 45 ba 00 bf 81 2e 0a 3e be 12 1a 3f a4 34 06 3e
       -0.50284225 0.13494302 0.6018485 0.13106018
000240 8d c7 18 bf 56 bf 3b bf 5f 85 81 3e a4 d2 e9 bd
       -0.5967949 -0.7333883 0.25297067 -0.1141713
000250 1d af 0f 3f bc 18 40 3e a4 7e 06 bf 4d f5 5a be
       0.56126577 0.18759435 -0.5253699 -0.21382637
000260 ba 30 13 bf be 9d d6 bd 47 e7 ac be f2 d2 03 bf
       -0.57496226 -0.10479306 -0.337702 -0.5149375
000270 a5 52 a6 3d 7c 66 26 3f 55 9c c5 bd 4f b0 51 be
       0.08121232 0.6500013 -0.096489586 -0.20477413
000280 c4 8e 73 be 3c 8a bb 3e 69 f6 25 bd 88 65 8b 3e
       -0.2378493 0.36628902 -0.0405182 0.272259
000290 3b 30 2f 3e 72 fe 9d be fb 22 d0 3e a5 e6 23 3f
       0.17108242 -0.3085819 0.40651688 0.6402381
0002a0 a6 c3 f0 bd 03 7d 63 be 50 3c 5d 3e be 5b f0 be
       -0.11756067 -0.22215657 0.21605039 -0.46944994
0002b0 15 9d fc 3c 19 95 a5 3e bc fe fe bc 4f e7 51 3e
       0.030836621 0.32340315 -0.031127326 0.20498393
0002c0 70 da 91 bc 5b 1c 00 3f a2 4a 89 3f 62 eb 55 3e
       -0.017804354 0.50043267 1.0725901 0.20890573
0002d0 3e db ac 3e 24 41 f5 3f 61 79 03 40 6a 68 f9 3f
       0.3376102 1.9160504 2.0542834 1.948499
0002e0 70 f8 97 3e 3c a6 92 3e a0 a0 f0 3e c6 a9 9f 3f
       0.2968173 0.28642452 0.46997547 1.2473686
0002f0 e0 85 1d 3f a4 0c eb 3f 4f fb 4a be 45 90 b6 3e
       0.615324 1.8363233 -0.19822429 0.35656944
000300 be 1a d0 be 82 70 73 3e 09 89 36 3e a0 2b 10 3f
       -0.40645403 0.23773387 0.17825712 0.56316566
000310 d5 44 a4 3c bf ee 0a bf 72 c0 66 bf c7 35 19 bf
       0.020052353 -0.5427055 -0.901374 -0.5984768
000320 9c 6d 1d bf c4 8a 69 be b4 6e c1 3d 0b 3f 24 be
       -0.61495376 -0.22806841 0.09444943 -0.16039674
000330 49 02 c4 bf 1d 9f 82 3e 83 76 bd 3e 80 0f 23 bd
       -1.5313197 0.2551202 0.3700448 -0.039809704
000340 46 97 e2 be 6d f3 46 bf d1 49 95 be 8d 8b c8 bc
       -0.44256037 -0.7771519 -0.2915788 -0.024480605
000350 af c1 5c 3e 3f 2c e6 3e d5 90 98 3f 5e 7e 92 3f
       0.2155826 0.44955632 1.1919199 1.1444814
000360 48 be 8b be 7b 3d 9b be a2 3c 1e bf b1 40 27 bf
       -0.2729361 -0.30320343 -0.6181127 -0.65333086
000370 89 b5 8d 3e 89 25 24 bf b4 d4 4c bf 1f 72 d5 3d
       0.27677563 -0.64119774 -0.8001206 0.104221575
000380 e7 65 a2 3f e9 0c 6f 3f 88 10 0c 40 fd 39 83 3f
       1.2687348 0.93379074 2.188509 1.0252072
000390 92 e4 e9 3f c4 3d a1 3f 81 fb e1 3e 3b d6 b7 3f
       1.8272879 1.2596974 0.44137195 1.4362253
0003a0 f7 9c ce 3f 48 6b a2 3f 0b 94 fa 3d 5e e2 14 3f
       1.6141652 1.268899 0.12235268 0.5815791
0003b0 72 5a 1f 40 6d f5 39 3f 47 3a f9 3f 19 38 17 40
       2.4898953 0.72640115 1.947091 2.362799
0003c0 b8 86 d1 be 54 d3 01 3f da 36 1a be a6 fc 1f 3f
       -0.40923095 0.50713086 -0.15059987 0.62494886
0003d0 f8 71 82 3f bf 69 2a bf 64 72 2b bf 08 69 4e 3d
       1.019103 -0.66567606 -0.6697142 0.050393134
0003e0 32 26 89 3d 1d 2e 55 3d 8e 60 98 3d 31 af c1 bd
       0.06696738 0.05204593 0.07440291 -0.09457243
0003f0 f3 73 ce bd 32 93 8b be ae b7 42 3e ea b9 a3 bc
       -0.10080709 -0.2726074 0.1901538 -0.019986112

se_block_event.0.2.bias f4 [64]
000000 80 05 1b 3f 5f f1 83 3e b8 fe 59 40 fa 1d a4 3d
       0.6055527 0.2577009 3.4061718 0.0801353
000010 5a 42 5b 40 f5 a0 25 3f 54 62 17 40 8a 77 ae be
       3.4259248 0.64698726 2.3653765 -0.34075576
000020 50 e2 1b 3f d7 99 cf 3e 9f d6 70 3c 6f 81 e4 3e
       0.608922 0.40547058 0.014699607 0.4463
000030 db 5a bd be fd 5b c7 3e ca c5 e5 3f fa 90 c2 3f
       -0.3698338 0.3893737 1.7950985 1.5200493
000040 47 fd e2 be 98 b9 61 be 2f 2a da 3f 3a 9f b6 3d
       -0.4433386 -0.22043455 1.7044123 0.08917089
000050 70 c8 65 be 5c 80 22 3e f6 52 de 3d d1 da ee 3f
       -0.22439742 0.15869278 0.10855667 1.8660527
000060 0f 86 a6 3f c9 50 02 40 6b 3f 06 40 63 19 30 3f
       1.3009661 2.0361807 2.0976207 0.6878874
000070 1a f8 6f 3f 22 ec cb 3e 30 b5 f4 bd 66 62 f3 3d
       0.9373795 0.39828593 -0.11948621 0.118840024
000080 7e 61 79 be c1 80 22 3e bf c8 6b 3f 23 90 8d 3e
       -0.24353597 0.15869428 0.9210319 0.2764903
000090 a5 d6 6e bd a9 59 1d 40 ca 3c d1 3d 67 26 07 40
       -0.05831017 2.4585974 0.10216673 2.111719
0000a0 a6 91 fa 3e 80 be 7b 3f 5d a9 05 3f 7b d2 69 3e
       0.48939246 0.98337555 0.5221155 0.22834198
0000b0 93 5f 40 3f 31 31 38 3f d2 6a 2f 40 56 38 8a be
       0.75145835 0.7195006 2.7408948 -0.26996106
0000c0 88 84 97 3f a3 c3 98 3e b9 05 d2 3f 67 94 cd bd
       1.183732 0.2983676 1.6407996 -0.10038071
0000d0 b2 6f 3b 3d fc ae f6 3f 00 5f 9c 3d 93 6a 97 40
       0.045760818 1.9272151 0.07635307 4.7317595
0000e0 20 a0 d1 3e c9 6f 9f 3e 97 44 11 be e3 e7 45 3f
       0.40942478 0.31139973 -0.14186321 0.77306956
0000f0 7a de 4c 3f cb d5 f9 3e c4 f5 f9 3f 35 7c c3 3f
       0.8002697 0.48795924 1.9528127 1.527228

se_block_event.1.0.weight f4 [16, 64]
000000 8d 94 6d 3d 89 2f da bd 5f ad 96 3d 9f f2 33 3d
       0.058002997 -0.10653598 0.07357287 0.043932553
000010 9a d7 76 3d d6 7f 5d 3c 36 79 51 3e d9 da 1b 3d
       0.060264207 0.013519248 0.20456395 0.038050506
000020 a6 a6 f6 bd 63 c5 39 3e 0f 12 9d 3d c7 b1 ab bd
       -0.120435044 0.18141703 0.0766946 -0.08383518
000030 04 25 07 3c fb 5c a1 bd 82 80 64 bd fb e4 2a 3e
       0.008248571 -0.07879063 -0.055786617 0.16688912
000040 94 c4 3d be 91 79 4b 3e 39 72 4e 3e 89 a1 11 be
       -0.1853202 0.19870593 0.2016076 -0.14221777
000050 bc f4 ca bd 6e cb a3 3d 16 42 8d 3e c5 7c 0e 3e
       -0.09909961 0.079977855 0.27589482 0.13914783
000060 aa 75 64 bd 59 e7 c5 be 36 d8 6a 3e 07 5f f3 3c
       -0.055776276 -0.38653067 0.2293404 0.029708399
000070 5f 24 0a 3e 03 a9 1c 3e c0 8a 07 be d1 a0 8a bc
       0.13490437 0.15298848 -0.13236523 -0.016922386
000080 83 7e 77 3e 96 47 2b 3e 0d c7 57 3e 2f 76 e9 bc
       0.24169354 0.16726527 0.21072026 -0.028498737
000090 12 68 24 3e 2d 57 2a bd 9f b4 2c be ea 51 eb bd
       0.16055325 -0.041587044 -0.16865776 -0.11490233
0000a0 00 5c ad 3d 43 82 fa 3d f9 df ac bd eb f3 dc 3e
       0.08464813 0.12231877 -0.08441157 0.43154845
0000b0 75 94 8c 3e 28 61 c9 3a a6 65 91 3d f8 2a 71 3d
       0.27457014 0.0015364038 0.07099466 0.05887887
0000c0 40 58 c4 3d ba d5 28 be 41 72 a9 bc 87 1a 6c bd
       0.09587145 -0.1648778 -0.020684363 -0.057642486
0000d0 e3 3d a5 bd 30 32 6e b8 b7 f7 c8 3d 71 7a cc 3c
       -0.080684446 -5.6790363e-05 0.09812873 0.024960728
0000e0 88 d4 8a 3e 29 e4 2b 3d 1a 3b c0 3d cd 61 97 be
       0.27115273 0.041965637 0.09386273 -0.29566804
0000f0 d9 0d 89 3e e8 b3 a8 3d 44 5e 44 bd 11 9c 24 3e
       0.26768377 0.082374394 -0.04794146 0.1607516
000100 18 0a 01 3f eb 8a 6b bd 4d f9 89 3d 07 1d e8 3d
       0.50406027 -0.05750553 0.067370035 0.113336615
000110 bc 78 ec bd 7b 9e c6 3e 8b 43 e8 3d e0 6c 78 be
       -0.11546466 0.38792786 0.11341008 -0.24260283
000120 57 70 e4 3e 16 d2 dc 3c 86 26 f1 bc f1 f9 e0 bd
       0.44616958 0.026955646 -0.029437315 -0.109851725
000130 c8 21 da bd 28 52 d8 be 41 42 4d 3e 6d 23 b2 3e
       -0.106509745 -0.4225018 0.20044805 0.34792653
000140 91 82 f1 3d f5 bb b7 be 98 13 8c be b4 87 a9 3d
       0.11792482 -0.35885587 -0.273587 0.082778364
000150 9f 44 96 be ee 38 0e 40 b4 c4 b0 3f e1 d5 08 be
       -0.2934923 2.2222247 1.3810029 -0.13362838
000160 34 a5 51 3d c1 44 23 be 72 2e 1d 3e dc d6 9d 3e
       0.05118294 -0.15944196 0.15349749 0.30827987
000170 c6 be d4 3e 2e 6f 91 3e 59 90 20 3e de da 7e 3d
       0.415518 0.28405136 0.15680064 0.062220447
000180 23 70 b1 3f 61 4b 89 be f2 bb df 3d 9c 8d 38 be
       1.3862346 -0.26815322 0.109245196 -0.1802277
000190 da 24 a5 3d 9f 16 2f 3e 1d 87 1d 3f c2 88 b1 be
       0.080636695 0.17098473 0.6153429 -0.3467465
0001a0 b1 7e 63 3d 33 b2 92 bd 9b 35 5e be 82 7c 45 3f
       0.055540744 -0.07162895 -0.21700136 0.7714311
0001b0 ba 12 b7 bd 22 53 52 3e 91 17 14 be 80 cb f2 3f
       -0.08939119 0.20539525 -0.14462115 1.8968353
0001c0 45 ac 1a 3e 11 c2 98 be 93 29 81 3d 57 c7 36 3e
       0.15104778 -0.2983556 0.06306758 0.1784948
0001d0 0f 87 06 bd ca 8c c4 3d 5f 95 9b 3f e5 d8 5a 3e
       -0.032843646 0.09597166 1.215496 0.21371801
0001e0 0e e6 a4 3f e0 94 11 be 79 80 18 40 2e 25 4a be
       1.2882707 -0.14216948 2.3828413 -0.19740745
0001f0 19 5c 0e bf d2 61 c4 3e d2 b1 19 3f 07 30 e6 3d
       -0.5560928 0.3835588 0.6003696 0.11239629
000200 35 a1 cd 3e f7 83 46 3d 65 dc 0a be 1b bc c8 3c
       0.40162054 0.048465695 -0.13560636 0.024503758
000210 0a de be be 63 a0 8b 3e 9e bb cf 3e 4f fa b4 bd
       -0.37278777 0.27270803 0.40572828 -0.08836805
000220 c8 5a fc 3e 33 c6 77 3d d4 43 55 bd ab 79 0d 3e
       0.4928801 0.060491752 -0.05206664 0.13815944
000230 8b a3 69 bb b7 88 70 3d 36 46 3b be f9 fc a4 3c
       -0.0035650458 0.05872413 -0.18288502 0.020140158
000240 b9 4c a1 be 0c 62 8a bd 4e ad 09 3f f9 25 d9 3e
       -0.31503847 -0.06756982 0.53780067 0.42411783
000250 24 4f e3 be ef a7 b0 3f 8e 4d e4 3f f3 23 06 3e
       -0.44396317 1.3801249 1.7836168 0.13099651
000260 bf c7 c4 3e 9f 69 88 3c ad a8 82 3d cc 47 4e 3e
       0.38433644 0.016651927 0.063798286 0.20144576
000270 50 7f b0 3e 80 c7 1c 3f 07 84 a7 3c 19 5a c7 3e
       0.34472132 0.6124191 0.020448698 0.38935927
000280 f9 a8 5f 3f 8e 60 83 3d ea d1 3c bd c6 fa 37 be
       0.87367207 0.06414901 -0.046098627 -0.17966756
000290 12 6d f0 be 45 30 6c 3e 2e dd 71 be 64 e1 33 be
       -0.46958214 0.23065288 -0.2361953 -0.17566448
0002a0 f6 aa 84 bd 2e c9 a3 be 2e 5e 71 bd d4 c7 07 3f
       -0.06477921 -0.31989425 -0.058927707 0.5303929
0002b0 6b d6 79 bc f0 6f 68 be db 22 53 3e fb e5 bd 3f
       -0.015248875 -0.22698951 0.20618765 1.483581
0002c0 b4 5f 1c 3e 69 39 13 bc 1b f2 55 3e 4c 4d 35 3e
       0.15270883 -0.008985856 0.20893137 0.17705268
0002d0 08 5a c4 bd 3a b6 a3 bc 0a 3c 46 3f fb 40 a3 bd
       -0.095874846 -0.019984353 0.7743536 -0.079713784
0002e0 5f 13 22 3f 30 13 57 3e 15 c2 9b 3f 0e 7b 8e bd
       0.6331081 0.21003413 1.2168604 -0.069570646
0002f0 66 16 ea 3d 7a 67 07 be ea 2a 2d 3e 50 b4 ea 3d
       0.114300534 -0.13223067 0.16910902 0.11460173
000300 79 55 17 bf 67 90 41 3e 57 b5 b8 3e 4d 51 99 3c
       -0.59114796 0.18902741 0.3607585 0.018715525
000310 89 10 98 3e d9 e9 86 3e c9 d6 b6 3e 85 73 80 3e
       0.29700115 0.26350287 0.35710743 0.25088134
000320 7c 73 75 be 86 61 22 be 36 e3 1c 3f 96 ae 1a bd
       -0.23969835 -0.15857515 0.61284196 -0.037764154
000330 b0 e7 35 bd ec 73 f7 be 00 d8 cd 3e d6 45 0d 3e
       -0.044410408 -0.4833063 0.40203857 0.13796172
000340 06 6b 52 3f 14 e8 00 3e 01 21 3c 3d e5 34 a9 bd
       0.82194555 0.12588531 0.045929912 -0.08262042
000350 cd 86 44 3c c7 f6 60 be 98 73 fb be 3d 7d b2 3e
       0.01199503 -0.21969138 -0.4911163 0.34861174
000360 95 5c e9 3e b9 31 46 3d 88 c2 01 bd f0 5d 33 3c
       0.45578447 0.048387263 -0.03167966 0.010947689
000370 d7 7f be 3e 7e 7e 25 be 41 7f e9 3d dc 70 ed be
       0.3720691 -0.16161534 0.11401225 -0.46375167
000380 e8 3e d0 3e c5 fc 31 be e4 31 96 3e 4a d1 e6 3e
       0.40672994 -0.1738158 0.2933494 0.4508155
000390 f8 13 09 3e 1e fc 20 3e f2 bb 86 bd 8b c7 a6 3e
       0.13386524 0.15721175 -0.065788165 0.32574114
0003a0 4d 88 bd 3e 26 9f 39 3f ca a9 20 3e 31 5c 11 3e
       0.37018052 0.72508466 0.1568977 0.14195324
0003b0 f4 68 f8 3e 76 a6 a2 3e 4b 16 24 3e 96 5b 8e be
       0.48517573 0.31767625 0.16024129 -0.2780425
0003c0 41 d4 d3 3d 78 37 c3 3d 3c 99 8b 3e 6a 1f 9a 3e
       0.103432186 0.09532064 0.27265346 0.30102092
0003d0 26 f3 73 3d 9a cb 0b 3f 16 41 38 3f 56 ad 6a 3e
       0.059558056 0.54607546 0.71974313 0.22917685
0003e0 3f 1c 18 3d 86 a8 d7 bd 0a 6f 14 bf c3 16 c7 3e
       0.037136313 -0.1053019 -0.5798193 0.38884553
0003f0 b6 e1 aa bd b7 92 5c bd d3 83 b8 3e c7 b3 a6 3e
       -0.08343832 -0.053850856 0.36038074 0.32559034

se_block_event.1.0.bias f4 [16]
000000 3d 66 ea 3c 5a 88 47 bf 9f 79 a0 be 40 62 bc be
       0.028613204 -0.7794243 -0.3134279 -0.3679371
000010 8f 43 56 bf 00 5e 57 be 22 dd 8b be 36 10 84 bf
       -0.83696836 -0.21031952 -0.27317148 -1.0317447
000020 0f 30 df bd 32 96 ce be 11 7f a6 bf 8b f2 07 bf
       -0.10897838 -0.40348965 -1.3007528 -0.53104466
000030 d9 74 3c be e8 2c 54 3f 8c 5a 98 bf 50 ef 3e bf
       -0.18403949 0.8288102 -1.1902633 -0.7458391

se_block_event.1.2.weight f4 [64, 16]
000000 c7 fa 90 bc 3a b3 94 3f c0 ba a2 3f d2 87 af 3f
       -0.017697705 1.1617196 1.2713242 1.3713324
000010 97 75 f3 3e b8 47 b0 3f f2 48 fb 3e f4 cd 74 3e
       0.4755065 1.3771887 0.4907909 0.2390669
000020 5f d2 8b 3f d4 70 05 40 b0 45 24 3f 0e 78 58 3f
       1.0923575 2.0850115 0.64168835 0.8455819
000030 05 26 e4 3e d1 a9 df 3f 74 61 ef 3e 75 23 1a 40
       0.44560257 1.7473699 0.46754038 2.4084141
000040 f5 20 cd 3d 88 96 01 40 3c e2 fc 3f 83 40 12 40
       0.10016052 2.0248127 1.9756541 2.2851875
000050 f9 19 a1 3e d1 d5 db 3f f8 6d 52 3f 2c 21 8f 3f
       0.31465128 1.7174627 0.8219905 1.1181998
000060 aa 42 98 3f 2b c8 10 40 55 47 57 3f 88 bd 3e 3f
       1.1895344 2.2622173 0.8409322 0.7450795
000070 dc 91 07 3f d8 b8 25 40 45 30 00 3f ac 74 5b 40
       0.5295694 2.589407 0.50073653 3.428996
000080 5d 41 02 3e 55 bc 30 3f 76 a2 83 3f 06 e9 d6 3f
       0.12720247 0.6903737 1.0283954 1.6789863
000090 83 80 26 3e ad bc ca 3f 9a 4c 28 3f 93 2a bc 3e
       0.16259961 1.5838829 0.65741885 0.36751232
0000a0 87 d1 5e 3f 4f 9a 10 40 74 a6 28 3e 8a bd bb 3e
       0.87038463 2.2594182 0.16469747 0.36668044
0000b0 7e a7 39 3e cd 9a 1e 40 cd 0e 6e 3e 47 89 45 40
       0.181303 2.4781983 0.23247834 3.0865037
0000c0 e8 71 0c be 31 85 0f 40 0b b8 c1 3f b9 d9 ac 3f
       -0.13715327 2.2425044 1.513429 1.3503944
0000d0 d7 7d d5 3e 52 38 c0 3f 02 a1 10 3f 3b f9 3b 3f
       0.4169757 1.5017188 0.5649568 0.7342717
0000e0 24 1c 72 3f a7 d6 a3 3f c9 0b 2d 3f df a7 29 3f
       0.9457419 1.2799882 0.6759611 0.66271776
0000f0 9e be 18 3f 40 1c dc 3f 48 79 86 3f 12 ed d5 3f
       0.5966586 1.7196121 1.0505762 1.6712973
000100 54 53 ea 3e c0 3e 58 3f 22 a0 90 3f c0 78 11 40
       0.457667 0.8447075 1.1298869 2.272995
000110 2a 71 08 3f fc 4b de 3f 8e 0d 46 3e 2b 0b 30 3f
       0.53297675 1.7366939 0.19341108 0.6876704
000120 01 07 92 3f 5e 5e 1e 40 00 af ad 3e 8c 51 2e 3f
       1.1408387 2.4745097 0.33922577 0.6809318
000130 98 c4 33 3d 54 a6 1c 40 71 fc 9c 3d 2a d3 2f 40
       0.04388866 2.4476519 0.07665337 2.7472634
000140 a5 ab f1 3e 15 3d a9 3f 30 98 55 3f 24 b3 f6 3f
       0.47201267 1.3221766 0.83435345 1.9273419
000150 42 1d a5 3e 63 0e c0 3f 88 1a 66 3e bd 28 26 3f
       0.32248884 1.500439 0.22471058 0.6490591
000160 a0 47 32 3f a1 d6 0d 40 b6 15 06 3f 28 50 1e 3f
       0.6964054 2.216225 0.5237688 0.6184106
000170 f3 1a d9 3e db 7b 02 40 06 47 d1 3e 33 81 27 40
       0.42403373 2.0388095 0.408745 2.6172607
000180 07 53 27 3d d8 53 94 3f 9a 1a c0 3f 58 f5 fd 3f
       0.040850665 1.1588087 1.5008118 1.9840498
000190 29 82 3d 3f 01 0c dc 3f fc 7e 15 3f 64 c1 98 3f
       0.74026734 1.7191163 0.5839689 1.1934018
0001a0 cd 18 d6 3f 6e e6 12 40 6a 67 62 3f 36 5e 18 3f
       1.6726319 2.2953143 0.8843905 0.59518754
0001b0 33 17 4d 3f ef 43 d5 3f 69 d2 a1 3e 95 ca 1f 40
       0.80113524 1.6661357 0.31605843 2.4967396
0001c0 c2 71 53 3d 0a 79 24 3f 83 7b e8 3e 61 25 fb 3d
       0.05162216 0.6424719 0.45406732 0.12262989
0001d0 7e 3d 1d 3f 34 41 7e 3e 58 5d 27 3f cd 32 6a 3e
       0.61421955 0.2482956 0.65376806 0.22870941
0001e0 40 6d e0 3e a0 f4 be be 4e db 1d 3f d1 54 90 3e
       0.4383335 -0.3729601 0.6166276 0.2818971
0001f0 b4 42 d4 3e d8 a9 53 3f ed 67 cf 3e 2c 2a 5c be
       0.4145714 0.82681036 0.40508977 -0.21500462
000200 0a c9 a4 3e fa f4 95 3f 35 a0 04 3f c4 92 3e 3e
       0.3218463 1.1715386 0.51806957 0.18610674
000210 aa 85 64 3f b2 9d 65 bd ec e6 48 3f ad 06 42 3f
       0.89266455 -0.056058593 0.7847736 0.75791436
000220 49 c3 c7 3d 9d 92 15 3c f1 62 92 3f 2b 27 f7 3e
       0.097540446 0.009129194 1.1436445 0.4827207
000230 73 81 43 3f 04 98 33 3f fa 42 6d 3f 6e d8 54 be
       0.763694 0.7015383 0.92680323 -0.20785686
000240 77 d5 c8 3e 0d be 5b 3f d2 00 33 bc 70 c9 ea be
       0.3922536 0.8583687 -0.010925489 -0.4585681
000250 f4 d0 f0 3e 38 80 98 3e 52 99 07 3f 60 81 2d 3f
       0.4703442 0.29785323 0.52968323 0.67775536
000260 64 5a 9f be 6c 53 72 3d 77 18 89 3f 50 f8 2d 3d
       -0.3112365 0.05916159 1.0710591 0.042473137
000270 eb a7 52 3f b8 82 59 3f 2b 2b 20 3f c0 03 48 bf
       0.8228747 0.84965086 0.6256587 -0.7813072
000280 fd 5e 97 3d 6f 10 87 3f e3 a7 0e 3f 7d da 26 3e
       0.073911645 1.055189 0.55724925 0.16294284
000290 0d 33 45 3f 78 87 0d 3c 16 0a 8d 3f a7 f8 92 3e
       0.7703102 0.008638255 1.1018703 0.28705332
0002a0 df d9 e6 3e c2 0e 2f be 26 f2 54 3f b9 87 10 3e
       0.45088097 -0.17095473 0.8318199 0.14114274
0002b0 20 31 36 3e 4b 9c cc 3e 5f fc 59 3f 77 bc 43 be
       0.17792177 0.39962992 0.8515071 -0.19114862
0002c0 b5 1e 9a 3e 42 69 78 3f ac 65 36 3f ba 9c de 3f
       0.30101553 0.9703561 0.7124889 1.7391579
0002d0 cd fe 0d 3f 72 d1 bc 3f 94 4c 77 3f 22 d3 7f 3f
       0.5546692 1.4751418 0.96601224 0.9993154
0002e0 0c 9f 5f 3f ba e4 ff 3f 5b b6 0a 3f 34 02 28 3f
       0.8735206 1.9991677 0.541845 0.6562836
0002f0 42 28 d4 3e a3 0c cc 3f 5e c6 61 3f 2a ac 2f 40
       0.41436964 1.5941356 0.8819331 2.744883
000300 e0 c6 9b 3d ff 67 02 3f 1a 72 2d 3f e1 c7 27 3e
       0.07606292 0.50939935 0.6775223 0.16384842
000310 c9 db d0 3c a5 53 59 bc 84 d7 77 3f b2 7b d9 3e
       0.025495427 -0.013264571 0.96813226 0.42477185
000320 cb 84 63 bf d3 49 cf 3d ee 98 26 3f 59 bf 92 3e
       -0.888745 0.10121503 0.650771 0.28661612
000330 58 eb c0 3e ab df 86 3e 53 ba 65 3f d9 bd 93 be
       0.37679553 0.2634252 0.89737433 -0.2885578
000340 5e 96 a9 bd 67 36 b6 3f 9f 9c a9 3f 50 39 e1 3f
       -0.082806334 1.4235352 1.3250922 1.7595615
000350 f5 48 d6 3e fa 4b f5 3f a1 6c 3d 3f b9 3e 4d 3f
       0.41852537 1.9163811 0.7399388 0.8017383
000360 9e de a2 3f 5e 17 33 40 e7 4f 31 3f cb da 4a 3f
       1.2724187 2.7983012 0.69262546 0.792401
000370 6d f3 d3 3e d6 b0 3a 40 76 a9 21 3f ad 90 67 40
       0.41396657 2.9170432 0.631492 3.6182053
000380 c7 ec c3 bc 10 f0 c5 3e 78 09 1f be d4 56 e0 bd
       -0.023916615 0.38659716 -0.15530956 -0.10954061
000390 6c f9 ef 3e 24 63 21 3f c2 1e 87 3d 1e 7b 0e 3f
       0.4686998 0.630419 0.065976635 0.5565661
0003a0 4e 99 30 3f 88 32 07 3e f2 44 70 3e a4 0b a1 3e
       0.68983924 0.1320287 0.234638 0.31454194
0003b0 6f 3d f7 3e ef 92 f4 3e e7 5b 58 3f fb 68 03 bf
       0.48289058 0.4776835 0.8451523 -0.5133206
0003c0 5d 17 bc 3e 0d 48 f3 3f 33 a7 b7 3f a0 dc ed 3f
       0.36736575 1.9006363 1.43479 1.8582954
0003d0 8f bc fb 3e fb 7a de 3f e9 bc 15 3f b9 04 8c 3f
       0.49167296 1.7381281 0.5849138 1.0938941
0003e0 a4 e4 a2 3f c1 5c 27 40 4a 8c b7 3e 49 b4 3b 3f
       1.2726026 2.6150362 0.3584922 0.7332197
0003f0 a2 b3 b4 3e d1 ed 06 40 63 b8 ff 3e ef 4c 52 40
       0.352933 2.1082652 0.49945363 3.2859457

se_block_event.1.2.bias f4 [64]
000000 0d 45 34 40 98 b9 4c 40 bd 43 65 40 8b d8 05 40
       2.8167145 3.1988277 3.5822594 2.0913417
000010 5f 48 65 40 ea 88 2e 40 e4 50 36 40 93 18 6d 3f
       3.5825422 2.7271066 2.8486872 0.9261562
000020 7b 53 32 3f 3a af 6e 3f a4 54 97 be 7c b5 46 40
       0.6965863 0.93236125 -0.29556763 3.104827
000030 f4 09 9b 3e c5 da 70 40 5e c5 7c 3f 35 0b 51 40
       0.3028103 3.7633526 0.9873866 3.266309
000040 3c 8c 1c 3f a4 fe c4 3e eb 57 31 40 8c de 27 3e
       0.6115148 0.38475525 2.770991 0.16393489
000050 32 94 7c 40 dd 34 ac 3f 61 fb 30 3f 4a db 16 3f
       3.9465451 1.3453633 0.69133574 0.5892836
000060 6e 00 fd 3f 9b 63 13 40 0b 8e 02 40 6d 9a 58 40
       1.9765756 2.3029544 2.0399196 3.3844254
000070 8c 41 00 40 72 c3 21 40 80 f6 8c 3f 72 c2 08 40
       2.0040007 2.527554 1.1012726 2.136868
000080 dd 04 4d 3e a3 84 4a be c6 87 26 40 98 7a b4 3e
       0.20021386 -0.1977716 2.602037 0.35249782
000090 98 0f bd 3e 39 bf 1b 40 07 b3 45 40 da a9 4c 40
       0.3692596 2.4335463 3.089052 3.197867
0000a0 22 9e 57 3f 00 0c 27 40 a3 30 07 3f c3 ed 82 3e
       0.84225667 2.6101074 0.5280859 0.25572023
0000b0 f7 43 2f 40 f0 dd 20 40 24 6b 44 3f e0 42 48 3f
       2.7385232 2.513546 0.76725984 0.78227043
0000c0 e8 3e 3e 3f 02 10 35 40 56 28 0f 40 7d 2f 29 40
       0.7431474 2.829102 2.236837 2.6435235
0000d0 77 ca 8a 3e ae fa 27 3f 0e bc 8f 3e 6b b1 55 40
       0.27107593 0.6561688 0.28073162 3.3389537
0000e0 0c 21 f5 3e 02 cc 27 40 95 88 4a 3f 87 a9 2a 3f
       0.47876775 2.6218266 0.7911466 0.6666493
0000f0 60 89 46 40 68 f3 6d 3e 59 0f b4 3e c1 67 66 3f
       3.1021347 0.23237383 0.3516796 0.90002066

se_block_event.2.0.weight f4 [16, 64]
000000 22 1c 05 bf c0 5d 8e 3e a0 c5 c0 be 19 97 8a 3e
       -0.5199605 0.278059 -0.37650776 0.27068403
000010 23 59 c2 be ef ee 9e 3e fe 53 af 3e 95 0c 99 bd
       -0.3795863 0.31041667 0.34243768 -0.07473103
000020 12 cc d4 3d 32 fc a3 bd dc 5a af be df f6 b8 bc
       0.10390486 -0.08007087 -0.34249008 -0.022578655
000030 c9 0f 90 be ff e2 ef 3d 72 42 74 3d da 09 ed bd
       -0.28137043 0.11713218 0.05963368 -0.11574145
000040 5f b0 62 3f 63 f7 90 3e 2b 2a b0 be 61 d9 65 bc
       0.8855037 0.2831374 -0.34407172 -0.014028878
000050 ed cb 61 3e e8 62 53 3d 63 0c af be 0d 34 ab bd
       0.22050448 0.051607996 -0.34189138 -0.08359537
000060 f9 1b 86 3e 8e ee 09 be 2a db e7 bc f7 a8 93 3d
       0.26193216 -0.13469908 -0.028302748 0.07209962
000070 db 14 0c 3e 24 a1 02 3f 0e 84 16 bd 0f 8c fe bd
       0.1367983 0.5102713 -0.03674703 -0.12429058
000080 8f 26 e8 3e 8d f6 3c be 51 c7 3b 3e b7 60 bc 3e
       0.45341918 -0.18453427 0.18337752 0.36792538
000090 aa 99 02 3d 20 d9 75 3e 4f b5 3f 3e 47 0a 55 3e
       0.031884827 0.24008608 0.18721507 0.20804702
0000a0 c2 64 87 3d a6 7d 1a bf 9b 06 24 be cf fd 6c 3f
       0.06611015 -0.60347974 -0.16018145 0.9257478
0000b0 ac 33 50 be cf 79 ea bd ac 31 37 3f 0b 35 1c bf
       -0.20332211 -0.114490144 0.7156017 -0.6101844
0000c0 a3 97 80 3e 3b e3 a9 3e d9 4d a4 be 82 ba 01 bf
       0.2511569 0.33181176 -0.32090643 -0.50675213
0000d0 3b c9 3e 3d 0f 00 b2 be 82 9c 62 be b2 a6 50 3d
       0.046578627 -0.3476567 -0.22130015 0.050940223
0000e0 ac 51 f1 3e 29 b9 eb be d3 ca 37 3e 59 64 5d be
       0.47132623 -0.46039703 0.17948465 -0.21620311
0000f0 73 93 4a 3e 0e 93 b9 bd 47 4a 5c 3e 9c 84 ef 3c
       0.1978281 -0.090612516 0.2151271 0.029238038
000100 2b 09 aa be 8b 7b 8c be b4 db b3 3d 21 84 22 3e
       -0.3321012 -0.27438006 0.087821394 0.15870716
000110 98 21 d0 3e 88 17 61 be 55 f7 9f 3e c4 f6 9b be
       0.4065063 -0.21981633 0.31243387 -0.30461705
000120 20 e6 06 3e 8d ac 8d 3a e4 e0 31 3e bf 96 3f 3d
       0.13173723 0.001080887 0.17370945 0.046774622
000130 84 01 eb be f6 b4 05 bf 23 86 a7 be 5f 6f c5 3e
       -0.45899594 -0.5222925 -0.32719526 0.38561532
000140 ec 58 18 3f 08 5b 2d be 0c fc 36 be 99 61 85 bd
       0.59510684 -0.16929257 -0.17869586 -0.06512756
000150 c0 83 c9 3d 3e 64 84 bf 61 0b 82 be e0 77 97 3e
       0.098395824 -1.0343091 -0.25399306 0.29583645
000160 0c 9d 42 be 87 db 23 3e 08 46 21 3e 7c 43 3a bf
       -0.19005221 0.16001712 0.15749371 -0.72759223
000170 d5 4d 5c 3e 41 63 8c bd 5e 5c 00 bf f8 fe 82 be
       0.21514066 -0.06854869 -0.5014094 -0.2558515
000180 53 49 57 3f d7 80 37 be d5 0a 8e 3e 46 53 48 3e
       0.8409626 -0.17920242 0.2774264 0.19563016
000190 b2 0f 3d be 39 ec 2d 3d 15 77 85 bd 93 8e 86 3e
       -0.18463019 0.042461608 -0.06516854 0.2628065
0001a0 79 5b 05 3f ff 34 23 bd 45 ce 0f 3d 4f ad dc 3e
       0.520927 -0.039845463 0.035108823 0.43100974
0001b0 77 f6 a3 3e 1d 4a df 3d 93 8b b4 3e 90 99 b9 3d
       0.32023975 0.10902808 0.35262737 0.09062493
0001c0 00 cb c3 3e 6e 56 28 3f 53 8f f8 3e a8 b1 4f be
       0.38240814 0.6575688 0.48546848 -0.20282614
0001d0 dd 82 f5 bd 88 95 80 3d be 91 77 3e fd 64 6a be
       -0.11987851 0.06278521 0.2417669 -0.22890086
0001e0 81 e6 87 3f 7a a8 9b be 47 b3 2f be 0b 59 fe 3e
       1.0617219 -0.30401975 -0.17158233 0.4967731
0001f0 e5 04 12 bf 42 14 7f bd a2 db aa 3d da 1f c0 bc
       -0.5703872 -0.06227518 0.08342673 -0.023452688
000200 1b 38 0f 3f cd fb e5 3e 00 61 71 be 4f 93 df 3e
       0.55944985 0.4491867 -0.23572159 0.43667075
000210 ec fc 64 3e 08 36 ef 3e 79 16 ac 3e b5 1d 6c 3c
       0.22362107 0.4672091 0.33610895 0.01441138
000220 d2 3c 13 bc fd aa b4 be ae ba 5f be 95 75 35 be
       -0.008986669 -0.35286704 -0.21848556 -0.17720635
000230 d9 4a 18 be e9 31 33 be ab 03 5d 3e 6e 80 36 be
       -0.14872302 -0.17499508 0.2158343 -0.1782243
000240 c3 8b 07 bf f3 1c c4 3c 29 b0 d4 bd 9e 2a 6d bd
       -0.52947634 0.023939585 -0.103851624 -0.05790197
000250 b8 d2 01 3f f1 a2 16 3f 43 85 40 3f 31 17 34 be
       0.50712156 0.5884238 0.7520334 -0.17586972
000260 ab c2 c0 3d 98 af 32 3e 61 85 34 3e b2 fc 13 3d
       0.0941213 0.17449796 0.17629005 0.03612966
000270 40 c1 1b 3f fc b7 c1 3d fc f6 be 3a d8 2a 7e 3e
       0.6084175 0.0945892 0.0014569457 0.24821031
000280 64 58 5e 3e a5 c2 84 3d f1 40 c6 bd 43 5c 31 3d
       0.21713406 0.06482438 -0.09680355 0.04330088
000290 6d ab e7 3c 0e 2d 40 3e 25 57 f3 bd f3 38 c6 be
       0.028279984 0.18767187 -0.11881856 -0.38715324
0002a0 8f 5f e6 3e cb d1 9f be 00 fb 53 be 86 6a 10 3e
       0.4499478 -0.31214747 -0.20701218 0.14103135
0002b0 48 19 57 be 78 e4 9b be bf f4 65 3e 86 a9 19 3f
       -0.21005738 -0.30447745 0.22456644 0.600243
0002c0 05 b4 82 3d af d2 c0 3e 0e ca a4 3e 4e 13 da be
       0.06381992 0.3766074 0.32185405 -0.42592853
0002d0 3a e4 97 bc 67 90 5d bc c5 2e ba 3c eb 41 02 3f
       -0.018541444 -0.013523198 0.02272738 0.5088183
0002e0 e7 8b 51 3f 04 75 61 bc a8 7d 3d 3f 93 32 35 be
       0.818541 -0.013760809 0.7401986 -0.17695074
0002f0 c6 e5 64 3c e6 b3 93 be fb b0 1d be bf 40 8c 3c
       0.013970798 -0.2884819 -0.15399544 0.017120717
000300 69 4c 50 3e e8 f5 58 bd 2b c6 bc bd 02 8b ae 3d
       0.20341648 -0.05296889 -0.09217485 0.085226074
000310 b1 f6 80 3d 00 c8 4e 3f fb f9 a4 3d f0 98 72 3c
       0.06297053 0.80773926 0.080554925 0.014806971
000320 a3 6d 27 3e 84 e2 f2 bd e6 04 c6 3e 30 a6 21 be
       0.16350417 -0.11859611 0.38675612 -0.15786052
000330 52 85 10 3d 99 2c 37 3e 32 28 21 3e 0f 6a 90 3e
       0.035283394 0.17888106 0.1573799 0.28205916
000340 ba 68 a7 3f 8c 58 20 3f a2 3f 4a be 09 b1 97 3e
       1.3078835 0.6263511 -0.19750836 0.29627255
000350 57 ee 37 3e 74 a1 35 3e 51 f0 a7 bf e9 14 ae bd
       0.17962013 0.1773737 -1.3120214 -0.08500082
000360 26 af f9 3d 9b 30 18 bd 82 91 b0 3d a9 bc ba 3d
       0.1219161 -0.03715573 0.086215034 0.09118015
000370 1a f8 b4 be b2 7c d3 be c6 2f 8e bd 3e bf 18 be
       -0.35345536 -0.41306072 -0.06942706 -0.14916703
000380 8a 03 50 3f 8b 88 d8 bb cb 05 cf 3e 2a d1 38 3f
       0.812554 -0.006608074 0.40434107 0.7219416
000390 bc 12 07 3f 6e 55 cc 3d f5 c3 c7 bd 25 c9 6d bd
       0.5276296 0.09977232 -0.09754173 -0.058053154
0003a0 4b c2 9a be 9e 5e 83 be ca 6d 8a 3e 7f 25 b5 3f
       -0.3022636 -0.25658125 0.27036887 1.4152068
0003b0 ea 6d 5d be 97 74 9a 3e 0e 5b 58 3f d9 12 f5 bf
       -0.2162396 0.30167076 0.8451394 -1.9146377
0003c0 35 df 1d 3e a8 59 cf 3d 4d e1 a2 bd 63 50 33 3e
       0.15417178 0.101245224 -0.07953129 0.17511134
0003d0 58 ef d2 3e 6e 7c ee 3e a4 69 f4 3e 5d 6b 55 3e
       0.4119823 0.46579307 0.47736847 0.20841737
0003e0 d6 0b 68 3f f4 ba 05 bf e1 bf fc be c7 af f5 3e
       0.9064306 -0.5223839 -0.49365142 0.4798567
0003f0 4c 1c 1c 3e 60 9d 38 3f 5d 4b 0a 3f 7d 8e 3c be
       0.1524517 0.72115135 0.54021245 -0.1841373

se_block_event.2.0.bias f4 [16]
000000 e6 38 e4 be 1c a2 71 be 15 f2 4a bf 5b 6c 05 bf
       -0.4457466 -0.23596996 -0.7927564 -0.5211846
000010 c1 e3 1e bf d2 f9 12 3f e1 99 57 3e 76 01 c0 bf
       -0.62066275 0.57412446 0.21054794 -1.5000446
000020 97 f6 22 be 9f e4 10 bf 0c 90 99 bf 1a 2a 0c 3f
       -0.15914379 -0.5659885 -1.1997085 0.5475174
000030 ad 71 8f bf 9b 8c e9 be 68 0c 72 3d e0 1b 19 bf
       -1.1206566 -0.45615086 0.059093863 -0.5980816

se_block_event.2.2.weight f4 [64, 16]
000000 98 3c ba 3e b3 cb a7 bc 4e 1d a1 3f f0 1a 03 3e
       0.36374354 -0.020482874 1.2587068 0.12803245
000010 e5 27 9d 3f 90 85 7d 3f 78 3e 25 3e a4 28 bc 3f
       1.22778 0.99031925 0.16137111 1.4699903
000020 ea b8 f7 3e 09 0e 97 be 90 f6 f4 3f d7 e0 56 bd
       0.48383266 -0.29502895 1.9137745 -0.052460518
000030 66 d1 08 40 1e 21 8c 3f 8a e2 b1 3f 34 b0 f2 3f
       2.1377807 1.0947607 1.3897259 1.8960023
000040 9e 7f 76 3e 42 bc 2b 3e 7a 38 00 3f 54 aa b5 3d
       0.2407212 0.16771033 0.50086176 0.08870378
000050 97 23 e4 3f 8a fd 6f 3f f1 83 99 3e 34 55 ed 3e
       1.7823361 0.93746245 0.29983476 0.46354067
000060 17 6d 91 3c ca 73 82 be 44 cc d3 3f 8a 77 d2 3d
       0.017752213 -0.25478965 1.6546712 0.102767065
000070 34 38 8e 3f 7b 82 44 3f d7 11 58 3f 75 fd 8d 3f
       1.1110902 0.767616 0.8440222 1.1092974
000080 1b d9 e5 3e 72 9a 93 be 2f 25 68 3e 8d 14 dc 3e
       0.448922 -0.2882877 0.22670434 0.4298443
000090 1c b2 46 3f b7 66 12 3f 2c e3 24 3f 73 70 d4 3e
       0.77615523 0.5718798 0.64409137 0.41492042
0000a0 c7 0e c5 be 40 ef bc be ad b3 bf 3f d7 a7 37 3e
       -0.38487837 -0.36901283 1.4976708 0.1793512
0000b0 9b 7b b4 3f d4 42 13 3f f9 da ac 3f b2 61 98 3f
       1.4100221 0.57523847 1.3504325 1.1904814
0000c0 34 45 27 3e 95 73 a8 3e 31 87 19 3f 51 dc 72 bd
       0.16334993 0.32900682 0.5997191 -0.05929214
0000d0 40 e2 5f 3f 97 ab 62 3f cb 9e a8 3e 45 9e 3d be
       0.87454605 0.88543075 0.3293365 -0.18517406
0000e0 4b 8b bd 3e a1 08 f4 bd fd 75 80 3e 32 6e 6b be
       0.37020335 -0.11915708 0.25090018 -0.22991255
0000f0 a0 1a 2b 3f 9e 7f c6 3f 56 ea 92 3f 59 13 38 3f
       0.668375 1.5507696 1.1477764 0.7190452
000100 66 e6 c4 3f 88 6d 5c 3f 6a 8b 6b 3f c4 ee 0c 40
       1.5382812 0.8610463 0.92009604 2.202073
000110 e9 e0 97 3f 4e 90 44 40 ab c0 0a 40 f6 71 e1 bd
       1.1865512 3.0713077 2.1680095 -0.110080644
000120 d8 dc c7 3f dd 22 24 40 70 cf cc 3e 6c 71 0a 40
       1.5614271 2.564628 0.40002012 2.1631727
000130 fe 78 41 3e 35 ab 0a 3e ff d2 a0 3f 18 4b cd 3d
       0.18893811 0.13541873 1.2564391 0.100240886
000140 34 5c 91 be 85 e1 90 3e 60 c1 b9 3f 36 a1 02 bf
       -0.28390658 0.28297058 1.4512138 -0.5102724
000150 8f 3d 77 3f 8e 94 11 3f a5 79 bf 3f 1e 95 7a 3f
       0.96578306 0.568673 1.4958998 0.97883785
000160 26 e3 2b bf c1 43 fd be a3 c5 b9 3f f7 c2 ce 3e
       -0.67143476 -0.49465755 1.4513439 0.4038312
000170 00 dc 9c 3f 70 e3 fd 3f 90 91 91 3f a7 10 ab 3f
       1.2254639 1.9835033 1.1372547 1.3364457
000180 54 6a 9d 3f fb 57 34 3f 28 2d 88 3f a9 4d 3a 3f
       1.2298074 0.7044675 1.063878 0.7277475
000190 bd da 8f 3f e4 96 ba 3f 25 81 06 40 c8 c7 8e 3f
       1.1238629 1.4577298 2.1016324 1.1154718
0001a0 0b 93 09 3e 79 3e 47 3f 79 ed 98 3f 32 12 d5 3f
       0.13434999 0.778297 1.1947471 1.6646178
0001b0 a3 db a4 3f 54 44 22 3f 95 84 a7 3f 19 9a 29 3f
       1.2879528 0.6338551 1.3087336 0.6625076
0001c0 d2 bb ea 3f 3c 59 76 3f 58 af 9e 3f 84 bb 07 40
       1.8338568 0.9622991 1.2397261 2.12082
0001d0 6a 7a 55 3e 3a f4 eb 3f de 89 00 40 bd 3a c2 3e
       0.20847479 1.8433907 2.0084147 0.3793544
0001e0 e9 e2 8d 3f bd 2d 32 40 e5 79 93 bd ee af 00 40
       1.1084872 2.7840416 -0.07200984 2.010738
0001f0 a9 a6 ca 3e 74 3c 3e bd 83 5d 68 3f 96 4d 08 3f
       0.39580277 -0.04644437 0.9076769 0.53243387
000200 f1 00 c1 3f 1f 65 6d 3f b4 0f 7f 3f 31 14 0a 40
       1.5078412 0.92732424 0.99633336 2.1574824
000210 6b 83 16 3f a0 6a c6 3f bf 8a bc 3f 2c 62 53 3e
       0.5879428 1.5501289 1.4729842 0.20642918
000220 eb 56 88 3f 4b 83 35 40 30 00 aa 3d a7 fb 11 40
       1.0651525 2.8361385 0.08300817 2.2809846
000230 82 06 28 3e d3 93 03 3e 87 9d 28 3f 7c 19 86 3e
       0.16408733 0.12849359 0.6586537 0.26191318
000240 ad 07 cf 3f b9 ca 94 3f 48 dd 44 3f 12 a3 1a 40
       1.6174217 1.1624366 0.7690015 2.416203
000250 c7 61 89 3f 78 11 20 40 c2 cf 31 40 d5 3a de bd
       1.0732964 2.5010662 2.7783055 -0.10851065
000260 2b 32 bb 3f 2d 9d 43 40 92 49 04 3e 7f a0 35 40
       1.4624685 3.0564682 0.1291869 2.837921
000270 4e 77 93 3e 58 db 30 3e 24 5d 82 3f d8 f3 f1 3e
       0.2880196 0.17271173 1.0184674 0.4725635
000280 ec db 18 3f 0e 0b e4 bd b9 ec 7e 3f 8d 34 1c bf
       0.59710574 -0.11134921 0.9957996 -0.61017686
000290 7a 86 97 3f ef b8 62 3f 79 cf c3 3f 34 81 a8 3f
       1.1837914 0.88563436 1.5297691 1.316443
0002a0 d0 db 58 3e d6 9c 84 be b3 0b 99 3f ab 38 20 3d
       0.21177602 -0.25900906 1.1956695 0.039116543
0002b0 f4 25 41 3f e7 5b 24 3f 2e 37 2b 3f d4 06 6c 3f
       0.75448537 0.6420273 0.6688107 0.9219792
0002c0 c9 41 9c 3f b7 6f 83 3f 4d c5 44 3f 79 02 e5 3f
       1.2207576 1.0268468 0.7686356 1.789138
0002d0 71 6c 09 3f 5c e3 0b 40 bc 49 9f 3f 32 c4 63 3e
       0.53681093 2.185752 1.2444377 0.22242811
0002e0 02 4c b5 3f b8 a6 15 40 ba 17 06 3f a9 41 03 40
       1.4163821 2.3383007 0.52379954 2.0508826
0002f0 95 e5 b6 3e e7 82 86 3e 10 9a c1 3f 63 79 9f 3d
       0.35722032 0.26271746 1.5125141 0.077868246
000300 8a b8 a2 be 86 cf 0b bf f3 a6 59 3f 74 76 61 be
       -0.31781417 -0.5461353 0.8502037 -0.22017843
000310 b8 bb 8f 3f b5 55 4f 3f 93 7c a8 be d3 b8 8e 3f
       1.1229162 0.80990154 -0.32907543 1.1150154
000320 bd 14 36 3e 02 2d 01 be 5d a5 ba 3d fd 02 42 be
       0.17781349 -0.12614825 0.09113572 -0.18946452
000330 68 11 ae 3e c5 cf 5c be 25 df 1a 3c 71 74 a8 be
       0.33997655 -0.21563633 0.009452616 -0.32901338
000340 3b b8 bd 3f 33 10 68 3f 88 32 85 3f c8 88 40 40
       1.4821848 0.9064972 1.0406046 3.0083485
000350 7e 27 4e 3f b5 05 eb 3f 54 ac d6 3f 92 5a 1c 3f
       0.8052901 1.8361117 1.677134 0.610757
000360 4c 8f 77 3f 7f 0d 60 40 0d 94 fd 3d c8 d0 1d 40
       0.9670303 3.5008237 0.12381754 2.465868
000370 20 f3 dd 3e f6 f5 29 3e 60 f9 4f 3f 96 e6 8f 3e
       0.43349552 0.16597733 0.8123989 0.2810561
000380 90 3c a5 3f f8 b7 a2 3f 34 4b 95 3f 42 43 90 3f
       1.2909107 1.2712393 1.1663575 1.1270525
000390 18 a2 80 3f 38 12 2e 40 ca ab 16 40 23 b9 47 3f
       1.0049467 2.719862 2.3542352 0.7801687
0003a0 9a 72 78 3f 51 d8 ea 3f 30 33 82 3f 69 d8 b7 3f
       0.9704987 1.8347265 1.0171871 1.4362918
0003b0 bc be d5 3f 7b e0 7b 3f 1f 9f 27 40 24 86 e1 3f
       1.6698833 0.98389405 2.619087 1.7619061
0003c0 ad c4 14 be 33 c1 c4 bd a2 1d f3 3c 41 a2 8f 3d
       -0.14528151 -0.09607162 0.029677216 0.07013369
0003d0 b0 b8 44 3f 3a fa df 3c ac 42 80 3d 4e 4e 1d 3e
       0.7684431 0.027340997 0.06262717 0.15361902
0003e0 65 05 0c bf 28 0f 0e bf b7 f8 25 3f ac 5d ab 3e
       -0.5469573 -0.55491877 0.64832634 0.33469903
0003f0 cb 87 08 40 a2 b2 a3 3e df 26 cd 3e 86 b8 1e 3f
       2.1332881 0.31972224 0.4006872 0.6200031
