data/parameters/deephit_model_feature_100time.pth (torch, 193543 bytes, 32 tensors)

se_block.0.weight f4 [4, 17]
-0.15606092 0.060585998 0.24435526 -0.05836879 -0.1232659 -0.16105069 0.12184531 0.055548575
-0.20372951 0.19995043 -0.0702206 0.1998999 -0.123791486 0.03730344 -0.08674558 -0.092754476
0.13922949 -0.04416935 0.11621723 -0.16051517 -0.11950557 -0.18422297 -0.09255288 -0.18894343
-0.08321206 -0.23379405 -0.08824512 0.06752932 -0.23183055 -0.23063065 -0.05581925 0.04647051
-0.06919604 -0.065709956 0.0963113 0.24654445 0.53695357 0.08855641 0.09450013 -0.057560604
0.12078897 0.021481996 0.0364014 -0.0052452204 0.018633585 0.012883202 0.11521831 0.051378053
0.01806729 0.06236499 -0.01740254 0.14227325 -0.056453682 -0.14581828 -0.016798418 -0.10900072
0.04071259 0.084040605 -0.016126836 -0.065550976 0.18202761 0.020385984 0.06455918 -0.029866561
-0.015130264 -0.019106463 0.1627633 -0.040807642
00000000: 6fce 1fbe 0629 783d 4438 7a3e 1d14 6fbd
00000010: d572 fcbd 79ea 24be 098a f93d e786 633d
00000020: 789e 50be cebf 4c3e d1cf 8fbd 8fb2 4c3e
00000030: 6486 fdbd 7ecb 183d aba7 b1bd 0ff6 bdbd
00000040: 2d92 0e3e ecea 34bd 4d03 ee3d 175e 24be
00000050: 56bf f4bd f2a4 3cbe 5d8c bdbd 637a 41be
00000060: 166b aabd b567 6fbe dcb9 b4bd d04c 8a3d
00000070: fd64 6dbe 712a 6cbe baa2 64bd dd57 3e3d
00000080: a7b6 8dbd f192 86bd dc3e c53d 2676 7c3e
00000090: ca75 093f 105d b53d 4989 c13d abc4 6bbd
000000a0: 3560 f73d 03fb af3c a219 153d 19e0 abbb
000000b0: 76a5 983c 1114 533c 94f7 eb3d cb71 523d
000000c0: da01 943c 6f72 7f3d c68f 8ebc 14b0 113e
000000d0: fa3b 67bd 6351 15be d69c 89bc c53b dfbd
000000e0: 3fc2 263d 7b1d ac3d 6d1c 84bc 973f 86bd
000000f0: 7265 3a3e 8200 a73c 9a37 843d b8aa f4bc
00000100: ede4 77bc 2885 9cbc 6cab 263e ea25 27bd

se_block.0.bias f4 [4]
-0.22873676 0.011446554 -1.0918719 -1.0716249
00000000: f839 6abe 548a 3b3c 75c2 8bbf 012b 89bf

se_block.2.weight f4 [17, 4]
-0.08415222 0.4540465 -0.0617236 -0.026970636 0.008705194 -0.16275826 -0.019241877 0.78809583
0.06961023 -0.33518642 0.03424837 -0.11333248 -0.004607828 0.4031822 -0.25662157 -0.12531006
0.23255736 -0.3617169 -0.25453532 -0.30272186 0.2530894 -0.46663797 -0.30204016 -0.115054406
-0.006161306 -0.13459975 -0.07283035 0.007718216 0.38359052 0.13725542 -0.31280777 0.12201079
0.18467864 0.45371938 -0.1548908 -0.4134939 0.09514702 -0.35722426 -0.00032389964 -0.14986312
-0.007864732 0.18068987 -0.18396217 -0.2726457 0.011050715 -0.11098033 -0.13627459 -0.41799238
0.17333123 0.44319454 -0.2694178 -0.000117491494 0.07349158 0.24668443 -0.25087103 -0.09604583
0.14640635 0.082954824 -0.28068867 -0.18876989 0.09575431 -0.2126585 -0.20889811 -0.056748446
0.7112865 0.4712387 -0.23596631 -0.0755985
00000000: 0058 acbd c878 e83e e3d1 7cbd 86f1 dcbc
00000010: 3ba0 0e3c 1aaa 26be 24a1 9dbc a6c0 493f
00000020: cf8f 8e3d 8e9d abbe 0548 0c3d dc1a e8bd
00000030: 43fd 96bb e66d ce3e e763 83be 4851 00be
00000040: 8423 6e3e f532 b9be 7452 82be 5cfe 9abe
00000050: ef94 813e 2ceb eebe 02a5 9abe a5a1 ebbd
00000060: c8e4 c9bb 84d4 09be 1428 95bd 17e9 fc3b
00000070: fa65 c43e af8c 0c3e 5728 a0be cbe0 f93d
00000080: 661c 3d3e e84d e83e b29b 1ebe 79b5 d3be
00000090: 71dc c23d 19e6 b6be 13d1 a9b9 b875 19be
000000a0: 14db 00bc c406 393e 9460 3cbe 3898 8bbe
000000b0: 0f0e 353c a849 e3bd 918b 0bbe 1903 d6be
000000c0: be7d 313e 65ea e23e 21f1 89be c465 f6b8
000000d0: c182 963d d89a 7c3e 2b72 80be adb3 c4bd
000000e0: 8ceb 153e 38e4 a93d 6db6 8fbe e54c 41be
000000f0: d61a c43d 26c3 59be 63e9 55be 0f71 68bd
00000100: df16 363f 3346 f13e 27a1 71be 63d3 9abd

se_block.2.bias f4 [17]
-0.24158715 0.56823814 -0.14465663 0.9347736 0.059567925 0.46343505 -0.11861798 0.41665006
-0.017026136 -0.3787248 -0.32786825 0.05678757 1.3589853 0.36547446 -0.03980648 0.06502783
0.38691393
00000000: 9f62 77be 0e78 113f de20 14be 534d 6f3f
00000010: 7ffd 733d 5c47 ed3e fced f2bd 2853 d53e
00000020: 657a 8bbc 38e8 c1be 59de a7be 159a 683d
00000030: 3bf3 ad3f 781f bb3e 1f0c 23bd 502d 853d
00000040: 9519 c63e

se_block_event.0.0.weight f4 [16, 64]
-0.5474314 0.008536091 -0.25550434 0.04181126 -0.018002383 -1.001162 -0.1588255 -0.1525783
0.10011693 0.31996667 -0.53850806 -0.13294432 -0.45727107 -0.055721037 -0.11763748 -0.06166465
-0.21900181 -0.04837971 -0.18436919 0.4818114 -0.08520258 -0.0040507894 -0.31119668 -0.29687044
-0.660714 -0.04544779 0.027236212 0.12674558 0.51880366 -0.2064964 -0.6737604 0.17117903
0.13517223 0.5606195 0.14300871 -0.22640726 -0.08558444 -0.12867485 -0.64412415 0.014916174
-0.068152174 -0.29972 -0.6798579 -0.15844516 -0.41246137 0.020201739 -0.03808007 -0.39913377
0.11407634 0.07464448 -0.32628503 -1.1379688 -0.052315637 -0.46587878 -0.041165642 -0.20360728
-0.5156992 0.17137158 -0.08331795 -0.37883157 -0.067155235 -0.1164453 0.23697408 -0.18603307
0.1950315 -0.2351981 -0.2956386 -0.36161295 0.046567723 -0.9639566 -0.03720047 0.20890813
0.3770672 -0.30685008 0.010324432 -0.3235155 0.45050192 0.2925254 -0.15792759 0.037678458
0.047669176 0.4290192 0.54374933 -0.38489616 -0.19945915 0.32766426 -0.016822029 0.029325651
0.39388928 -0.30372858 0.04442445 -0.14810148 -0.07117529 0.37947413 1.0016814 -0.49535298
-0.07010906 -0.084727086 0.09481794 -0.30671716 0.5970574 -0.093912214 0.057999726 0.31747845
-0.81671983 -0.033316374 0.34901294 0.0026008773 0.19465259 0.20943306 0.018196039 0.49744543
-0.5486228 -0.16182728 -0.38233188 0.021144798 -0.05364222 -0.43288964 0.27132607 0.5825887
-0.30720478 0.5829513 -0.12590562 -0.5421508 0.14040785 -0.28855953 0.5409042 -0.018997945
-0.20775054 0.09410372 -0.21015312 -0.5782978 0.12733844 0.06298419 0.26192155 0.08076247
-0.13040596 -0.114869304 -0.038947396 -0.3296707 0.19922659 0.12521921 -1.5283395 0.14358926
0.19521639 0.013450482 -0.1034277 -0.3029263 0.07309015 -0.16258131 -0.114057794 -0.19793008
-0.23113565 0.29239637 -0.038667403 0.23709527 -0.2982314 0.19777586 -0.07503871 -0.296671
0.025594782 -0.24008311 0.00029220432 0.6931216 -0.52764434 0.045899194 0.24740548 0.3683255
-0.45831326 -0.055753566 -0.19193465 -0.19441622 -0.11704204 -0.4778891 0.045803495 0.035044234
-0.9508462 -0.07340813 -0.35298777 -0.5357695 -0.42185742 0.014439825 0.18898718 0.49983802
-0.70644546 -0.0853097 -0.010840551 -0.97589993 0.23301531 -0.5598168 0.0669002 -0.264809
-0.692913 0.115715005 -0.91815233 0.9946041 -0.13749656 -0.26091838 -0.015253157 -0.01764795
0.19140755 0.08546916 -0.32115903 0.022253813 0.12206182 -0.33109874 0.25011748 -0.11475472
0.20064785 0.31470314 0.07518551 -0.43437666 -0.047704037 0.2139414 -0.027259072 0.21155317
0.16477762 -0.7913334 0.0012094353 -0.316957 0.53764015 -0.49168676 -0.35560054 0.10675338
-0.09445045 -1.2892458 -0.1876911 0.14824477 0.15136856 0.06440836 0.014441313 -0.5303629
-0.17518868 0.08482675 0.45969892 -0.2814544 0.0789773 0.010848974 -0.020553928 0.2973182
0.47416613 -0.2647406 -0.04618398 0.1419921 0.024708696 0.34712502 -0.44721967 -0.071900435
0.04089578 0.16982068 0.027684312 -0.24051079 -0.09039394 -0.32188913 -0.028288644 -0.11347921
00000000: 7724 0cbf f6da 0b3c 77d1 82be 4942 2b3d
00000010: bc79 93bc 1426 80bf 27a3 22be 7c3d 1cbe
00000020: 1b0a cd3d acd2 a33e aadb 09bf 8e22 08be
00000030: 6f1f eabe be3b 64bd ebeb f0bd 1294 7cbd
00000040: 0342 60be ce29 46bd 47cb 3cbe fcaf f63e
00000050: b17e aebd 7cbc 84bb 2c55 9fbe 67ff 97be
00000060: 8d24 29bf 7627 3abd 7a1e df3c 98c9 013e
00000070: 51d0 043f cb73 53be 907b 2cbf 8e49 2f3e
00000080: 976a 0a3e c284 0f3f e070 123e 4ed7 67be
00000090: e546 afbd 57c3 03be 52e5 24bf f862 743c
000000a0: 5e93 8bbd e674 99be 2b0b 2ebf 733f 22be
000000b0: 232e d3be 1e7e a53c d9f9 1bbd 435b ccbe
000000c0: dba0 e93d 35df 983d d50e a7be f6a8 91bf
000000d0: ec48 56bd aa87 eebe 4e9d 28bd 6d7e 50be
000000e0: dd04 04bf 087c 2f3e 9aa2 aabd 36f6 c1be
000000f0: af88 89bd e07a eebd 55a9 723e 747f 3ebe
00000100: 56b6 473e c5d7 70be f15d 97be 5525 b9be
00000110: ccbd 3e3d dcc5 76bf 855f 18bd 03ec 553e
00000120: f40e c13e 741b 9dbe ce27 293c d3a3 a5be
00000130: 30a8 e63e e4c5 953e c5b7 21be ba54 1a3d
00000140: c140 433d 68a8 db3e 2833 0b3f 1c11 c5be
00000150: 053f 4cbe 9cc3 a73e 5ace 89bc 593c f03c
00000160: dbab c93e 5082 9bbe 69f6 353d eaa7 17be
00000170: 5ac4 91bd 6f4a c23e 1937 803f e89e fdbe
00000180: 5795 8fbd 6585 adbd e82f c23d 080a 9dbe
00000190: c1d8 183f 0c55 c0bd 1f91 6d3d 898c a23e
000001a0: 8d14 51bf c076 08bd d3b1 b23e 7b73 2a3b
000001b0: 0253 473e 9f75 563e dc0f 953c 2bb1 fe3e
000001c0: 8b72 0cbf 0db6 25be 01c1 c3be db37 ad3c
000001d0: f2b7 5bbd b6a3 ddbe 40eb 8a3e 8824 153f
000001e0: f249 9dbe 4c3c 153f 67ed 00be 65ca 0abf
000001f0: 13c7 0f3e 13be 93be b378 0a3f 94a1 9bbc
00000200: 8fbc 54be 73b9 c03d 6132 57be 530b 14bf
00000210: 0265 023e dbfd 803d 951a 863e cb66 a53d
00000220: 2489 05be 9940 ebbd 4e87 1fbd 99ca a8be
00000230: 0e02 4c3e 7739 003e a1a0 c3bf 1009 133e
00000240: cee6 473e 695f 5c3c e7d1 d3bd 2819 9bbe
00000250: 4ab0 953d b77b 26be 2297 e9bd 2fae 4abe
00000260: d3ae 6cbe fab4 953e b661 1ebd 1ac9 723e
00000270: c9b1 98be c185 4a3e e5ad 99bd 43e5 97be
00000280: 26ac d13c 59d8 75be 0033 9939 6b70 313f
00000290: b313 07bf cb00 3c3d dd57 7d3e 2995 bc3e
000002a0: 09a8 eabe da5d 64bd 848a 44be 0c15 47be
000002b0: bdb3 efbd e1ad f4be 729c 3b3d 8b8a 0f3d
000002c0: a86a 73bf 0057 96bd d0ba b4be 3128 09bf
000002d0: b2fd d7be 0495 6c3c db85 413e c5ea ff3e
000002e0: 9cd9 34bf dab6 aebd 919c 31bc 94d4 79bf
000002f0: 919b 6e3e 2750 0fbf f902 893d 0c95 87be
00000300: bf62 31bf fdfb ec3d 080c 6bbf 609e 7e3f
00000310: e6cb 0cbe 1897 85be 61e8 79bc 6f92 90bc
00000320: 5700 443e 740a af3d f56e a4be a14d b63c
00000330: 8cfb f93d c685 a9be 660f 803e 8604 ebbd
00000340: a176 4d3e c520 a13e dcfa 993d 9e66 debe
00000350: 4f65 43bd 7413 5b3e 6b4e dfbc 65a1 583e
00000360: 77bb 283e d394 4abf ea85 9e3a 3048 a2be
00000370: c9a2 093f 5ebe fbbe 4611 b6be 84a1 da3d
00000380: 3d6f c1bd 0206 a5bf 1932 40be 7acd 173e
00000390: 5c00 1b3e 88e8 833d 429b 6c3c ddc5 07bf
000003a0: a964 33be a6b9 ad3d a85d eb3e cb1a 90be
000003b0: dabe a13d e5bf 313c b660 a8bc 173a 983e
000003c0: e7c5 f23e 148c 87be 6a2b 3dbd 6166 113e
000003d0: e469 ca3c 5fba b13e faf9 e4be 8940 93bd
000003e0: 5582 273d 79e5 2d3e 36ca e23c 7648 76be
000003f0: 7520 b9bd a7ce a4be 96bd e7bc ca67 e8bd

se_block_event.0.0.bias f4 [16]
0.42639008 -0.23473033 0.75639963 0.7537209 0.20644099 -0.5362994 -0.27995384 -0.34979707
0.24362905 -1.3958914 0.03656836 -0.04828546 0.9739622 0.3983931 0.6455298 0.32048458
00000000: cd4f da3e 265d 70be 68a3 413f daf3 403f
00000010: 4465 533e eb4a 09bf 1c56 8fbe 9a18 b3be
00000020: e579 793e 92ac b2bf b4c8 153d f9c6 45bd
00000030: 9655 793f 2efa cb3e 7141 253f 8e16 a43e

se_block_event.0.2.weight f4 [64, 16]
0.85766435 0.6604121 0.054755956 1.8276051 0.52143174 0.05141213 1.393148 0.06996407
0.8355451 0.45701882 0.76437575 0.1171705 1.7461926 1.11424 2.4837468 1.9387498
1.0734264 1.2927622 2.1159618 1.3631952 0.47021756 1.2045472 0.39049554 0.5874362
1.686321 0.923204 0.06175311 0.72967386 1.6878076 0.8329101 0.43612665 0.8260336
0.31888062 -0.040432077 0.023967652 -0.69511425 0.2759372 -0.4672677 0.4081309 -0.3288014
-0.9219467 -0.6381795 0.015885286 0.21291302 0.35635573 0.07759118 -0.02139119 0.21590358
0.37079746 1.0351998 0.84770226 1.6534821 0.5351696 -0.04841135 1.2268146 0.11598329
0.68774986 0.64946485 0.4485227 0.14191231 1.5042571 0.8409221 0.57542676 0.6468097
0.062322233 0.07354908 0.2592142 0.12048667 0.940948 -0.57717055 0.78464544 0.7455657
0.36447462 0.9080262 -0.021288581 -0.26566288 0.14935791 0.06359142 0.3559167 0.26820463
-0.4911493 0.23812999 1.0946475 0.3268407 -0.5540453 -0.3332571 -0.9155856 0.1756106
-1.1235206 -0.15714316 0.48890442 -0.5482239 0.7436625 0.2694371 1.3528122 -0.94860804
0.19960944 -0.29594666 0.734266 0.44799677 -0.3187847 0.28377637 0.44946077 -0.80929106
0.4216293 0.1867497 -0.06403975 -0.27427545 -0.280894 0.21963783 0.08792192 0.30660468
0.19159108 0.23990019 -0.02436617 0.62617517 1.5593121 -0.7896274 0.10561288 -0.28075695
0.0621167 0.27945417 0.001638914 -0.2932382 0.29211754 0.32679144 0.07392372 0.25925806
0.06070735 -1.7630897 -0.23891807 0.17837544 0.72802144 -0.8779302 -0.03301062 -0.26638445
-1.2965243 0.092934854 0.08738109 0.35854626 0.23343386 0.05709849 0.48820984 0.38988727
-0.23327066 -0.2314557 0.10239607 -0.09793903 -0.47899777 -0.14446409 -0.3484213 -0.4876373
-0.30726993 0.9532528 -0.6577201 -0.019099155 -0.18768013 -0.47449857 0.25468042 -0.2909394
1.0889857 0.35193223 0.37099394 1.2969433 0.6407485 -0.5242699 0.6542617 0.23408933
0.085019924 0.09069735 0.9091715 -0.68749714 1.0037594 1.4206042 1.5066278 1.8078017
0.060269915 -0.12816076 0.31647137 0.25814244 0.39604604 -0.0887332 0.35290074 0.30765793
0.4677782 0.2914944 0.6898656 -0.16131957 0.90266263 0.20495686 0.41529652 0.14697516
0.17680669 -0.26866832 -0.046190828 0.7642208 0.8034359 -0.57300794 -0.08231209 -0.34959322
-0.7317521 0.40432093 0.3284865 0.37801117 -0.19061132 0.40564206 0.4565929 0.13492383
0.40243635 1.5057619 2.0382433 0.88642186 0.59222716 3.0292912 0.5119516 0.64876574
1.8595572 0.49413753 0.27207115 0.48005325 1.5220296 0.6247216 0.64292485 0.5080965
0.8605684 0.7754517 0.48841405 0.82949597 0.53938365 0.82467955 0.36318326 0.62974876
1.9082464 1.9474895 -0.21853426 0.22484416 1.3029901 0.7417375 0.8629541 0.34457988
0.02705558 -0.00955656 -0.03819872 0.2559772 0.36998382 -0.45111462 0.56433207 0.26653087
0.16244356 0.47147277 -0.24799106 -0.4413653 0.13995844 -0.079342335 0.49668482 0.5831962
00000000: e48f 5b3f c410 293f c847 603d f7ee e93f
00000010: 8d7c 053f 8795 523d ac52 b23f 5349 8f3d
00000020: 49e6 553f 5ffe e93e 21ae 433f 16f7 ef3d
00000030: 3d83 df3f 6b9f 8e3f b5f5 1e40 f428 f83f
00000040: 0966 893f 3b79 a53f eb6b 0740 2e7d ae3f
00000050: 5bc0 f03e 9a2e 9a3f 08ef c73e 3862 163f
00000060: 5ed9 d73f 1957 6c3f d4f0 7c3d e8cb 3a3f
00000070: 140a d83f 9939 553f fe4b df3e f076 533f
00000080: 5244 a33e 1b9c 25bd cf57 c43c 02f3 31bf
00000090: a447 8d3e b63d efbe 89f6 d03e a858 a8be
000000a0: b304 6cbf bb5f 23bf dc21 823c df05 5a3e
000000b0: 4274 b63e 20e8 9e3d 943c afbc d415 5d3e
000000c0: 2ad9 bd3e 6d81 843f 0403 593f 4da5 d33f
000000d0: e000 093f fb4a 46bd 4308 9d3f a688 ed3d
000000e0: 6010 303f 5443 263f c4a4 e53e 7651 113e
000000f0: 7f8b c03f ac46 573f 2b4f 133f 5295 253f
00000100: 9945 7f3d e6a0 963d b9b7 843e b7c1 f63d
00000110: f8e1 703f 73c1 13bf 86de 483f 65dd 3e3f
00000120: 6b9c ba3e 6874 683f 6465 aebc f704 88be
00000130: 48f1 183e 383c 823d b73a b63e 1e52 893e
00000140: ec77 fbbe 59d8 733e 691d 8c3f aa57 a73e
00000150: ead5 0dbf ada0 aabe d163 6abf 44d3 333e
00000160: 86cf 8fbf 23ea 20be ae51 fa3e 6758 0cbf
00000170: aa60 3e3f a9f3 893e f328 ad3f fad7 72bf
00000180: 6b66 4c3e 5286 97be dbf8 3b3f d55f e53e
00000190: c037 a3be 234b 913e b91f e63e b32d 4fbf
000001a0: ccdf d73e 503b 3f3e 4627 83bd d56d 8cbe
000001b0: 57d1 8fbe bde8 603e 6810 b43d 4afb 9c3e
000001c0: 7430 443e 65a8 753e 909b c7bc 044d 203f
000001d0: 8a97 c73f 0525 4abf 914b d83d 60bf 8fbe
000001e0: 156e 7e3d 9e14 8f3e d4d0 d63a 5123 96be
000001f0: 6e90 953e 3551 a73e 5265 973d 79bd 843e
00000200: 45a8 783d ecac e1bf f0a6 74be 0da8 363e
00000210: 9d5f 3a3f 09c0 60bf 2536 07bd 8b63 88be
00000220: 82f4 a5bf a154 be3d dbf4 b23d 6093 b73e
00000230: 4909 6f3e 1be0 693d a4f6 f93e 4e9f c73e
00000240: 81de 6ebe b902 6dbe 08b5 d13d 4294 c8bd
00000250: 323f f5be 65ee 13be 4764 b2be 99ab f9be
00000260: 7c52 9dbe 6008 743f 5860 28bf d575 9cbc
00000270: 382f 40be 7af1 f2be 7965 823e 02f6 94be
00000280: e263 8b3f 7630 b43e ebf2 bd3e 3d02 a63f
00000290: 1808 243f 8d36 06bf b27d 273f 1db5 6f3e
000002a0: ed1e ae3d 88bf b93d 77bf 683f d0ff 2fbf
000002b0: 307b 803f 5cd6 b53f 2ed9 c03f 0c66 e73f
000002c0: 96dd 763d 933c 03be 8908 a23e 3f2b 843e
000002d0: 8cc6 ca3e c1b9 b5bd 68af b43e 5785 9d3e
000002e0: a080 ef3e c13e 953e 089b 303f f530 25be
000002f0: e614 673f 36e0 513e bfa1 d43e a880 163e
00000300: d00c 353e e58e 89be 9832 3dbd f9a3 433f
00000310: faad 4d3f a6b0 12bf 3e93 a8bd e2fd b2be
00000320: 1b54 3bbf 2703 cf3e 622f a83e ae8a c13e
00000330: 9d2f 43be 51b0 cf3e 8bc6 e93e 7929 0a3e
00000340: 230c ce3e cebc c03f 9472 0240 8bec 623f
00000350: 339c 173f e8df 4140 430f 033f 8315 263f
00000360: f805 ee3f 98ff fc3e e94c 8b3e 8ac9 f53e
00000370: ded1 c23f c1ed 1f3f b996 243f 9d12 023f
00000380: 364e 5c3f 0184 463f 6811 fa3e d959 543f
00000390: 0c15 0a3f 331e 533f 28f3 b93e 3737 213f
000003a0: 6b41 f43f 5647 f93f 72c7 5fbe 8c3d 663e
000003b0: 61c8 a63f 82e2 3d3f 8fea 5c3f c66c b03e
000003c0: aaa3 dd3c 1e93 1cbc 4376 1cbd 720f 833e
000003d0: 856e bd3e 7ff8 e6be 1178 103f bc76 883e
000003e0: 9b57 263e e164 f13e 5ef1 7dbe a2fa e1be
000003f0: 4451 0f3e 3c7e a2bd 794d fe3e 594c 153f

se_block_event.0.2.bias f4 [64]
0.39964768 0.9052276 0.44965166 0.818759 0.42451146 -0.09529155 -0.47468647 -0.042424902
1.0466858 -0.3462153 0.2592038 0.44839782 0.26638895 1.5203485 0.47919604 -0.066648476
-0.38673007 0.26229343 0.584631 0.82733005 0.11991984 -0.3089503 -0.85479957 0.28380328
0.4788195 0.42436615 0.009551092 0.71578944 0.46498165 0.43958429 -0.1563762 0.18950266
0.5980432 -0.36519468 0.17491215 0.45116273 0.04220356 -0.28033027 -0.17398122 1.7492833
0.10003163 -0.059474185 0.094385214 -0.25350747 -0.21753752 0.009003044 0.0669035 0.11726746
-0.14105691 0.00096335355 -0.08496738 -0.47609946 -0.1854135 0.7202159 0.47467098 0.22904646
0.61954415 1.139369 -0.061711166 -0.4107566 0.57301044 0.35378578 -0.496091 -0.42364728
00000000: 9f9e cc3e ffbc 673f be38 e63e 319a 513f
00000010: 9159 d93e 3728 c3bd 1b0a f3be bcc5 2dbd
00000020: cdf9 853f 2243 b1be 5cb6 843e 6694 e53e
00000030: 2264 883e c89a c23f 2f59 f53e ff7e 88bd
00000040: 7c01 c6be 534b 863e 61aa 153f e7cb 533f
00000050: 8898 f53d bc2e 9ebe 25d4 5abf aa4e 913e
00000060: d427 f53e 8546 d93e 2f7c 1c3c fa3d 373f
00000070: 1312 ee3e 3111 e13e 1521 20be fc0c 423e
00000080: 5c19 193f ccfa babe 2c1c 333e cdfe e63e
00000090: a4dd 2c3d 7387 8fbe 2228 32be 84e8 df3f
000000a0: 62dd cc3d 349b 73bd 094d c13d bbcb 81be
000000b0: 28c2 5ebe 8181 133c b404 893d ec29 f03d
000000c0: 3971 10be 9089 7c3a 6103 aebd 4fc3 f3be
000000d0: 09dd 3dbe 1260 383f 1308 f33e 288b 6a3e
000000e0: 729a 1e3f d8d6 913f d9c4 7cbd b04e d2be
000000f0: d0b0 123f 6923 b53e a4ff fdbe 4ce8 d8be

se_block_event.1.0.weight f4 [16, 64]
-0.08684211 0.482984 0.25805748 -0.42412242 0.20456018 0.063967705 -0.30591437 -0.035605907
0.07907871 0.18990351 -0.3332444 -0.058372997 0.55858725 -0.36414835 -0.098855376 -0.20382018
0.77957135 0.4819059 0.42929748 0.07074836 -0.21696879 0.803068 -0.2495157 -0.012667985
-0.16865167 -0.28812602 -0.22201215 -0.26822233 -0.022954857 0.174604 0.774767 0.16069815
0.126764 0.04442267 -0.4899793 1.0406648 0.48856658 0.14441179 0.42967182 0.26865572
-0.46512723 -0.03948052 0.090002514 -0.0768866 1.1583346 0.11648204 0.29947072 1.154631
0.030430827 0.7034247 -0.3708616 -0.30316186 0.05230927 0.28938514 0.12456266 0.3613574
0.09408902 0.35303128 -0.15313496 -0.051342137 0.1715799 0.109748825 1.4308393 -0.19319499
0.64239645 1.4609609 0.069378905 0.5611679 -0.2844646 0.07599236 0.1636668 -0.10099388
0.07596338 -0.27300057 0.6458892 0.32922685 1.3299098 0.39566723 0.4101013 -0.29577473
1.5829641 0.16839552 0.3905167 -0.1920096 -0.5030406 1.394372 -0.16832983 0.35629746
0.58992285 -0.14947885 0.3628174 0.25865045 -0.12639566 -0.13621292 1.8793582 1.6797115
0.09197943 0.23221174 0.3844086 0.20473199 0.50859445 -0.50171673 0.73546606 0.40867016
0.47224468 -0.14906093 1.3825256 -0.03678968 0.9796413 -0.041130204 0.09547377 1.1478554
0.2949313 0.20116113 0.16517536 -0.052163616 0.8649197 0.44066262 -0.11426057 0.49568582
0.21826148 0.031145563 -0.09163494 0.19622986 -0.22489175 0.44585204 0.88051426 -0.1444844
0.36329046 0.7726281 0.7227914 0.9469633 0.010964432 0.28682578 -0.03908787 -0.39396542
0.1594937 -0.09665782 0.424123 0.2877771 1.6350337 0.6107722 0.56371945 -0.18102425
0.61511433 0.2761042 0.41172415 0.36216998 -0.36312252 1.1482737 0.012407065 0.51557666
0.30924988 -0.29688528 0.37661663 0.03692153 0.64237756 -0.13899277 1.5880885 1.6512665
0.02706802 0.0095857885 -0.05728316 0.31812415 0.73161775 -0.14701499 0.5882452 0.20162226
0.8626612 -0.108558975 1.2030659 -0.4094086 0.7032822 0.3740989 0.17666714 1.4110484
1.0508757 0.3968697 0.7966851 -0.16005202 0.72235316 0.25379243 -0.06908046 1.0765511
0.078324355 0.10413368 0.0220293 0.015959399 -0.24540116 0.37946644 1.2156773 -0.31046626
-0.32041463 0.8862615 -0.4080682 -0.0040312307 -0.04351509 0.21401261 0.19062936 0.037928462
-0.008184037 0.21116515 0.3915471 -0.19569534 0.21920578 0.2251631 0.43109086 -0.46148425
0.18952186 0.15950584 0.042167623 -0.09133959 0.12224686 0.08018266 0.0044136657 -0.119530715
0.5734599 0.013495582 0.12730347 -0.27247125 -0.06698713 -0.1820282 0.019953316 0.73478794
-0.3856671 0.12257635 -0.33926046 0.35491917 0.22392577 -0.0011277013 0.6335276 -0.18697827
0.095052876 0.19839966 -0.120252766 -0.14240877 0.37854585 0.10853948 -0.13004412 1.1132865
0.1706019 0.58072186 0.13005263 -0.00036321618 0.43846756 0.32115626 -0.29713756 0.650327
0.14025204 0.15723823 -0.03902764 0.025480067 -0.56792784 0.13448744 0.017624607 -0.04229535
00000000: 47da b1bd ae49 f73e 1c20 843e 9326 d9be
00000010: 3978 513e 8001 833d cfa0 9cbe 80d7 11bd
00000020: 05f4 a13d 1176 423e 039f aabe 8618 6fbd
00000030: 93ff 0e3f a771 babe b074 cabd 3db6 50be
00000040: fd91 473f 5fbc f63e e1cc db3e 84e4 903d
00000050: 112d 5ebe dd95 4d3f 0b81 7fbe 618d 4fbc
00000060: 06b3 2cbe 4185 93be 2757 63be 7054 89be
00000070: d30b bcbc 64cb 323e 2157 463f 0e8e 243e
00000080: 6cce 013e 8cf4 353d 91de fabe 8134 853f
00000090: 6625 fa3e afe0 133e f2fd db3e 3e8d 893e
000000a0: 2825 eebe 53b6 21bd 3d53 b83d b976 9dbd
000000b0: 4f44 943f 238e ee3d 3a54 993e f3ca 933f
000000c0: 124a f93c a413 343f 92e1 bdbe 0838 9bbe
000000d0: 3f42 563d 4a2a 943e b51a ff3d d603 b93e
000000e0: beb1 c03d 84c0 b43e 69cf 1cbe 224c 52bd
000000f0: a4b2 2f3e fec3 e03d be25 b73f e8d4 45be
00000100: 1874 243f c400 bb3f 8716 8e3d b3a8 0f3f
00000110: 58a5 91be e2a1 9b3d 4598 273e e1d5 cebd
00000120: b092 9b3d bbc6 8bbe ff58 253f 6c90 a83e
00000130: 7c3a aa3f e594 ca3e ccf8 d13e c96f 97be
00000140: 919e ca3f e06f 2c3e cef1 c73e 2a9e 44be
00000150: 45c7 00bf c87a b23f a85e 2cbe 9f6c b63e
00000160: 2f05 173f fc10 19be 34c3 b93e d56d 843e
00000170: dd6d 01be 667b 0bbe cf8e f03f c900 d73f
00000180: b65f bc3d eac8 6d3e 34d1 c43e 43a5 513e
00000190: 3f33 023f 8270 00bf 8147 3c3f 373d d13e
000001a0: 0eca f13e 6ea3 18be 99f6 b03f c7b0 16bd
000001b0: c6c9 7a3f 2578 28bd c087 c33d edec 923f
000001c0: 3c01 973e 2ffd 4d3e bb23 293e 84a9 55bd
000001d0: 616b 5d3f 889e e13e 7201 eabd 88ca fd3e
000001e0: f07f 5f3e fb24 ff3c 19ab bbbd 7bf0 483e
000001f0: 064a 66be b846 e43e 6269 613f b8f3 13be
00000200: 3501 ba3e f5ca 453f db08 393f 306c 723f
00000210: 29a4 333c d4da 923e 9a1a 20bd d6b5 c9be
00000220: 5152 233e 89f4 c5bd a626 d93e 8557 933e
00000230: c948 d13f 915b 1c3f eb4f 103f 6c5e 39be
00000240: 2278 1d3f 885d 8d3e 82cd d23e 586e b93e
00000250: 32eb b9be a2fa 923f 0147 4b3c d5fc 033f
00000260: 0056 9e3e 5901 98be e5d3 c03e 083b 173d
00000270: db72 243f 1f54 0ebe 7c46 cb3f b35c d33f
00000280: c1bd dd3c b60d 1d3c bfa1 6abd 2be1 a23e
00000290: 4d4b 3b3f 198b 16be 3d97 163f 1176 4e3e
000002a0: 5dd7 5c3f 2b54 debd 10fe 993f 019e d1be
000002b0: 4d0a 343f e489 bf3e 3be8 343e 3c9d b43f
000002c0: 1883 863f 8132 cb3e 8ef3 4b3f ade4 23be
000002d0: 23ec 383f 15f1 813e 0e7a 8dbd 6dcc 893f
000002e0: 8568 a03d 0a44 d53d ca76 b43c 49bd 823c
000002f0: 714a 7bbe 6d49 c23e 509b 9b3f 6ff5 9ebe
00000300: 630d a4be 09e2 623f 51ee d0be 6a18 84bb
00000310: e13c 32bd 1f26 5b3e 5834 433e e05a 1b3d
00000320: 5716 06bc ad3b 583e dd78 c83e 5c64 48be
00000330: 7b77 603e 2891 663e f1b7 dc3e aa47 ecbe
00000340: 0512 423e 8055 233e f5b7 2c3d 4010 bbbd
00000350: 905c fa3d ce36 a43d 83a0 903b 85cc f4bd
00000360: 45ce 123f 931c 5d3c d75b 023e 5a81 8bbe
00000370: 8c30 89bd 9a65 3abe 2375 a33c 101b 3c3f
00000380: 2876 c5be 4f09 fb3d 8cb3 adbe f7b7 b53e
00000390: cc4c 653e 60cf 93ba dd2e 223f 3b77 3fbe
000003a0: 15ab c23d 4829 4b3e 1547 f6bd 9bd3 11be
000003b0: c3d0 c13e f249 de3d 492a 05be 2c80 8e3f
000003c0: 44b2 2e3e 30aa 143f 842c 053e 0d6e beb9
000003d0: d27e e03e 986e a43e 6a22 98be d57b 263f
000003e0: 3b9e 0f3e 0f03 213e 72db 1fbd 93bb d03c
000003f0: b863 11bf 13b7 093e 7b61 903c e43d 2dbd

se_block_event.1.0.bias f4 [16]
-0.25749075 -1.8532978 -1.63611 0.277896 -0.37015617 -1.5647053 -1.7806052 -1.8812546
-1.2515391 -0.85448444 -1.5089885 -1.112986 -0.324257 -1.2320768 -1.2428321 0.13940538
00000000: d4d5 83be dd38 edbf 0d6c d1bf 6248 8e3e
00000010: 1c85 bdbe 4348 c8bf dfea e3bf f3cc f0bf
00000020: 6f32 a0bf 7ebf 5abf 8926 c1bf 5376 8ebf
00000030: 0305 a6be b1b4 9dbf 1f15 9fbf 49c0 0e3e

se_block_event.1.2.weight f4 [64, 16]
0.6024214 1.2659553 0.9719788 1.0518245 0.16008592 0.6255287 0.5864223 1.3950536
0.9856683 0.7718026 0.6392749 0.7455857 -0.50500345 1.138714 0.5859316 -0.12614888
0.86638564 0.20352712 0.5733002 1.539279 0.687901 0.31709743 1.163557 0.95585227
1.2481786 0.6560271 0.7002411 0.46083233 -0.034852408 0.36455983 0.675158 -0.042668972
0.06436191 -0.4308887 -0.18652546 0.07393999 -0.91602826 -0.24142613 0.14673685 -0.112846985
-0.21324366 -0.72941923 -0.5709883 -0.34441787 -0.12834191 0.0035149828 -0.26563635 0.26211652
-0.0520081 0.5857656 1.4076201 0.1082408 0.5310814 0.92059475 1.3072294 0.505073
0.09981395 0.30185443 0.3280636 0.67370737 -0.19162565 1.2145243 0.19704814 0.44799557
0.28226414 -0.12466254 0.13695566 0.3601895 0.19389144 -0.1429028 0.026093325 0.43063247
0.19146873 0.07723704 0.08474642 0.12942603 -0.49690482 0.482501 -0.19680072 0.16737138
0.42211384 -0.24501993 -0.7419008 0.2401462 -0.042864207 -0.47521874 -0.4366133 -0.16646631
-0.17830798 -0.7643524 0.13901371 0.3797625 -0.46030068 -0.0844806 -0.4357832 0.4842317
-0.07874949 -0.36460823 0.39941654 -1.0636042 0.8252538 0.4140934 -0.17820229 0.69247794
0.2010254 0.5310925 0.32750317 -0.013017503 -0.34053797 0.16848151 -0.10481616 -0.2103432
-0.13009912 0.36167642 0.9431935 0.27529877 0.057478566 -0.13899802 0.8775108 0.3794965
0.6713176 -0.14070375 0.2290615 0.11462762 -0.7813273 0.81001914 0.68412113 -0.55404884
-0.7496215 0.5511543 1.1838534 0.92554855 -1.1770929 -0.036693454 0.5365647 0.23452182
1.1093239 -0.36396393 0.60946554 0.5726067 -0.6524137 0.8156503 -0.17138733 -0.21708596
-0.80627716 0.40909752 0.091388695 -0.8850439 -0.082523406 0.23226795 -0.17455317 1.3315971
-0.0038185176 -0.113747686 -0.046234045 0.10087405 -0.5574694 0.54536456 -0.22227241 -0.9190891
0.5620123 1.5275453 1.2706741 1.3509154 0.10201937 0.3546434 0.9426537 0.8383524
0.5561086 0.0787081 1.3198 0.80976623 -0.33570662 0.84399337 1.1419468 -0.03728889
0.35747164 0.44357374 0.43470892 -0.053365156 0.28705147 0.12424321 0.96831053 0.12253436
0.6570609 0.31514284 0.62753516 0.37488878 -0.06614784 0.6287244 0.49506825 -0.7223026
0.44383812 1.0503085 1.1826953 0.052120324 -0.22937131 1.3321074 1.0263028 0.9900502
0.68297386 0.6511528 0.91813195 0.4806068 -0.23647913 0.34683815 0.4406872 -0.49707657
-0.23615195 1.8212721 0.40694934 0.9197079 0.49759504 -0.08042444 0.6744261 0.85435927
0.87413305 0.6066617 0.9012104 0.55969024 0.3638123 0.8568157 0.83224165 0.5890416
0.36158928 0.82476705 0.8430989 0.32702357 0.35383713 0.58025306 0.5719028 0.6224174
0.52433336 0.33248818 0.28348136 0.30951318 0.08296636 0.1252549 0.54295146 -0.37063175
0.2527124 -0.018812701 0.9315084 0.019824507 -0.058123987 0.09626872 0.76400304 0.24584833
0.29387775 0.40566856 0.4396434 -0.24810816 -0.73738754 0.4798607 0.110064074 -0.16398987
00000000: 4a38 1a3f d30a a23f 9ad3 783f 2fa2 863f
00000010: 90ed 233e a622 203f c61f 163f 1e91 b23f
00000020: c254 7c3f db94 453f 85a7 233f b4de 3e3f
00000030: e847 01bf 61c1 913f 9dff 153f 2c2d 01be
00000040: 73cb 5d3f 6a69 503e cdc3 123f 1807 c53f
00000050: 481a 303f 985a a23e 70ef 943f bcb2 743f
00000060: 51c4 9f3f 64f1 273f 0043 333f 37f2 eb3e
00000070: 66c1 0ebd 96a7 ba3e 28d7 2c3f a9c5 2ebd
00000080: 2dd0 833d 729d dcbe 8800 3fbe d96d 973d
00000090: d480 6abf 6938 77be 2f42 163e 521c e7bd
000000a0: 8c5c 5abe 38bb 3abf 4a2c 12bf 8a57 b0be
000000b0: 106c 03be a05b 663b 7d01 88be 2334 863e
000000c0: 7206 55bd bcf4 153f e52c b43f 5aad dd3d
000000d0: f3f4 073f 19ac 6b3f 4b53 a73f 774c 013f
000000e0: 426b cc3d aa8c 9a3e f4f7 a73e 1678 2c3f
000000f0: 8439 44be 8875 9b3f fdc6 493e ad5f e53e
00000100: ed84 903e 134f ffbd 1b3e 0c3e c26a b83e
00000110: 7a8b 463e 1d55 12be abc1 d53c dc7b dc3e
00000120: 6110 443e 742e 9e3d 888f ad3d 4288 043e
00000130: 4f6a febe 5f0a f73e 2186 49be 6763 2b3e
00000140: 4e1f d83e 81e6 7abe 36ed 3dbf e3e8 753e
00000150: 6192 2fbd df4f f3be c78b dfbe 2576 2abe
00000160: 5e96 36be 99ac 43bf 9c59 0e3e 3b70 c23e
00000170: 88ac ebbe 2a04 adbd fa1e dfbe 38ed f73e
00000180: 6a47 a1bd eead babe 5380 cc3e 2f24 88bf
00000190: d543 533f 0d04 d43e a97a 36be 3c46 313f
000001a0: 9ad9 4d3e aef5 073f 7fae a73e 5d47 55bc
000001b0: fe5a aebe 6b86 2c3e dba9 d6bd 3564 57be
000001c0: b438 05be a72d b93e 2175 713f f6f3 8c3e
000001d0: a56e 6b3d 7f55 0ebe 8ca4 603f 5e4d c23e
000001e0: 78db 2b3f a514 10be 198f 6a3e e3c1 ea3d
000001f0: 1105 48bf 6a5d 4f3f 9022 2f3f 25d6 0dbf
00000200: 32e7 3fbf 7318 0d3f 8288 973f c0f0 6c3f
00000210: fbaa 96bf e04b 16bd 4e5c 093f 7d26 703e
00000220: 53fe 8d3f 7b59 babe ef05 1c3f 5a96 123f
00000230: 9604 27bf 75ce 503f 2980 2fbe c84b 5ebe
00000240: 2e68 4ebf 3b75 d13e ff29 bb3d 3d92 62bf
00000250: 0802 a9bd a6d7 6d3e 11be 32be c671 aa3f
00000260: 1840 7abb 8cf4 e8bd e95f 3dbd 0e97 ce3d
00000270: 51b6 0ebf 039d 0b3f 619b 63be 6c49 6bbf
00000280: 0ae0 0f3f 9b86 c33f 73a5 a23f ccea ac3f
00000290: 88ef d03d d293 b53e c151 713f 439e 563f
000002a0: 225d 0e3f b631 a13d 35ef a83f d74c 4f3f
000002b0: bde1 abbe f30f 583f 502b 923f 3cbc 18bd
000002c0: 8606 b73e 191c e33e 2b92 de3e 6c95 5abd
000002d0: 69f8 923e 3973 fe3d 33e3 773f 4bf3 fa3d
000002e0: 2535 283f 675a a13e 25a6 203f 6cf1 bf3e
000002f0: 8578 87bd 15f4 203f 9679 fd3e d3e8 38bf
00000300: c03e e33e 8270 863f 8f62 973f 1f7c 553d
00000310: 50e0 6abe 7f82 aa3f e45d 833f ee73 7d3f
00000320: 60d7 2e3f f3b1 263f b20a 6b3f 1812 f63e
00000330: 9627 72be c594 b13e c1a1 e13e d280 febe
00000340: d1d1 71be 721f e93f aa5b d03e fa71 6b3f
00000350: c7c4 fe3e 92b5 a4bd 30a7 2c3f 4ab7 5a3f
00000360: 2fc7 5f3f 2e4e 1b3f bab5 663f dc47 0f3f
00000370: 9b45 ba3e 4658 5b3f ca0d 553f 6ecb 163f
00000380: 3b22 b93e ef23 533f 54d5 573f a26f a73e
00000390: 242a b53e 778b 143f 3968 123f bf56 1f3f
000003a0: b63a 063f e43b aa3e 7824 913e 8378 9e3e
000003b0: 44ea a93d d242 003e defe 0a3f 72c3 bdbe
000003c0: 8563 813e 181d 9abc 5677 6e3f 0167 a23c
000003d0: 6b13 6ebd 8928 c53d b495 433f aabf 7b3e
000003e0: 2577 963e cab3 cf3e f118 e13e 1110 7ebe
000003f0: 6ec5 3cbf 4db0 f53e 4669 e13d f6ec 27be

se_block_event.1.2.bias f4 [64]
0.18559733 0.28111282 0.5952973 0.06970757 -0.12552564 -0.36221 -0.18690163 -0.41994265
0.4913881 -0.15816884 0.35420755 0.36336064 -0.31158337 0.56890297 0.24330226 0.045055397
1.0267036 0.2528524 0.039427925 0.23219639 0.662528 0.53441906 0.1771879 0.43205118
-0.29724732 -0.19672652 -0.60424423 0.5367149 0.52083933 0.256484 1.6047668 0.09729874
0.16102156 -0.48774126 0.17490217 0.11654641 0.3872125 -0.4364979 0.8271633 0.9120633
0.39741114 -0.012188546 0.6322112 0.09476449 -0.05098929 -0.026260901 -0.1435276 0.84587556
0.2424637 -0.0925489 0.3116964 -0.7512729 -0.21907869 0.37999433 0.30141068 0.4696453
0.6575731 0.6497656 -0.17282197 -0.25426486 0.055318926 -0.16599564 1.1054157 -0.15236449
00000000: 3a0d 3e3e 05ee 8f3e 6765 183f d8c2 8e3d
00000010: cb89 00be 9773 b9be 2463 3fbe b902 d7be
00000020: 3997 fb3e 03f7 21be b15a b53e 680a ba3e
00000030: db87 9fbe a0a3 113f 3a24 793e 028c 383d
00000040: 066b 833f df75 813e 2d7f 213d e4c4 6d3e
00000050: 6f9b 293f b0cf 083f bf70 353e d035 dd3e
00000060: cd30 98be ad72 49be c0af 1abf 2666 093f
00000070: ba55 053f df51 833e 0069 cd3f 9044 c73d
00000080: d6e2 243e 39b9 f9be 8e19 333e e2af ee3d
00000090: b840 c63e a77c dfbe f9c0 533f fb7c 693f
000000a0: 7979 cb3e 78b2 47bc 98d8 213f e313 c23d
000000b0: 25da 50bd 1a21 d7bc e6f8 12be 4d8b 583f
000000c0: 6748 783e 478a bdbd ac96 9f3e 6c53 40bf
000000d0: 2a56 60be 9e8e c23e 8052 9a3e 5975 f03e
000000e0: b656 283f 0a57 263f 3ef8 30be 012f 82be
000000f0: 1996 623d c3fa 29be 437e 8d3f 7005 1cbe

se_block_event.2.0.weight f4 [16, 64]
0.2809314 0.5196082 0.12488396 0.017516201 -0.04700097 0.21892653 -0.011201575 -0.060390193
-0.048256025 -0.32022378 0.5642221 0.031241227 0.6211093 0.28828576 0.0058487114 -0.059134964
2.1957123 0.18980427 0.48625776 0.38453785 -0.20368128 0.58754 -0.08671881 0.4364154
0.3635676 0.027108422 0.13435818 -0.035651408 -0.20578486 0.0922673 1.2327467 0.7526687
-0.2715901 0.17227672 0.2169724 1.2471731 0.72433734 -0.060681928 1.4843812 0.61218435
0.6303125 -0.19049394 1.0333369 0.058981296 1.0774086 -0.4289164 0.5561299 1.3627622
0.83243793 0.7631988 0.14471884 -0.21111996 0.43373019 0.40406135 0.11928455 1.6302557
0.10347204 -0.24442819 -0.13319393 0.043317936 -0.019145446 0.38284534 1.5754869 -0.13461895
0.08974944 0.52023804 0.6371209 0.44915295 -0.20341226 0.2678153 -0.0791109 -0.20984218
0.22154465 0.29363412 0.62531847 0.20590107 1.167529 0.17141597 0.36094084 -0.14205946
1.6916826 0.13352697 0.4734249 0.25350317 0.0698487 1.6564096 0.49529898 0.7733751
0.4488259 0.05474634 0.31180888 0.07341434 0.19986634 -0.1698972 2.0112946 1.1098174
-0.1450734 0.17819999 0.324213 0.7380775 0.77655756 -0.24271852 1.4894742 0.4505133
1.054077 -0.03018117 1.146567 -0.2957425 1.089838 -0.16452695 0.17839889 2.091303
0.40112174 0.5885407 0.41286033 -0.20824085 0.18588303 0.21978539 0.10686783 2.5299888
0.44836858 0.05470449 0.14923477 -0.034284748 0.03829612 0.680014 1.1670737 -0.23313354
0.1799107 0.7508426 0.55851495 0.22760634 0.07279867 0.2941943 0.22722562 -0.5424429
0.17795789 -0.26412958 0.44660804 0.25013414 -0.45215967 0.01943902 0.11904202 -0.32337666
2.2467058 0.25346586 -0.12635925 0.05539121 -0.19118078 0.5499557 -0.034730084 0.28669202
0.38847622 -0.4149943 0.41626352 0.16434844 0.07048614 0.23111354 1.074566 0.7064942
-0.33577746 -0.012839337 -0.052018635 0.22533593 0.6920179 -0.016712584 2.351335 0.23759122
0.3347432 -0.15037954 0.8273861 -0.08934542 1.1408818 -0.24323611 0.6506714 1.4201477
0.40533733 0.21312338 0.30727854 -0.4191902 0.39518127 0.19337387 0.24008676 1.0643617
-0.006064563 0.21929 -0.035331655 0.053094286 -0.10721457 0.80429083 1.7519113 -0.13306232
0.18675786 0.76993597 1.323955 0.34734568 -0.1530467 0.3411954 0.07837906 -0.2982653
0.0972706 -0.16771281 0.38323537 0.09464053 0.28160173 0.15854254 0.52407825 0.029317502
0.87170655 0.028299795 0.33717725 0.11058575 0.04379103 0.92660344 -0.048855476 -0.1336507
0.5976858 0.16744241 0.5962008 -0.037655767 0.3203516 -0.11762954 0.6922887 0.78078884
0.06844761 0.1797924 -0.056528896 0.7355504 0.3463704 -0.30799022 1.2476583 0.5326433
0.30234528 -0.49393544 1.4246262 -0.1757686 1.3296981 -0.17774928 -0.13228382 1.2645837
0.17928906 0.8624436 0.7898667 0.1265719 1.011768 0.5761025 -0.22224209 0.75498295
0.18596247 0.029108863 0.18647006 0.063479275 -0.25290832 0.34851784 1.2575758 -0.33053815
00000000: 3ed6 8f3e 0b05 053f 29c3 ff3d 237e 8f3c
00000010: 1784 40bd 472e 603e d086 37bc b55b 77bd
00000020: 1ca8 45bd 5ff4 a3be dc70 103f 9aed ff3c
00000030: 0501 1f3f 319a 933e 8ca6 bf3b 8137 72bd
00000040: 8d86 0c40 0d5c 423e c7f6 f83e 25e2 c43e
00000050: d391 50be 0569 163f a299 b1bd d771 df3e
00000060: 8825 ba3e 7b12 de3c 3195 093e 3607 12bd
00000070: 44b9 52be a3f6 bc3d a5ca 9d3f e5ae 403f
00000080: dc0d 8bbe 4f69 303e 032e 5e3e 5ea3 9f3f
00000090: 2c6e 393f 9d8d 78bd 3400 be3f 1db8 1c3f
000000a0: 295c 213f d810 43be 6244 843f 5f96 713d
000000b0: 86e8 893f ee9a dbbe 875e 0e3f fe6e ae3f
000000c0: a71a 553f ff60 433f 2d31 143e d52f 58be
000000d0: e211 de3e 21e1 ce3e 754b f43d 38ac d03f
000000e0: 26e9 d33d 624b 7abe fd63 08be 266e 313d
000000f0: e9d6 9cbc 4e04 c43e 8ea9 c93f 8dd9 09be
00000100: 8ece b73d 522e 053f 5b1a 233f 60f7 e53e
00000110: 4e4b 50be 161f 893e e504 a2bd dee0 56be
00000120: 9adc 623e 3657 963e df14 203f bbd7 523e
00000130: 9771 953f ab87 2f3e 3dcd b83e 0978 11be
00000140: 0e89 d83f 4bbb 083e c064 f23e 2bcb 813e
00000150: d60c 8f3d 3b05 d43f d497 fd3e e9fb 453f
00000160: 82cc e53e b33d 603d 6aa5 9f3e 425a 963d
00000170: c3a9 4c3e 88f9 2dbe 0db9 0040 7f0e 8e3f
00000180: 1f8e 14be 0f7a 363e 3fff a53e a6f2 3c3f
00000190: 7acc 463f 348b 78be 17a7 be3f aea9 e63e
000001a0: ffeb 863f 803e f7bc b5c2 923f 906b 97be
000001b0: d07f 8b3f c179 28be 33ae 363e e9d7 0540
000001c0: d45f cd3e 9aaa 163f 6e62 d33e 173d 55be
000001d0: 1f58 3e3e 6c0f 613e 85dd da3d 56eb 2140
000001e0: 9190 e53e d111 603d 00d1 183e 2a6e 0cbd
000001f0: 64dc 1c3d 6615 2e3f ac62 953f 8fba 6ebe
00000200: 833a 383e 3837 403f d6fa 0e3f a311 693e
00000210: 7817 953d a3a0 963e d5ad 683e 8add 0abf
00000220: 983a 363e fe3b 87be cfa9 e43e 9511 803e
00000230: 7981 e7be 943e 9f3c 4dcc f33d a091 a5be
00000240: 07ca 0f40 47c6 813e 5264 01be e5e1 623d
00000250: e5c4 43be e6c9 0c3f 2241 0ebd 4cc9 923e
00000260: 5be6 c63e 227a d4be 7e20 d53e f54a 283e
00000270: 0a5b 903d 07a9 6c3e 618b 893f cedc 343f
00000280: 06eb abbe 155c 52bc 7e11 55bd 76be 663e
00000290: 1628 313f d4e8 88bc 467c 1640 1d4b 733e
000002a0: 7663 ab3e 18fd 19be 93cf 533f bbfa b6bd
000002b0: 6a08 923f e312 79be 6792 263f 66c7 b53f
000002c0: 6088 cf3e 043d 5a3e 9d53 9d3e 19a0 d6be
000002d0: 3355 ca3e cd03 463e 4ed9 753e 013d 883f
000002e0: 3eb9 c6bb 8f8d 603e edb7 10bd 6579 593d
000002f0: 5093 dbbd 01e6 4d3f a13e e03f 7d41 08be
00000300: 743d 3f3e 861a 453f 5c77 a93f 4bd7 b13e
00000310: 46b8 1cbe 2ab1 ae3e 3385 a03d 3bb6 98be
00000320: cf35 c73d e8bc 2bbe 6d37 c43e e5d2 c13d
00000330: 1a2e 903e fa58 223e fe29 063f 422b f03c
00000340: 2928 5f3f f9d4 e73c 7fa2 ac3e c87a e23d
00000350: 395e 333d e235 6d3f ae1c 48bd bbdb 08be
00000360: f001 193f 0676 2b3e 9ea0 183f ef3c 1abd
00000370: 2005 a43e c2e7 f0bd d539 313f c7e1 473f
00000380: 432e 8c3d 801b 383e d88a 67bd 084d 3c3f
00000390: 7657 b13e e5b0 9dbe 44b3 9f3f 505b 083f
000003a0: 00cd 9a3e 1be5 fcbe 275a b63f affc 33be
000003b0: 8c33 aa3f e803 36be 6975 07be e1dd a13f
000003c0: 8d97 373e 1bc9 5c3f b434 4a3f 109c 013e
000003d0: 9d81 813f 747b 133f 6e93 63be 9046 413f
000003e0: f26c 3e3e b675 ee3c 02f2 3e3e 6c01 823d
000003f0: 337d 81be ee70 b23e 3ef8 a03f 4c3c a9be

se_block_event.2.0.bias f4 [16]
-1.4980838 -1.6186877 -0.90759486 -1.4408201 0.047401596 -1.6176305 -0.67279077 -1.9914285
-0.11834585 -0.060421422 -1.1867769 -1.836126 -1.4907553 -0.11371763 -1.009584 0.38074782
00000000: 36c1 bfbf 2931 cfbf 2358 68bf cb6c b8bf
00000010: 2d28 423d 840e cfbf 043c 2cbf 21e7 febf
00000020: 4f5f f2bd 747c 77bd 4ee8 97bf 2d06 ebbf
00000030: 12d1 bebf cae4 e8bd 0c3a 81bf 61f1 c23e

se_block_event.2.2.weight f4 [64, 16]
0.6249341 0.78069144 0.19981992 0.67507136 0.08622626 0.6548025 0.13667895 0.2974593
-0.0767126 0.09330412 0.63346547 0.63008696 0.67223823 -0.05730863 0.50678587 0.7845463
0.4317007 0.39736718 0.8630143 0.90657324 0.2359933 0.91212124 0.61426777 0.5812724
0.35716718 0.2760507 1.0769676 0.21149808 0.8482896 0.07001308 1.3092315 2.3624368
0.052776497 -0.22583807 0.3688957 1.1100041 0.8988853 0.22148505 0.69131744 0.14871593
0.4494641 0.35648143 0.30718017 -0.049209528 -0.12013109 0.4875418 -0.06752146 0.09222585
0.8304938 0.70093656 0.4639788 0.697615 -0.43331316 0.66084015 0.48853794 1.098635
0.25790644 -0.032945063 0.8332973 0.73794234 0.79045933 -0.26122352 0.3938186 0.28184244
0.7705397 0.26964587 0.36850914 0.52636564 1.8869511 1.3309557 0.46082357 0.83611643
0.69475025 0.763258 1.5531186 0.86921555 1.1512733 0.51005656 1.1109781 -0.1302488
-0.29609734 -0.24420926 0.35891357 0.17736901 0.07944259 0.042859666 -0.030301023 -0.35351813
0.074375615 0.092662916 -0.0076763043 0.5704073 0.23415153 -0.21893819 0.5363852 -0.40582472
0.95742154 0.61654586 0.8046375 -0.017567052 -0.21919188 -0.05008123 0.15173252 0.38368267
0.29019776 -0.8785939 -0.020473063 0.6550498 0.53946567 -0.4548615 -0.8739876 -0.11896258
0.76346815 0.5916709 -0.2556276 0.31803834 -0.7575875 0.3964167 0.48296222 0.60770106
0.15221883 0.112406455 1.7382283 0.15828933 0.33106562 -0.8992379 0.15148681 0.21407458
0.013518056 0.48062298 -0.369502 0.5743453 -0.47208542 0.50681686 0.041357383 0.86307514
-0.7091667 0.56022865 1.0694854 -0.15273856 0.4044599 -0.42949677 -0.33636728 0.55828494
0.28144985 0.69174486 -0.24555427 0.401199 -0.87454504 0.11310235 -0.08493886 0.04130003
-0.14207006 -0.19089375 0.13529378 0.37972456 0.026173452 -0.58170456 0.0031124225 0.080065414
0.49797672 0.38486993 0.25755772 0.76012963 0.52800584 1.0090833 0.51352054 0.9875884
0.6373502 0.087546386 1.043676 0.36080965 0.43342677 -0.4494045 1.2430478 1.0748861
0.40625727 0.37460235 0.4400316 0.76646566 -0.08880316 0.38195708 -0.28095034 0.33212507
0.3716699 -0.022159128 0.46956146 0.24284422 0.1798294 -0.23028894 0.40041196 0.568943
0.45979175 0.8189278 -0.6984292 0.27777025 0.34364054 0.8854424 0.5403579 0.95022696
0.06167061 0.3718323 0.98815566 0.5251523 1.9942036 -0.31558526 -0.11210073 0.23839732
0.64263475 0.2516894 0.1465963 0.68589383 -0.13618058 0.12939458 0.27729046 0.76428795
0.39682388 0.883599 0.43507797 0.050485153 -0.19484916 -0.21773554 0.081416495 1.1284888
0.009884375 0.6374413 0.11532189 0.72008586 0.11507541 0.3036917 0.5487978 0.22668298
0.3878526 0.2153533 0.8441811 0.36240828 0.5156838 -0.114825286 0.615463 1.6942033
-0.15762818 -0.01488972 -0.39208707 0.023528188 -0.08900646 0.22029755 0.36954066 -0.39861098
0.016974274 -0.5563768 0.46209624 0.086030975 0.13977306 -0.25212082 -0.17993183 -0.12682903
00000000: aefb 1f3f 65db 473f 989d 4c3e 7ad1 2c3f
00000010: 6597 b03d 23a1 273f 91f5 0b3e 964c 983e
00000020: 7f1b 9dbd 3b16 bf3d cb2a 223f 614d 213f
00000030: ce17 2c3f 74bc 6abd b8bc 013f 07d8 483f
00000040: e007 dd3e b673 cb3e 81ee 5c3f 2f15 683f
00000050: 3aa8 713e c780 693f a740 1d3f 45ce 143f
00000060: 9ede b63e 8456 8d3e 13da 893f f492 583e
00000070: 8229 593f 0563 8f3d e694 a73f 2a32 1740
00000080: 2b2c 583d 1842 67be e6df bc3e 9d14 8e3f
00000090: 591d 663f facc 623e 2efa 303f fd48 183e
000000a0: 2920 e63e bc84 b63e b846 9d3e ee8f 49bd
000000b0: 4a07 f6bd 149f f93e b148 8abd e8e0 bc3d
000000c0: 3e9b 543f 9470 333f a18e ed3e e696 323f
000000d0: 39db ddbe d22c 293f a521 fa3e 12a0 8c3f
000000e0: 500c 843e 67f1 06bd f952 553f cae9 3c3f
000000f0: 8b5b 4a3f 17bf 85be 97a2 c93e a74d 903e
00000100: 1742 453f 060f 8a3e 3bad bc3e e6bf 063f
00000110: 9d87 f13f c25c aa3f 11f1 eb3e ba0b 563f
00000120: 27db 313f e064 433f 97cc c63f e984 5e3f
00000130: ec5c 933f 1193 023f 8834 8e3f f15f 05be
00000140: 129a 97be fe11 7abe 85c3 b73e 39a0 353e
00000150: ccb2 a23d 9e8d 2f3d da39 f8bc 5400 b5be
00000160: 3e52 983d 0ec6 bd3d 8289 fbbb 3606 123f
00000170: 6bc5 6f3e 5531 60be 8a50 093f 42c8 cfbe
00000180: 9419 753f f3d5 1d3f b9fc 4d3f c7e8 8fbc
00000190: d673 60be fa21 4dbd c55f 1b3e 0e72 c43e
000001a0: cd94 943e 88eb 60bf 20b7 a7bc 58b1 273f
000001b0: 6c1a 0a3f 9be3 e8be a7bd 5fbf a7a2 f3bd
000001c0: a672 433f be77 173f 9fe1 82be ecd5 a23e
000001d0: 41f1 41bf 21f7 ca3e d346 f73e 4c92 1b3f
000001e0: 41df 1b3e 5b35 e63d 447e de3f 9916 223e
000001f0: 6f81 a93e 7434 66bf 5c1f 1b3e 5e36 5b3e
00000200: d67a 5d3c 3714 f63e 5e2f bdbe 4b08 133f
00000210: 2eb5 f1be c0be 013f 5c66 293d 7ef2 5c3f
00000220: f38b 35bf 256b 0f3f e6e4 883f 7f67 1cbe
00000230: 5e15 cf3e 00e7 dbbe 5538 acbe c3eb 0e3f
00000240: 321a 903e 3116 313f 9472 7bbe f569 cd3e
00000250: 2fe2 5fbf 34a2 e73d 6df4 adbd 382a 293d
00000260: d07a 11be a779 43be 748a 0a3e 426b c23e
00000270: b569 d63c 97ea 14bf c9f9 4b3b 56f9 a33d
00000280: cef6 fe3e ac0d c53e 9bde 833e db97 423f
00000290: 642b 073f a429 813f 1576 033f 98d2 7c3f
000002a0: 6229 233f 854b b33d 2d97 853f 0bbc b83e
000002b0: 1dea dd3e 5918 e6be 311c 9f3f de95 893f
000002c0: f400 d03e e1cb bf3e d24b e13e 1837 443f
000002d0: 6ede b5bd e18f c33e b9d8 8fbe 4c0c aa3e
000002e0: 844b be3e 0f87 b5bc 5c6a f03e 28ac 783e
000002f0: 3325 383e ddd0 6bbe cc02 cd3e 40a6 113f
00000300: d369 eb3e 41a5 513f 42cc 32bf e737 8e3e
00000310: a7f1 af3e 5aac 623f e554 0a3f 1342 733f
00000320: 529a 7c3d ce60 be3e c5f7 7c3f 6270 063f
00000330: 1042 ff3f 6494 a1be 1195 e5bd 6d1e 743e
00000340: b683 243f 6fdd 803e 571d 163e bd96 2f3f
00000350: ec72 0bbe 0380 043e 04f9 8d3e 60a8 433f
00000360: 802c cb3e 8b33 623f 8ac2 de3e 85c9 4e3d
00000370: 8a86 47be 11f6 5ebe b1bd a63d 5272 903f
00000380: 13f2 213c 5a2f 233f e22d ec3d 8c57 383f
00000390: a8ac eb3d 7a7d 9b3e 037e 0c3f 951f 683e
000003a0: 9e94 c63e 9385 5c3e 411c 583f 948d b93e
000003b0: db03 043f 8529 ebbd fc8e 1d3f a7db d83f
000003c0: 4869 21be 03f4 73bc a3bf c8be 30be c03c
000003d0: 0549 b6bd ae95 613e 6f34 bd3e bd16 ccbe
000003e0: a20d 8b3c b66e 0ebf e197 ec3e 0231 b03d
000003f0: ab20 0f3e fb15 81be 0d40 38be 78df 01be

se_block_event.2.2.bias f4 [64]
-0.11237598 0.48111755 0.18876699 0.03564431 0.9556488 -0.56118727 0.09316599 -0.146355
0.20781316 -0.0737439 0.46985775 0.47193852 0.10070032 0.48630068 0.35665664 -0.33692318
0.79736465 0.124665804 0.24396807 -0.22277533 0.33192804 0.19361775 0.22799788 0.22716732
-0.36338815 0.15608133 -0.060600273 0.21347892 0.3379456 0.18082891 1.0611207 0.24432288
0.2287529 -0.85834855 -0.26523536 -0.1815535 0.34506217 0.1535739 0.21105488 1.0219907
0.060055267 -0.39812478 0.39976948 -0.169303 0.36364272 0.12743112 -0.60753405 0.66973656
0.3658705 -0.17287248 0.07054699 -0.5290191 -0.4265536 0.59625256 0.0062046503 1.225503
0.86781675 -0.32189927 -0.15349726 -0.7145539 0.01521819 0.12900195 1.1520584 -0.14713012
00000000: 6125 e6bd 0a55 f63e 224c 413e c5ff 113d
00000010: 66a5 743f f8a9 0fbf d0cd be3d 16de 15be
00000020: f9cc 543e 0b07 97bd 3291 f03e eda1 f13e
00000030: f83b ce3d 67fc f83e b39b b63e 3281 acbe
00000040: 1720 4c3f c950 ff3d c4d2 793e 371f 64be
00000050: 79f2 a93e bb43 463e 4778 693e 8d9e 683e
00000060: 030e babe c9d3 1f3e fe37 78bd 389a 5a3e
00000070: 3507 ad3e 372b 393e ced2 873f c72f 7a3e
00000080: 333e 6a3e bbbc 5bbf eecc 87be 29e9 39be
00000090: fdab b03e 7a42 1d3e c51e 583e 97d0 823f
000000a0: 83fc 753d 03d7 cbbe 96ae cc3e c45d 2dbe
000000b0: 612f ba3e 4e7d 023e 5a87 1bbf db73 2b3f
000000c0: 6153 bb3e 7c05 31be f17a 903d cc6d 07bf
000000d0: 3c65 dabe 02a4 183f 6150 cb3b 48dd 9c3f
000000e0: 3d29 5e3f fbcf a4be 632e 1dbe 01ed 36bf
000000f0: b755 793c 1619 043e a676 933f 47a9 16be
