data/parameters/deephit_model_feature_2dcnn.pth (torch, 189985 bytes, 37 tensors)

se_block.0.weight f4 [4, 17]
0	0x3e4d3807	0.20040904
1	0xbe00e9d5	-0.125892
2	0x3f4dcbce	0.80389106
3	0x3d485325	0.048907418
4	0x3cc33a3b	0.023831477
5	0xbbb0526b	-0.0053809187
6	0xbc38550a	-0.011250744
7	0xbe5b2d70	-0.21404052
8	0x3cc90657	0.024539156
9	0xbe0fca67	-0.14042054
10	0x3cc5fccb	0.024168393
11	0x3d1068c1	0.03525615
12	0xbf1b957b	-0.60774964
13	0x3d04b13f	0.032395598
14	0x3c619e77	0.013770691
15	0x3cbfcee9	0.023414092
16	0x3d4ca5b4	0.049962714
17	0x3d60e491	0.054905478
18	0x3e088869	0.13333286
19	0xbe50d1af	-0.20392488
20	0xbe68125b	-0.22663252
21	0x3df2d66a	0.118573025
22	0xbe8ef707	-0.27922842
23	0xbd8b3a34	-0.06798211
24	0x3de85ec2	0.113461986
25	0x3cf0a993	0.029377734
26	0x3c8654c8	0.016397849
27	0xbd729373	-0.05922265
28	0xbe0e0e94	-0.13872749
29	0x3d22c855	0.039741833
30	0xbe0833eb	-0.13301055
31	0x3d590567	0.052983668
32	0xbd197fbe	-0.03747534
33	0xbe01df99	-0.12682952
34	0xbcc47662	-0.02398223
35	0xbbad7e3b	-0.005294589
36	0xbe3886de	-0.18020198
37	0xbe88268d	-0.26591912
38	0xbe5c86d1	-0.21535803
39	0x3daf27d7	0.08552521
40	0xbe3d8e28	-0.1851126
41	0x3d853f2f	0.06506192
42	0xbe82e7bc	-0.25567424
43	0x3d81c7bf	0.06336927
44	0xbc20257f	-0.009774565
45	0x3dd37dbe	0.10326718
46	0xbdc98b3e	-0.098410115
47	0xbe6f488c	-0.23367518
48	0xbcda999f	-0.02668458
49	0x3dce280e	0.100662336
50	0xbd69fa4f	-0.05712348
51	0xbdf21724	-0.1182082
52	0xbc9a8858	-0.018863842
53	0xbc062400	-0.008187294
54	0xbd30a788	-0.04312852
55	0xbd10d4c0	-0.035359144
56	0x3dc4e894	0.09614673
57	0x3e667782	0.22506526
58	0xbe0ab614	-0.1354602
59	0xbe686302	-0.22694018
60	0xbdd7c126	-0.10534887
61	0xbd5bd494	-0.053669527
62	0xbe18e4a8	-0.14930975
63	0x3d90a588	0.070628226
64	0xbdcfafac	-0.101409286
65	0xbe52e47e	-0.20594975
66	0xbe09b08b	-0.13446252
67	0xbdff544a	-0.12467249

se_block.0.bias f4 [4]
0	0xbf21c4a0	-0.6319065
1	0xbe3d6d23	-0.18498664
2	0xbe55b3a9	-0.20869316
3	0xbd0556ac	-0.03255336

se_block.2.weight f4 [17, 4]
0	0xbe5d41a0	-0.21607065
1	0x3ed57ef8	0.41698432
2	0xbe777c49	-0.24168505
3	0xbed39bd6	-0.4132983
4	0x3fb53800	1.4157715
5	0x3ec8c3db	0.39211926
6	0xbd70ad73	-0.058759164
7	0xbea3789c	-0.31927955
8	0xbe880c96	-0.26572102
9	0x3d67ad33	0.05656166
10	0xbed5a1d3	-0.41725025
11	0x3e06553c	0.13118452
12	0xbe746242	-0.23865607
13	0xbe9f3e9c	-0.31102455
14	0x3e47ce2d	0.19512244
15	0x3ef5bdec	0.4799646
16	0xbe9d3e9c	-0.3071183
17	0x3dedf29d	0.116185404
18	0xbd99c999	-0.07509155
19	0x3efbb0f0	0.4915843
20	0xbe058e34	-0.13042527
21	0xbe899f42	-0.26879317
22	0x3ec6f195	0.38856187
23	0x3eeba140	0.4602146
24	0x3fa96e7c	1.3236842
25	0xbc2cb120	-0.010540277
26	0xbe075c48	-0.13218796
27	0x3e8a8f7c	0.27062595
28	0x3dec459f	0.11536717
29	0x3d0b0e11	0.03394896
30	0xbe40d66a	-0.18831792
31	0x3d87f8d8	0.0663926
32	0xbe80fdef	-0.25193736
33	0xbeb0cbb7	-0.34530422
34	0xbea6c7db	-0.32574353
35	0xbdde6bd0	-0.10860407
36	0x3de89c09	0.11357886
37	0x3e9501b3	0.2910286
38	0x3df70fad	0.12063537
39	0x3ee8c696	0.4546401
40	0xbe396f70	-0.18108916
41	0x3f02f981	0.5116196
42	0xbe2d7934	-0.16940767
43	0xbe1aba98	-0.15110242
44	0x3edd5372	0.43227726
45	0xbf01a366	-0.5063995
46	0x3dfcba11	0.12340177
47	0x3eeb1bac	0.4591955
48	0x3e1be186	0.15222749
49	0x3effa02c	0.4992689
50	0x3df43363	0.11923864
51	0xba4f1c00	-0.00079005957
52	0xbe8e2fe7	-0.27770922
53	0xbecf228c	-0.40456045
54	0x3ed105dd	0.40824786
55	0x3e78bc48	0.24290574
56	0xbe9c8034	-0.3056656
57	0x3eeefa88	0.46675515
58	0x3e60a86b	0.21939246
59	0xbec5d486	-0.38638705
60	0xbe2c9756	-0.16854605
61	0xbe822329	-0.2541745
62	0xbddb3388	-0.10703188
63	0xbc4d0800	-0.012514114
64	0xbe3ff237	-0.18744741
65	0x3e6e7e88	0.23290455
66	0x3e8f55d6	0.27995175
67	0xbe2616e4	-0.1621967

se_block.2.bias f4 [17]
0	0x3f9e3290	1.235918
1	0x3f517f0e	0.81834495
2	0x3f427c56	0.7597097
3	0x3f0465a7	0.5171761
4	0x3d9bb92c	0.07603678
5	0xbf0eed11	-0.55830485
6	0x3fd7bb4c	1.6854033
7	0xbf92c79a	-1.1467164
8	0x3e69353e	0.22774217
9	0xbf83288e	-1.0246751
10	0xbe9d9a4c	-0.30781782
11	0x3df702ec	0.12061104
12	0xbf51a481	-0.8189164
13	0x3f5ae47e	0.855049
14	0xbeae5c59	-0.3405483
15	0xbae3e0b0	-0.0017385688
16	0x3e52f0c4	0.20599657

se_block_event.0.0.weight f4 [16, 64]
0	0x3ef8ca2e	0.4859175
1	0x3e916ad8	0.28401828
2	0xbf4901b5	-0.7851823
3	0xbeb2fd3e	-0.34958833
4	0x3d33424e	0.043764405
5	0x3e8a14c2	0.26968962
6	0x3f1379d4	0.5760777
7	0xbf28a589	-0.65877587
8	0xbde6aa95	-0.11263005
9	0x3eea3f53	0.45751438
10	0xbf64745b	-0.89240044
11	0x3f1043b2	0.56353295
12	0x3d716605	0.058935184
13	0x3e1c6f22	0.15276769
14	0x3e99597f	0.29951093
15	0xbe8ac7af	-0.27105471
16	0x3f67b373	0.9050819
17	0xbe4a2069	-0.19738926
18	0x3e4b210f	0.1983683
19	0x39c6178b	0.00037783044
20	0xbebbd801	-0.36688235
21	0xbeaf3d46	-0.34226435
22	0xbe1d6673	-0.15371113
23	0xbb380d6d	-0.0028084174
24	0xbead99e9	-0.33906487
25	0xbf024bd2	-0.5089694
26	0x3ed11998	0.4083984
27	0x3e58c3af	0.21168397
28	0x3d360d2b	0.04444615
29	0x3dfbf77e	0.12303065
30	0xbeca2b79	-0.39486292
31	0x3f04ef5a	0.5192772
32	0x3f1e9cf4	0.6195824
33	0x3e0b04cd	0.1357605
34	0xbda8841f	-0.08228325
35	0x3e0c1070	0.13678145
36	0xbe3398d5	-0.1753877
37	0x3e5cf690	0.21578431
38	0xbe3d7969	-0.18503346
39	0xbe80cd8f	-0.2515683
40	0xbe1ac973	-0.1511591
41	0x3f06d4f1	0.5266867
42	0x3e86167b	0.26189026
43	0x3ee70838	0.45123458
44	0xbf0147e2	-0.5050031
45	0x3e77caa4	0.24198395
46	0xbf36f63f	-0.7146949
47	0xbde454ea	-0.111490086
48	0x3e4edb72	0.20200899
49	0xbddc14ae	-0.10746132
50	0xbe7e852c	-0.24855489
51	0x3e0d07d7	0.13772522
52	0x3baea7fb	0.0053300834
53	0xbd7b2991	-0.061318938
54	0x3da870eb	0.082246624
55	0x3db33c9a	0.08751793
56	0x3e561f1b	0.20910303
57	0xbdd5dbf9	-0.10442347
58	0xbe19797d	-0.1498775
59	0xbf1389b4	-0.57631993
60	0x3e08ab9b	0.13346712
61	0xbe6539ce	-0.22385332
62	0x3ecd9cb8	0.4015863
63	0x3c8ea6d2	0.01741353
64	0xbd7e3a26	-0.062067173
65	0xbe90bdf2	-0.28269917
66	0xbe9ac561	-0.30228713
67	0x3e2bb48c	0.16768092
68	0x3eddf505	0.43350998
69	0x3f194cbb	0.59882706
70	0xbe698479	-0.2280444
71	0xbe962a4e	-0.2932915
72	0x3d6191d7	0.055070724
73	0xbecb3668	-0.39689946
74	0xbdcbb45d	-0.09946511
75	0x3ed6b437	0.41934368
76	0x3d047cab	0.032345455
77	0x3e9bf176	0.30457658
78	0x3bfe1036	0.0077533973
79	0xbea7e465	-0.3279144
80	0x3d1ad7f6	0.037803613
81	0xbf08c985	-0.53432494
82	0xbf77965e	-0.9671382
83	0xbe231620	-0.15926409
84	0x3ec03826	0.37542838
85	0xbf03f5cd	-0.5154694
86	0x3c88edce	0.016714957
87	0xbca8e0ad	-0.020614946
88	0x3ddd0acb	0.10793074
89	0x3efd665e	0.49492162
90	0x3e330362	0.17481759
91	0x3e100cc7	0.14067374
92	0x3d05bdaf	0.0326516
93	0x3ef1c169	0.47217873
94	0x3dfdf634	0.12400475
95	0xbe12854c	-0.14308661
96	0xbf6952e6	-0.9114212
97	0xbded3cf6	-0.11583893
98	0xbe991552	-0.2989908
99	0x3e5e03ac	0.21681088
100	0x3e5e4d07	0.21709071
101	0xbe12d121	-0.14337589
102	0xbdf8f43a	-0.121559575
103	0xbde908fa	-0.11378665
104	0xbe3ed55a	-0.18636075
105	0xbed50057	-0.41601822
106	0xbe6f17aa	-0.23348871
107	0x3c8a9518	0.016916797
108	0xbbad5112	-0.0052892053
109	0xbd1129fc	-0.03544043
110	0xbf3bb371	-0.7332068
111	0x3ef11586	0.47086734
112	0xbe8d89a0	-0.27644062
113	0x3e7055d4	0.23470241
114	0x3ec6fceb	0.38864836
115	0xbf0b4648	-0.54404116
116	0x3ca8245a	0.020525146
117	0xbf94cfc4	-1.1625905
118	0x3d18f5a4	0.037343636
119	0x3ca56489	0.02018954
120	0xbd04f69f	-0.03246176
121	0x3dc448c3	0.09584191
122	0x3e836d16	0.25669163
123	0xbe0640b2	-0.13110617
124	0xbebab5c7	-0.3646681
125	0x3ee45dd3	0.44602832
126	0x3e26d1d6	0.16290984
127	0xbe2a6ff4	-0.16644269
128	0xbe83e4ff	-0.25760648
129	0xbf046988	-0.5172353
130	0xbe2ff1f5	-0.17182143
131	0x3d03e605	0.032201786
132	0x3f4f9ba8	0.8109689
133	0x3ee04c98	0.43808436
134	0xbe15bb1b	-0.14622156
135	0x3def771c	0.1169264
136	0x3c00d3f8	0.007863037
137	0x3e7e75ab	0.24849574
138	0x3e1b8162	0.15186074
139	0x3e99f0fe	0.30066675
140	0x3dffea22	0.12495829
141	0x3de90314	0.1137754
142	0xbe15baf8	-0.14622104
143	0xbe46790a	-0.1938211
144	0x3ce84c5c	0.028356723
145	0x3e56ce5b	0.20977156
146	0xbf253eee	-0.6454915
147	0x3e558af4	0.20853788
148	0x3e514422	0.20436147
149	0x3e070cba	0.13188449
150	0xbdb0e7c6	-0.08637957
151	0x3e3cab23	0.18424658
152	0xbc3177fd	-0.01083183
153	0x3e430660	0.190454
154	0x3e863477	0.26211902
155	0xbe2925e3	-0.16518359
156	0x3e836401	0.25662234
157	0x3e96afef	0.29431102
158	0x3e9fca47	0.31209013
159	0xbead21c5	-0.33814827
160	0xbf074224	-0.528353
161	0xbc1acd6e	-0.009448392
162	0x3e9f1b22	0.31075388
163	0x3deb3647	0.11484962
164	0xbdd04540	-0.101694584
165	0xbe0d6e31	-0.13811566
166	0x3ed27b04	0.41109478
167	0x3e2fd9dc	0.1717295
168	0x3bfa8a11	0.0076458533
169	0x3c767d33	0.015044498
170	0x3e9a0f77	0.30089924
171	0x3e856662	0.26054674
172	0x3e4774db	0.1947817
173	0xbc965815	-0.018352548
174	0x3e83f101	0.2576981
175	0xbfada229	-1.3565112
176	0x3e7e606e	0.24841473
177	0x3e4b1e59	0.19835795
178	0x3f21b1e0	0.6316204
179	0x3ea2b8f6	0.3178174
180	0xbd263178	-0.04057452
181	0x3d5abb4a	0.05340127
182	0xbda06df7	-0.07833474
183	0x3e99a873	0.3001133
184	0xbe0f6917	-0.14004932
185	0x3e3920cf	0.18078922
186	0x3f2febba	0.68719065
187	0x3e6ec8d1	0.23318793
188	0x3e9aedf4	0.3025967
189	0xbeb93eb6	-0.36180657
190	0x3a6e3a3e	0.0009087658
191	0x3cfe0cef	0.031012027
192	0x3e0a3a65	0.13498838
193	0xbefa9460	-0.48941326
194	0x3f0c8e4c	0.5490463
195	0x3c2ff343	0.01073915
196	0x3f31c5e0	0.6944256
197	0x3ef44a95	0.47713152
198	0x3fa5e2ed	1.2959877
199	0x3f001f3c	0.5004766
200	0x3ee44835	0.4458634
201	0x3daa463e	0.08314179
202	0xbed061a0	-0.40699482
203	0xbcd29a62	-0.025708381
204	0x3f47b6e6	0.78013456
205	0xbefe888c	-0.49713552
206	0x3cfb492d	0.030674541
207	0x3f5cf5f5	0.863128
208	0x3ef2d1b4	0.47425616
209	0x3e9bbef8	0.30419135
210	0x3e7cc2d1	0.24683692
211	0x3ef69a72	0.48164707
212	0x3e6877fe	0.22702023
213	0x3e0813a4	0.13288742
214	0xbc2a29c2	-0.010385932
215	0xbcfb549f	-0.030679999
216	0xbed7418f	-0.42042205
217	0x3e0f86c2	0.1401625
218	0xbdaf3cb9	-0.08556504
219	0x3f4d7acd	0.80265504
220	0x3f704ef3	0.93870467
221	0x3f2462d9	0.6421333
222	0x3eed1562	0.46305376
223	0x3f63de7e	0.8901137
224	0x3dcd86be	0.10035466
225	0x3d83287a	0.06404205
226	0xbeaa6638	-0.33281112
227	0x3e02f20c	0.12787646
228	0x3e9c3c56	0.30514783
229	0xbec22f3a	-0.37926656
230	0x3f5b65ca	0.8570219
231	0x3f32fc49	0.69916207
232	0xbe1b5bd4	-0.15171748
233	0x3e122ece	0.14275667
234	0x3e1483a7	0.14503346
235	0xbec32bab	-0.38119254
236	0x3dd6e5ea	0.104930714
237	0xbe2f6c07	-0.17131053
238	0x3f4a6c79	0.79071766
239	0xbe86e44d	-0.26346055
240	0xbf14d588	-0.5813832
241	0x3d207816	0.039177023
242	0xbdf2badb	-0.11852046
243	0xbf0e67b7	-0.55627006
244	0xbf0518cc	-0.5199096
245	0x3c58a1e0	0.013222188
246	0xbe071a56	-0.1319364
247	0x3ef215a9	0.4728215
248	0xbe436ca8	-0.19084418
249	0x3e445e2c	0.19176549
250	0xbc9490b8	-0.018135414
251	0xbd940b15	-0.07228676
252	0x3e505edd	0.20348687
253	0x3ef71ef3	0.482658
254	0x3d9b60d5	0.075868286
255	0x3f80024e	1.0000703

se_block_event.0.0.bias f4 [16]
0	0xbc593abf	-0.013258635
1	0x3e510d9f	0.20415352
2	0x3e61e56d	0.22060175
3	0xbf442f36	-0.7663454
4	0xbd92b9b8	-0.07164329
5	0xbf77a48e	-0.96735466
6	0xbe4a93dd	-0.19782968
7	0x3eacb5ee	0.3373255
8	0xbf710301	-0.9414521
9	0x3f108302	0.564499
10	0x3e0b07c0	0.13577175
11	0xbde3bab4	-0.11119595
12	0x3e41f484	0.18940932
13	0xbeef477e	-0.46734232
14	0xbf31cb9c	-0.6945131
15	0xbfbc2b49	-1.470071

se_block_event.0.2.weight f4 [64, 16]
0	0xbcb5227a	-0.022111166
1	0x3df13809	0.11778266
2	0x3e3f8ef0	0.1870687
3	0xbf07978d	-0.52965623
4	0x3db6f931	0.08934248
5	0xbf0805b0	-0.5313368
6	0x3e11aa6d	0.14225169
7	0x401a9bce	2.4157596
8	0xbe24959a	-0.16072693
9	0x3f571194	0.840112
10	0x3f0d865d	0.5528315
11	0x3f19e22b	0.6011073
12	0xbd076480	-0.03305483
13	0xbe02e6bc	-0.1278333
14	0x3cb3154b	0.02186074
15	0xbf2ecb0b	-0.6827857
16	0x3eeeaefe	0.46617883
17	0x3e8f045c	0.27933013
18	0xbf1c9a05	-0.61172515
19	0xbd8f9c5f	-0.07012247
20	0x3eecf68b	0.46281847
21	0xbe9df3a1	-0.30849937
22	0x3ebccada	0.36873513
23	0xc01d438b	-2.4572475
24	0xbf269117	-0.6506514
25	0x3fabb474	1.3414445
26	0xbec445f7	-0.3833463
27	0x3eeea1d6	0.46607846
28	0x3f89a2fc	1.0752864
29	0x3ee70dec	0.4512781
30	0xbe9808b5	-0.29694143
31	0xbfb2dd56	-1.3973796
32	0x3f2944f0	0.66120815
33	0x3f217f22	0.63084614
34	0x3e3d759b	0.18501894
35	0xbe7352ba	-0.23762026
36	0x3e951635	0.29118505
37	0xbd7e1e44	-0.062040582
38	0x3e18996a	0.14902273
39	0x3d0fc202	0.03509713
40	0x3d644331	0.05572814
41	0x3ea409e8	0.32038808
42	0x3f1738ac	0.5907085
43	0x3ee09880	0.43866348
44	0xbe33afd2	-0.17547539
45	0xbea3638e	-0.31911892
46	0x3e9ed2ef	0.31020305
47	0xbf593f92	-0.84862626
48	0xbed0e95c	-0.4080304
49	0x3f2a7b80	0.66594696
50	0xbaf61415	-0.0018774295
51	0x3cd202f7	0.02563618
52	0x3dca89c2	0.098895565
53	0xbe57c97b	-0.21072952
54	0xbe7ec5f2	-0.24880198
55	0xbf0ef101	-0.5583649
56	0x3f03f83a	0.5155064
57	0xbe99ba9a	-0.30025178
58	0xbdcad1f1	-0.099033244
59	0x3ea75f4d	0.32689896
60	0x3deab537	0.11460345
61	0xbe86ce2a	-0.26329166
62	0xbddd8e75	-0.10818187
63	0x3f635995	0.88808566
64	0xbefb91d0	-0.49134684
65	0x3e50cebb	0.20391361
66	0x3ea664a3	0.32498655
67	0x3ebe4a23	0.37165937
68	0x3e441283	0.19147687
69	0x3d956b11	0.07295812
70	0xbc89ddf0	-0.01682946
71	0x3eb67109	0.35633114
72	0x3f39bdd0	0.72555256
73	0x3ee02fa8	0.4378636
74	0x3e2fec40	0.17179966
75	0x3eaa80e4	0.3330146
76	0xbe22b9a0	-0.15891123
77	0xbe6f1ba8	-0.23350394
78	0x3db2b762	0.08726384
79	0x3f57bbee	0.8427113
80	0xbebdb3d1	-0.37051252
81	0xbe4f2aae	-0.20231125
82	0x3c1fd20f	0.009754672
83	0x3f25f84f	0.64832014
84	0xbe16d764	-0.14730603
85	0x3ced2dcd	0.028952504
86	0xbdb5157d	-0.08841989
87	0xbdfe86e7	-0.12428074
88	0x3f3fa68c	0.74863505
89	0x3d96fce1	0.073724516
90	0xbd053cc0	-0.03252864
91	0x3d651fbc	0.055938467
92	0x3e6ef887	0.23336993
93	0xbeb7b7b2	-0.35882336
94	0xbd3fa52b	-0.046788376
95	0xbdc46103	-0.09588816
96	0x3f4049a4	0.75112367
97	0x3f2041f2	0.62600625
98	0x3f5302ba	0.82426035
99	0x3fa37ef3	1.2773117
100	0x3f260881	0.64856726
101	0x3f31d369	0.6946321
102	0x3f5792bb	0.8420827
103	0x3f067224	0.52517915
104	0x3f92f574	1.1481156
105	0x3f531a24	0.8246176
106	0x3f71614c	0.9428909
107	0x3f294a7b	0.66129273
108	0x3f642bf1	0.8912955
109	0x3f6211e3	0.8830854
110	0x3f879b9e	1.0594366
111	0x3f686806	0.9078373
112	0xbe158cf0	-0.14604545
113	0x3e0aca80	0.1355381
114	0x3da33ef3	0.07970991
115	0x3f22bbdc	0.635679
116	0xbe111464	-0.14167935
117	0xbd9e9af0	-0.07744396
118	0xbea1a247	-0.3156912
119	0x3e5108af	0.20413469
120	0x3e50fd51	0.20409133
121	0x3ea77108	0.32703424
122	0xbdd23a37	-0.1026501
123	0x3da08d80	0.07839489
124	0x3cb10b58	0.021611854
125	0x3e5d793c	0.21628278
126	0x3f297bd5	0.6620458
127	0xbd7a9bd7	-0.061183777
128	0x3eed5591	0.46354344
129	0x3f33ffe8	0.70312357
130	0xbcc66dca	-0.024222273
131	0x3e4f4375	0.20240577
132	0x3d083045	0.03324916
133	0x3ea17676	0.3153569
134	0x3e94f7e6	0.29095381
135	0x3e607a84	0.21921736
136	0x3e78a145	0.2428027
137	0xbf1383dc	-0.57623076
138	0xbe8c68aa	-0.27423602
139	0x3cd68af2	0.026189301
140	0x3e7687db	0.24075262
141	0x3f3dd7d0	0.7415743
142	0x3e770f40	0.24126911
143	0x3ed01a5d	0.40645114
144	0x3e5175b2	0.20455053
145	0x3ec28329	0.37990692
146	0x3eb4fb2d	0.35347882
147	0xbd881831	-0.06645239
148	0x3deb2cf2	0.11483182
149	0x3f3f25b3	0.746669
150	0xbcc61673	-0.024180626
151	0x3ea2f626	0.3182842
152	0x3f9ac2f9	1.2090751
153	0xbe7221aa	-0.23645654
154	0x3ef0fe36	0.47068948
155	0x3f46d0b9	0.77662235
156	0x3ea0cb77	0.3140523
157	0xbc9e4aac	-0.019322716
158	0x3eadae63	0.3392211
159	0x3e971273	0.29506263
160	0x400f5142	2.2393346
161	0x3fbd0f1f	1.477024
162	0x3fe87863	1.8161739
163	0x3fa1516f	1.2602977
164	0x3fb3272d	1.399633
165	0x3f71b0fe	0.94410694
166	0x400694b6	2.1028266
167	0x3fbfd270	1.4986095
168	0x3e9a0544	0.30082142
169	0x3fc79cbf	1.559471
170	0x3f80d2c0	1.0064316
171	0x3fb344e9	1.4005405
172	0x3fdbdeaf	1.7177333
173	0x3f5d934e	0.86552894
174	0x3fdf86fe	1.7463071
175	0x3f6f4890	0.93470097
176	0x3e2ffa3e	0.17185304
177	0x3f35cf51	0.71019465
178	0x3f758cbc	0.9591787
179	0xbf0727ba	-0.5279499
180	0xbedae869	-0.4275544
181	0xbe96166e	-0.29313987
182	0xbeb40074	-0.35156596
183	0x3f20e611	0.62851053
184	0x3ec0f47d	0.3768653
185	0x3eafb3c7	0.34316847
186	0x3ee20c2b	0.44149908
187	0xbe730ea7	-0.23736058
188	0xbd8cd8cd	-0.06877289
189	0x3dee0e38	0.11623806
190	0xbe857f7d	-0.26073828
191	0xbf3e3e1f	-0.7431354
192	0x3f3ee381	0.74565893
193	0x3f78493f	0.96986765
194	0x3fa158ed	1.2605263
195	0x3f04577c	0.5169599
196	0x3f51979d	0.8187197
197	0x3ed5918b	0.41712603
198	0x3ea397d6	0.3195178
199	0x3d81c81f	0.06336998
200	0x3f430518	0.7617965
201	0x3f9ccb5a	1.2249558
202	0x3f1d45dd	0.6143473
203	0x3f244102	0.64161694
204	0x3f890453	1.0704445
205	0x3f326346	0.6968273
206	0x3e8e8f00	0.27843475
207	0x3f62c0f2	0.8857566
208	0x3e1b8795	0.15188439
209	0xbe3fabf3	-0.18717937
210	0xbe0ef251	-0.13959624
211	0xbf75e684	-0.96054864
212	0xbe8bab22	-0.27279
213	0x3ea1ddc0	0.31614494
214	0x3ea84c15	0.32870546
215	0x3eb91e44	0.36155903
216	0xbe9f46bb	-0.3110865
217	0xbf30d7c8	-0.69079256
218	0x3cd5a646	0.026080262
219	0xbede659a	-0.4343689
220	0xbe7d06f4	-0.24709684
221	0x3d4f18e5	0.05056085
222	0x3eb8c513	0.36087856
223	0x3f1044bc	0.5635488
224	0xbdd62813	-0.10456862
225	0xbd35af86	-0.044356845
226	0xbe44f70e	-0.19234869
227	0x3c70130d	0.01465298
228	0xbebb4fa0	-0.36584187
229	0xbf19d858	-0.6009574
230	0xbee9a1d8	-0.4563129
231	0xbe41b895	-0.18918069
232	0xbf238b51	-0.63884455
233	0xbec23457	-0.37930557
234	0xbe3aca10	-0.18241143
235	0xbebfd964	-0.37470543
236	0xbe9d9d45	-0.3078405
237	0xbeffad40	-0.49936867
238	0x3a99f0d7	0.001174475
239	0xbe30fddc	-0.1728434
240	0x3ee0fe1a	0.43943864
241	0x3f5d6a3a	0.86490214
242	0x3faaeca2	1.3353465
243	0x3fb0cc25	1.38123
244	0x3e737130	0.23773646
245	0x3f2c1e52	0.67233765
246	0x3ed46bca	0.41488487
247	0x3f8fa1a0	1.1221199
248	0x3f31759c	0.6932008
249	0x3fbd3947	1.4783105
250	0x3fad57f3	1.3542465
251	0x3f6b3af8	0.91886854
252	0x3f39ebeb	0.7262561
253	0x3f614933	0.8800232
254	0x3d10345c	0.035206184
255	0x3f297193	0.66188926

se_block_event.0.2.bias f4 [64]
0	0x3f7b84ea	0.98249686
1	0x3ed28527	0.41117212
2	0x3f33c15b	0.7021691
3	0x3eeb94d2	0.46011978
4	0x3db304eb	0.087411724
5	0xbee34b1e	-0.44393247
6	0x3f40d742	0.7532846
7	0xbe410eed	-0.1885335
8	0xbdb2ff4d	-0.08740101
9	0xbeaa6fda	-0.3328846
10	0x3ffad70b	1.9596876
11	0x3d8b1769	0.067915745
12	0x3fa0f67e	1.2575223
13	0x3f1c44aa	0.61042273
14	0x3f1680d8	0.5879035
15	0x3f20f08a	0.62867033
16	0x3e07fba1	0.13279583
17	0x3fd1d1f7	1.6392201
18	0xbe9eb312	-0.30995995
19	0x3e896584	0.26835263
20	0x3fb18fc4	1.3871999
21	0xbe9f3034	-0.31091464
22	0xbde52cf1	-0.111902125
23	0x3f866971	1.0500928
24	0x3f85088a	1.0393231
25	0xbf0b0048	-0.54297304
26	0x3e1e8e0c	0.15483874
27	0x3ff080ba	1.8789284
28	0x3f46fead	0.77732354
29	0x3e95fc9e	0.29294294
30	0xbdef07f2	-0.11671437
31	0x3eb34f9f	0.35021684
32	0xbefade7c	-0.48997867
33	0x3e1b195d	0.15146394
34	0x3f37ae58	0.717504
35	0xbe7dc0c5	-0.24780567
36	0x3f808dc2	1.0043261
37	0x3ee77677	0.4520757
38	0x3f1fee41	0.6247292
39	0x3e98e572	0.29862553
40	0x3f5b4752	0.856557
41	0x3fd15566	1.6354187
42	0x3f3a832d	0.7285641
43	0x3f51d8c2	0.8197137
44	0xbe66bf76	-0.22533974
45	0x3e86367d	0.26213446
46	0x3f494a7e	0.7862929
47	0x3e821bc1	0.254118
48	0x3ef8bf51	0.48583463
49	0x3f6a0e63	0.914282
50	0x3f185f1c	0.59520125
51	0x3f05b5d8	0.52230597
52	0xbe166c3e	-0.14689729
53	0x3eb1d85e	0.34735388
54	0x3f317446	0.69318044
55	0x3e1dadc5	0.15398319
56	0x3f0ee244	0.55814004
57	0x3f1b0361	0.6055203
58	0xbe5a9118	-0.21344411
59	0x3f8dee3d	1.108833
60	0x3f7ab04b	0.9792525
61	0x3f8fb061	1.1225702
62	0x3e02b822	0.12765554
63	0xbf1d3f64	-0.6142485

se_block_event.1.0.weight f4 [16, 64]
0	0x3cf1bb4c	0.029508255
1	0xbeceeb61	-0.40413955
2	0x3c883c52	0.016630325
3	0xbccb4b86	-0.024816286
4	0x3f79de4c	0.97604823
5	0x3e107d3a	0.1411027
6	0x3e37667e	0.17910191
7	0xbdeae2e2	-0.11469056
8	0x3e1cd957	0.15317284
9	0x3d8ade5e	0.067806944
10	0x3c5c7627	0.013455904
11	0xbe1bcb7c	-0.15214342
12	0x3e906603	0.2820283
13	0xbdd33d07	-0.103143744
14	0xbdb45fd6	-0.08807342
15	0x3f687bff	0.90814203
16	0x3e185421	0.14875843
17	0x3e3a0955	0.18167622
18	0x3e452198	0.19251096
19	0x3f10cded	0.5656422
20	0xbe8f4173	-0.2797962
21	0xbd2aa4e0	-0.041661143
22	0xbe6f18d5	-0.23349316
23	0x3ec2e711	0.38066915
24	0xc0321fcb	-2.7831905
25	0x3ed7839d	0.420926
26	0xbdc7b0b7	-0.097505026
27	0xbfb84c67	-1.4398316
28	0x3ea319c0	0.31855583
29	0xbdf7fcc6	-0.121087596
30	0x3ee378e0	0.44428158
31	0xbf6428a3	-0.89124507
32	0x3dc95f5e	0.09832643
33	0xbbeb9fb0	-0.007190667
34	0x3d8f306c	0.069916576
35	0x3d8f937d	0.07010553
36	0xbb95b855	-0.004569093
37	0x3ce60d56	0.028082531
38	0x3e5e1f65	0.21691664
39	0x3f1e0e0f	0.617402
40	0xbcb623d6	-0.022233885
41	0x3c9a014f	0.018799452
42	0xbddb21b6	-0.10699789
43	0xbed10aa1	-0.40828422
44	0xbd039d16	-0.03213223
45	0xbd9b20d0	-0.07574618
46	0x3ef2ffad	0.4746069
47	0x3e3dffe1	0.18554641
48	0xbf40b4fa	-0.7527615
49	0xbc8590c2	-0.016304377
50	0x39dbc41e	0.00041917054
51	0x3d76b5e2	0.06023205
52	0x3e22f798	0.15914762
53	0x3e4b6cf2	0.19865778
54	0xbe1dfad3	-0.15427713
55	0xbc9f305c	-0.01943224
56	0x3cea938c	0.028634809
57	0x3eeafca2	0.4589587
58	0x3d97d339	0.074133344
59	0xbd8b9cbe	-0.068170056
60	0xbd22320d	-0.039598513
61	0xbefd7d92	-0.49509865
62	0xbe3d76f5	-0.1850241
63	0x3ea5a14c	0.32349622
64	0xbe9af4ee	-0.30264992
65	0xbef53b57	-0.47896835
66	0x3e1a5724	0.15072304
67	0xbdfee401	-0.12445832
68	0x3f5f33e1	0.87188536
69	0x3e9b19bd	0.30293074
70	0x3d157732	0.036490627
71	0xbda966e3	-0.08271577
72	0x3e798d8a	0.24370399
73	0x3e86393f	0.2621555
74	0x3d22f404	0.039783493
75	0xbef1e098	-0.47241664
76	0x3dce15b8	0.10062736
77	0x3de9c441	0.114143856
78	0xbd99ac89	-0.075036116
79	0x3f13ee55	0.5778554
80	0x3e174b66	0.14774856
81	0xbe02c633	-0.1277092
82	0x3e85d530	0.26139212
83	0x3f6f551e	0.93489254
84	0x3ea7266f	0.3264651
85	0x3c5c22bc	0.013436016
86	0xbf2c6078	-0.673347
87	0x3d48425f	0.04889142
88	0xc03120a0	-2.7676163
89	0x3d8235ee	0.063579425
90	0x3ce64dcc	0.028113268
91	0x3eeea783	0.46612176
92	0x3f85fb0e	1.0467241
93	0x3e2a5106	0.1663247
94	0xbda354ff	-0.07975196
95	0x3ed18938	0.40925002
96	0x3da398ea	0.079881504
97	0xbb5cd0ba	-0.0033693747
98	0x3d2c20c2	0.042023428
99	0x3ea57925	0.32318988
100	0xbd5566ac	-0.05209987
101	0xbda6d664	-0.081463605
102	0x3ec26c66	0.37973326
103	0x3efacfa7	0.4898655
104	0xbc1a3553	-0.009412128
105	0x3e47637e	0.19471547
106	0x3d06e97b	0.032937508
107	0x3d9d73e8	0.07688123
108	0x3ec2ace4	0.3802253
109	0x3e806c5b	0.2508267
110	0xbe18ec72	-0.14933947
111	0xbd7dc8bf	-0.061959025
112	0xbe122b04	-0.14274222
113	0x3d3e1d66	0.046414755
114	0xbda6a9c2	-0.081378475
115	0xbe4a6372	-0.19764498
116	0xbf0d42ad	-0.55179864
117	0xbdac8ce2	-0.08425309
118	0xbdbfd28b	-0.0936633
119	0x3e9e9635	0.30973974
120	0xbd7b28d9	-0.061318252
121	0x3eadde4e	0.33958668
122	0x3daa53ee	0.083167896
123	0x3e088459	0.13331737
124	0x3d192115	0.037385065
125	0x3ecdbc51	0.40182737
126	0x3d867b88	0.065665305
127	0x3e16057e	0.14650533
128	0x3d677172	0.056504674
129	0xbd9bdc6a	-0.076104
130	0xbd99477e	-0.07484339
131	0xbeeb2456	-0.4592616
132	0xbea6f5c5	-0.32609382
133	0x3cfea242	0.03108323
134	0x3caf10cf	0.02137032
135	0x3d4ff78c	0.05077319
136	0x3e3cf091	0.18451144
137	0x3e0bc948	0.13651001
138	0x3e88e51d	0.267373
139	0xbd902914	-0.07039085
140	0xbd403908	-0.04692939
141	0xbe0f572f	-0.13998102
142	0x3d249c91	0.040188376
143	0x3eacf2d4	0.33779013
144	0xbe0d9edc	-0.13830131
145	0x3dbd10c6	0.09231715
146	0x3e20846c	0.15675515
147	0xbe04db90	-0.12974381
148	0x3f57cf8b	0.8430106
149	0x3ea7a69a	0.32744294
150	0xbd827698	-0.06370276
151	0xbcb7559d	-0.02237969
152	0xbd37b403	-0.044849407
153	0xbe0d171d	-0.13778348
154	0xbea25add	-0.31709948
155	0x3d372925	0.044716973
156	0x3eb69963	0.356639
157	0xbea1ce16	-0.31602544
158	0xbe4eacd8	-0.20183122
159	0xbefae656	-0.49003857
160	0xbf008aee	-0.5021199
161	0xbdac491b	-0.08412381
162	0x3d2918ee	0.04128354
163	0x3e6a0aa0	0.22855616
164	0xbee5ecf9	-0.44907358
165	0x3e851fc0	0.26000786
166	0xbf1ebede	-0.6200999
167	0x3e1d71dc	0.15375465
168	0xbe55fedc	-0.20898002
169	0x3d9c54db	0.076333724
170	0xbe61867f	-0.22023962
171	0xbeff325e	-0.49843115
172	0x3e397f39	0.18114938
173	0xbde47443	-0.11154988
174	0x3edcd05e	0.43127722
175	0x3ea2cd12	0.3179708
176	0x3f93f392	1.1558707
177	0x3ea2e69c	0.31816566
178	0x3dd81815	0.10551468
179	0x3c671573	0.014104235
180	0xbe03457b	-0.12819473
181	0xbe0c955f	-0.13728856
182	0x3e9c5868	0.305362
183	0x3e9dec38	0.30844283
184	0xbebfb232	-0.3744064
185	0x3ed9fecf	0.42577216
186	0x3d3edbb2	0.046596237
187	0xbedd78fa	-0.4325636
188	0xbe040dd1	-0.12895896
189	0xbebe8915	-0.3721396
190	0x3e570c74	0.21000844
191	0xbeba259d	-0.36356822
192	0xbe303caa	-0.17210642
193	0xbe969978	-0.29413962
194	0x3f3377f0	0.70104885
195	0x3d04b88b	0.032402556
196	0x3ef5d223	0.48011884
197	0x3fc66c0c	1.5501723
198	0x3f877bf6	1.0584705
199	0x3ed6b2af	0.419332
200	0x3e6712c9	0.2256576
201	0x3e0a00a4	0.13476807
202	0x3bb17456	0.0054154797
203	0xbe724e7e	-0.23662755
204	0x3fac5940	1.3464737
205	0xbeacecf5	-0.33774534
206	0xbe765a43	-0.2405787
207	0x3f631c25	0.8871482
208	0x3e6a5944	0.22885615
209	0x3da491a3	0.080355905
210	0x3c3bfb68	0.011473514
211	0xbd729f0b	-0.059233706
212	0xbf1c8c15	-0.6115125
213	0xbe58539f	-0.21125649
214	0xbed41c5e	-0.41427892
215	0xbe939e1c	-0.28831565
216	0x3dafd56e	0.0858563
217	0x3f38d380	0.72197723
218	0xbeb5bcb1	-0.35495523
219	0x3f12e6d9	0.57383496
220	0x3f1ce15f	0.6128139
221	0x3f173842	0.5907022
222	0xbddd371f	-0.10801529
223	0x3f926ac4	1.1438832
224	0x3f8358ce	1.0261476
225	0xbde94ba7	-0.11391383
226	0x3e276027	0.16345273
227	0x3e8e928e	0.27846187
228	0x3e5c1d44	0.21495539
229	0xbee47e49	-0.44627598
230	0x3eca821f	0.395524
231	0x3f80ebce	1.0071962
232	0xbd9c95ba	-0.076457456
233	0x3f2f0697	0.6836943
234	0x3eb42aab	0.35188803
235	0xbe6b4f43	-0.22979455
236	0x3dcfd9e8	0.10148984
237	0xbea03763	-0.31292257
238	0x3f8db643	1.1071247
239	0xbdca4f0e	-0.0987836
240	0xbdb4c728	-0.088270485
241	0x3ee9ead8	0.45686984
242	0x3ebd4bf2	0.36972004
243	0x3a3be30c	0.00071673165
244	0xbeab5ca3	-0.33469114
245	0xbe0f3f68	-0.13989031
246	0xbd7768f3	-0.06040282
247	0x3d0ac473	0.033878755
248	0x3d1c1d34	0.038113788
249	0x3f141698	0.57846975
250	0x3daae623	0.08344676
251	0xbdb51183	-0.08841231
252	0x3dc29903	0.09501841
253	0x3eb7f791	0.35931066
254	0x3f06772f	0.5252561
255	0x3f4f4b4d	0.80974275

se_block_event.1.0.bias f4 [16]
0	0x3efef3aa	0.49795276
1	0x3e3b5f0e	0.18297979
2	0xbf01ba86	-0.5067524
3	0xbf387211	-0.7204905
4	0x3e0702a6	0.13184604
5	0xbf8b575e	-1.0886037
6	0xbec95231	-0.3932052
7	0xbf55bc61	-0.8349057
8	0x3ea2f2c2	0.31825835
9	0xbeb5a649	-0.35478428
10	0x3e4b5b33	0.19859008
11	0xbf4de641	-0.80429465
12	0xbf29fa0f	-0.66397184
13	0xbed8fe7f	-0.42381665
14	0xbf186d53	-0.59541816
15	0xbdd88a37	-0.105732374

se_block_event.1.2.weight f4 [64, 16]
0	0x3ebc6cde	0.3680181
1	0x3d8b568e	0.06803618
2	0x3eddf8c4	0.43353856
3	0x3e6b1cd5	0.22960217
4	0x3e8a5f3a	0.27025777
5	0xbe10f6bc	-0.14156622
6	0xbdc4a43a	-0.09601636
7	0x3f04c4de	0.51862895
8	0x3f2995cd	0.662442
9	0x3e8c1d07	0.27365896
10	0x3d5ec1bc	0.05438398
11	0x3ec7043b	0.38870415
12	0xbf014223	-0.5049154
13	0xbed6030f	-0.4179921
14	0x3e8b8a97	0.27254173
15	0xbe925082	-0.28577048
16	0xbef7c583	-0.48392877
17	0x3f4ebd65	0.80757743
18	0xbf1e4233	-0.6181976
19	0x3ecbf267	0.39833376
20	0x3ecd20e5	0.4006416
21	0x3d3e1b18	0.046412557
22	0xbe48fab6	-0.19626889
23	0x3e319769	0.17342915
24	0xbdc94839	-0.098282285
25	0xbd9ebb36	-0.077505514
26	0xbe430542	-0.19044974
27	0xbf3d1137	-0.7385439
28	0x3ebcba54	0.36860907
29	0xbec7c940	-0.3902073
30	0xbe580bdb	-0.21098273
31	0x3e8b3f52	0.27196747
32	0x3fa66c55	1.300181
33	0x3f97689f	1.1828803
34	0x3fdca21b	1.7236971
35	0x40050fe4	2.079095
36	0x3fe61915	1.7976404
37	0x3f9e9c11	1.2391378
38	0x3fb68449	1.425912
39	0x3f880e8f	1.0629443
40	0x3ffa7f91	1.957018
41	0x3f7b33b7	0.98125786
42	0x3f3fe484	0.7495806
43	0x3fae722f	1.3628596
44	0x3fc40859	1.5315048
45	0x3f988435	1.1915346
46	0x3fe411d8	1.7817945
47	0x3fd0ff97	1.6328
48	0xbf138b4c	-0.57634425
49	0xbed17d98	-0.40916133
50	0x3f0719f5	0.5277398
51	0xbf2b3bfa	-0.6688839
52	0x3d99d75f	0.07511782
53	0x3e4e11a0	0.20123911
54	0xbdcf8fb0	-0.10134828
55	0x3ebc06bd	0.3672389
56	0xbee20cda	-0.4415043
57	0xbecf72ba	-0.40517217
58	0xbe8739b8	-0.26411223
59	0xbe9b3523	-0.30313978
60	0x3e24b3bb	0.16084187
61	0x3d8591da	0.065219596
62	0x3e4cfa37	0.20017324
63	0xbe70ab3e	-0.23502824
64	0xbd856d85	-0.0651503
65	0x3eeda4fb	0.46414933
66	0x3ee45b55	0.4460093
67	0xbd2c70a2	-0.042099603
68	0x3ee5b1e7	0.4486229
69	0x3e085214	0.1331256
70	0x3b079cc1	0.0020692798
71	0xbcb3db72	-0.021955226
72	0xbaf6b6a1	-0.0018822738
73	0x3f0e9e2a	0.5571009
74	0x3ee97248	0.45595002
75	0x3df583bd	0.11988018
76	0x3f30f54e	0.69124305
77	0xbda0db82	-0.07854368
78	0x3e581126	0.21100292
79	0x3e27ceef	0.16387533
80	0x3ea7b1e0	0.32752895
81	0xbecb75b6	-0.39738244
82	0x3d815395	0.0631477
83	0xbf018b13	-0.50602835
84	0x3e0db883	0.13839917
85	0x3e05b1f9	0.13056172
86	0xbd9bec11	-0.076133855
87	0x3eb1d389	0.347317
88	0x3e062047	0.1309825
89	0x3e4133d5	0.18867429
90	0x3ea28a51	0.31746152
91	0xbdb3387d	-0.08751009
92	0x3e65143b	0.22370999
93	0x3e32a44b	0.17445485
94	0x3e1801a3	0.14844374
95	0xbe19e7ad	-0.15029784
96	0x3f258ed5	0.6467107
97	0x3f7f559a	0.9973999
98	0x3dcfb9fb	0.10142895
99	0x3fbe91fc	1.4888301
100	0x3e486015	0.19567902
101	0x3e5c2923	0.21500067
102	0x3f4a0f7b	0.7892987
103	0x3e791ecf	0.24328159
104	0x3f9aba83	1.2088169
105	0x3fb6dbab	1.4285787
106	0x3fb8bb7e	1.4432218
107	0x3ea9cb83	0.3316308
108	0x3f986e99	1.1908752
109	0xbb21e6f9	-0.002470432
110	0x3c603dcc	0.0136866085
111	0x3f589889	0.8460775
112	0x3f2fb927	0.68641895
113	0x3edb3e75	0.42821088
114	0xbeddaeef	-0.43297526
115	0x3f5781bd	0.8418234
116	0x3f6c61f4	0.92336965
117	0x3f5bc4bd	0.85847074
118	0x3f2a0784	0.6641772
119	0x3f83435b	1.025493
120	0x3f1601d8	0.58596563
121	0x3f19f8f6	0.6014551
122	0x3e1c776a	0.15279928
123	0x3e59e345	0.21278103
124	0x3ec88e1c	0.3917092
125	0x3e8b6b0b	0.27230105
126	0xbef70000	-0.48242188
127	0x3f0bbf94	0.545892
128	0x3f21d9e5	0.63223106
129	0x3e539cb8	0.20665252
130	0x3d857e26	0.065182015
131	0x3ed6f981	0.4198723
132	0x3eb1bdb0	0.34715033
133	0x3e776ddd	0.24163003
134	0x3e8ede2b	0.27903876
135	0xbc268bfa	-0.010165209
136	0x3e45f635	0.19332202
137	0x3f078a29	0.5294519
138	0x3d701994	0.058618143
139	0x3e0b9fde	0.13635203
140	0x3d1fbf13	0.039000582
141	0x3ea2ed37	0.31821606
142	0x3e44cf10	0.19219613
143	0x3e674969	0.22586598
144	0x3e99f18e	0.30067104
145	0x3d81e3bb	0.06342264
146	0xbf34e7c0	-0.7066612
147	0x3e67ee2d	0.2264945
148	0x3f851d72	1.0399611
149	0x3df73c0a	0.120719984
150	0x3edb7064	0.42859185
151	0x3db1bdcd	0.0867878
152	0x3f1999ab	0.60000104
153	0xbeaf242a	-0.34207278
154	0x3ede85c4	0.4346143
155	0xbe127230	-0.14301372
156	0x3dd06e2a	0.10177262
157	0xbed4a9a0	-0.41535664
158	0xbe93df61	-0.28881362
159	0x3e8f4a2a	0.2798627
160	0x3fcea844	1.61451
161	0x3f8eda2d	1.1160332
162	0xbda0c12f	-0.07849347
163	0x3f7ec1c3	0.99514407
164	0x3fb44036	1.4082096
165	0x3ec93df6	0.39305085
166	0x3f6a3d4a	0.9149977
167	0x3e4d438a	0.20045295
168	0x3e62433d	0.22095962
169	0x3eb33ce6	0.350074
170	0x3fc7b957	1.5603436
171	0xbea5caa8	-0.32381177
172	0x3f387d62	0.7206632
173	0x3db7d621	0.08976389
174	0xbd9e2e66	-0.077236935
175	0x3f38ccee	0.721877
176	0xbe2c428f	-0.16822265
177	0xbd8464b4	-0.0646452
178	0xbe2b5b0a	-0.16733947
179	0x3f3db4f0	0.74104214
180	0xb9cbef2f	-0.00038897383
181	0xbdf16a58	-0.117878616
182	0x3e9ddd00	0.30832672
183	0x3f48fca7	0.78510517
184	0x3e828d73	0.25498542
185	0xbde97716	-0.11399667
186	0xbe77d3e5	-0.24201925
187	0xbe2febf5	-0.17179854
188	0x3efcaf06	0.49352282
189	0xbee66657	-0.44999954
190	0xbe977595	-0.29581895
191	0x3ec75718	0.38933635
192	0x3fa952ec	1.3228431
193	0x3ee1dade	0.44112295
194	0x3f208e46	0.6271709
195	0x3f8314e3	1.0240749
196	0x3e35b9bd	0.17746635
197	0x3eec74a0	0.46182728
198	0x3f22cf8f	0.6359796
199	0x3f547664	0.8299315
200	0x3f5ffad8	0.8749213
201	0x3f66f8bf	0.90223306
202	0x3f8f1c90	1.1180592
203	0x3efe7ca0	0.49704456
204	0x3f4e5ef5	0.8061364
205	0x3f8c17f2	1.0944808
206	0x3f8b0d7a	1.0863488
207	0x3f80d65c	1.0065417
208	0x3e112b86	0.14176759
209	0x3e9998a5	0.2999927
210	0x3e80b737	0.25139782
211	0x3eac1b1b	0.3361443
212	0x3f889484	1.0670323
213	0x3c379789	0.011205562
214	0x3f0a1911	0.539445
215	0x3f8b9489	1.0904704
216	0x3f8c37d2	1.0954535
217	0x3f431c0b	0.76214665
218	0x3e8c53d8	0.27407718
219	0x3efa0ed5	0.4883944
220	0x3f777c77	0.96674293
221	0x3f07729a	0.52909243
222	0x3e92b878	0.28656363
223	0x3e17b950	0.14816785
224	0x3ec4ead7	0.3846042
225	0x3d52e26f	0.051485475
226	0xbe471228	-0.1944052
227	0x3e279bd2	0.16368034
228	0x3e74959d	0.23885198
229	0x3d56d518	0.052449316
230	0x3e35d31c	0.17756313
231	0x3f0857c6	0.5325893
232	0x3d09d2b9	0.033648226
233	0x3e55926e	0.2085664
234	0x3e6ff69e	0.2343392
235	0x3d58817e	0.05285787
236	0x3ea8d1d8	0.32972598
237	0xbed4a343	-0.4153081
238	0xbec90b6f	-0.39266536
239	0x3e5f5b4e	0.21812174
240	0x3fc503d7	1.5391797
241	0x3f653dd6	0.8954748
242	0x3edd85fe	0.4326629
243	0x3ec42632	0.3831039
244	0x3f10ebf1	0.5661002
245	0x3f0c25ad	0.5474499
246	0x3ef2b929	0.4740689
247	0x3e948df6	0.29014558
248	0x3e617cbd	0.2202024
249	0x3f5c31f3	0.86013716
250	0x3fafb226	1.3726242
251	0x3f06069c	0.52353835
252	0x3f1175d4	0.56820416
253	0x3f2fd5c7	0.68685573
254	0x3f81b9b4	1.0134797
255	0x3f31d572	0.69466317

se_block_event.1.2.bias f4 [64]
0	0xbe907c86	-0.28220004
1	0xbec61947	-0.3869116
2	0x40060671	2.0941432
3	0x3e82966b	0.25505385
4	0x3e94d279	0.29066828
5	0x3e9176d7	0.2841098
6	0xbe3cf96f	-0.18454526
7	0xbf03c4b9	-0.5147205
8	0x3e9cb719	0.30608442
9	0x3e96a0f0	0.2941966
10	0xbebfaad5	-0.37435022
11	0x3e2dd94c	0.16977423
12	0x3f4f136c	0.8088901
13	0x3f15f1aa	0.58571875
14	0x3e2309ef	0.15921758
15	0x3f716d73	0.9430763
16	0xbd78445a	-0.06061206
17	0x3e89e520	0.2693262
18	0x3e30298f	0.17203353
19	0x3ea5c4e9	0.32376793
20	0xbe99d46a	-0.30044872
21	0xbf7cd7e4	-0.9876692
22	0x3e86054c	0.26175916
23	0x3ef1db23	0.472375
24	0xbe526fa9	-0.20550407
25	0x3f81b7f6	1.0134265
26	0x3e1c8d95	0.15288384
27	0x3ff3ab95	1.9036738
28	0x3f46f552	0.7771808
29	0x3f51df01	0.819809
30	0xbc00d1e2	-0.00786254
31	0x3e833b21	0.2563105
32	0x3fcffb9b	1.6248659
33	0x3e0335bd	0.12813468
34	0x3f82651a	1.0187104
35	0x3e963b0a	0.29341918
36	0x3d06bc3c	0.032894358
37	0x3efda0e6	0.49536818
38	0xbef4a0ca	-0.47778922
39	0x3ed46959	0.41486624
40	0x3f48e4d1	0.78474146
41	0xbec2aeeb	-0.38024077
42	0x3de032d5	0.109471954
43	0x3eed4061	0.4633818
44	0xbf15d667	-0.58530277
45	0x3de26969	0.11055262
46	0x3f238fc9	0.63891274
47	0x3ee8d0a9	0.45471695
48	0xbefa4d90	-0.488873
49	0x3fb245b8	1.3927526
50	0xbdb4dd65	-0.0883129
51	0x3d3d022b	0.046144646
52	0x3f14de3e	0.58151615
53	0x3f0af711	0.54283243
54	0xbce24564	-0.027620979
55	0x3f41b4bf	0.7566642
56	0x3f0d8551	0.5528155
57	0x3e3ffd5c	0.18748993
58	0x405fe214	3.4981737
59	0x3fb5dddb	1.420833
60	0x3ef08f8f	0.46984527
61	0x3ee848cc	0.4536804
62	0x3ebca535	0.36844793
63	0x3ef7d943	0.48407945

se_block_event.2.0.weight f4 [16, 64]
0	0xbeb19b05	-0.34688583
1	0xbe3d5349	-0.18488802
2	0x3fa5e763	1.2961239
3	0x3e389728	0.18026412
4	0x3f86032c	1.0469718
5	0x3f6ca8c9	0.92445046
6	0x3fce0207	1.6094369
7	0x3e532954	0.20621234
8	0x3fbef720	1.4919167
9	0xbe0d0340	-0.13770771
10	0xbde0a248	-0.10968453
11	0xbe195a35	-0.14975818
12	0x3ff06486	1.8780677
13	0xbddc3e55	-0.107540764
14	0xbf0282c2	-0.5098077
15	0x3fdf6598	1.7452879
16	0x3f110219	0.56643826
17	0xbe406bed	-0.1879117
18	0xbeacdfe1	-0.33764556
19	0x3fbea18f	1.4893054
20	0x3dc12853	0.09431519
21	0xbd23b9a6	-0.03997197
22	0xbf445c46	-0.767033
23	0x3d97aea0	0.07406354
24	0xbe8dbf44	-0.27684987
25	0x3fc052f3	1.5025314
26	0x3e0948ec	0.13406724
27	0x3f216dc2	0.630581
28	0x3fcd8f70	1.6059399
29	0x3f9d2e62	1.227978
30	0xbd488fd9	-0.04896531
31	0x3f888d79	1.0668174
32	0x3f6ae091	0.9174891
33	0xbda429ac	-0.08015761
34	0xbe8de594	-0.27714217
35	0x3edf5b1a	0.43624192
36	0x3f14e830	0.5816679
37	0xbebbf06f	-0.36706874
38	0x3f64c908	0.8936925
39	0x3fa30f39	1.273902
40	0xbe8ccb67	-0.27498934
41	0x3ec296fd	0.3800582
42	0x3e9957fa	0.29949933
43	0x3e3218de	0.17392299
44	0xbddbb90e	-0.10728656
45	0xbee393d4	-0.4444872
46	0x3fbb7474	1.4644914
47	0xbe73e493	-0.23817663
48	0x3dfcfc2f	0.12352788
49	0xbda691a0	-0.081332445
50	0xbde8b31e	-0.11362289
51	0x3e449535	0.19197543
52	0xbe8ec2d7	-0.27883026
53	0xbc9b442f	-0.01895341
54	0xbd3ca4f1	-0.046055738
55	0x3f611e0b	0.87936467
56	0xbd7da7d1	-0.06192762
57	0xbe9e0f21	-0.30870917
58	0xbdf2218c	-0.11822805
59	0xbd847924	-0.06468418
60	0x3e746326	0.23865947
61	0x3f9c3afd	1.2205502
62	0xbe640302	-0.22266772
63	0x3fafbac1	1.3728868
64	0x3e9c17ba	0.30486852
65	0xbca3f971	-0.020016404
66	0x3f8b665e	1.0890615
67	0xbd28411e	-0.041077726
68	0x3fb293fe	1.3951414
69	0x3f67e3e2	0.90582097
70	0x3fb00632	1.3751891
71	0x3f849fb9	1.0361243
72	0x3fb0ae6a	1.3803227
73	0xbca889c9	-0.020573514
74	0xbe1117dc	-0.14169258
75	0xbd3ace7d	-0.04560708
76	0x3f92af89	1.1459819
77	0xbe60d76d	-0.21957178
78	0x3e47ba10	0.19504571
79	0x3f58c0bd	0.84669095
80	0x3f053757	0.52037567
81	0xbdb9d79c	-0.09074327
82	0xbe452f89	-0.19256414
83	0x3f899525	1.074864
84	0xbdd5b349	-0.104345866
85	0xbd247a16	-0.040155493
86	0xbee6387e	-0.44964975
87	0xbe2fd28e	-0.17170164
88	0xbdd0e89d	-0.102006175
89	0x3f3987a1	0.7247258
90	0x3dfbfc4d	0.12303982
91	0x3f6b1155	0.9182332
92	0x3f61a777	0.88146156
93	0x3ecabe9f	0.39598557
94	0xbdcf07b9	-0.10108895
95	0x3f14964d	0.5804184
96	0x3f4f9dad	0.8109997
97	0x3be734fb	0.0070558763
98	0xbe6afb66	-0.22947463
99	0x3e8f738a	0.28017837
100	0x3ed14582	0.40873343
101	0xbeea8d62	-0.45810992
102	0x3f5a6f79	0.85326344
103	0x3f28a2c4	0.6587336
104	0xbd00aa98	-0.03141269
105	0x3ef296fb	0.47380814
106	0x3bcf4ded	0.006326428
107	0x3db9508d	0.09048567
108	0x3d88193a	0.066454366
109	0xbea1ef16	-0.3162772
110	0x3f9bed90	1.2181873
111	0xbe4460f7	-0.19177614
112	0x3c6ed19b	0.014576341
113	0x3dbdac03	0.09261324
114	0xbe05108a	-0.1299459
115	0x3e8905db	0.2676228
116	0xbe8c60c0	-0.27417564
117	0xbe5314e5	-0.2061344
118	0xbd16fd53	-0.036862683
119	0x3f9a86d9	1.2072402
120	0x3d1fcc96	0.039013468
121	0x3e52cc54	0.20585757
122	0xbe081925	-0.13290842
123	0x3e078ada	0.13236561
124	0xbc928538	-0.01788579
125	0x3f262025	0.648928
126	0x3f24add4	0.6432774
127	0x3fb10f63	1.3832821
128	0x3e6127ab	0.21987788
129	0x3e95fb93	0.29293498
130	0x3d3ac8f4	0.0456018
131	0xbf011fee	-0.50439346
132	0xbe9e4fc6	-0.30920237
133	0xbeeff497	-0.46866295
134	0xbeb0d253	-0.34535465
135	0x3f3e0535	0.74226695
136	0xbd7aa90e	-0.06119638
137	0x3dde62cf	0.1085869
138	0xbe986ad2	-0.29768997
139	0x3eaeef1e	0.34166807
140	0xbe6e4374	-0.23267919
141	0x3e3068f5	0.17227538
142	0x3d79edd2	0.06101782
143	0xbe778afa	-0.24174109
144	0xbd1187e3	-0.035529982
145	0x3ebe6940	0.37189674
146	0xbcf2fb10	-0.029660732
147	0xbf0cc47a	-0.549873
148	0x3ea5c138	0.32373977
149	0x3b9cf4a8	0.0047899075
150	0xbded8a12	-0.115986004
151	0x3d46db03	0.04854871
152	0xbd6fa4fd	-0.058506954
153	0x3d9c8b57	0.076437645
154	0x3f21c427	0.6318993
155	0x3e2ad99c	0.16684574
156	0xbf8def0b	-1.1088575
157	0x3efe4e2d	0.49669018
158	0x3e640046	0.2226573
159	0x3c16b61b	0.009198691
160	0x3e3e8824	0.18606621
161	0xbdc1d73c	-0.09464881
162	0xbd952bbe	-0.07283734
163	0x3e74d153	0.23907976
164	0xbeeed0dd	-0.46643725
165	0x3dbe9ac9	0.09306867
166	0x3ed232c4	0.41054356
167	0xbd739488	-0.059467822
168	0xbf6363c2	-0.88824093
169	0x3ecde598	0.4021423
170	0x3f015808	0.5052495
171	0x3f2b4345	0.6689952
172	0xbe35044b	-0.17677419
173	0xbc0f6b9e	-0.008753685
174	0xbf102c7b	-0.5631787
175	0xbe98e061	-0.29858688
176	0x3f3e8b45	0.7443126
177	0x3e2de267	0.16980897
178	0x3e031b94	0.12803489
179	0x3f1853e8	0.5950303
180	0x3e8179f3	0.25288352
181	0x3f5ff7d6	0.8748754
182	0xbde15e18	-0.11004275
183	0xbdaa62d3	-0.083196305
184	0xbd88c821	-0.066787966
185	0xbd1a4fc7	-0.037673738
186	0xbbc505e8	-0.006012667
187	0x3d5ee883	0.05442096
188	0x3e469ac6	0.19394979
189	0xbda4fbf2	-0.08055867
190	0x3e4f1203	0.20221715
191	0xbeebaff0	-0.46032667
192	0x3de8846f	0.11353385
193	0x3d10feea	0.035399355
194	0x3f87f736	1.0622318
195	0xbd61ca01	-0.055124287
196	0x3fce4c13	1.6116966
197	0x3fafa4a1	1.3722116
198	0x3fd69d58	1.6766768
199	0x3edf5fec	0.4362787
200	0x3f93ae4c	1.1537566
201	0xbe50f7f6	-0.2040709
202	0xbd641cb1	-0.055691425
203	0x3ca9ce7d	0.020728344
204	0x3f9c5bd0	1.2215519
205	0x3d87ae38	0.066250265
206	0xbeba3608	-0.36369348
207	0x3f899698	1.0749083
208	0x3f11e6af	0.5699262
209	0x3f00b62e	0.50277984
210	0xbe6081d6	-0.21924528
211	0x3f3f4113	0.7470867
212	0x3ec88162	0.3916121
213	0x3d11e4ac	0.03561847
214	0xbf1bb3fa	-0.608215
215	0xbeb31eb3	-0.3498436
216	0xbe08f713	-0.13375501
217	0x3fb21202	1.3911746
218	0x3e8cf989	0.2753413
219	0x3eb878a3	0.3602954
220	0x3f0b8cca	0.545117
221	0x3f47328d	0.7781151
222	0x3d4c8e69	0.0499405
223	0x3f41f2db	0.75761193
224	0x3ed65889	0.41864422
225	0x3e84af3e	0.2591495
226	0xbeea9f00	-0.45824432
227	0x3e53abd4	0.20671016
228	0x3f2112c7	0.62919277
229	0xbe2fa138	-0.17151344
230	0x3f47e247	0.78079647
231	0x3fa6da79	1.3035423
232	0x3ef990b2	0.48743206
233	0x3f01dc20	0.5072651
234	0x3ea5f151	0.32410672
235	0x3ece7f8c	0.40331686
236	0xbea708c0	-0.32623863
237	0xbf378692	-0.71689713
238	0x3f5fd500	0.8743439
239	0xbe69762f	-0.2279899
240	0xbdc86ca9	-0.0978635
241	0x3e95b977	0.2924306
242	0x3e9933b7	0.29922268
243	0x3d0255e2	0.031820185
244	0xbebd2a6e	-0.36946434
245	0xbe0ab12b	-0.13544147
246	0xbe986c02	-0.29769903
247	0x3eee3e63	0.46531972
248	0xbe978048	-0.29590058
249	0x3ed76d20	0.42075443
250	0x3df258cd	0.11833344
251	0xbe0b3fc9	-0.13598551
252	0x3e52411b	0.20532648
253	0x3fa90309	1.3204051
254	0xbc5fd947	-0.013662643
255	0x3f18c200	0.5967102

se_block_event.2.0.bias f4 [16]
0	0xbfa8473f	-1.3146743
1	0xbfab67c6	-1.3391044
2	0xbf954936	-1.1662967
3	0xbf808965	-1.004193
4	0xbf3e0413	-0.74224967
5	0xbf6b9a7e	-0.9203261
6	0x3e8fe06f	0.28100917
7	0x3eec0695	0.46098772
8	0xbfc94ecd	-1.5727173
9	0xbedde53f	-0.43338963
10	0xbef6a876	-0.481754
11	0x3ef943ff	0.4868469
12	0x3eb21ad2	0.34786087
13	0xbe315345	-0.17316921
14	0xbf9d251a	-1.2276947
15	0xbf4c29fa	-0.7975155

se_block_event.2.2.weight f4 [64, 16]
0	0x3e47d2cf	0.19514011
1	0x3e373805	0.17892464
2	0xbaee147a	-0.0018164061
3	0xbeba3d25	-0.36374775
4	0x3ec71450	0.38882685
5	0xbd68ee68	-0.056867987
6	0x3e0b5a56	0.13608679
7	0xbcaf7520	-0.021418154
8	0x3e811c0f	0.2521672
9	0xbf4714e5	-0.7776626
10	0x3ede30c1	0.4339657
11	0xbe29f8e9	-0.16598858
12	0x3ec5b4c6	0.38614482
13	0xbe851d2e	-0.25998825
14	0x3f3a3973	0.7274391
15	0xbe0225c7	-0.12709723
16	0x3e970255	0.29493967
17	0x3f3ea82c	0.7447536
18	0xbe36a0ca	-0.17834774
19	0x3e952842	0.29132277
20	0x3e6d6ea8	0.23186743
21	0xbe5be3aa	-0.21473566
22	0x3f31f1f5	0.6950982
23	0x3e7ae495	0.2450126
24	0xbe2968b1	-0.16543843
25	0xbdaf2bf9	-0.08553309
26	0xbdd60985	-0.104510345
27	0x3ea102c6	0.31447428
28	0xbd86f47d	-0.06589601
29	0x3f05d136	0.52272356
30	0x3df6d48d	0.120522596
31	0xbe55d02e	-0.20880195
32	0x3fa6cb82	1.3030856
33	0x4000fe35	2.0155156
34	0x3ecfe20e	0.40602154
35	0x3fc01d67	1.5008973
36	0x3f920de3	1.1410488
37	0x3eda9b5b	0.42696652
38	0x3fb8a330	1.4424801
39	0x3fa942b6	1.3223484
40	0x3d523b35	0.051325995
41	0x3fb18389	1.3868266
42	0x3efe6560	0.49686718
43	0x3f235935	0.63807994
44	0x3fa19474	1.2623429
45	0x3fa3d79b	1.2800173
46	0x3ff8f6bb	1.9450296
47	0x3f40d86c	0.75330234
48	0xbe22f87a	-0.15915099
49	0xbd682bbb	-0.05668233
50	0x3e6d6701	0.23183824
51	0xbed43391	-0.41445592
52	0xbf2c0563	-0.6719572
53	0x3ddb67ee	0.107131824
54	0x3e8a45b6	0.2700631
55	0x3ed93ff6	0.4243161
56	0x3e88cd81	0.26719287
57	0x3e6eff05	0.2333947
58	0x3f0b4616	0.5440382
59	0x3d3d6b7c	0.046245083
60	0xbd8585af	-0.06519639
61	0x3ca9b7a5	0.020717451
62	0x3d9e276b	0.07722362
63	0xbd6bff40	-0.057616472
64	0x3e5df3cd	0.21675034
65	0x3e28e7f7	0.16494738
66	0x3f41bb7a	0.7567669
67	0x3e63edb9	0.22258653
68	0x3f035722	0.5130483
69	0x3f5812f2	0.8440391
70	0x3f0d48df	0.5518932
71	0x3f6ae832	0.9176055
72	0x3f9bc0ca	1.216821
73	0x3ef1fa93	0.47261485
74	0x3f83f3a6	1.0308731
75	0x3f6dabae	0.9284009
76	0x3f802286	1.0010536
77	0x3f0a25d7	0.5396399
78	0x3ec63b99	0.38717344
79	0x3f3473fb	0.7048947
80	0x3efc9263	0.49330434
81	0x3fb7b01d	1.435062
82	0x3f4477d4	0.76745343
83	0x3f3cb391	0.73711497
84	0x3ee64e70	0.44981718
85	0x3fad4a72	1.3538344
86	0x3f8b978f	1.0905627
87	0x3fac50cc	1.3462157
88	0x3e218da1	0.15776683
89	0x3f294140	0.6611519
90	0x3f134ed9	0.57542187
91	0x3f564e37	0.83713096
92	0x3fcc754d	1.5973297
93	0x3ecef054	0.4041773
94	0x3ed6ecc2	0.41977507
95	0x3ea2957a	0.31754667
96	0x3f40fe8e	0.7538842
97	0x3fac006e	1.3437631
98	0x3ef94364	0.48684227
99	0x4006f04b	2.1084163
100	0x3f8e6379	1.1124107
101	0x3f1011a0	0.56276894
102	0x3fe1694a	1.7610257
103	0x4022692e	2.5376697
104	0x3ed97762	0.42473894
105	0x3f3de262	0.7417356
106	0x3ede4684	0.43413174
107	0x3edcdd0b	0.43137392
108	0x3f13c333	0.57719725
109	0x3fe209c4	1.765923
110	0x3f70728c	0.93924785
111	0x4001bc4a	2.0271173
112	0x3f025ec5	0.50925857
113	0x3f9947de	1.1975057
114	0x3faee336	1.3663089
115	0x3f9005f0	1.1251812
116	0x3fa2a236	1.2705753
117	0x4042f30b	3.0460842
118	0x3f5b7bad	0.8573559
119	0x3fdb1bc8	1.7117853
120	0x3fe068ab	1.7531942
121	0x3fe9a7fc	1.825439
122	0x400b6ae3	2.1783988
123	0x4007acc1	2.119919
124	0x4013e95e	2.3111186
125	0x400492b0	2.071453
126	0x3f968495	1.1759211
127	0x3fd98094	1.6992364
128	0x3f3ddf13	0.7416851
129	0x3f20a5dc	0.6275308
130	0x3f8d0ffa	1.1020501
131	0x3fc7cade	1.5608785
132	0x3fb6ecee	1.4291055
133	0x3f0d92f2	0.55302346
134	0x3f58ff1c	0.84764266
135	0x3f9391e5	1.1528898
136	0x3e053781	0.13009454
137	0x3f25b5be	0.6473044
138	0x3f3ddc74	0.7416451
139	0x3e5dac0c	0.21647662
140	0x3ed34d4e	0.41269916
141	0x3f126e8f	0.5719995
142	0x3f458b1c	0.7716539
143	0x3f783975	0.9696267
144	0x3efe22dd	0.49635974
145	0x3e5e3d0e	0.21702978
146	0xbf042a4b	-0.51627034
147	0xbf491f9a	-0.78563845
148	0x3d3c8fb3	0.04603548
149	0xbe6efb6e	-0.233381
150	0x3f809630	1.0045834
151	0x3e73b1d1	0.237983
152	0xbec6005a	-0.38672143
153	0xbf253d88	-0.64547014
154	0x3d09b44b	0.033619206
155	0x3e1f1bdf	0.15537976
156	0x3ef02039	0.46899584
157	0x3f0a057e	0.5391463
158	0x3e4db316	0.20087847
159	0xbdcf14b0	-0.10111368
160	0x3d7e7476	0.062122785
161	0x3d21f1c8	0.03953722
162	0xbd5911f6	-0.052995645
163	0x3e66ebea	0.22550932
164	0xbcd364a6	-0.025804829
165	0x3e6eda7b	0.23325531
166	0x3d95b7ad	0.07310424
167	0x3d7d7049	0.06187466
168	0xbe2b2f44	-0.16717249
169	0x3c84eac1	0.01622522
170	0x3c43ec56	0.011958202
171	0x3dbbb14b	0.09164675
172	0x3d50806d	0.050903726
173	0xbe347813	-0.1762393
174	0x3ec89a72	0.39180332
175	0xbdf3ba5b	-0.11900779
176	0xbbe500ae	-0.0069886064
177	0xbdc7bacb	-0.09752425
178	0xbe44af01	-0.19207384
179	0xbf1de3e7	-0.61675876
180	0x3f2d9968	0.67812204
181	0x3ab14b0a	0.0013526392
182	0x3f14cb80	0.58123016
183	0x3da960cb	0.08270415
184	0x3e7fcad6	0.2497972
185	0xbd7db325	-0.061938424
186	0xbe2bdb9e	-0.16782996
187	0x3e748125	0.2387739
188	0xbe05899a	-0.13040772
189	0x3e8b8bb1	0.27255014
190	0x3e0e854c	0.13918036
191	0x3ddec762	0.10877873
192	0x3eedf6af	0.46477267
193	0x3f664c1e	0.89959896
194	0x3f56cd88	0.83907366
195	0x3f60603b	0.87646836
196	0x3f832425	1.0245405
197	0x3f3860fd	0.7202299
198	0x3f41e5db	0.75741357
199	0x3f50dca0	0.8158665
200	0x3f097d84	0.53707147
201	0x3fd011c4	1.6255422
202	0x3f6fca5d	0.93668157
203	0x3f3017ad	0.68786126
204	0x3f859385	1.0435644
205	0x3f8517b8	1.0397863
206	0x3fa2365b	1.2672838
207	0x3f7de123	0.99171656
208	0x3f210ad7	0.62907165
209	0x3e919695	0.28435197
210	0x3f9ebf51	1.2402135
211	0x3fd114a0	1.6334419
212	0x3fc48cde	1.5355489
213	0x3ffeaa35	1.9895693
214	0x4007091e	2.1099315
215	0x400a2d85	2.1590283
216	0x3fc8fc22	1.5701945
217	0x3fff89e1	1.9963952
218	0x3fdfa1d7	1.7471265
219	0x40431455	3.048116
220	0x4003f114	2.0615892
221	0x3ffdaec4	1.9818959
222	0x3e8a78c9	0.27045277
223	0x3f55dcf3	0.83540267
224	0x3dd07865	0.101792134
225	0x3d9c9a81	0.07646657
226	0xbc390b3d	-0.011294183
227	0x3ed95d49	0.42453983
228	0x3e7d8b35	0.24760135
229	0xbebaf3b1	-0.36514047
230	0xbd9fc917	-0.07802027
231	0x3ed3d8ab	0.41376242
232	0x3d37334f	0.044726666
233	0x3ec5e9e6	0.38655013
234	0xbeb11a96	-0.34590596
235	0xbe8f2a89	-0.2796214
236	0x3e560578	0.20900524
237	0xbecbeef5	-0.39830747
238	0xbc8ceda4	-0.01720316
239	0x3ef16815	0.4714972
240	0x3f523c04	0.82122827
241	0x3e9c91ec	0.3058008
242	0x3f3e67dd	0.7437723
243	0x3f830a09	1.0237437
244	0x3ea4ba4d	0.32173386
245	0x3f85446a	1.0411503
246	0x3f76c01d	0.9638689
247	0x3fc008f5	1.5002733
248	0x3f0a47e8	0.5401597
249	0x3fa2eb60	1.2728081
250	0x3f61860f	0.8809518
251	0x3fc2ce8b	1.5219282
252	0x3fdcd960	1.7253838
253	0x3f4bc673	0.79599684
254	0x3f20a951	0.62758356
255	0x3f12eb39	0.5739017

se_block_event.2.2.bias f4 [64]
0	0x3f1a96db	0.6038644
1	0x3f2e18e2	0.6800672
2	0x3e69db13	0.22837476
3	0x3eea89cb	0.45808253
4	0x3f566370	0.8374548
5	0x3ef22a65	0.4729797
6	0x3eae0d7c	0.33994663
7	0x4018cae0	2.3873825
8	0x3ed4de54	0.41575873
9	0x3fbb4079	1.462905
10	0x3f7d6dc1	0.98995596
11	0xbe86c5fe	-0.2632293
12	0x3f8902fa	1.0704033
13	0x401b592c	2.4273176
14	0x3eb36263	0.35036
15	0x3f15fcb7	0.5858874
16	0x3fc07d05	1.5038153
17	0x3f4b6355	0.79448444
18	0x3f1ef741	0.6209603
19	0x3f84d622	1.0377848
20	0xbe62ef36	-0.22161564
21	0xbd355593	-0.044271063
22	0xbf22b0e0	-0.6355114
23	0x3fdd4cd9	1.7289077
24	0x3fad8154	1.3555093
25	0x3edc4f44	0.43029225
26	0x3efb88a3	0.49127683
27	0x3f550a70	0.8321905
28	0x3f054522	0.52058613
29	0x3fa5c4af	1.2950648
30	0x3f5ce917	0.86293167
31	0x401dc44a	2.4651055
32	0x3f81875b	1.0119432
33	0xbce5cd8c	-0.028052114
34	0x4059c61a	3.4027162
35	0x3f100d62	0.5627042
36	0x3f737b2a	0.9510981
37	0x3f51c8fc	0.819473
38	0x3f0cdddc	0.5502603
39	0x3f8f1801	1.11792
40	0x3fa4228a	1.282304
41	0x3f01cfbc	0.507076
42	0xbe179b12	-0.14805248
43	0x3f9fafac	1.2475486
44	0x3e81444d	0.25247422
45	0x3fdcb69f	1.7243232
46	0x3db2022e	0.08691822
47	0x3ea5cc24	0.3238231
48	0xbe90995f	-0.28242013
49	0x3f97689a	1.1828797
50	0x3f3ceb17	0.7379622
51	0x3ec90558	0.3926189
52	0x3fac319e	1.3452642
53	0x3f0f3ea4	0.55954957
54	0x3f1e00d7	0.6172003
55	0x3f474ccb	0.7785155
56	0x3fa8bfe0	1.3183556
57	0xbe94c95d	-0.29059878
58	0x3ef6d8c0	0.48212242
59	0x3f6e5749	0.93101937
60	0x3fe9d900	1.8269348
61	0x3f9a48dc	1.2053485
62	0x40397a51	2.8980906
63	0x3f86dff6	1.0537097
