parameters/deephit_model_2D_CNN.pth (torch, 189357 bytes, 37 tensors)

se_block.0.weight f4 [4, 17]
-0.19969793 -0.045567326 0.008244715 -0.11381136 -0.026294267 -0.064079694 0.0222591 -0.10236623
-0.015010717 0.0601951 -0.07199079 -0.015629977 -0.1079055 0.04473155 0.007034855 -0.098769456
0.16173118 -0.050898075 0.0033305811 -0.17007679 -0.12516107 -0.25561342 -0.1639435 -0.19474077
-0.08903058 -0.2396125 -0.14327906 0.06466317 -0.23085631 -0.26214787 -0.07599664 0.013250709
-0.074988805 -0.17935428 -0.13506076 0.50408995 0.20226352 -0.20643131 -0.1546063 -0.3066648
0.1543491 0.44871727 -0.3413188 0.16325514 -0.005383127 0.12369057 0.68357515 -0.0058641084
-0.038399532 0.044635665 -0.12878859 0.13763817 0.32569072 0.36213094 0.14487068 -0.029819142
0.119892254 0.3958573 0.019224985 0.06257626 0.13784397 0.045686178 -0.052325577 0.36711735
0.035256226 0.027887031 0.08666626 -0.026058841
00000000: 9d7d 4cbe cea4 3abd d714 073c ee15 e9bd
00000010: 1367 d7bc 373c 83bd b758 b63c 63a5 d1bd
00000020: 83ef 75bc 238f 763d e86f 93bd 700a 80bc
00000030: 8ffd dcbd 6e38 373d a484 e63b a447 cabd
00000040: dc9c 253e 807a 50bd e145 5a3b 9c28 2ebe
00000050: 392a 00be c3df 82be cee0 27be 206a 47be
00000060: aa55 b6bd fb5c 75be bfb7 12be 206e 843d
00000070: 9965 6cbe 3f38 86be 20a4 9bbd 8019 593c
00000080: bb93 99bd a6a8 37be 5e4d 0abe 0a0c 013f
00000090: 2b1e 4f3e bb62 53be 1d51 1ebe 2b03 9dbe
000000a0: b10d 1e3e 45be e53e 56c1 aebe 5b2c 273e
000000b0: f164 b0bb 7b51 fd3d c8fe 2e3f b527 c0bb
000000c0: d448 1dbd e3d3 363d 28e1 03be 05f1 0c3e
000000d0: efc0 a63e 3a69 b93e fb58 143e 4647 f4bc
000000e0: 128a f53d cfad ca3e b77d 9d3c fb27 803d
000000f0: f826 0d3e 6e21 3b3d 5853 56bd cef6 bb3e
00000100: d568 103d 5873 e43c 157e b13d 5a79 d5bc

se_block.0.bias f4 [4]
-0.011653968 0.005600147 0.69492024 -1.2400275
00000000: 49f0 3ebc 7081 b73b 4be6 313f 39b9 9ebf

se_block.2.weight f4 [17, 4]
-0.46056202 0.42635334 -0.019636402 -0.0014568394 -0.1640928 -0.23866503 -0.40283966 0.0234606
0.14116216 -0.39081696 -0.10752544 0.2658112 -0.30857876 0.44194123 0.040055376 -0.22453366
-0.025591288 -0.3701149 0.14922287 -0.2366868 0.298617 -0.42594972 -0.050235372 -0.21304429
-0.102461904 -0.07876194 0.8155 1.0815498 0.35875624 0.14983784 0.4127685 -0.23093916
0.43520615 0.49881226 0.021085473 -0.20886171 0.10054223 -0.4278003 1.5621486 1.1951753
0.042715073 0.1699493 -0.11654938 -0.18553855 -0.22795667 0.0013056754 -0.052961066 -0.14722969
0.34106496 0.44590116 2.2268655 1.0796925 0.028268926 0.32362145 0.025935045 -0.18815438
-0.093429565 0.11117297 0.01253064 -0.22775279 0.262461 -0.15258904 -0.04124656 -0.13874577
0.42833927 0.5697482 0.058263183 -0.19930065
00000000: c9ce ebbe fc4a da3e 85dc a0bc 6bf3 beba
00000010: f107 28be 9b64 74be 0041 cebe 7230 c03c
00000020: d08c 103e 2919 c8be 4c36 dcbd 6818 883e
00000030: 09fe 9dbe 1f46 e23e 1b11 243d 27ec 65be
00000040: d2a4 d1bc b37f bdbe e1cd 183e 065e 72be
00000050: 54e4 983e 1516 dabe 9bc3 4dbd 4828 5abe
00000060: 8cd7 d1bd f14d a1bd 9cc4 503f 3970 8a3f
00000070: e6ae b73e 176f 193e 6556 d33e 517b 6cbe
00000080: 57d3 de3e 5264 ff3e 71bb ac3c d8df 55be
00000090: 16e9 cd3d a408 dbbe 7cf4 c73f 81fb 983f
000000a0: 00f6 2e3d 3007 2e3e 71b1 eebd d1fd 3dbe
000000b0: 796d 69be 3223 ab3a b4ed 58bd 61c3 16be
000000c0: 11a0 ae3e 284d e43e f784 0e40 5d33 8a3f
000000d0: 3c94 e73c b6b1 a53e bb75 d43c 8bab 40be
000000e0: 0058 bfbd a7ae e33d 504d 4d3c 0738 69be
000000f0: 4a61 863e 4d40 1cbe 27f2 28bd 5f13 0ebe
00000100: 494f db3e 05db 113f 60a5 6e3d 7815 4cbe

se_block.2.bias f4 [17]
-0.1876127 0.3111752 0.5004047 1.3101366 0.2817284 0.4560973 0.26847905 0.02342621
0.44046593 1.2143313 0.0016310445 0.25217274 1.2091203 0.1417086 -0.10929964 -0.047521275
-0.3701263
00000000: 8b1d 40be 5b52 9f3e 861a 003f 8eb2 a73f
00000010: b43e 903e 9685 e93e 1676 893e 53e8 bf3c
00000020: c084 e13e 356f 9b3f c6c8 d53a c91c 813e
00000030: 74c4 9a3f 0f1c 113e 7dd8 dfbd aba5 42bd
00000040: 3281 bdbe

se_block_event.0.0.weight f4 [16, 64]
0.28607604 -0.0947009 -0.4432739 -0.04965008 0.27681962 -0.25518695 0.31128708 -0.43740118
0.11592828 -0.13827342 -0.9057641 -0.20179893 -0.100972846 0.05282536 0.0018592797 0.13500944
-0.108804025 0.12864712 -0.074144036 -0.32857713 -0.058435317 0.13025184 -0.045427285 -0.51264954
-0.08763552 -0.13014372 0.5223674 0.07376289 -0.10612977 -0.014814417 0.20434049 -0.8301179
0.16411175 0.09922769 0.054676913 0.12925026 -0.065782286 -0.3254151 0.022933189 -0.09257625
0.65954345 -0.24261221 0.33696812 -0.10980592 0.048379924 0.31909275 -0.26644495 -0.3293351
-0.29374892 0.10472086 0.012487907 0.13313688 -0.030910019 0.22902606 -0.045276426 0.14244835
-0.103817895 -0.56990564 -0.4725333 0.07011421 0.3733611 0.08480995 0.40154973 -0.08162697
0.22689572 0.1160455 0.00015246365 0.009546621 0.41483858 0.22813305 0.14795087 -0.054913238
0.012782385 -0.02888076 0.094402075 0.15773982 -0.020522317 0.14964966 0.021921828 -0.15447813
-0.066262044 0.105835214 -0.12628509 -0.018085042 -0.09787161 -0.0209608 0.2216488 0.26367146
0.034442525 -0.013354072 -0.100232825 -0.04979351 0.1242348 0.0069589117 -0.01775417 0.12194638
-0.021901224 -0.01614787 -0.06770951 -0.15656449 0.25065532 0.1283451 0.22800949 0.2925823
0.22752339 -0.30851227 0.0043140724 0.1264608 0.37429625 0.15223399 0.13088544 0.19574745
0.02104417 -0.33301672 0.059945494 -0.2927394 0.11149993 -0.010267137 -0.09027019 0.16542941
-0.22320525 -0.036885224 0.10186265 -0.056815673 0.20121157 -0.1780761 0.08821129 -0.442918
0.2362005 0.07520351 0.036222856 0.19061416 -0.009776331 -1.2061801 -0.09291123 0.1303372
-0.07091976 -0.105475284 -0.23244199 0.5703576 -0.51018476 -0.03740105 -0.09428638 0.08214124
-0.0641445 0.15666232 -0.041281395 -0.172876 -0.42796376 -0.66918224 0.21991538 0.26834565
0.147149 0.08893122 0.038201537 0.06450534 0.086431235 0.15283187 -0.06698362 -0.05464451
0.102385975 -0.8617859 -0.033381645 -1.0302299 0.32472235 -0.6300599 0.24712679 -0.48638967
-0.56235135 -0.6082883 0.026883567 0.10423172 0.054789975 -0.5291521 -0.7454186 -0.11954255
-0.03920728 -0.104408026 0.34020883 -0.2516748 0.013188837 -0.015107942 -0.009088635 0.71427244
-0.035296712 -0.6812832 0.012404852 -0.8475514 0.40435228 -0.44982734 -0.08714937 -0.14004195
-0.0632975 0.2907679 -0.3416608 -0.4378784 -0.0591963 0.19021545 -0.34996006 -0.001708476
-0.00033481733 -0.21463875 -0.7589004 -0.13643895 0.13555796 -0.8024462 -0.26385462 0.02007287
0.32453454 -0.045999747 0.20270292 -0.021383153 0.018534886 0.07352426 0.46195093 -0.29811555
-0.38266128 0.008874892 -0.023573283 -0.036879458 0.328599 0.025296243 -0.09781471 -0.5456308
0.08294471 -0.8367613 -0.29628956 0.21365276 -0.21630734 0.42453814 0.27641702 0.08393926
0.19480999 0.08165709 0.23000385 -0.030357871 -0.33216903 0.030988116 0.46998283 0.005470254
0.20107114 -0.17875528 -0.20197912 0.09627181 0.41452813 -0.27307096 -0.548393 0.25390628
0.250879 -0.3713634 0.28122583 0.13443093 -0.088818505 -0.07604227 0.6827456 -0.3529964
00000000: 8f78 923e 8cf2 c1bd ccf4 e2be e25d 4bbd
00000010: 4dbb 8d3e dda7 82be 0561 9f3e 0cf3 dfbe
00000020: ce6b ed3d 8c97 0dbe 28e0 67bf 61a4 4ebe
00000030: daca cebd 685f 583d 13b3 f33a ea3f 0a3e
00000040: a5d4 debd 12bc 033e d4d8 97bd 433b a8be
00000050: df59 6fbd bd60 053e f611 3abd 003d 03bf
00000060: 407a b3bd 6544 05be dfb9 053f 0011 973d
00000070: 915a d9bd 2bb8 72bc a23e 513e 9b82 54bf
00000080: e90c 283e e337 cb3d e6f4 5f3d 2e5a 043e
00000090: ddb8 86bd cf9c a6be 62de bb3c 9e98 bdbd
000000a0: d7d7 283f 566f 78be 1687 ac3e ede1 e0bd
000000b0: 072a 463d 2060 a33e 796b 88be 9c9e a8be
000000c0: 4266 96be e477 d63d 149a 4c3c 0955 083e
000000d0: 0237 fdbc cf85 6a3e c673 39bd fbdd 113e
000000e0: 7a9e d4bd 56e5 11bf e2ef f1be 0a98 8f3d
000000f0: 3029 bf3e d7b0 ad3d ed97 cd3e 0a2c a7bd
00000100: 5a57 683e 43a9 ed3d a6de 1f39 6e69 1c3c
00000110: b965 d43e b69b 693e 6f80 173e b4ec 60bd
00000120: 356d 513c 5897 ecbc e055 c13d 8c86 213e
00000130: 6b1e a8bc c33d 193e 6895 b33c 842f 1ebe
00000140: 65b4 87bd 22c0 d83d e150 01be 1527 94bc
00000150: e970 c8bd fcb5 abbc e7f7 623e f2ff 863e
00000160: 9b13 0d3d 0acb 5abc de46 cdbd 48f4 4bbd
00000170: d16e fe3d 9507 e43b 3171 91bc 06bf f93d
00000180: 326a b3bc 8a48 84bc 49ab 8abd 7152 20be
00000190: e555 803e e66c 033e 527b 693e 59cd 953e
000001a0: e4fb 683e 52f5 9dbe 105d 8d3b f17e 013e
000001b0: c2a3 bf3e 3ae3 1b3e d506 063e 0572 483e
000001c0: d364 ac3c 2b81 aabe 6889 753d f0e1 95be
000001d0: 135a e43d 7e37 28bc 94df b8bd 5466 293e
000001e0: eb8f 64be f614 17bd 5d9d d03d 8db7 68bd
000001f0: 680a 4e3e 9559 36be 1fa8 b43d 26c6 e2be
00000200: 8bde 713e 4c04 9a3d 6b5e 143d 5c30 433e
00000210: e72c 20bc 1c64 9abf 3e48 bebd 1d77 053e
00000220: 613e 91bd 6d03 d8bd 4605 6ebe f502 123f
00000230: 789b 02bf d831 19bd 3819 c1bd ab39 a83d
00000240: 315e 83bd 166c 203e ae16 29bd 6806 31be
00000250: 111e dbbe 874f 2bbf 7f31 613e 9a64 893e
00000260: 3aae 163e 9221 b63d 3779 1c3d 601b 843d
00000270: dc02 b13d f57f 1c3e b52e 89bd ecd2 5fbd
00000280: bdaf d13d 009e 5cbf 31bb 08bd 93de 83bf
00000290: 0242 a63e 9b4b 21bf ce0e 7d3e 1108 f9be
000002a0: 42f6 0fbf c8b8 1bbf ed3a dc3c 7177 d53d
000002b0: 746b 603d 8376 07bf c1d3 3ebf b9d2 f4bd
000002c0: d097 20bd e0d3 d5bd da2f ae3e 85db 80be
000002d0: fe15 583c 4d87 77bc 80e8 14bc 8fda 363f
000002e0: 4993 10bd 9368 2ebf b83d 4b3c 21f9 58bf
000002f0: 4307 cf3e c54f e6be 5e7b b2bd 2867 0fbe
00000300: 1fa2 81bd 88df 943e 2aee aebe 9931 e0be
00000310: d277 72bd d7c7 423e f72d b3be f1ee dfba
00000320: 6c8a afb9 43ca 5bbe 4c47 42bf a7b6 0bbe
00000330: b5cf 0a3e 1d6d 4dbf f417 87be dc6f a43c
00000340: 6429 a63e 3b6a 3cbd 5b91 4f3e b92b afbc
00000350: 79d6 973c e393 963d d584 ec3e 9aa2 98be
00000360: 2eec c3be ff67 113c c21c c1bc ea0e 17bd
00000370: 213e a83e 113a cf3c 1453 c8bd 76ae 0bbf
00000380: ebde a93d fd35 56bf 44b3 97be cac7 5a3e
00000390: ac7f 5dbe 105d d93e 8886 8d3e 59e8 ab3d
000003a0: 457c 473e d53b a73d 2186 6b3e 12b1 f8bc
000003b0: 0f12 aabe cada fd3c 97a1 f03e d13f b33b
000003c0: 98e5 4d3e a00b 37be 9dd3 4ebe 282a c53d
000003d0: 083d d43e f5cf 8bbe 7c63 0cbf 0100 823e
000003e0: 3673 803e 5823 bebe d5fc 8f3e 43a8 093e
000003f0: 7ae6 b5bd 0dbc 9bbd 6ac8 2e3f f2bb b4be

se_block_event.0.0.bias f4 [16]
-0.7229575 -1.2164435 -0.31059384 -0.18542477 -0.011001065 -1.1970649 -0.47573397 0.40879953
0.77330804 -0.00700423 -0.31423986 -0.22495365 -0.062635295 -0.36687782 -0.010465252 -0.004353076
00000000: be13 39bf 6cb4 9bbf 2806 9fbe fedf 3dbe
00000010: d03d 34bc 6c39 99bf 6793 f3be 2c4e d13e
00000020: 84f7 453f bd83 e5bb 0ce4 a0be 405a 66be
00000030: ef46 80bd 69d7 bbbe 7376 2bbc 40a4 8ebb

se_block_event.0.2.weight f4 [64, 16]
0.56291425 -0.12277789 0.19880673 0.3843098 0.6693076 0.65899265 0.46301633 0.020601548
-0.35782978 1.2401168 -0.063596204 0.26312274 0.6529877 -0.28798673 0.4731301 -0.3185417
0.36080012 0.28694853 -0.043115065 0.38525122 0.48484188 0.574347 0.35660884 0.010014212
-0.2811199 0.9909697 0.19662835 0.35364884 0.20362522 0.3088504 0.44271696 -0.23812385
-0.069234096 0.80695415 1.0483195 -0.28052047 0.7392319 0.18970297 0.11774361 -0.17542584
-0.43343747 0.037997436 -0.20537466 0.65491027 0.49730822 0.031716228 0.59306484 0.1099772
-0.6963609 -0.12992252 0.21951982 -0.52680176 0.16754289 -0.0058567673 1.0733583 -0.05167295
-0.7168413 0.1921153 -0.69940406 0.0056371302 0.68815887 -0.1642499 0.38768137 0.35402536
0.4808628 0.92653215 0.65879285 -0.10515068 0.3859381 0.52565813 1.0895928 0.235136
-0.33265543 0.726379 -0.06734039 -0.19204418 0.31442714 -0.07850511 0.7168408 -0.19251984
0.31634074 0.71023226 0.59613246 -0.09712929 0.67884207 -0.55405456 0.67830396 0.4278809
-0.50798655 -0.25558752 -0.0021371972 -0.056858752 -0.020332135 0.23262475 0.45877686 -0.32869667
0.9156185 0.27192718 0.23496634 0.1856551 0.77054083 0.62808233 0.17655547 -0.64351666
-0.347623 0.7610958 0.18889745 0.5327308 -0.33138347 0.16924295 0.78327286 -0.38964307
0.31894183 -0.16358522 0.535704 0.24246867 -0.13265319 0.023836123 0.4038217 -0.009380378
-0.305965 0.6711385 -0.09658186 0.22123566 0.20293055 0.13711008 -1.2190114 -0.427097
0.028373014 0.09832569 -0.39243895 0.18606123 0.024684753 -0.63658917 0.32032523 -0.2124665
-0.22362575 0.16829903 0.28757784 -0.5206297 0.32637787 0.06898142 -0.43804896 -0.24508837
0.3334925 0.27297324 -0.13678147 0.29406536 0.575146 0.17270714 -0.31416047 -0.4169174
-0.08962863 0.41041964 0.2571497 0.5296759 -0.266298 0.24245678 0.15457122 0.18389201
0.31987908 -0.06897426 -0.17244849 0.7620328 0.02946851 -0.05251716 0.17992382 0.024542617
0.19407886 0.26558667 0.3585126 0.3614523 0.10719113 0.63262105 -0.22995026 0.77612245
-0.089932896 0.53321975 -0.5346475 -0.07122929 -0.9874608 0.21740061 0.38204074 -0.16249971
-0.26315716 -0.9117983 0.59668285 -0.8829526 -0.47838804 0.3403641 -0.31701598 -0.40210605
0.12893024 -0.16093145 0.4669096 0.14405733 0.067688696 -0.13089316 -0.18748038 -0.00080323935
-0.1896933 0.29486036 -0.029083569 0.051481254 0.15479395 0.33896655 0.21632303 0.08403331
0.02724795 0.44842505 0.3770793 -0.17980628 1.2339239 0.6060856 0.08843722 0.050733734
-0.10868614 0.41532767 -0.1573519 -0.1022352 0.6399681 -0.05577929 -0.051781453 -0.18248582
-0.5069729 0.10424088 0.63705343 -0.19647078 -0.52545667 0.5273394 0.061028987 0.05441313
-0.68869007 0.51774615 -1.2295439 -0.218791 0.3876428 -0.15564056 0.31822547 -0.14371419
0.15191908 -0.07721824 0.14644401 0.38447827 0.8298466 0.18145761 -1.289175 -0.23195677
-0.44741952 0.48632273 -0.1598472 0.17802252 -0.28027976 0.51491404 0.75120467 -0.27196243
00000000: 261b 103f f972 fbbd fe93 4b3e 41c4 c43e
00000010: be57 2b3f beb3 283f 7a10 ed3e 94c4 a83c
00000020: 7735 b7be 26bc 9e3f ba3e 82bd 06b8 863e
00000030: 342a 273f ff72 93be 1c3e f23e e617 a3be
00000040: cbba b83e ebea 923e 6c99 30bd a63f c53e
00000050: 323d f83e 6808 133f 6f95 b63e a612 243c
00000060: f3ee 8fbe 31b0 7d3f f158 493e 7611 b53e
00000070: 2183 503e a421 9e3e ccab e23e bdd6 73be
00000080: 9bca 8dbd 8c94 4e3f 552f 863f 61a0 8fbe
00000090: 4d3e 3d3f 7f41 423e 9023 f13d d5a2 33be
000000a0: 84eb ddbe 33a3 1b3d bc4d 52be 33a8 273f
000000b0: 2f9f fe3e e0e8 013d 19d3 173f ba3b e13d
000000c0: b544 32bf 690a 05be cec9 603e 7bdc 06bf
000000d0: 5d90 2b3e 20ea bfbb ce63 893f 04a7 53bd
000000e0: e982 37bf e0b9 443e 250c 33bf adb7 b83b
000000f0: 2e2b 303f 2031 28be 2c7e c63e d042 b53e
00000100: a633 f63e 3631 6d3f a6a6 283f 3d59 d7bd
00000110: ae99 c53e 8891 063f c777 8b3f 7ec7 703e
00000120: d051 aabe f9f3 393f c2e9 89bd 3ba7 44be
00000130: 98fc a03e 4ac7 a0bd e182 373f ec23 45be
00000140: 6af7 a13e c8d1 353f 239c 183f b9eb c6bd
00000150: 98c8 2d3f 85d6 0dbf 54a5 2d3f 3513 db3e
00000160: 680b 02bf 5edc 82be 3810 0cbb b9e4 68bd
00000170: 948f a6bc 2f35 6e3e cde4 ea3e ee4a a8be
00000180: f965 6a3f 0a3a 8b3e 049b 703e 5f1c 3e3e
00000190: 2a42 453f 01ca 203f f5ca 343e 82bd 24bf
000001a0: a4fb b1be 2dd7 423f 556e 413e 0c61 083f
000001b0: 18ab a9be 064e 2d3e 9284 483f 4c7f c7be
000001c0: 584c a33e e282 27be e623 093f b549 783e
000001d0: 3dd6 07be f943 c33c b8c1 ce3e 28b0 19bc
000001e0: 72a7 9cbe bccf 2b3f b6cc c5bd 9a8b 623e
000001f0: 07cd 4f3e 9666 0c3e 9108 9cbf 75ac dabe
00000200: 866e e83c fb5e c93d c2ed c8be d686 3e3e
00000210: ae37 ca3c 82f7 22bf ab01 a43e d190 59be
00000220: 26fe 64be 9556 2c3e 673d 933e fd47 05bf
00000230: 001b a73e 2146 8d3d f447 e0be 72f8 7abe
00000240: 87bf aa3e 26c3 8b3e 7110 0cbe bc8f 963e
00000250: c53c 133f 24da 303e a4d9 a0be 3376 d5be
00000260: 378f b7bd 8622 d23e 20a9 833e d798 073f
00000270: 3658 88be 9746 783e eb47 1e3e 304e 3c3e
00000280: 31c7 a33e 6042 8dbd 5696 30be 9514 433f
00000290: f267 f13c 3c1c 57bd f33d 383e 990d c93c
000002a0: 9cbc 463e fafa 873e f78e b73e 4710 b93e
000002b0: 0687 db3d 74f3 213f 1578 6bbe f6af 463f
000002c0: bd2e b8bd 1781 083f a9de 08bf a9e0 91bd
000002d0: 3bca 7cbf 449e 5e3e d89a c33e 5366 26be
000002e0: 89bc 86be 9d6b 69bf 35c0 183f 2e09 62bf
000002f0: 47ef f4be 3444 ae3e eb4f a2be d8e0 cdbe
00000300: 4a06 043e 37cb 24be c60e ef3e c483 133e
00000310: 5fa0 8a3d db08 06be dbfa 3fbe 7b90 52ba
00000320: f63e 42be f0f7 963e aa40 eebc 02de 523d
00000330: 4e82 1e3e 068d ad3e c983 5d3e a819 ac3d
00000340: 1837 df3c f897 e53e 8a10 c13e 231f 38be
00000350: 38f1 9d3f 6d28 1b3f 931e b53d 2dce 4f3d
00000360: d796 debd d4a5 d43e db20 21be b060 d1bd
00000370: f3d4 233f d378 64bd ca18 54bd 90dd 3abe
00000380: fac8 01bf 3e7c d53d ef15 233f a32f 49be
00000390: 5484 06bf b7ff 063f 88f9 793d 4de0 5e3d
000003a0: fe4d 30bf 038b 043f b261 9dbf bf0a 60be
000003b0: 1e79 c63e 3d60 1fbe 73ee a23e d029 13be
000003c0: ad90 1b3e 9924 9ebd 6bf5 153e 56da c43e
000003d0: d470 543f 06d0 393e b003 a5bf 1386 6dbe
000003e0: 2c14 e5be 4bff f83e fcae 23be 894b 363e
000003f0: d480 8fbe 68d1 033f f34e 403f a93e 8bbe

se_block_event.0.2.bias f4 [64]
-0.64531416 -0.575891 -0.19217028 -0.5683469 -0.4258632 -0.26685387 -0.40015477 -0.36392763
-0.15864828 -0.35181513 0.036837164 0.03379783 -0.552622 -0.092581145 -0.81900734 -0.11758031
-0.30334732 -0.43728125 -0.38569155 -0.05224628 -0.06397352 -0.69902194 -0.39543548 0.048741855
-0.11351722 -0.19279023 -0.46216863 0.06958352 -0.13970955 2.2868276 -0.5951072 -0.578648
-0.41932324 -0.10870956 -0.16888744 -0.29973462 2.8070104 -0.85283303 -0.39917454 -0.14965521
-0.84478635 -0.6840068 0.065648116 -0.13756715 -0.3240723 -0.29355878 -0.4814515 -0.43512997
-0.3515032 -0.71961784 -0.7872713 -0.07542516 -0.6015616 -0.2551722 -0.49868247 -0.07895593
0.19187078 -0.34823093 -0.041352283 0.3246426 -0.20551072 -0.39390773 -0.6731123 0.11886099
00000000: 4f33 25bf 986d 13bf 49c8 44be 2f7f 11bf
00000010: be0a dabe 12a1 88be 16e1 ccbe b954 babe
00000020: b274 22be 1d21 b4be 91e2 163d 986f 0a3d
00000030: a378 0dbf 2f9b bdbd 77aa 51bf f2cd f0bd
00000040: 5750 9bbe 54e3 dfbe 5d79 c5be 3200 56bd
00000050: 8d04 83bd 1af3 32bf 8576 cabe 8aa5 473d
00000060: b77b e8bd cd6a 45be 5ea1 ecbe ce81 8e3d
00000070: 0510 0fbe 625b 1240 f258 18bf 4622 14bf
00000080: 89b1 d6be 1ea3 debd d4f0 2cbe d176 99be
00000090: 0fa6 3340 4453 5abf 9b60 ccbe 373f 19be
000000a0: eb43 58bf 121b 2fbf 8572 863d 67de 0cbe
000000b0: ceec a5be 564d 96be d080 f6be 5bc9 debe
000000c0: 3af8 b3be e038 38bf 9d8a 49bf 8278 9abd
000000d0: f1ff 19bf eea5 82be 4f53 ffbe a6b3 a1bd
000000e0: c679 443e 534b b2be 0361 29bd 8e37 a63e
000000f0: 6771 52be 46ae c9be 1651 2cbf 646d f33d

se_block_event.1.0.weight f4 [16, 64]
0.026456544 0.2749161 -0.30166978 -0.18006885 -0.17372616 -0.29478058 -0.04053853 0.09049897
0.064296864 -0.113480374 -0.36131892 0.41745624 -0.087339036 -0.25716478 -0.23045188 -0.009408079
-0.12318454 0.13493359 0.038293146 -0.22795595 -0.05733957 0.053338803 -0.35553506 -0.0322244
0.08481746 -0.874574 0.47140038 0.068920776 -0.06076095 -0.23885472 0.16699721 0.38497034
0.33613038 -0.18684925 -1.5799959 -1.660031 0.30276972 0.0054556495 0.17995389 -0.081490956
0.123822324 0.13864991 0.14150195 0.3489334 -0.11054729 -0.26576537 0.19419642 0.14202258
-0.06444566 -0.28191438 -0.29756916 0.09457871 0.08523473 -0.118621975 0.011226376 0.22520739
-0.08573415 0.17399076 -0.031534612 0.41311955 0.23083155 -0.2664522 0.1906501 0.10297425
0.3425438 0.28354207 0.08183076 -0.06527462 0.49667364 0.11305239 0.18875852 -0.26063994
0.21071997 -0.18721807 -0.06761687 0.24909812 -0.111180216 -0.07243962 0.008340264 -0.20809107
0.11556912 0.22132032 0.11563034 0.018943682 0.03492473 -0.04262264 -0.09250437 -0.07508575
-0.020950248 0.19465344 -0.0070492513 0.04298238 0.3417531 0.0178094 0.29886186 -0.536509
0.52171034 -0.17819084 -0.30778518 -0.13933621 0.14329131 -0.29397064 0.04537945 -0.2993801
0.7751744 -0.3231059 0.01153165 0.46441907 0.16302063 -0.2670583 0.13439393 0.3297172
0.48929352 -0.17715761 0.1270648 -0.07669397 0.045446735 -0.2660838 0.2333495 0.02234931
-0.07755097 0.01994997 0.12092718 -0.05141871 0.28998867 -0.16400586 -0.025566936 -0.110314846
0.11981413 -0.26561755 -0.2658717 -0.35908678 -0.5844835 0.068921834 -0.040514566 -1.4238641
-0.12173145 -0.11153887 -0.037468668 -0.36278355 -0.013392308 0.14009249 -0.10426122 -0.047374252
-0.25773433 0.20947735 0.14929812 -0.1335931 -0.03214691 0.049485214 0.37993205 -0.19322667
-0.17582127 0.2403828 0.16880196 -0.028663827 0.33524236 -0.48201668 0.22525872 -0.28674588
-0.07781511 -0.23380408 -0.41633174 -0.0013904708 -0.21174867 0.14141303 -0.20479573 0.22558217
0.586713 0.065694556 0.2874108 0.25719014 0.04739729 -0.13193859 0.7411348 0.11768337
0.40870926 -0.13671528 -0.21771818 0.2867215 0.15146607 0.030760566 -0.279879 0.13978402
-0.40417847 -0.17743619 -0.23488048 0.71356237 -0.13122466 -0.12227292 0.14868043 0.09172585
-0.10284236 0.058398712 -0.14016938 0.11649829 0.26204744 -0.14871506 0.1414836 -0.15060043
-0.048044074 0.100789964 0.079506025 -0.2318614 -0.16611879 -0.028049525 0.022481535 -1.0111274
0.026788829 -0.19240096 -0.07653991 0.06798702 -0.05842716 0.02241361 -0.41968253 0.0023089054
-0.26923734 0.2795321 0.3057143 -0.06499791 0.22790769 -0.46702245 0.31372932 0.2854272
-0.20916654 -0.11765331 -1.2637097 -0.38090542 -0.34460416 0.24736667 -0.31855902 0.40171376
-0.19172871 0.2356547 0.24784246 -0.0031672847 -0.20145291 -0.027846584 0.26866373 -0.12767816
-0.20709668 -0.036070608 0.006217483 0.22008 0.32029313 -0.06905069 0.06470271 -0.11672911
-0.27447075 0.15414232 0.061883487 0.3609734 -0.30524117 -0.056937605 -0.11214724 0.03200481
00000000: 65bb d83c cec1 8c3e 7674 9abe f863 38be
00000010: 45e5 31be 7bed 96be bb0b 26bd 8657 b93d
00000020: 13ae 833d 6668 e8bd cbfe b8be d3bc d53e
00000030: cfde b2bd 1aab 83be 94fb 6bbe 5824 1abc
00000040: 2d48 fcbd 082c 0a3e 46d9 1c3d 496d 69be
00000050: e6dc 6abd ca79 5a3d b108 b6be bcfd 03bd
00000060: c7b4 ad3d 15e4 5fbf 645b f13e 5626 8d3d
00000070: 79e0 78bd 5596 74be 5101 2b3e d51a c53e
00000080: 4819 ac3e 6955 3fbe 4e3d cabf e57b d4bf
00000090: a204 9b3e 4ec5 b23b d545 383e bbe4 a6bd
000000a0: 8f96 fd3d 3efa 0d3e e3e5 103e 66a7 b23e
000000b0: 9e66 e2bd 6612 88be 6ddb 463e 5e6e 113e
000000c0: 16fc 83bd 1557 90be fc5a 98be 7cb2 c13d
000000d0: 8c8f ae3d 14f0 f2bd d5ee 373c c49c 663e
000000e0: 6395 afbd a22a 323e 702a 01bd 6884 d33e
000000f0: 1b5f 6c3e 6c6c 88be c839 433e 2ae4 d23d
00000100: e761 af3e 6d2c 913e e396 a73d b3ae 85bd
00000110: 024c fe3e 0388 e73d ea49 413e 9972 85be
00000120: fac6 573e 18b6 3fbe b77a 8abd 9413 7f3e
00000130: 74b2 e3bd 395b 94bd 9aa5 083c d315 55be
00000140: 81af ec3d cba1 623e 9acf ec3d c82f 9b3c
00000150: 3c0d 0f3d 1495 2ebd ee72 bdbd 8fc6 99bd
00000160: db9f abbc 3b53 473e 68fd e6bb 4b0e 303d
00000170: 43fa ae3e 05e5 913c 6c04 993e a758 09bf
00000180: cf8e 053f a977 36be 0596 9dbe 27ae 0ebe
00000190: f5ba 123e 5283 96be cddf 393d 5948 99be
000001a0: d471 463f 236e a5be 3fef 3c3c 56c8 ed3e
000001b0: e1ee 263e debb 88be 909e 093e b1d0 a83e
000001c0: ae84 fa3e ce68 35be 461d 023e ba11 9dbd
000001d0: 5b26 3a3d 233c 88be 2cf3 6e3e e615 b73c
000001e0: 0bd3 9ebd 1f6e a33c aba8 f73d 6d9c 52bd
000001f0: 6579 943e 27f1 27be c071 d1bc c0ec e1bd
00000200: 1c61 f53d 06ff 87be 5620 88be 39da b7be
00000210: b6a0 15bf e426 8d3d 9af2 25bd 2e41 b6bf
00000220: 574e f9bd 7e6e e4bd bf78 19bd c4be b9be
00000230: 696b 5bbc 6874 0f3e e886 d5bd 810b 42bd
00000240: c1f5 83be 3b81 563e 9be1 183e a1cc 08be
00000250: 7aac 03bd 02b1 4a3d 7486 c23e 36dd 45be
00000260: 7e0a 34be e926 763e 6cda 2c3e 67d0 eabc
00000270: e3a4 ab3e e4ca f6be 39aa 663e 5bd0 92be
00000280: 875d 9fbd 566a 6fbe 6f29 d5be 7540 b6ba
00000290: a5d4 58be 94ce 103e f9b5 51be 03ff 663e
000002a0: d332 163f de8a 863d 8227 933e 6dae 833e
000002b0: a923 423d e91a 07be 03bb 3d3f fb03 f13d
000002c0: 5742 d13e 17ff 0bbe 84f1 5ebe 29cd 923e
000002d0: ec19 1b3e 95fd fb3c 4d4c 8fbe 8b23 0f3e
000002e0: 7bf0 cebe d5b1 35be 8284 70be 06ac 363f
000002f0: c25f 06be 3a6a fabd af3f 183e c3da bb3d
00000300: 049f d2bd 7d33 6f3d 9088 0fbe a896 ee3d
00000310: 152b 863e c348 18be 14e1 103e 0037 1abe
00000320: ddc9 44bd f86a ce3d 0ed4 a23d 136d 6dbe
00000330: 0b1b 2abe 1ec8 e5bc 322b b83c 9f6c 81bf
00000340: 3f74 db3c c204 45be f5c0 9cbd c73c 8b3d
00000350: 5151 6fbd bf9c b73c a1e0 d6be 0151 173b
00000360: 7ad9 89be d51e 8f3e 9686 9c3e a01d 85bd
00000370: a260 693e 911d efbe 21a1 a03e 8423 923e
00000380: c12f 56be 38f4 f0bd 3dc1 a1bf 0906 c3be
00000390: f56f b0be b04d 7d3e 2b1a a3be 6dad cd3e
000003a0: 8854 44be 774f 713e 6aca 7d3e 3892 4fbb
000003b0: ac49 4ebe 851e e4bc 4b8e 893e 10be 02be
000003c0: 2711 54be c6be 13bd 07bc cb3b a75c 613e
000003d0: 76fd a33e 736a 8dbd db82 843d ac0f efbd
000003e0: 6e87 8cbe 7cd7 1d3e 8a79 7d3d 81d1 b83e
000003f0: 9248 9cbe 6837 69bd 74ad e5bd 7a17 033d

se_block_event.1.0.bias f4 [16]
0.040027823 -1.0163411 -0.07811818 0.71303296 0.28121316 0.3687067 -1.0043509 -0.09243817
-0.16198432 -0.30056158 -0.26815897 -0.092359364 -0.09777325 0.34793139 -0.1503247 0.4314289
00000000: 37f4 233d 7717 82bf 6dfc 9fbd 5489 363f
00000010: 2cfb 8f3e 20c7 bc3e 928e 80bf 3950 bdbd
00000020: 38df 25be 35e3 99be 224c 89be e826 bdbd
00000030: 573d c8bd 1024 b23e b8ee 19be 40e4 dc3e

se_block_event.1.2.weight f4 [64, 16]
0.40937075 0.69308716 0.5255332 0.8254517 -0.24557738 1.5509232 0.71172273 0.29335573
0.6756777 -0.030513136 0.54157114 -0.0008202461 -0.51384187 0.4047091 0.14753683 -0.538159
1.1159793 0.5673267 1.3202534 1.1249684 0.16801818 1.0125893 0.7093962 0.39896497
0.5585562 1.1135857 0.9666994 0.25986454 -0.083147496 1.1649252 1.3361398 -0.063029915
-0.10144545 -0.36097214 0.23224658 -0.042673655 -0.093058854 0.691955 0.105951436 -0.2767557
-0.5168228 0.284628 -0.17851114 -0.26154438 -0.29477587 0.4867189 -0.27945268 -0.099493705
-0.09952902 0.15717776 0.11627407 -0.45563087 0.15017486 0.9594953 -0.02234878 -0.54305255
0.13841951 0.12632366 0.2881204 0.07937633 0.11487519 -0.13277487 -0.25031832 -0.2229718
1.3326856 0.46606964 0.4004965 0.100006 -0.25291526 0.75364625 0.8146736 0.42557892
0.43807468 0.54334545 0.7420942 0.62921834 -0.35140035 0.2681961 0.5906315 -0.49262074
0.5409434 0.11922613 -0.10795054 -0.035134938 -0.087821156 0.48276117 -0.50347084 0.76213974
0.18342854 0.30199358 0.108535185 0.55421096 -0.07847837 0.16903712 0.5814699 0.16760123
0.83551604 0.9834583 0.4259338 0.8519062 -0.72288465 1.0172514 -0.04411213 0.6155723
0.6619923 0.6463034 -0.1079176 -0.27751693 -0.026608953 0.7424047 0.56478244 -0.8550918
-0.2031337 -0.4513553 0.28007406 0.21269746 -0.3027309 0.4747286 -0.013720596 -0.32973126
0.43673307 -0.24982043 -0.5591872 -0.5767558 -0.3649469 0.42574224 0.32437146 -0.27939194
-0.5985375 0.33956376 -0.07822935 -0.13502443 -0.02108844 -0.057538994 -0.09083255 -0.58669484
-0.44448355 -0.7050765 -0.6510103 -0.018383298 -0.21510147 -0.1775481 0.5566082 -0.30094105
0.25651094 0.5727971 0.14065777 -0.1668039 0.23380183 -0.47915426 0.35331312 0.044349067
0.11264015 -0.48115706 -0.745772 -0.31178817 0.22345324 -0.8474475 -0.9193655 -0.1315867
0.75794643 0.44463024 0.16631904 -0.21463309 0.08748228 0.6030031 0.28008747 -0.109334
0.7509066 0.47920707 -0.41984987 0.447301 -0.12523797 0.12180176 0.1353706 0.08939268
0.012821523 -0.18672152 -0.1610299 0.40293613 -0.071909346 0.5737231 -0.059339184 0.3787775
-0.23133744 0.025083758 0.50433904 0.41749713 -0.25204274 0.43301076 0.5581113 -0.37914607
-0.077514574 -0.052003168 -0.14374839 0.049499758 -0.21231738 0.10249858 -0.10796775 0.34457758
-0.52084017 -0.14188853 0.43315622 -0.3424537 0.059845787 -0.14324914 -0.17724463 -0.281986
-0.020695385 0.5366714 -0.03392341 -0.0899928 -0.27620223 0.4194953 -0.054356683 -0.017139353
0.11181181 0.07319962 -0.002360966 -0.27800128 0.11499111 0.7903825 0.98481786 -0.08630893
-0.54570043 -0.90394783 -0.22579156 -0.18134326 -0.16679896 0.10099876 0.0018145714 -0.08024364
-0.8052804 -0.15449655 -0.07446642 -0.10346783 0.09523465 -0.13958669 -0.08244446 -0.27743733
0.6140979 0.7237964 0.6386158 0.70791066 0.25894383 1.5211768 0.26264814 -0.3271348
-0.034625925 0.17496046 0.4671857 0.24350044 0.13409741 -1.4483593 0.4440924 0.044681612
00000000: 0b99 d13e 296e 313f 5889 063f cd50 533f
00000010: a378 7bbe a784 c63f 7633 363f b932 963e
00000020: 37f9 2c3f aff6 f9bc 68a4 0a3f c905 57ba
00000030: 248b 03bf 0836 cf3e e513 173e cac4 09bf
00000040: 69d8 8e3f 533c 113f 10fe a83f f7fe 8f3f
00000050: f50c 2c3e 879c 813f fd9a 353f 2345 cc3e
00000060: 8afd 0e3f fa89 8e3f 9d79 773f f70c 853e
00000070: 3c49 aabd 451c 953f a106 ab3f d415 81bd
00000080: a2c2 cfbd 57d1 b8be 0cd2 6d3e 92ca 2ebd
00000090: a495 bebd f623 313f 11fd d83d ecb2 8dbe
000000a0: 804e 04bf c3ba 913e a0cb 36be 25e9 85be
000000b0: ddec 96be 3833 f93e 6c14 8fbe 5bc3 cbbd
000000c0: dfd5 cbbd 35f3 203e 1a21 ee3d 7348 e9be
000000d0: 70c7 193e 7ca1 753f ca14 b7bc 7e05 0bbf
000000e0: d8bd 0d3e fd5a 013e 8484 933e 0f90 a23d
000000f0: af43 eb3d 23f6 07be b929 80be b852 64be
00000100: 7195 aa3f aea0 ee3e e10d cd3e f2cf cc3d
00000110: 1c7e 81be f6ee 403f 738e 503f 7be5 d93e
00000120: 534b e03e b018 0b3f e3f9 3d3f 7414 213f
00000130: bfea b3be 0051 893e a033 173f c938 fcbe
00000140: 447b 0a3f d42c f43d 2c15 ddbd a7e9 0fbd
00000150: 94db b3bd 792c f73e 77e3 00bf 971b 433f
00000160: b1d4 3b3e e79e 9a3e b247 de3d c5e0 0d3f
00000170: 45b9 a0bd 1118 2d3e 36db 143f a89f 2b3e
00000180: 61e4 553f ecc3 7b3f ff13 da3e 8616 5a3f
00000190: f80e 39bf 4b35 823f ecae 34bd 2596 1d3f
000001a0: 5478 293f 2474 253f e703 ddbd b316 8ebe
000001b0: 05fb d9bc 3c0e 3e3f 9595 103f 4ce7 5abf
000001c0: 4802 50be 0b18 e7be de65 8f3e 5dcd 593e
000001d0: 8bff 9abe a10f f33e 5acc 60bc 89d2 a8be
000001e0: 7a9b df3e edd0 7fbe e426 0fbf 45a6 13bf
000001f0: 52da babe e3fa d93e 0414 a63e 760c 8fbe
00000200: c139 19bf 4ddb ad3e b636 a0bd d843 0abe
00000210: aac1 acbc 02ae 6bbd 6a06 babd a231 16bf
00000220: 5993 e3be e57f 34bf 9ca8 26bf 9298 96bc
00000230: 8f43 5cbe 2bcf 35be e07d 0e3f f214 9abe
00000240: 6755 833e d5a2 123f 9708 103e a4ce 2abe
00000250: bf69 6f3e b553 f5be 75e5 b43e 5ea7 353d
00000260: e1af e63d 385a f6be eaea 3ebf b3a2 9fbe
00000270: edd0 643e 52f2 58bf 8a5b 6bbf aabe 06be
00000280: c708 423f 93a6 e33e 8a4f 2a3e c7c8 5bbe
00000290: e929 b33d 695e 1a3f a067 8f3e 81ea dfbd
000002a0: 6a3b 403f a15a f53e 90f6 d6be a304 e53e
000002b0: 623e 00be 3373 f93d 979e 0a3e 8213 b73d
000002c0: 5d11 523c ed33 3fbe 06e5 24be a54d ce3e
000002d0: 3545 93bd 84df 123f a50d 73bd 20ef c13e
000002e0: b9e3 6cbe 747c cd3c 5d1c 013f 2fc2 d53e
000002f0: bf0b 81be 96b3 dd3e 62e0 0e3f 6f1f c2be
00000300: f6bf 9ebd 4601 55bd c732 13be 42c0 4a3d
00000310: ba69 59be c7ea d13d 321e ddbd 796c b03e
00000320: c855 05bf 3a4b 11be a7c6 dd3e 1756 afbe
00000330: db20 753d e7af 12be 9e7f 35be 7860 90be
00000340: 5e89 a9bc 4c63 093f 46f3 0abd 254e b8bd
00000350: 616a 8dbe 17c8 d63e 1da5 5ebd d467 8cbc
00000360: 97fd e43d afe9 953d 70ba 1abb 2f56 8ebe
00000370: 7680 eb3d 8256 4a3f 061d 7c3f bcc2 b0bd
00000380: 06b3 0bbf 2069 67bf e735 67be 0cb2 39be
00000390: 59cd 2abe 70d8 ce3d ead6 ed3a c756 a4bd
000003a0: db26 4ebf 5834 1ebe da81 98bd f1e6 d3bd
000003b0: 620a c33d d0ef 0ebe a4d8 a8bd 440c 8ebe
000003c0: 8535 1d3f b94a 393f 537c 233f a239 353f
000003d0: 4994 843e ecb5 c23f d179 863e 367e a7be
000003e0: ead3 0dbd d628 333e f732 ef3e 2e58 793e
000003f0: d550 093e d663 b9bf 1460 e33e 1104 373d

se_block_event.1.2.bias f4 [64]
0.0006897103 0.11134957 -0.24244018 -0.30446878 -0.48511198 -0.041829124 -0.27202883 0.22813343
0.2116887 -0.58885723 -0.28228137 0.83673745 0.033227507 -0.4444685 0.4489588 -0.04037065
0.38999924 -0.23351818 0.12360671 0.28513983 0.462773 -0.5339977 0.28904954 0.31442377
1.1074069 -0.4715141 -0.75896597 0.21417223 -0.48826727 0.5316779 -0.65583533 -0.3034217
0.4711329 -0.033693086 -0.034447286 -0.43858585 0.5455403 -0.056933675 -0.2345528 0.13727947
-0.45030695 -0.25950444 -0.16609581 0.24221367 0.47465485 0.2155074 0.13321246 -0.6921732
0.13576046 -0.54666406 -1.1172689 -0.058327626 -0.6918242 -0.0752887 -0.2852527 0.2927021
0.8818442 0.31350175 -0.2384859 0.08150858 0.38112885 -0.24427675 -0.48054236 0.12631032
00000000: adcd 343a 3e0b e43d 3d42 78be 55e3 9bbe
00000010: 9960 f8be 0455 2bbd 5d47 8bbe cf9b 693e
00000020: ecc4 583e 59bf 16bf 2f87 90be 6d34 563f
00000030: 9119 083d 6091 e3be eedd e53e b25b 25bd
00000040: fbad c73e 641f 6fbe 8425 fd3d d9fd 913e
00000050: 95f0 ec3e 13b4 08bf 4dfe 933e 27fc a03e
00000060: 82bf 8d3f 4c6a f1be 984b 42bf f74f 5b3e
00000070: 2bfe f9be 0b1c 083f d3e4 27bf 175a 9bbe
00000080: 5538 f13e c301 0abd 9918 0dbd 538e e0be
00000090: 87a8 0b3f 4933 69bd 9c2e 70be fd92 0c3e
000000a0: a28e e6be c4dd 84be 0515 2abe dc06 783e
000000b0: f605 f33e f9ad 5c3e d968 083e 4332 31bf
000000c0: ca04 0b3e 2df2 0bbf ab02 8fbf f3e8 6ebd
000000d0: 641b 31bf f630 9abd a40c 92be 0ddd 953e
000000e0: 8bc0 613f 4d83 a03e a635 74be f8ed a63d
000000f0: 5223 c33e af23 7abe a609 f6be 7e57 013e

se_block_event.2.0.weight f4 [16, 64]
-0.13646352 -0.12565482 -0.12990393 -0.037770327 -0.049486876 -0.042553373 0.055177886 -0.10188421
-0.04321423 -0.12503757 -0.11010012 -0.10666656 -0.08412187 -0.05959804 0.001241605 -0.013448821
0.04130187 0.029005783 -0.12493385 -0.08032832 -0.03305659 -0.12140429 -0.08628194 -0.10227878
-0.025584953 -0.08387271 -0.03908279 0.04516543 -0.034155034 -0.08631237 0.028125932 0.04530962
-0.07151846 0.022629187 -0.100869976 -0.06618493 0.027405908 -0.031036943 -0.025833704 0.039450135
-0.18790811 -0.13354598 -0.03384936 -0.043853473 -0.122499205 -0.06451742 -0.06690333 0.057200536
-0.03355708 -0.07781875 -0.06258638 -0.063103914 -0.051656783 -0.116400294 -0.110076405 -0.008572372
0.04934809 -0.043237373 -0.0010244177 -0.12414257 0.014612128 -0.14482267 -0.06108186 -0.009535086
0.3209688 0.34571624 0.28458026 -0.13655663 0.6019872 0.5404234 0.7998129 0.20160896
0.33843404 0.76701725 0.47405088 0.2341329 0.39768505 0.40882173 -0.025953272 0.37259418
1.1026129 0.23964 0.5231553 0.057556912 0.40282688 1.0550878 0.8063738 0.3503234
0.3757428 0.4504909 0.26764157 -0.02323486 0.34173292 0.5433884 0.607806 0.579137
0.39138994 0.3987276 0.46241567 0.6216458 0.17215301 1.0602156 0.5932231 0.25452095
0.62873197 0.56315774 0.47684395 0.34060487 0.3578247 0.28725103 0.53365374 0.18986693
0.40408593 0.34613588 0.5571881 0.047385763 0.008502867 0.7242554 0.82840973 0.29211122
0.3149324 0.73274106 0.6198311 0.13950616 0.63109696 0.43701985 0.15438096 0.1093496
0.15055555 -0.064726256 0.37746078 -0.044058148 0.55299664 0.14367148 0.024296865 0.045170024
0.33357704 0.13547812 0.18029596 -0.3505693 0.12693965 0.12654652 -0.38307568 -0.044545513
-0.15698206 -0.229028 -0.110660516 0.104354285 0.04368306 -0.11897102 0.29283443 -0.025310395
-0.22480613 -0.2729495 0.15584648 0.04965747 0.33579546 -0.023131657 -0.14203674 -0.072582886
0.16734314 0.31527254 -0.00033002513 -0.035565108 -0.19041643 0.2329176 0.16446902 0.17595457
0.32281572 -0.016071066 0.09995552 -0.06346267 -0.123127274 0.21139535 -0.0038419631 0.07532998
0.57149947 -0.4918533 0.060077906 -0.09870701 -0.09876975 0.12705123 -0.06452899 0.42498168
0.34750542 0.3054204 0.4624073 0.053354193 0.04917715 0.03734401 0.087970406 0.016359238
0.47557864 -0.03923866 0.24320166 -0.22306935 0.36559385 0.080932476 -0.051096488 -0.0947588
-0.10896989 -0.1845846 0.047574367 0.113390185 0.23444392 -0.3668599 -0.21691616 -0.27201068
0.20979035 -0.31287387 0.016744383 -0.21335794 -0.33924463 -0.1878234 0.27581477 -0.14753348
-0.27778235 -0.28699785 0.33367854 -0.110124044 0.19318588 0.0586326 -0.24458982 0.12762973
0.15176389 0.38280982 -0.110864945 0.0954237 0.27928376 -0.083067134 0.025329666 0.41447884
0.49739987 -0.23182106 0.24754985 0.23592143 0.27259564 0.0074143037 0.4210313 0.4857137
-0.08372603 -0.36739478 -0.24156904 -0.15320964 0.11021584 0.31035608 -0.15147728 0.1661991
0.53817683 -0.015459951 -0.10728365 0.061515465 0.22831747 0.16403355 0.25311354 -0.19806701
00000000: 18bd 0bbe a8ab 00be 8905 05be 0fb5 1abd
00000010: c0b2 4abd 724c 2ebd 3502 623d aba8 d0bd
00000020: 6801 31bd d909 00be 2c7c e1bd ff73 dabd
00000030: 1648 acbd 131d 74bd 5abd a23a 7258 5cbc
00000040: 262c 293d 899d ed3c 51dd ffbd 2d83 a4bd
00000050: 5966 07bd d0a2 f8bd 96b4 b0bd 8977 d1bd
00000060: 8997 d1bc 75c5 abbd 4715 20bd 63ff 383d
00000070: 26e6 0bbd 8ac4 b0bd 5b68 e63c 9596 393d
00000080: 4578 92bd d860 b93c eb94 cebd f78b 87bd
00000090: 5b82 e03c 3041 febc 34a1 d3bc 7796 213d
000000a0: fc6a 40be 47c0 08be a0a5 0abd b39f 33bd
000000b0: dde0 fabd b621 84bd 9d04 89bd 1c4b 6a3d
000000c0: 2673 09bd 705f 9fbd 4a2d 80bd a03c 81bd
000000d0: 1096 53bd 4763 eebd bd6f e1bd 2273 0cbc
000000e0: 3921 4a3d ac19 31bd c145 86ba 763e febd
000000f0: b567 6f3c 654c 14be f930 7abd 0d39 1cbc
00000100: 0656 a43e b801 b13e 81b4 913e 80d5 0bbe
00000110: d51b 1a3f 3059 0a3f 8ac0 4c3f 9472 4e3e
00000120: 3a47 ad3e 3e5b 443f ccb6 f23e 89c0 6f3e
00000130: 609d cb3e 1551 d13e f59b d4bc aac4 be3e
00000140: 6b22 8d3f 3064 753e 81ed 053f ccc0 6b3d
00000150: 533f ce3e 1e0d 873f 836e 4e3f 975d b33e
00000160: 5c61 c03e bea6 e63e 5108 893e 0857 bebc
00000170: 9ef7 ae3e 811b 0b3f 2d99 1b3f 5342 143f
00000180: 4364 c83e 0626 cc3e bfc1 ec3e 2e24 1f3f
00000190: e148 303e 25b5 873f 78dd 173f 9250 823e
000001a0: 94f4 203f 1b2b 103f e424 f43e c363 ae3e
000001b0: cd34 b73e 9112 933e 889d 083f 7a6c 423e
000001c0: 5ae4 ce3e b938 b13e e1a3 0e3f 9317 423d
000001d0: 9c4f 0b3c cd68 393f a912 543f 9a8f 953e
000001e0: d23e a13e eb94 3b3f 40ad 1e3f b4da 0e3e
000001f0: 928f 213f 11c1 df3e 0b16 1e3e aff2 df3d
00000200: 3c2b 1a3e 338f 84bd 8a42 c13e 5176 34bd
00000210: 3091 0d3f 9e1e 133e 380a c73c 3404 393d
00000220: 9cca aa3e c7ba 0a3e 819f 383e d27d b3be
00000230: 78fc 013e 6995 013e 7f22 c4be 5b75 36bd
00000240: e8bf 20be 5186 6abe fba1 e2bd b3b7 d53d
00000250: 02ed 323d 14a7 f3bd 65ee 953e bf57 cfbc
00000260: 9433 66be 09c0 8bbe 3896 1f3e a265 4b3d
00000270: 62ed ab3e 9a7e bdbc 1472 11be 56a6 94bd
00000280: 005c 2b3e 676b a13e 3907 adb9 b8ac 11bd
00000290: 86fc 42be f481 6e3e 916a 283e 6f2d 343e
000002a0: 1a48 a53e 78a7 83bc 7bb5 cc3d b7f8 81bd
000002b0: 272a fcbd 0678 583e 72c9 7bbb 9b46 9a3d
000002c0: ca4d 123f 32d4 fbbe 4014 763d e726 cabd
000002d0: cb47 cabd b819 023e c627 84bd 3397 d93e
000002e0: 3bec b13e 1060 9c3e a6c0 ec3e ed89 5a3d
000002f0: fb6d 493d 08f6 183d d429 b43d cf03 863c
00000300: 0b7f f33e b8b8 20bd db09 793e 4b6c 64be
00000310: 1e2f bb3e edbf a53d 8d4a 51bd e710 c2bd
00000320: 9b2b dfbd bf03 3dbe 57dd 423d 1d39 e83d
00000330: 1112 703e 10d5 bbbe 451f 5ebe fc44 8bbe
00000340: 48d3 563e 0131 a0be 842b 893c 817a 5abe
00000350: 79b1 adbe c754 40be 9837 8d3e 0413 17be
00000360: 7d39 8ebe 62f1 92be ead7 aa3e b788 e1bd
00000370: 85d2 453e bd28 703d c175 7abe 5eb1 023e
00000380: fe67 1b3e a6ff c33e 290d e3bd 806d c33d
00000390: 48fe 8e3e 1a1f aabd 2980 cf3c 9236 d43e
000003a0: 32ab fe3e 8062 6dbe b57d 7d3e 6395 713e
000003b0: a891 8b3e b0f3 f23b 6a91 d73e 77af f83e
000003c0: 8e78 abbd 2b1b bcbe e05d 77be fde2 1cbe
000003d0: d8b8 e13d fee6 9e3e dc1c 1bbe 1930 2a3e
000003e0: f5c5 093f bc4b 7dbc 88b7 dbbd a4f7 7b3d
000003f0: 0ecc 693e 69f8 273e 1998 813e 14d2 4abe

se_block_event.2.0.bias f4 [16]
-0.29042748 0.7041529 -1.259576 -1.3346647 -1.2785335 -0.84999067 -1.3901464 -1.4994951
-0.6017143 0.65134835 -0.73341155 -0.43848956 0.54112506 0.65265924 -1.3673838 -0.3949114
00000000: e9b2 94be 5d43 343f c939 a1bf 4bd6 aabf
00000010: fca6 a3bf fd98 59bf 51f0 b1bf 75ef bfbf
00000020: f309 1abf c4be 263f dcc0 3bbf b481 e0be
00000030: 2c87 0a3f ad14 273f 6f06 afbf d431 cabe

se_block_event.2.2.weight f4 [64, 16]
0.2299729 -0.24653178 1.1369481 0.60910803 0.9099528 0.49251026 0.2061234 0.79264224
0.018690431 -0.26174238 0.87731326 0.8359371 -0.111085795 -0.06620509 0.6546188 0.8846169
0.061671924 -0.2320669 0.09209703 0.09455264 -0.17924105 0.011552883 0.045593906 0.24837649
-0.15304846 -0.19927613 -0.12303123 0.26239857 0.20344524 -0.14615421 0.20354284 0.38064975
0.23782189 -0.29700413 0.7487509 0.97597885 0.9739233 0.47501886 0.60691464 0.31454444
0.20821534 -0.2973908 0.56846625 0.96090597 0.046809383 -0.0880038 1.0515695 1.2876297
0.0766579 0.06920337 0.20139505 0.7612468 0.79755074 0.2721637 0.36415243 0.39867687
-0.27259362 -0.2853474 0.21114159 0.03333309 -0.51852256 0.014789057 0.25006497 0.3595723
0.10118536 -0.21331878 0.8283563 0.35934308 0.41275805 1.0053645 0.3635316 0.7557064
0.2201481 0.15091008 1.1536909 0.6411696 0.36832577 -0.1368083 0.62726027 0.57191914
-0.028364552 0.057052597 0.07827811 -0.37790313 -0.3987413 -0.38561612 -0.14021417 -0.6964901
-0.34741667 -0.12561077 -0.60980207 0.44832093 -0.38836753 0.06545874 0.22492452 0.08361273
0.044100687 -0.19370078 0.60492384 0.8252732 0.1585404 0.27935195 0.60424817 0.55709875
-0.10371674 -0.26897195 0.20450546 0.22874798 -0.015840054 -0.54029286 0.29597244 0.4103615
0.30332586 -0.51892275 0.71692455 0.15127917 0.19993347 1.1990957 0.08300505 0.46510056
0.1475612 -0.23076728 0.15360244 0.6614715 -0.33374682 -0.55962837 0.19374146 1.3022963
0.024393434 -0.40271005 0.23829204 0.71395874 0.3137566 -0.58785534 0.64629656 0.956058
0.2902544 -0.23596159 -0.71682113 -0.22093077 -0.25627732 -0.4341354 0.430762 -0.30350518
-0.070671655 1.0347189 -0.13902928 0.381877 0.6156251 0.25900862 0.4941821 -0.072769165
0.42623502 1.228719 0.75159186 0.76437056 1.9546392 1.0184215 -0.29458514 0.8277564
0.13495062 -0.32897177 0.63960254 0.5652333 0.3827007 0.44139716 0.94163215 0.34114254
0.13510783 -0.29654953 0.7938378 -0.20370765 0.35831383 -0.27683514 0.39119062 -0.17841522
0.04453625 -0.27087656 -0.16119528 0.78358114 0.3739392 0.8851398 0.44155416 0.46204415
0.28665653 -0.61811423 0.024390627 0.47836202 -0.53836876 -0.40091026 0.61480176 0.6001177
-0.019210486 -0.2512215 1.1787697 -0.082256414 0.41816932 0.04091894 0.6537743 0.38864058
-0.053819243 -0.1620205 0.15096436 -0.20078589 0.34313065 -0.3449977 1.1435889 0.046692576
-0.18457286 -0.07959306 0.21988715 0.77390784 0.36430848 0.20049867 -0.13725382 0.82788837
0.34461415 -0.04914142 -0.024042482 -0.109484166 -0.41040608 -0.13682838 -0.06473507 0.15341012
-0.14465848 1.2356095 0.29166335 0.48221424 0.37619013 0.6168648 0.74153584 0.61332375
0.21381651 1.8686109 0.7656109 0.7687144 1.7757432 1.1487213 0.044413976 0.64642566
-0.098552175 -0.22372104 0.25934774 0.16275902 0.8528854 0.4624894 0.8151373 0.5404156
0.3483651 -0.37127736 -0.2625579 1.3255199 -0.04679829 -0.031025277 0.31918895 0.30905616
00000000: 047e 6b3e d472 7cbe 8487 913f 81ee 1b3f
00000010: abf2 683f 4e2a fc3e 0312 533e 9aea 4a3f
00000020: ad1c 993c 1903 86be 9a97 603f f9ff 553f
00000030: f380 e3bd 8996 87bd 1995 273f 4176 623f
00000040: b39b 7c3d f2a2 6dbe 5e9d bc3d d1a4 c13d
00000050: f78a 37be 4e48 3d3c adc0 3a3d 6856 7e3e
00000060: bcb8 1cbe 0b0f 4cbe ccf7 fbbd 1b59 863e
00000070: f353 503e 73a9 15be 896d 503e 86e4 c23e
00000080: 9587 733e ed10 98be 24ae 3f3f c0d9 793f
00000090: 0a53 793f ac35 f33e c25e 1b3f f80b a13e
000000a0: 6736 553e 9b43 98be 0187 113f effd 753f
000000b0: 32bb 3f3d 563b b4bd d499 863f 0dd1 a43f
000000c0: d1fe 9c3d 7fba 8d3d 813a 4e3e 12e1 423f
000000d0: 492c 4c3f 0a59 8b3e 3072 ba3e 601f cc3e
000000e0: 6491 8bbe 0e19 92be 8035 583e 4788 083d
000000f0: e5bd 04bf cd4d 723c 8408 803e dc19 b83e
00000100: 453a cf3d 3d70 5abe 290f 543f d1fb b73e
00000110: 0655 d33e c9af 803f d020 ba3e fa75 413f
00000120: 816e 613e 2c88 1a3e 25ac 933f b123 243f
00000130: 3295 bc3e 7a17 0cbe 2194 203f 4b69 123f
00000140: c75c e8bc fcaf 693d 4650 a03d 857c c1be
00000150: d227 ccbe 7a6f c5be 4e94 0fbe 2d4d 32bf
00000160: 99e0 b1be 1ca0 00be fd1b 1cbf 528a e53e
00000170: 1cd8 c6be 3b0f 863d 9d52 663e 273d ab3d
00000180: eca2 343d 7f59 46be 4adc 1a3f 1b45 533f
00000190: 6a58 223e 3807 8f3e 02b0 1a3f 069e 0e3f
000001a0: 7169 d4bd b1b6 89be e169 513e e93c 6a3e
000001b0: 00c3 81bc a250 0abf b389 973e e71a d23e
000001c0: 874d 9b3e 1fd8 04bf 5e88 373f ede8 1a3e
000001d0: 5cbb 4c3e f87b 993f 8dfe a93d a921 ee3e
000001e0: 491a 173e 424e 6cbe f549 1d3e 3256 293f
000001f0: dde0 aabe ce43 0fbf 2964 463e a5b1 a63f
00000200: bdd4 c73c 0330 cebe d402 743e 00c6 363f
00000210: b4a4 a03e b07d 16bf b173 253f 38c0 743f
00000220: 3a9c 943e ea9f 71be 9781 37bf ad3b 62be
00000230: c836 83be ff46 debe d68c dc3e 0865 9bbe
00000240: 4dbc 90bd ab71 843f b15d 0ebe 6285 c33e
00000250: 9b99 1d3f c79c 843e 7005 fd3e 0008 95bd
00000260: 7a3b da3e aa46 9d3f 5368 403f caad 433f
00000270: 9e31 fa3f a35b 823f ddd3 96be d8e7 533f
00000280: 7f30 0a3e fd6e a8be febc 233f 21b3 103f
00000290: 59f1 c33e cffe e13e ce0e 713f 3caa ae3e
000002a0: b559 0a3e 57d5 97be f438 4b3f bd98 50be
000002b0: e974 b73e 56bd 8dbe 234a c83e 7bb2 36be
000002c0: a56b 363d 55b0 8abe 6010 25be c698 483f
000002d0: f574 bf3e 8698 623f 6313 e23e 0d91 ec3e
000002e0: a5c4 923e bc3c 1ebf dace c73c deeb f43e
000002f0: 89d2 09bf 1c44 cdbe a663 1d3f 50a1 193f
00000300: 4f5f 9dbc 1ba0 80be ede1 963f 0d76 a8bd
00000310: 4a1a d63e 9e9a 273d c15d 273f e6fb c63e
00000320: 9171 5cbd b4e8 25be 6796 1a3e d19a 4dbe
00000330: d2ae af3e 8aa3 b0be 1f61 923f b740 3f3d
00000340: ab00 3dbe b001 a3bd 192a 613e d31e 463f
00000350: a486 ba3e 864f 4d3e 448c 0cbe 7ef0 533f
00000360: 4471 b03e 8348 49bd bdf4 c4bc 3c39 e0bd
00000370: bf20 d2be bd1c 0cbe d293 84bd 8b17 1d3e
00000380: 5a21 14be 7428 9e3f e654 953e c9e4 f63e
00000390: fe9b c03e daea 1d3f 4bd5 3d3f c902 1d3f
000003a0: b7f2 5a3e a42e ef3f 13ff 433f 78ca 443f
000003b0: 8e4b e33f 4d09 933f 6eeb 353d 277c 253f
000003c0: b9d5 c9bd 2117 65be 3ac9 843e 4daa 263e
000003d0: b356 5a3f 69cb ec3e d7ac 503f ad58 0a3f
000003e0: e95c b23e 1118 bebe fd6d 86be a3aa a93f
000003f0: 90af 3fbd b928 febc bc6c a33e 9c3c 9e3e

se_block_event.2.2.bias f4 [64]
-0.006947015 -0.02868809 -0.44770002 0.10786476 0.17442812 -0.1352091 -0.3626415 -0.2925368
0.32584503 1.740109 -0.15850022 -0.16036332 -0.21282095 -0.1539222 1.8066239 -0.16777577
0.04143675 0.113692276 0.16306624 -0.48512074 0.035756573 0.51910526 -0.09524533 1.4303038
-0.11328653 0.35038847 0.31288692 -0.17040044 -0.30897734 -0.17371224 0.17187299 0.017712887
-0.09336407 -0.5362311 -0.3471186 -0.05676812 -0.16378811 0.493822 -0.14296126 0.22025566
-0.13841148 -0.6019438 -0.101388805 0.34118983 -0.33785447 -0.109348 -0.41637743 0.33403975
-0.32319498 0.021573987 -0.6424306 0.79094565 -0.22233461 0.2589209 -0.5231812 -0.111128986
0.34887838 -0.44025043 1.2709987 -0.037020694 -0.8108296 0.062690966 -0.19930996 0.03649989
00000000: c9a3 e3bb 4903 ebbc f038 e5be 33e8 dc3d
00000010: 499d 323e 4174 0abe 26ac b9be 62c7 95be
00000020: 29d5 a63e e4bb de3f e24d 22be 4836 24be
00000030: bced 59be c89d 1dbe 743f e73f 69cd 2bbe
00000040: 95b9 293d 7fd7 e83d d6fa 263e bf61 f8be
00000050: 7c75 123d 15e4 043f fc0f c3bd 3214 b73f
00000060: c502 e8bd 1e66 b33e b732 a03e 747d 2ebe
00000070: 4732 9ebe 9fe1 31be 79ff 2f3e 9e1a 913c
00000080: a935 bfbd 7146 09bf 87b9 b1be b085 68bd
00000090: 12b8 27be 3dd6 fc3e 7064 12be b38a 613e
000000a0: bdbb 0dbe fd18 1abf efa4 cfbd 6fb0 ae3e
000000b0: 43fb acbe d8f1 dfbd 6c2f d5be 4207 ab3e
000000c0: d079 a5be eebb b03c 5576 24bf 6a7b 4a3f
000000d0: afab 63be 4891 843e 34ef 05bf 9897 e3bd
000000e0: 30a0 b23e 8168 e1be 16b0 a23f 03a3 17bd
000000f0: 8792 4fbf 1f64 803d e917 4cbe e980 153d
