parameters/deephit_model_feature.pth (torch, 183703 bytes, 32 tensors)

se_block.0.weight f4 [4, 17]
0	0xbe4fb456	-0.20283636
1	0xbd9db6eb	-0.077009045
2	0x3c053639	0.0081306035
3	0xbdc93eab	-0.09826406
4	0xbcb68b2c	-0.02228316
5	0xbd760a85	-0.060068626
6	0xbaa156c8	-0.0012309188
7	0xbdbe8103	-0.09301951
8	0xbccd487c	-0.025058977
9	0x3dca694b	0.09883364
10	0xbe091b68	-0.13389361
11	0xbc8b9897	-0.017040534
12	0xbde98ed6	-0.11404197
13	0x3d39bf96	0.045348726
14	0x3ceff07d	0.029289478
15	0xbde5e6d8	-0.112256706
16	0x3e1d5a6b	0.15366523
17	0xbd1a28fc	-0.037636742
18	0x3e04e870	0.12979293
19	0xbe428fa4	-0.19000107
20	0xbde9ba68	-0.11412507
21	0xbe3eb448	-0.1862346
22	0xbdc1ab0f	-0.09456455
23	0xbe3d266a	-0.18471685
24	0xbda18696	-0.07886998
25	0xbe6c2b5b	-0.23063414
26	0xbdd4983d	-0.103806
27	0x3d91250e	0.07087146
28	0xbe5ffd09	-0.21873869
29	0xbe73b203	-0.23798375
30	0xbd671b1d	-0.05642234
31	0x3d52acce	0.05143433
32	0xbd84bc9b	-0.06481286
33	0xbdc5e80f	-0.09663402
34	0xbdb7985f	-0.08964609
35	0x3dd2a251	0.10284866
36	0x3e46abf3	0.19401531
37	0xbdf23028	-0.11825591
38	0xbd72c6ad	-0.059271503
39	0xbe5866d2	-0.21132973
40	0x3e1b41e4	0.15161854
41	0x3e287797	0.1645187
42	0xbed7a44c	-0.42117536
43	0x3e96fc90	0.29489565
44	0xbe37e123	-0.17956977
45	0x3e09d8e8	0.1346165
46	0x3f30b550	0.6902666
47	0x3d1bdc1b	0.038051706
48	0xbc45849e	-0.012055544
49	0xbc11b141	-0.008892358
50	0x3e0f9b2d	0.14024039
51	0x3e2e8e1d	0.170464
52	0x3ec70aab	0.38875327
53	0x3e96c84f	0.29449698
54	0x3e00f4c5	0.12593372
55	0xbd4f7e79	-0.050657723
56	0x3dcadcc5	0.0990539
57	0x3edffdb3	0.43748245
58	0x3d32ad44	0.04362227
59	0x3d5ac860	0.05341375
60	0x3e479ebc	0.19494146
61	0x3d8b0cb9	0.06789536
62	0xbd0ab0b9	-0.033859942
63	0x3ec55633	0.38542327
64	0x3d144dcd	0.03620701
65	0x3c81d81a	0.015850116
66	0x3e031fde	0.12805125
67	0x3c6e5301	0.014546157

se_block.0.bias f4 [4]
0	0xbc301dbe	-0.010749279
1	0x3c80ae97	0.01570825
2	0x3ec501ed	0.38478032
3	0xbfa2f176	-1.2729938

se_block.2.weight f4 [17, 4]
0	0xbf06caf6	-0.52653444
1	0x3edd8457	0.4326503
2	0xbd4fa83b	-0.050697546
3	0x3c795adc	0.0152194165
4	0xbe777a9a	-0.24167863
5	0xbe110583	-0.14162259
6	0xbe0568bf	-0.13028239
7	0x3dcc57ff	0.099777214
8	0x3df2a1fe	0.11847304
9	0xbebc1540	-0.36734962
10	0xbd036059	-0.032074306
11	0x3e21e59d	0.15810247
12	0xbeb378a6	-0.35052985
13	0x3ed1f6d1	0.41008618
14	0x3cb63c1c	0.02224546
15	0xbe583e88	-0.21117604
16	0x3d014886	0.031563304
17	0xbeb3eebc	-0.35143077
18	0x3e0068dc	0.1254
19	0xbe806186	-0.25074404
20	0x3eaf62a9	0.3425496
21	0xbee8e9cb	-0.4549087
22	0xbf04326d	-0.51639444
23	0xbe64623e	-0.22303101
24	0xbd18d47b	-0.037312012
25	0xbe0858a0	-0.13315058
26	0x3eef9a0f	0.46797225
27	0x3f9d6997	1.2297848
28	0x3ee24611	0.4419408
29	0x3dd36d50	0.10323584
30	0x3eb7bf07	0.3588793
31	0xbe4aa7ba	-0.19790545
32	0x3eca3f1e	0.3950128
33	0x3edef8ca	0.43549186
34	0x3e7d4980	0.2473507
35	0xbe578485	-0.21046646
36	0x3e3b0db3	0.18266945
37	0xbeb57c58	-0.3544643
38	0x400f2cdb	2.2371128
39	0x3dd80335	0.10547487
40	0x3c47fe5a	0.012206638
41	0x3e3f3044	0.18670756
42	0x3e0f472a	0.1399199
43	0xbe47e70a	-0.19521728
44	0xbe0637a6	-0.13107166
45	0xbdd61935	-0.104540266
46	0xbe822298	-0.25417018
47	0xbd151411	-0.03639609
48	0x3eb257ef	0.34832713
49	0x3eefcbe7	0.46835253
50	0x3edf049e	0.4355821
51	0x3fb7cbb0	1.4359035
52	0xbc753868	-0.014967062
53	0x3e67d770	0.22640777
54	0xbd25c3c0	-0.040469885
55	0xbe3610a5	-0.17779787
56	0xbdf578d9	-0.119859405
57	0x3d6ddd5e	0.05807244
58	0x3cdbe8c1	0.026844384
59	0xbe67295c	-0.22574371
60	0x3e86a264	0.2629577
61	0xbe5cdf50	-0.21569562
62	0xbd113cd5	-0.035458405
63	0xbe1e8004	-0.15478522
64	0x3ee386b7	0.44438717
65	0x3ef0b81a	0.47015458
66	0xbe4531b8	-0.19257247
67	0xbe2138b4	-0.15744287

se_block.2.bias f4 [17]
0	0xbefafd08	-0.49021173
1	0x3ed2778a	0.41106826
2	0x3e596c85	0.21232803
3	0x3f90a03d	1.1298901
4	0x3dc1ebd8	0.09468812
5	0x3e5bca93	0.21463995
6	0x3e543056	0.20721564
7	0xbe045d87	-0.12926303
8	0x3e3b52de	0.1829333
9	0x3edbf59d	0.42960826
10	0x3d8a5082	0.06753637
11	0xbee0791d	-0.43842402
12	0x3fb9ce55	1.4516093
13	0xbc81fd1c	-0.015867762
14	0xbed7f5e0	-0.42179775
15	0xbd85360a	-0.06504448
16	0xbe8d8a46	-0.27644557

se_block_event.0.0.weight f4 [16, 64]
0	0xbe0b2bd4	-0.13590938
1	0xbee10ef1	-0.43956712
2	0xbe30b523	-0.17256598
3	0xbe466b21	-0.19376804
4	0x3c8badf6	0.017050724
5	0xbe325431	-0.17414929
6	0xbf1a3f3f	-0.60252756
7	0x3e661488	0.2246877
8	0x3e2a256c	0.16615838
9	0x3d87443d	0.06604812
10	0x3e3147b1	0.17312504
11	0xbd29da9c	-0.041468248
12	0xbe858dca	-0.2608474
13	0xbd378c82	-0.044811733
14	0xbe264370	-0.16236663
15	0x3d3ba1c6	0.045808576
16	0xbdea09c5	-0.11427645
17	0xbe829b61	-0.2550917
18	0x3e94c966	0.29059905
19	0xbf09a26a	-0.5376345
20	0x3bf2c79f	0.0074090506
21	0xbd9f1e49	-0.07769448
22	0xbe015199	-0.12628783
23	0x3e68d143	0.22736077
24	0xbda2f66b	-0.07957157
25	0xbcbc1f0d	-0.022964025
26	0x3b6d2c42	0.003618971
27	0xbe9557de	-0.291686
28	0xbfa50994	-1.2893548
29	0xbedfff10	-0.43749285
30	0x3e1e03dd	0.15431161
31	0xbeb61d53	-0.35569248
32	0xbe823d2a	-0.2543729
33	0x3f06e79e	0.5269717
34	0xbd2e2882	-0.0425191
35	0x3e1c2a96	0.1525062
36	0xbe468dd2	-0.19390038
37	0xbdfe7b4f	-0.12425863
38	0xbf0a6079	-0.54053456
39	0xbe28e1df	-0.16492413
40	0xbf4e816c	-0.8066623
41	0x3d8c6e01	0.06856919
42	0xbe97b34b	-0.29628977
43	0xbf803660	-1.0016594
44	0x3d1b6b09	0.037943874
45	0xbe1c81b6	-0.15283856
46	0x3d8b4075	0.067994036
47	0x3ebd153d	0.36930266
48	0x3d03ece1	0.032208327
49	0x3e94b28e	0.29042476
50	0x3de2d8ae	0.110764846
51	0xbe999f95	-0.30004564
52	0x3ebbbf18	0.3666923
53	0x3ecd9a4d	0.40156785
54	0xbee7bf10	-0.45262957
55	0xbe9c6155	-0.30543008
56	0x3e4ef467	0.2021042
57	0x3d9cef50	0.07662833
58	0xbe5a06be	-0.21291634
59	0xbf6e5953	-0.9310505
60	0xbe9d229f	-0.30690476
61	0xbecf1186	-0.40443057
62	0x3eee596c	0.46552598
63	0xbe2dc0e8	-0.16968119
64	0x3e8d999a	0.2765625
65	0x3e708b76	0.234907
66	0x3d911dda	0.07085772
67	0xbcb6eac4	-0.022328742
68	0x3dc2f29e	0.09518932
69	0xbe19353f	-0.14961718
70	0xbf8d0645	-1.1017538
71	0x3eb3df0b	0.35131106
72	0x3dba440f	0.090950124
73	0xbe911a64	-0.28340447
74	0x3e775bfc	0.24156183
75	0x3ef61867	0.48065493
76	0xbec758cf	-0.38934943
77	0x3e0dfb34	0.13865358
78	0xbf330f63	-0.69945353
79	0x3f30c35d	0.690481
80	0xbe87bde3	-0.2651206
81	0x3f3d6478	0.7398143
82	0xbe9def37	-0.3084657
83	0xbe712939	-0.23550881
84	0xbd073dca	-0.03301791
85	0x3adbe28d	0.0016775891
86	0xbdc9ef03	-0.09860041
87	0x3f045f36	0.5170778
88	0x3c5d2399	0.013497257
89	0xbf09d485	-0.53839904
90	0xbe6e0b8a	-0.2324659
91	0xbf6fd485	-0.93683654
92	0x3bd01fad	0.0063514323
93	0xbde7c4df	-0.11316847
94	0x3e898e71	0.26866487
95	0x3e6b6856	0.2298902
96	0xbd4c4de9	-0.04987899
97	0xbd1f033e	-0.03882145
98	0xbcb6d0b7	-0.02231632
99	0xbdf1541a	-0.11783619
100	0xbe03e927	-0.1288191
101	0x3d4ac8bb	0.049507838
102	0x3d621f72	0.05520577
103	0x3ddeb16f	0.108736865
104	0xbefe7c15	-0.49704042
105	0xbe6bf95c	-0.23044342
106	0xbd687d96	-0.056760393
107	0xbe7650c2	-0.24054244
108	0x3becb0a4	0.0072232056
109	0x3de73e96	0.11291234
110	0xbe8da435	-0.27664343
111	0x3ef41408	0.47671533
112	0x3e9913c5	0.29897895
113	0xbea3571c	-0.31902397
114	0x3ae5c655	0.0017530421
115	0x3e66cc05	0.22538765
116	0xbe9c1a5b	-0.30488858
117	0x3e32e8a5	0.1747156
118	0x3e56e0ea	0.20984235
119	0x3d7ac7d6	0.061225735
120	0x3ef21343	0.4728032
121	0x3e26d61f	0.16292618
122	0x3e05ae09	0.1305467
123	0xbf310e8d	-0.6916283
124	0xbc643f24	-0.0139310695
125	0x3eea2e81	0.45738605
126	0x3d4afc0f	0.049556788
127	0xbba82c00	-0.0051321983
128	0xbd817b84	-0.06322387
129	0xbd255f6c	-0.040374205
130	0x3cb303c7	0.021852387
131	0xbdb693f4	-0.089149386
132	0xbe19f5d7	-0.15035187
133	0xbf8106e9	-1.0080234
134	0xbea04f48	-0.31310487
135	0x3c6aa636	0.014321854
136	0x3d67f20a	0.05662731
137	0x3ef87563	0.4852706
138	0x3ebab6f4	0.36467707
139	0x3eede288	0.46461892
140	0x3f909ddc	1.1298175
141	0xbe556dfc	-0.20842737
142	0x3de80021	0.113281496
143	0xbd15e411	-0.036594454
144	0xbe579c5b	-0.21055739
145	0xbee1464f	-0.43998954
146	0xbf434761	-0.7628079
147	0xbd01341a	-0.03154383
148	0x3d7f9e18	0.06240663
149	0xbeee0ce4	-0.4649421
150	0xbc115047	-0.008869237
151	0x3d42dcf1	0.047573987
152	0xbca79f80	-0.020461798
153	0xbe31dfe4	-0.17370564
154	0xbed31389	-0.41225842
155	0x3e8f8365	0.28029934
156	0xbaa69452	-0.0012708998
157	0x3ea49382	0.3214379
158	0x3e1cf37f	0.15327261
159	0x3f0ae290	0.54251957
160	0x3db92f2f	0.09042203
161	0xbd8607fc	-0.06544492
162	0xbdb13885	-0.08653358
163	0x3ea863b4	0.32888567
164	0x3e561807	0.20907603
165	0x3e68c338	0.2273072
166	0xbd33ecf7	-0.04392716
167	0xbe6d6142	-0.23181632
168	0xbf17d34c	-0.5930679
169	0xbe36d99c	-0.17856449
170	0xbd866093	-0.06561389
171	0xbd77dcd2	-0.060513325
172	0x3cda54e2	0.026651803
173	0xbf2b617a	-0.6694561
174	0xbf099194	-0.5373776
175	0xbed2496e	-0.41071647
176	0xbe081ad3	-0.13291483
177	0x3f138b2f	0.5763425
178	0x3f1483a7	0.58013386
179	0xbdfbd759	-0.12296934
180	0x3f0d7dcc	0.55270076
181	0x3e77dc81	0.2420521
182	0xbf79076a	-0.9727694
183	0xbcf1c996	-0.029515069
184	0xbe5354bd	-0.20637794
185	0x3f84dbb8	1.0379553
186	0x3d9dc839	0.07704205
187	0xbe3b8862	-0.18313745
188	0xbf4ad5fa	-0.7923275
189	0xbc9c659f	-0.019091425
190	0x3ee89cdd	0.45432177
191	0xbcad6f07	-0.021171106
192	0xbef72ed9	-0.4827793
193	0xbeac8633	-0.33696136
194	0xbdf97e70	-0.12182319
195	0xbdb28fbf	-0.08718824
196	0xbd945239	-0.07242245
197	0xbe298c57	-0.16557442
198	0xbf06cf7e	-0.5266036
199	0xbe06e84f	-0.13174556
200	0x3e0af122	0.13568547
201	0x3e974c6d	0.29550496
202	0x3dd5db24	0.104421884
203	0xbf3b83d2	-0.73248017
204	0x3f355a82	0.7084123
205	0xbe23136a	-0.15925375
206	0x3dd2a7fa	0.10285945
207	0xbee9a51a	-0.45633775
208	0x3dfc8ee3	0.12331941
209	0xbe06758c	-0.13130778
210	0x3e2624f2	0.16225031
211	0xbf707502	-0.9392854
212	0x3cdfff37	0.027343376
213	0xbea79bd9	-0.3273609
214	0xbe54fd9e	-0.20799872
215	0xbd5f3900	-0.05449772
216	0x3e3b5457	0.18293892
217	0x3e98ecb4	0.2986809
218	0xbbb563a2	-0.005535559
219	0x3deaf218	0.11471957
220	0xbef2aa68	-0.47395635
221	0xbf11c503	-0.5694124
222	0xbd907eb0	-0.07055414
223	0xbed7dea1	-0.4216204
224	0xbedcbc33	-0.43112335
225	0xbf030e48	-0.51193666
226	0xbdcc497d	-0.09974954
227	0x3c3f275e	0.011667101
228	0x3e6093fd	0.21931453
229	0xbe635c25	-0.22203119
230	0xbf176a23	-0.59146327
231	0x3ec03c1c	0.3754586
232	0xbf01a9c2	-0.50649655
233	0xbee1e072	-0.4411655
234	0xbe10874f	-0.14114116
235	0x3d909c85	0.07061104
236	0x3cae25ac	0.021258198
237	0xbe8d426e	-0.27589744
238	0x3e9b3c89	0.30319622
239	0xbeb87945	-0.3603002
240	0xbe7c7151	-0.24652602
241	0x3f18a5e9	0.5962816
242	0x3f13a9fe	0.5768126
243	0xbe89d09d	-0.26916972
244	0x3ef1866d	0.4717287
245	0x3e99c02d	0.3002943
246	0xbe8edf01	-0.27904513
247	0x3e7fd5ed	0.2498395
248	0x3e4cda99	0.20005263
249	0x3f1a26e5	0.602156
250	0x3d320c82	0.04346896
251	0xbead2209	-0.3381503
252	0xbedbd0b2	-0.4293266
253	0xbeab0c45	-0.33407798
254	0x3f0f9824	0.56091523
255	0xbf6b6883	-0.9195635

se_block_event.0.0.bias f4 [16]
0	0x3f195202	0.5989076
1	0x3f12e114	0.5737469
2	0x3ee83382	0.45351797
3	0x3f7d559e	0.98958766
4	0xbee7bd81	-0.45261768
5	0xbe179ea3	-0.14806609
6	0xbecd1c6a	-0.4006074
7	0xbf7be245	-0.98392135
8	0xbefaa596	-0.48954457
9	0xbe366834	-0.17813188
10	0x3dd8a67b	0.10578629
11	0x3f4d5745	0.8021129
12	0x3e85e271	0.26149324
13	0xbe4d25c2	-0.20033935
14	0xbe80ea3e	-0.25178713
15	0x3ef7b3c9	0.48379353

se_block_event.0.2.weight f4 [64, 16]
0	0x3fbc7253	1.4722389
1	0x3fb303ca	1.3985531
2	0x3f8ea52b	1.1144155
3	0x3fbe8043	1.4882892
4	0x3f071f25	0.527819
5	0x3ff6600a	1.9248059
6	0x3fa950a9	1.322774
7	0x3eee08b1	0.46491006
8	0x3fdfaf69	1.7475406
9	0x3f9e1a90	1.2351856
10	0x3f793387	0.9734425
11	0x3fc18f5e	1.5121877
12	0x3f5dd2de	0.8664988
13	0x3f3dad2e	0.74092376
14	0x3fa5e64b	1.2960905
15	0x3f9aa28e	1.2080858
16	0x3f30114c	0.6877639
17	0x3ee69246	0.45033473
18	0xbd906499	-0.070504375
19	0x3f2bb3ff	0.6707153
20	0x3fa85f57	1.3154095
21	0xbcd06156	-0.025437038
22	0x3f78f7e8	0.97253275
23	0x3f84d08a	1.0376141
24	0x3de99c47	0.11406761
25	0xbebaa9c6	-0.36457652
26	0x3f19afc5	0.6003383
27	0x3f1e904d	0.61938936
28	0x3f3ac35d	0.7295435
29	0x3f91baf9	1.1385185
30	0xbd030caa	-0.0319945
31	0x3f6aca74	0.9171517
32	0xbde3578f	-0.11100685
33	0x3e75bf92	0.2399886
34	0xbebd4b9c	-0.36971748
35	0xbea15108	-0.31507134
36	0xbd8bb4b8	-0.06821579
37	0x3ec9a249	0.39381626
38	0x3f87ee2a	1.0619557
39	0x3eb9566b	0.36198744
40	0xbefdc622	-0.49565226
41	0xbef5a792	-0.47979409
42	0xbe119c9c	-0.14219898
43	0x3de680bc	0.11255023
44	0x3e12e6af	0.14345811
45	0xbe65806f	-0.22412275
46	0x3f473935	0.77821666
47	0xbec1ce56	-0.37852734
48	0x3f9efb5b	1.2420458
49	0x3fac8fb8	1.348136
50	0x3f7f80b3	0.99805754
51	0x3fc809d7	1.5628003
52	0x3e631ede	0.22179744
53	0x3ff76cf4	1.9330125
54	0x3fa4f126	1.2886093
55	0x3efca51b	0.49344715
56	0x3fe819fe	1.8132932
57	0x3f9338d5	1.1501719
58	0x3f62b4bb	0.8855702
59	0x3f6881bb	0.90822953
60	0x3f450ca9	0.7697244
61	0x3f4f4e72	0.80979073
62	0x3ff35763	1.9011043
63	0x3faabed8	1.3339491
64	0x3dbbd40c	0.09171304
65	0x3ea11f27	0.3146908
66	0x3f916691	1.1359426
67	0xbf549c68	-0.83051157
68	0x3f43109f	0.76197237
69	0x3d042e4b	0.03227071
70	0x3f84628f	1.0342578
71	0x3f571a93	0.84024924
72	0x3efebc16	0.49752873
73	0x3fa46ab4	1.2845063
74	0x3f094275	0.5361703
75	0xbe23085f	-0.15921162
76	0x40215a8e	2.521152
77	0x3ff7e2cb	1.9366087
78	0x3fb3bd2f	1.4042109
79	0x3ea6a2d3	0.325461
80	0x3e8af4e8	0.27139974
81	0x3ed5618d	0.41675988
82	0xbe40a07a	-0.18811217
83	0xbd6e719d	-0.05821382
84	0xbf6519ff	-0.8949279
85	0xbeaea476	-0.3410985
86	0xbe914507	-0.28372976
87	0x3eb89941	0.36054423
88	0xbddeafec	-0.10873398
89	0x3c7e4402	0.015519144
90	0x3d5f6e28	0.054548413
91	0x400a995c	2.1656103
92	0x3dd60772	0.10450639
93	0x3e42b720	0.19015169
94	0xbbe7f3a1	-0.0070786034
95	0xbed73495	-0.42032304
96	0x3dd9b18d	0.10629568
97	0xbe180c35	-0.14848407
98	0xbe9e49c0	-0.30915642
99	0xbd228265	-0.039675135
100	0xbea22a58	-0.3167293
101	0x3e59cdd5	0.21269925
102	0x3f7fd398	0.9993224
103	0xbe2dc8c0	-0.16971111
104	0xbde91f70	-0.11382949
105	0xbd6b7aa1	-0.057489995
106	0x3e29d70a	0.16585937
107	0x3f9235c4	1.1422658
108	0xbf018d19	-0.5060592
109	0xbdeee524	-0.11664799
110	0x3ebe168b	0.37126574
111	0xbe8445a6	-0.25834388
112	0x3f85b034	1.0444398
113	0x3fadd5ae	1.3580835
114	0x401114bf	2.2668912
115	0x3fba2d9f	1.4545172
116	0x3f70fa95	0.9413236
117	0x3f80b9ff	1.0056762
118	0x3faa89a9	1.332326
119	0x3f17568b	0.5911643
120	0x3fbc3a30	1.4705257
121	0x3f9015ec	1.125669
122	0x3f9b6503	1.2140201
123	0x3f9c0653	1.218943
124	0x3f345806	0.70446813
125	0x3f4281b1	0.75979143
126	0x3fce1fa5	1.6103407
127	0x3ff7d568	1.9362001
128	0x3e52ad0e	0.20573828
129	0x3e22a514	0.15883285
130	0x3f151c63	0.5824644
131	0x3e34b20c	0.17646044
132	0x3f189ca0	0.5961399
133	0xbf097459	-0.5369316
134	0x3f5816aa	0.8440958
135	0x3bbbd8bb	0.0057326234
136	0xbf65c28d	-0.89749986
137	0xbea8ceac	-0.32970178
138	0xbe28ba1f	-0.1647725
139	0xbcc0a9d3	-0.023518478
140	0xbe2fa475	-0.17152579
141	0xbeadba90	-0.33931398
142	0xbe85857d	-0.26078406
143	0x3c7cadc9	0.015422293
144	0x3e020d0e	0.12700292
145	0xbd269781	-0.04067183
146	0xbd5dfd15	-0.054196436
147	0x3e5589e1	0.20853378
148	0x3eb4c273	0.35304603
149	0x3d9549fb	0.07289501
150	0x3e8a97c6	0.2706892
151	0x3f3eea48	0.74576235
152	0xbe9207a0	-0.28521442
153	0xbe2a49ab	-0.16629665
154	0xbe0c8c70	-0.13725448
155	0xbd0cce55	-0.03437646
156	0x3b186ec0	0.0023259372
157	0x3acbf413	0.0015560411
158	0xbe803d32	-0.25046688
159	0xbe2196a2	-0.15780118
160	0x3e3edb1e	0.18638274
161	0x3ea81503	0.3282853
162	0xbcc4e4a7	-0.024034811
163	0x3f46f5ff	0.7771911
164	0x3f03525f	0.51297563
165	0x3edf9562	0.43668658
166	0x3ea3503e	0.31897157
167	0x3f2dbc3f	0.67865366
168	0x3ed56ba1	0.41683677
169	0xbe6f05fc	-0.23342127
170	0x3e144341	0.1447878
171	0x3d99fbfe	0.07518767
172	0x3eb1e0ef	0.34741923
173	0x3e630a15	0.22171815
174	0x3edc2c14	0.4300238
175	0x3e67b9f2	0.22629526
176	0x3f71af01	0.9440766
177	0x3ecf1aec	0.40450227
178	0x3e868d6d	0.26279774
179	0x3f80d24c	1.0064178
180	0x3f16e4be	0.5894278
181	0xbe90e9c2	-0.28303343
182	0x3eed2015	0.4631354
183	0x3edf2a6e	0.4358706
184	0x3e45c98e	0.19315168
185	0xbe83ebcf	-0.25765845
186	0x3f2dc891	0.67884165
187	0x3e933229	0.28749207
188	0x3e8c323a	0.2738207
189	0x3e797517	0.24361072
190	0xbee112d2	-0.4395967
191	0x3ead3a9a	0.33833772
192	0xbddda283	-0.10822012
193	0x3f534719	0.8253036
194	0x3fdc3f04	1.7206731
195	0x3f435ce4	0.76313615
196	0x3ebc1e32	0.36741787
197	0x3fa9637d	1.3233486
198	0x3f54a982	0.8307115
199	0x3dfd8935	0.12379686
200	0x3f1724d5	0.59040576
201	0x3e9c2b8f	0.30501983
202	0x3ea5cba6	0.32381934
203	0x3f3c7fc6	0.73632467
204	0x3e9daa92	0.30794197
205	0x3e9c3590	0.30509615
206	0x3fa7f46c	1.3121467
207	0x3f5f3704	0.8719332
208	0xbe16042e	-0.14650032
209	0xbb57d0a1	-0.003293075
210	0xbf45f11b	-0.7732102
211	0x3e9fd552	0.31217438
212	0xbeccd1e0	-0.40003872
213	0xbe2d61e1	-0.16931869
214	0x3e8948a9	0.26813248
215	0x3e07b95c	0.13254303
216	0xbecae6b8	-0.3962915
217	0xbf3c1eb5	-0.73484355
218	0xbf601954	-0.8753865
219	0xbf20172e	-0.6253537
220	0xbf68be86	-0.90915716
221	0xbed31fa5	-0.4123508
222	0xbef281ed	-0.4736475
223	0xbe7d8627	-0.24758206
224	0x3f5924f6	0.8482202
225	0x3fa2441f	1.2677039
226	0x3ff863e5	1.9405485
227	0x40136d79	2.3035567
228	0x3f37c422	0.7178365
229	0x400dbdc2	2.214707
230	0x3f828057	1.0195416
231	0x3f6b5db9	0.91939884
232	0x3fc1958a	1.5123761
233	0x400e88dc	2.2271032
234	0x3f8a0806	1.0783699
235	0x3f9243d8	1.1426954
236	0x3febdf4d	1.8427521
237	0x3f3fcd1a	0.74922335
238	0x3fd36b2a	1.6517079
239	0x3f818ec7	1.0121697
240	0x3f2caa2b	0.67447156
241	0x3f848246	1.0352256
242	0x3f10b203	0.56521624
243	0x3f98f12c	1.19486
244	0x3f1ce5a2	0.6128789
245	0x3f61906e	0.8811101
246	0x3e716c6e	0.23576519
247	0x3f371f70	0.71532345
248	0x3fa86a03	1.3157352
249	0x3f0d1517	0.55110306
250	0x3e813d7b	0.25242218
251	0x3f359c8e	0.7094201
252	0x3ec2051f	0.37894532
253	0x3f30e567	0.6910004
254	0x3f504a3a	0.8136326
255	0x3f650681	0.8946305

se_block_event.0.2.bias f4 [64]
0	0x3f310355	0.6914571
1	0xbc0c7ca1	-0.008574636
2	0xbd8ab47e	-0.067727074
3	0x3f892cb3	1.0716766
4	0x3ed055b1	0.40690377
5	0xbeb9085d	-0.36139193
6	0xbf3cfcbf	-0.7382316
7	0x3f8f10af	1.1176966
8	0x3e80274a	0.25029975
9	0x3d213281	0.039354805
10	0xbf17726e	-0.5915898
11	0x3efb052c	0.49027383
12	0x3e17011a	0.14746514
13	0x3e1a18fc	0.15048593
14	0x3ff8cbf3	1.943724
15	0x3f421d05	0.7582553
16	0xbef23422	-0.473054
17	0x3f5bcfb5	0.8586381
18	0x3f5b8a81	0.85758215
19	0x3e3b14d6	0.18269667
20	0xbf0a46e6	-0.5401443
21	0xbedcfa1e	-0.43159574
22	0x3e43ead7	0.19132553
23	0x3edda888	0.43292642
24	0x3c916c36	0.017751794
25	0xbe0bd348	-0.13654816
26	0xbf395069	-0.7238832
27	0x3e7ff7b6	0.24996838
28	0x3fea4c53	1.8304542
29	0x3f764b27	0.96208423
30	0x3ecf70b6	0.4051568
31	0x3fb2fc6f	1.3983287
32	0x3fa19252	1.2622778
33	0xbed7a996	-0.4212157
34	0xbf22e478	-0.63629866
35	0xbebe287d	-0.37140265
36	0x3e5f8269	0.21827091
37	0x3f5eadb8	0.86983824
38	0xbef7a6c8	-0.48369431
39	0x3eff264f	0.49833915
40	0x3fd1337a	1.6343834
41	0x3f53b2da	0.8269478
42	0x3d6a41cb	0.05719165
43	0x3fe599a3	1.7937511
44	0x3e8cf33d	0.27529326
45	0xbed45c26	-0.41476554
46	0x3dab8687	0.083752684
47	0x3e67a381	0.22620966
48	0x3e9d552a	0.30729038
49	0x3e141b3b	0.14463513
50	0x3ea47775	0.32122388
51	0xbb8c57d1	-0.0042829295
52	0x3f20dd9d	0.62838155
53	0x3f0aa7da	0.5416237
54	0x3f8c4da1	1.096119
55	0x3fda3cc1	1.7049791
56	0x3f67cf89	0.9055105
57	0x3e6993b5	0.22810252
58	0xbe9d28f5	-0.3069531
59	0x3d161d47	0.036649015
60	0x3f6a169b	0.91440743
61	0xbf148fb3	-0.5803177
62	0x3eaf2d98	0.34214473
63	0xbe9b67fe	-0.30352777

se_block_event.1.0.weight f4 [16, 64]
0	0x3df67079	0.12033171
1	0x3ec564a0	0.38553333
2	0x3e6137ca	0.21993938
3	0xbe95952a	-0.29215366
4	0xbdb0c2cf	-0.08630907
5	0xbe9552db	-0.29164776
6	0xbe7edfbf	-0.2489004
7	0x3e6dc783	0.23220639
8	0xbd44b338	-0.04802248
9	0x3e89e568	0.26932836
10	0x3f9a892a	1.2073109
11	0x3e2d2252	0.16907623
12	0x3ebb3854	0.36566412
13	0xbc5337ff	-0.0128917685
14	0x3c8f9932	0.017529104
15	0x3ee2dbde	0.4430837
16	0x3e9b2590	0.30302095
17	0x3c23b7c9	0.009992548
18	0xbe88b396	-0.26699513
19	0x3e37e35f	0.17957829
20	0x3c4fe496	0.0126887765
21	0xbeab7d34	-0.3349396
22	0x3d414166	0.04718151
23	0x3eae9a36	0.3410203
24	0x3d402da7	0.046918537
25	0xbda7c7f8	-0.08192438
26	0x3eb1d292	0.34730965
27	0xbe640a48	-0.22269547
28	0x3de33a03	0.11095049
29	0xbd5bf70c	-0.0537024
30	0xbda66db4	-0.08126393
31	0xbc7bc297	-0.015366218
32	0x3ea4dd80	0.3220024
33	0x3d2c0ee1	0.042006377
34	0xbe8970f5	-0.26843992
35	0xbe753e27	-0.2394949
36	0xbdec9318	-0.115514934
37	0xbc49c968	-0.012316085
38	0xbd23f86b	-0.04003183
39	0x3ec19118	0.3780601
40	0x3dd88e57	0.10574024
41	0x3f10003f	0.56250376
42	0xbd77e35c	-0.06051956
43	0x3e329618	0.17440069
44	0x3e5f9474	0.21833974
45	0x3e2458e1	0.1604953
46	0x3ee6e76d	0.4509844
47	0x3f13c870	0.5772772
48	0x3dfc5bca	0.12322195
49	0x3e80adf9	0.2513273
50	0x3dd1b180	0.102389336
51	0x3e7cd8e7	0.24692117
52	0xbe47ad1c	-0.1949963
53	0x3e5d506e	0.21612713
54	0x3c529795	0.012853523
55	0x3e18e593	0.14931326
56	0xbe83a848	-0.25714326
57	0x3f22c776	0.63585603
58	0x3eb1a43a	0.34695607
59	0xbde564e0	-0.11200881
60	0xbd7358d4	-0.059410885
61	0x3e78e930	0.24307704
62	0xbcf570d7	-0.029961033
63	0xbd26afad	-0.04069488
64	0x3e63307b	0.22186463
65	0x3f857ee1	1.0429345
66	0xbec9453c	-0.39310634
67	0x3e6e504f	0.23272823
68	0xbe13df4a	-0.14440647
69	0x3ef398cb	0.4757751
70	0x3c809097	0.015693946
71	0xbbb13929	-0.0054084253
72	0x3d9d3135	0.07675401
73	0x3f02bf5d	0.5107325
74	0x3f4606f9	0.7735439
75	0x3e8015ea	0.2501672
76	0x3dccf266	0.10007171
77	0xbece277c	-0.402645
78	0xbc8cc817	-0.017185254
79	0x3e638a89	0.22220816
80	0xbe6678da	-0.22507039
81	0x3e4fe468	0.20301974
82	0xbddf1882	-0.10893346
83	0x3df06e8e	0.11739837
84	0x3e1cf299	0.15326919
85	0xbee2d66e	-0.44304222
86	0x3ec19c7d	0.37814704
87	0xbdf3b47d	-0.1189966
88	0x3e321f26	0.17394695
89	0x3d355b5e	0.044276588
90	0x3d1cc7e0	0.038276553
91	0x3d6349c6	0.055490278
92	0x3e17cb98	0.14823759
93	0x3e30ac98	0.1725334
94	0x3ec7eb34	0.39046633
95	0xbdd2ff07	-0.10302549
96	0x3eacd167	0.3375351
97	0x3e6889e0	0.22708845
98	0xbed5769c	-0.41692054
99	0x3e45e2bb	0.19324772
100	0xbe7e748b	-0.24849145
101	0x3c277a54	0.010222036
102	0x3ecd6fca	0.4012435
103	0xbd10c384	-0.03534271
104	0xbee77f71	-0.45214418
105	0x3f93a549	1.1534816
106	0xbe66e52a	-0.22548357
107	0xbdb1af4f	-0.086760156
108	0xbe72e192	-0.23718861
109	0xbea197fd	-0.3156127
110	0x3e2b1096	0.16705546
111	0x3ec23bae	0.37936157
112	0x3e0b8245	0.13623913
113	0xbe1adf0f	-0.15124153
114	0x3e8baa53	0.27278385
115	0xbbeceb4f	-0.0072301994
116	0x3e4c2c82	0.19938853
117	0x3e0a9796	0.13534388
118	0xbd07e256	-0.033174835
119	0x3ecb7ced	0.39743748
120	0xbdda6072	-0.10662927
121	0x3ef1abce	0.4720139
122	0xbf376a93	-0.71646994
123	0x3dc210e7	0.0947588
124	0x3c42aeeb	0.011882524
125	0x3d177c78	0.036983937
126	0x3e2428ad	0.16031142
127	0x3ecdd4c6	0.40201396
128	0x3e15ec8f	0.14641021
129	0x3f32ba5e	0.69815624
130	0x3e89aad7	0.26888153
131	0xbf0b9617	-0.54525894
132	0x3e927044	0.28601277
133	0x3f5c8bd4	0.8615086
134	0x3ee5dfbc	0.44897258
135	0x3db68745	0.08912519
136	0x3e8604cb	0.26175532
137	0x3ef1ac06	0.47201556
138	0xbdd576c0	-0.104230404
139	0xbe300384	-0.17188841
140	0xbf19e8de	-0.6012095
141	0x3e4bf7e1	0.19918777
142	0xbeab000a	-0.33398467
143	0x3ea9b30a	0.33144408
144	0x3eef2e74	0.46715128
145	0x3e1f8a13	0.15580015
146	0x3e0c1207	0.13678752
147	0xbeb81bfd	-0.35958853
148	0x3d992a07	0.07478719
149	0x3e20e5ea	0.15712705
150	0xbf08bc9a	-0.53412783
151	0x3eb46b1b	0.35237965
152	0x3e946753	0.2898508
153	0x3f0c5fe2	0.54833806
154	0x3f046c72	0.51727974
155	0x3e53f9e6	0.20700797
156	0xbe771409	-0.24128737
157	0xbe7a1b9b	-0.24424593
158	0x3e9ac3fd	0.30227652
159	0xbf33e021	-0.7026387
160	0xbee4b47e	-0.44668955
161	0x3ea34cca	0.31894523
162	0x3e8df998	0.27729487
163	0x3edbc0b2	0.42920452
164	0x3e1ff698	0.15621412
165	0xbebc1f06	-0.3674242
166	0x3e8907f3	0.26763877
167	0x3ee41f2b	0.4455503
168	0x3d6cb575	0.05779024
169	0xbec20947	-0.37897703
170	0x3e76a5f4	0.24086744
171	0xbd93604c	-0.071961015
172	0x3cd337a6	0.025783371
173	0x3e0e6f43	0.1390963
174	0x3f0d88c7	0.5528683
175	0xbd1137c6	-0.03545358
176	0x3eba8141	0.36426738
177	0xbf863670	-1.0485363
178	0xbf291e35	-0.6606172
179	0x3ef9aab5	0.48763052
180	0xbf0dbceb	-0.5536639
181	0x3d819f7b	0.063292466
182	0x3e5c8b46	0.21537504
183	0xbf79af0e	-0.9753274
184	0xbd898fb6	-0.06716864
185	0xbd427777	-0.04747721
186	0x3e258bd7	0.16166626
187	0x3ece3e5f	0.4028196
188	0x3d941a68	0.07231599
189	0x3db85676	0.09000866
190	0xbe43513e	-0.1907396
191	0x3ef6df58	0.48217273
192	0x3e94afa5	0.29040256
193	0x3f404f50	0.7512102
194	0xbc6923c5	-0.0142297195
195	0xbe495b8e	-0.19663832
196	0xbe832109	-0.2561114
197	0x3ec83f40	0.39110756
198	0x3da5e90e	0.08101092
199	0x3edb386c	0.42816484
200	0xbebf6836	-0.37384194
201	0xbe22cc33	-0.15898208
202	0x3ec968b7	0.39337704
203	0x3e35ce4e	0.1775448
204	0xbe0586dc	-0.13039726
205	0xbe6317b1	-0.22177006
206	0xbe49814a	-0.19678226
207	0x3f0d04c4	0.55085397
208	0xbe52b767	-0.20577775
209	0x3df060f2	0.11737241
210	0xbed8431c	-0.422387
211	0x3eb329b2	0.34992748
212	0xbde79eb6	-0.113095686
213	0x3f0ff0ad	0.5622662
214	0x3e099622	0.13436177
215	0x3e60869f	0.21926354
216	0x3d80cf6f	0.06289565
217	0xbe863341	-0.2621098
218	0x3cab8a31	0.020939918
219	0xbdbc59be	-0.091968045
220	0x3df510d2	0.11966099
221	0x3db56605	0.08857349
222	0x3e76c21b	0.24097483
223	0xbc927f47	-0.017882956
224	0xbd808f72	-0.0627736
225	0x3c96f950	0.018429428
226	0xbf39710a	-0.7243811
227	0xbe480315	-0.19532426
228	0xbecec3d6	-0.40383786
229	0x3d1139ba	0.035455443
230	0xbc4b2a39	-0.012400203
231	0x3eb9a707	0.36260244
232	0xbe8f2e31	-0.2796493
233	0x3edec7b3	0.43511733
234	0xbcb72f53	-0.022361433
235	0x3e205ce0	0.15660429
236	0x3cf8a1d2	0.0303506
237	0x3d7728c3	0.060341608
238	0x3e14d756	0.14535269
239	0x3e2aae53	0.16668062
240	0x3f35d4c9	0.7102781
241	0xbd269145	-0.040665884
242	0xbd542393	-0.05179174
243	0x3eba9553	0.3644205
244	0x3df1c356	0.118048355
245	0x3e3e4a79	0.18583097
246	0xbe1be94b	-0.15225713
247	0x3f5724e6	0.8404068
248	0xbd996763	-0.074904226
249	0xbe2a4b2e	-0.16630241
250	0xbedc577c	-0.43035495
251	0x3d6446eb	0.055731695
252	0xbcc133c4	-0.023584254
253	0xbc1f5f3a	-0.009727294
254	0x3ee5405b	0.44775662
255	0x3e6d6a5c	0.23185104

se_block_event.1.0.bias f4 [16]
0	0xbf740245	-0.95315963
1	0xbf4a0e4d	-0.7892807
2	0x3dcc5b7d	0.099783875
3	0xbf43b6cc	-0.764508
4	0xbf95c7e0	-1.1701622
5	0xbe823835	-0.25433508
6	0xbd874e41	-0.066067226
7	0x3b34f379	0.0027610941
8	0xbe3fa539	-0.18715371
9	0xbf490792	-0.78527176
10	0xbfc7f927	-1.562291
11	0xbfa6aea2	-1.3022044
12	0xbf2bafac	-0.6706493
13	0xbf90a218	-1.1299467
14	0xbf0ead5b	-0.5573327
15	0xbe5dc356	-0.21656546

se_block_event.1.2.weight f4 [64, 16]
0	0xbf3c2279	-0.734901
1	0xbe14a61c	-0.1451649
2	0x3d9ff1f4	0.07809821
3	0x3dc45f22	0.09588458
4	0xbd7d1f69	-0.061797533
5	0xbe83ed96	-0.257672
6	0xbd194e8e	-0.03742843
7	0x3e500b1b	0.20316736
8	0x3e52f921	0.20602848
9	0x3e188bcd	0.1489708
10	0x3f190c3c	0.59784293
11	0x3e766d62	0.24065164
12	0x3b83df87	0.0040244493
13	0x3da3456a	0.07972224
14	0x3f54c346	0.83110464
15	0xbe1de6b6	-0.1542004
16	0x3fa17c9f	1.2616156
17	0x3ff44687	1.9084023
18	0x3dc125da	0.09431048
19	0x3fee81a3	1.8633312
20	0x3fd8f177	1.6948689
21	0x3fbb0a00	1.4612427
22	0x3f38f541	0.7224923
23	0x3c2cfe4b	0.010558675
24	0x3f1cfabe	0.613201
25	0x3fa88d23	1.3168072
26	0x400f34e2	2.2376027
27	0x3ff71c9c	1.9305606
28	0x3f8cb2b1	1.0992032
29	0x3fdd90d1	1.730982
30	0x3f93832d	1.1524407
31	0xbde9e994	-0.114215046
32	0xbeda8e17	-0.4268653
33	0x3e84434b	0.2583259
34	0xbeb4f398	-0.35342097
35	0x3d7b7a6a	0.06139604
36	0x3ed588c0	0.41705894
37	0x3e0340da	0.12817708
38	0xbeaa89c2	-0.33308226
39	0x3cc143a8	0.023591831
40	0x3eb2db76	0.3493306
41	0xbe9ff67d	-0.31242743
42	0xbebb9d9c	-0.36643684
43	0x3f51e030	0.8198271
44	0xbe2f3fdd	-0.17114206
45	0x3ebcfb1d	0.36910334
46	0x3df8339d	0.121192195
47	0x3ed0b68f	0.4076428
48	0x3ecdbad4	0.401816
49	0x3f6d9a58	0.92813635
50	0x3e7c1d0e	0.24620458
51	0x3f17d596	0.5931028
52	0x3f28b70b	0.659043
53	0x3ea71bfb	0.32638535
54	0xbe1d14a8	-0.15339911
55	0xbeb440c4	-0.35205662
56	0xbef288e4	-0.47370064
57	0xbd4dae54	-0.05021508
58	0x3f472ab9	0.77799565
59	0x3f156140	0.58351517
60	0x3e7137a1	0.23556377
61	0x3f2a39fb	0.6649472
62	0x3d7dae90	0.061934054
63	0xbe6e2b77	-0.23258768
64	0x3e682242	0.22669318
65	0x3ee96ded	0.4559168
66	0x3e2c69b8	0.16837204
67	0x3ead925a	0.3390072
68	0x3ea32807	0.31866476
69	0xbce76574	-0.028246619
70	0xbdc80cf0	-0.09768093
71	0xbd5d7c97	-0.054073896
72	0xbe39466e	-0.18093273
73	0x3d2b6b95	0.041850645
74	0xbdcb8870	-0.09938133
75	0xbe1d4d5e	-0.15361544
76	0x3e956dc6	0.29185313
77	0x3ddd3fcb	0.10803183
78	0x3e870347	0.26369688
79	0xbe8bde11	-0.2731786
80	0x3e92dc6b	0.2868379
81	0xbe6491fa	-0.2232131
82	0x3d89cbaa	0.06728299
83	0xbc82f77d	-0.015987152
84	0xbf017ce7	-0.5058121
85	0x3f80388b	1.0017256
86	0x3f8e560e	1.1120012
87	0x3f3a164e	0.72690284
88	0xbdcb0d6f	-0.09914672
89	0x3e2fe073	0.17175464
90	0x3f0dd3b8	0.5540118
91	0x3e42df54	0.19030505
92	0xbef20659	-0.47270468
93	0x3e351442	0.17683509
94	0xbd72252f	-0.059117492
95	0xbd618bd9	-0.05506501
96	0xbcd6bc04	-0.0262127
97	0xbf30bd0e	-0.69038475
98	0xbd718837	-0.058967795
99	0x3dc6e341	0.09711314
100	0x3ed13905	0.40863815
101	0xbda31c8c	-0.07964429
102	0x3e967498	0.2938583
103	0x3efcebd5	0.49398676
104	0x3f8840aa	1.0644734
105	0x3f057ded	0.5214527
106	0x3ef9e012	0.48803765
107	0x3dc1205b	0.094299994
108	0x3e33c995	0.17557366
109	0xbe38f6ca	-0.18062893
110	0x3f205769	0.6263338
111	0xbee5aa17	-0.4485633
112	0xbdfd8897	-0.12379568
113	0x3f8163f5	1.010863
114	0x3c12c1ba	0.008957321
115	0xbeb68df7	-0.35655186
116	0x3f1715ff	0.5901794
117	0xbc7d9f1e	-0.015479831
118	0x3e1adb58	0.15122736
119	0x3e9468b8	0.28986144
120	0x3e97ea07	0.29670736
121	0xbf1976b8	-0.59946775
122	0xbeb57692	-0.35442024
123	0xbe9fe234	-0.31227267
124	0x3cc5387d	0.024074787
125	0x3f04e5ac	0.5191295
126	0x3f1d6df5	0.61495906
127	0xbde5afe9	-0.11215193
128	0xbe993a1c	-0.29927146
129	0x3e9812a5	0.29701725
130	0xbe2355ac	-0.1595065
131	0x3e9e5a30	0.30928183
132	0x3ea74073	0.32666358
133	0xbdc6f63d	-0.09714935
134	0xbe46e1fd	-0.19422145
135	0xbec74a9c	-0.3892411
136	0x3e114e4d	0.14190026
137	0x3e9d8eb0	0.30772924
138	0x3e91a6fc	0.2844771
139	0x3d93a737	0.07209628
140	0x3d170d11	0.036877695
141	0x3f0b0906	0.54310644
142	0x3f8c04bf	1.0938948
143	0xbf0efe93	-0.558572
144	0x3f6a72c3	0.9158136
145	0xbf844b0f	-1.0335406
146	0xbec77e41	-0.38963512
147	0xbf0cb55e	-0.54964244
148	0x3f54ac5e	0.8307551
149	0x3e7dead7	0.24796616
150	0x3e927f02	0.28612524
151	0x3e4e4952	0.20145157
152	0x3f1da8ba	0.6158558
153	0x3e9d0e93	0.30675182
154	0x3f9b8af4	1.215178
155	0x3fb26810	1.3938007
156	0x3f163839	0.5867954
157	0x3f9eef84	1.2416844
158	0x3fb24ab8	1.3929052
159	0xbe9ccb2b	-0.30623755
160	0x3e212faf	0.15740846
161	0x3f27a135	0.6548036
162	0x3e91bfcc	0.28466642
163	0x3f1e929b	0.6194245
164	0x3f1557e7	0.58337253
165	0x3f562bd4	0.83660626
166	0x3ee61c4e	0.4494347
167	0x3bd9290d	0.006627208
168	0xb989b617	-0.00026266344
169	0xbdce07ea	-0.10060103
170	0xbcd08c83	-0.025457626
171	0x3ed7fa70	0.42183256
172	0x3c62d307	0.013844258
173	0x3f012dc2	0.50460446
174	0x3f797eee	0.97459304
175	0xbd417a27	-0.047235634
176	0x3c087c2e	0.008330388
177	0x3e4f0035	0.20214923
178	0x3da42ac1	0.08015967
179	0xbdbee0c4	-0.093202144
180	0xbd5789b6	-0.052621566
181	0x3e658c75	0.22416861
182	0x3db26be6	0.08711986
183	0xbe620d18	-0.22075307
184	0xbdd3685f	-0.103226416
185	0xbece7b77	-0.4032857
186	0x3ee81969	0.45331886
187	0x3e65180b	0.22372453
188	0xbe2fb9e2	-0.17160752
189	0x3dbd7221	0.09250284
190	0xbe28c5e3	-0.16481738
191	0xbe87bc88	-0.26511025
192	0x3ecb66d1	0.3972688
193	0x3b8b936d	0.004259518
194	0x3f821d4e	1.0165193
195	0x3ef6100b	0.48059115
196	0x3c672ec2	0.014110269
197	0x3f0569da	0.5211464
198	0x3f0b69d0	0.5445833
199	0x3f980187	1.1875466
200	0x3f6b7a53	0.91983527
201	0x3ead8c5b	0.33896145
202	0x3e997ec1	0.29979518
203	0xbecb4dd5	-0.3970782
204	0x3f167db3	0.5878555
205	0x3d96381b	0.0733492
206	0x3f373261	0.7156125
207	0x3f55963d	0.8343237
208	0x3d6e69cd	0.05820637
209	0x3efda695	0.49541155
210	0xbec901da	-0.39259225
211	0x3eb14887	0.34625646
212	0xbe21d807	-0.15805064
213	0x3e0477d8	0.12936342
214	0xbe3a3e26	-0.1818777
215	0xbecd6d0b	-0.40122256
216	0xbd984347	-0.07434707
217	0x3e2ece10	0.17070794
218	0xbe8c949b	-0.27457127
219	0xbdd2e381	-0.10297299
220	0x3ee3e9f0	0.44514418
221	0x3c77deda	0.015128816
222	0x3d8a7c8b	0.06762036
223	0xbe350b92	-0.17680195
224	0x3edc8539	0.4307039
225	0x3e89e63b	0.26933464
226	0x3f8f4a92	1.1194632
227	0x3ea4dc83	0.32199487
228	0x3f5455f8	0.8294368
229	0x3f954293	1.1660942
230	0x3f564bf9	0.83709675
231	0x3ed8dd86	0.4235651
232	0x3e3fd74d	0.18734474
233	0x3ee632b7	0.44960567
234	0x3e1e4228	0.15454924
235	0x3f33db75	0.7025674
236	0x3ef1d732	0.47234493
237	0x3f021a7b	0.50821656
238	0x3eb7bc2f	0.3588576
239	0x3d87a97f	0.06624126
240	0x3f0f527e	0.5598525
241	0xbe5149cb	-0.20438306
242	0xbe3082f2	-0.17237452
243	0x3ea024ae	0.31277984
244	0xbebdd3f5	-0.37075773
245	0x3ed1f360	0.41005993
246	0x3ef3515c	0.4752301
247	0x3ef1c1ad	0.47218075
248	0x3f19be3d	0.60055906
249	0xbd282eea	-0.041060366
250	0x3ee63557	0.4496257
251	0xbe9d0e8b	-0.30675158
252	0xbf1fdde9	-0.62447983
253	0xbe9b1a03	-0.30293283
254	0x3e95f5a5	0.29288974
255	0x3e2f45cd	0.1711647

se_block_event.1.2.bias f4 [64]
0	0xbd140cdf	-0.036145087
1	0x3d854b56	0.0650851
2	0x3adb9a89	0.0016754429
3	0xbe1c147e	-0.15242192
4	0x3e115d2a	0.14195696
5	0xbe595b2e	-0.21226189
6	0xbe45d856	-0.19320807
7	0xbe6ad12f	-0.2293136
8	0xbdf6dc80	-0.12053776
9	0xbe3b6180	-0.18298912
10	0xbe537db9	-0.20653428
11	0x3e66cd86	0.22539338
12	0x3f7ce105	0.9878085
13	0xbe38f1e5	-0.18061025
14	0x3f3bdefb	0.73387116
15	0x3e537ec5	0.20653827
16	0xbe493836	-0.19650349
17	0xbd9b27c8	-0.07575947
18	0xbc48d896	-0.012258669
19	0xbc8d805c	-0.01727312
20	0xbe4a42ba	-0.19752017
21	0xbcbf0600	-0.02331829
22	0x3f86a63b	1.051948
23	0xbd53b968	-0.05169049
24	0xbf048bec	-0.51776004
25	0xbef800fc	-0.4843825
26	0xbd4237e8	-0.047416598
27	0x3e0323c1	0.12806608
28	0x3f3edbd7	0.745542
29	0xbd30618c	-0.043061778
30	0x3eabc40c	0.3354801
31	0x3f44417c	0.7666242
32	0x3e3976e0	0.18111753
33	0xbecaae00	-0.39585876
34	0xbe8fafd8	-0.28063846
35	0xbedc73b0	-0.43057013
36	0xbd0411a1	-0.032243375
37	0xbe139b5b	-0.14414732
38	0x3dbb02d2	0.09131397
39	0x3d4460ac	0.047943756
40	0x3da444b5	0.08020917
41	0xbe8f016f	-0.2793078
42	0x3e5b1d60	0.21397924
43	0x3ecb1616	0.39665288
44	0xbe32ee11	-0.17473628
45	0xbe083611	-0.13301875
46	0xbcd466b3	-0.025927877
47	0xbc930758	-0.017947838
48	0xbeb36e6e	-0.3504519
49	0x3f3a21c2	0.7270776
50	0x3f6c417a	0.9228741
51	0xbdcf3c2f	-0.10118901
52	0x3ef7f8c3	0.48431978
53	0x3f4e9f87	0.8071217
54	0x3da1d369	0.079016514
55	0x3ff7e05b	1.9365343
56	0xbed432bb	-0.41444954
57	0x3f3405d9	0.7032142
58	0x3cc381e6	0.023865651
59	0xbeb0a6e5	-0.3450233
60	0x3e54f33f	0.20795916
61	0x3ec05eb4	0.37572253
62	0x3ebc6ce3	0.36801824
63	0xbe322c1a	-0.17399636

se_block_event.2.0.weight f4 [16, 64]
0	0xbefb07c9	-0.49029377
1	0x3e67ad08	0.226246
2	0x3d9a19d3	0.07524457
3	0xbd7da198	-0.061921686
4	0x3e4afbff	0.19822691
5	0x3edabc3a	0.4272173
6	0xbd626835	-0.05527516
7	0x3df8c70d	0.12147341
8	0xbe2379a6	-0.15964374
9	0x3ecb82d4	0.3974825
10	0x3e77b5e4	0.2419048
11	0x3e283287	0.16425525
12	0x3e045115	0.12921555
13	0xbefc0568	-0.49222875
14	0x3e33f621	0.1757436
15	0xbeb4f51c	-0.35343254
16	0x3d83a277	0.06427472
17	0x3cfabed9	0.030608581
18	0x3da9bd0d	0.08288012
19	0xbdb78f9e	-0.0896294
20	0xbe63618a	-0.22205177
21	0x3e0c4024	0.13696343
22	0xbe21a9af	-0.15787385
23	0xbe20396b	-0.15646903
24	0x3e61e094	0.22058326
25	0xbdf36960	-0.11885333
26	0x3d322e8d	0.043501426
27	0x3eab2065	0.33423153
28	0xbe478271	-0.19483353
29	0xbe540465	-0.20704801
30	0xbe262798	-0.16226041
31	0x3d4dd2cc	0.05024986
32	0xbe52188a	-0.20517173
33	0x3d85c439	0.06531567
34	0xbe9a8c88	-0.30185342
35	0xbe46885e	-0.19387957
36	0xbd7828d1	-0.0605858
37	0x3ddc6f6d	0.1076344
38	0x3dbf4350	0.09339011
39	0x3f0c6a71	0.54849917
40	0xbdb9aaed	-0.09065805
41	0x3f27d7a2	0.65563405
42	0x3cd0b486	0.025476705
43	0x3eb37ec2	0.35057646
44	0x3ec0598c	0.3756832
45	0xbe2b2c16	-0.16716036
46	0x3e9e0328	0.30861783
47	0xbe12e1ca	-0.14343944
48	0x3ed9ae4e	0.42515796
49	0x3f2dbbf0	0.67864895
50	0x3e8c2072	0.27368504
51	0x3e9e2edd	0.3089513
52	0x3f2ef0e2	0.6833631
53	0x3e81e605	0.25370803
54	0xbd83a039	-0.064270444
55	0x3ec4a53c	0.38407314
56	0x3e634d45	0.22197445
57	0x3f01c3f9	0.50689656
58	0x3c753bb9	0.014967852
59	0xbd63488a	-0.0554891
60	0x3d00287d	0.031288613
61	0x3dca666b	0.09882816
62	0x3ecdfc32	0.40231472
63	0x3e61f4bb	0.22066014
64	0x3eda6b3a	0.42659932
65	0x3f923d19	1.1424896
66	0xbc792b70	-0.01520811
67	0x3ea5d49d	0.32388774
68	0x3e0d5726	0.13802776
69	0x3dedaf82	0.11605741
70	0x3ca6146d	0.020273412
71	0xbb2467de	-0.0025086324
72	0xbebfd128	-0.3746426
73	0xbbff6416	-0.0077939136
74	0x3f5e36c8	0.8680234
75	0x3ebbf11b	0.36707386
76	0x3ed7dc81	0.4216042
77	0x3d790f1a	0.060805418
78	0xbb9e9e4c	-0.004840648
79	0xbc7566c2	-0.014978113
80	0xbeee5259	-0.465472
81	0x3eb1f5ce	0.34757847
82	0xbca80a62	-0.020512763
83	0x3d39bee4	0.045348063
84	0x3cef68bc	0.029224746
85	0x3f042be6	0.51629484
86	0x3ea69990	0.32539034
87	0xbe0af575	-0.13570197
88	0xbcb422f6	-0.021989327
89	0x3ebe2396	0.37136525
90	0x3e6d82cc	0.23194426
91	0xbca0319b	-0.019554904
92	0x3e65a4c0	0.22426128
93	0x3e8a7170	0.2703967
94	0xbebf0363	-0.3730727
95	0x3e116a44	0.14200693
96	0xbea9a662	-0.33134753
97	0xbdeb9f9f	-0.11505055
98	0xbecde897	-0.40216514
99	0xbd122efe	-0.035689346
100	0x3d0cfb67	0.034419443
101	0xbd9ab207	-0.07553487
102	0x3e3e5495	0.18586953
103	0x3f04fe45	0.51950485
104	0xbce87121	-0.028374257
105	0x3f58753f	0.84553903
106	0x3e57d220	0.2107625
107	0xbda8d3c7	-0.08243518
108	0xbe23d829	-0.16000427
109	0x3b10e5b5	0.0022109572
110	0x3f48bc66	0.78412473
111	0x3f1916f4	0.5980065
112	0x3e9ac917	0.30231544
113	0x3f0a778c	0.54088664
114	0x3e401d16	0.18761095
115	0x3e7e7730	0.24850154
116	0x3f14bf86	0.5810474
117	0x3eb7faa5	0.35933414
118	0x3ec3600d	0.38159218
119	0x3dad61a6	0.084658906
120	0x3d3e699e	0.046487443
121	0x3f2a47b0	0.66515636
122	0xbe527ce6	-0.20555457
123	0xbdd05cfe	-0.10173987
124	0x3ec2e874	0.38067973
125	0x3e33b40a	0.17549148
126	0x3ea9db17	0.33174965
127	0xbeec7191	-0.46180394
128	0xbe3028e8	-0.17203104
129	0x3f65b01c	0.89721847
130	0x3e4e7838	0.20163047
131	0x3e045f82	0.12927058
132	0x3e145481	0.1448536
133	0x3f32f8a2	0.69910634
134	0x3eae0a02	0.3399201
135	0x3e1de90e	0.15420935
136	0x3d4ce7db	0.050025802
137	0x3eee492d	0.46540204
138	0x3e9ce8a4	0.3064624
139	0x3cf746c3	0.030185109
140	0xbd9100bf	-0.070802204
141	0x3e61e7c1	0.22061063
142	0x3ef7e977	0.48420307
143	0x3e05458a	0.13014808
144	0x3eb5e6ab	0.35527548
145	0x3e89ea6b	0.2693666
146	0x3e20b6b8	0.15694702
147	0x3d9a2579	0.075266786
148	0x3e6c9c99	0.23106612
149	0x3ee7aaba	0.45247442
150	0x3f4c2e2f	0.7975797
151	0x3f38f1c4	0.72243905
152	0xbdbe2e9d	-0.092862345
153	0x3e65c41d	0.22438093
154	0x3efb9d36	0.4914338
155	0x3f1497de	0.5804423
156	0x3e66c00b	0.22534196
157	0x3e0de7da	0.13857976
158	0x3f0f7d24	0.56050324
159	0x3e84df5c	0.2595166
160	0xbd4781f8	-0.048707932
161	0x3df77c32	0.12084235
162	0x3ead860b	0.3389133
163	0x3f04a207	0.51809734
164	0x3e4afbfd	0.19822688
165	0xbde6887d	-0.11256502
166	0x3ed5b48d	0.41739312
167	0x3eeb1c6d	0.45920125
168	0x3e8d62fd	0.27614585
169	0x3c179f8b	0.009254347
170	0x3ee006a5	0.4375507
171	0x3f1fe0f6	0.6245264
172	0x3ed65165	0.41858974
173	0x3e02068d	0.12697811
174	0x3eac48f8	0.3364942
175	0x3ec7bcf3	0.39011344
176	0x3e8910d4	0.2677065
177	0x3dc4b432	0.09604682
178	0xbdd68e12	-0.104763165
179	0x3f01a068	0.50635386
180	0xbabd4637	-0.0014440481
181	0x3e04fd90	0.12987351
182	0x3eb1b1b7	0.34705898
183	0x3f4fcdbe	0.8117331
184	0x3da30d15	0.079614796
185	0x3e0bae7d	0.13640781
186	0x3e121db7	0.14269148
187	0x3ea95a74	0.33076823
188	0x3dfbd460	0.12296367
189	0x3e4b0365	0.19825514
190	0x3f054695	0.52060825
191	0x3eabb611	0.33537343
192	0xbd97df94	-0.07415691
193	0xbf2f0e1c	-0.68380904
194	0x3e837d17	0.25681373
195	0xbe4198a9	-0.18905891
196	0x3e542161	0.20715858
197	0x3f16dd5e	0.5893153
198	0xbe9d9cc0	-0.30783653
199	0xbda818ce	-0.08207856
200	0xbe4565e7	-0.19277154
201	0x3ef364af	0.47537753
202	0x3e11c082	0.14233592
203	0xbe49065a	-0.19631329
204	0xbe27404a	-0.16333118
205	0x3d75b764	0.059989348
206	0xbc9094a7	-0.017649008
207	0xbda3d327	-0.079992585
208	0xbdc4da01	-0.096118934
209	0x3e1733dc	0.14765877
210	0x3e0e8a70	0.13919997
211	0xbeb98a17	-0.36238167
212	0xbea42314	-0.32058012
213	0x3e44e868	0.19229281
214	0x3e9b520b	0.3033603
215	0x3d93a2c8	0.072087824
216	0x3d2b64f2	0.041844316
217	0x3ee0407a	0.43799192
218	0xbec45a1d	-0.3835
219	0xbed1fdaf	-0.41013858
220	0x3c8995e0	0.016795099
221	0xbe11dced	-0.14244433
222	0xbcfa0848	-0.030521527
223	0xbd978282	-0.07397939
224	0xbe0686bb	-0.13137333
225	0xbe9786a1	-0.295949
226	0x3e8e9698	0.2784927
227	0x3e35cb29	0.1775328
228	0x3e201905	0.15634544
229	0xbee83260	-0.45350933
230	0xbeb185bc	-0.34672344
231	0x3e81f4de	0.2538213
232	0xbe8e5b84	-0.27804196
233	0x3db2b6ce	0.087262735
234	0x3e39c314	0.18140823
235	0x3e041dad	0.12901945
236	0xbd5979f7	-0.05309483
237	0xbcc9275b	-0.024554899
238	0x3f4fdea9	0.8119913
239	0xbe8afbe3	-0.271453
240	0x3eb1317c	0.34608066
241	0x3d8e942d	0.06961856
242	0x3efdbde7	0.49558946
243	0x3d5d07ef	0.053962644
244	0x3c111828	0.008855857
245	0x3e7e0efa	0.248104
246	0x3e17ff77	0.14843546
247	0x3e8ad967	0.2711899
248	0xbe288c7a	-0.16459838
249	0x3e2fe127	0.17175733
250	0x3d9f2d8a	0.07772358
251	0xbd839db1	-0.064265616
252	0xbdb27a1f	-0.08714699
253	0xbb75d1c1	-0.0037509056
254	0xbe0dba2d	-0.13840552
255	0x3e55185c	0.20810074

se_block_event.2.0.bias f4 [16]
0	0xbfc23f46	-1.517556
1	0xbfaaebcd	-1.3353211
2	0xbd06a358	-0.03287062
3	0xbf8160c2	-1.0107653
4	0xbc8acfbf	-0.016944764
5	0xbc662b83	-0.01404846
6	0xbde0888b	-0.109635435
7	0xbe97a1a5	-0.29615512
8	0xbe804200	-0.25050354
9	0xbe9a1d45	-0.30100456
10	0xbee352c2	-0.44399077
11	0xbde428ff	-0.11140632
12	0xbf0a4f5e	-0.54027355
13	0x3e304795	0.17214806
14	0xbe91e847	-0.28497526
15	0xbe0f4bc6	-0.13993749

se_block_event.2.2.weight f4 [64, 16]
0	0x3e5520c9	0.20813288
1	0x3d7eba44	0.062189355
2	0x3e14488c	0.144808
3	0x3e39f167	0.18158494
4	0x3e642be2	0.22282365
5	0xbeaa2a32	-0.33235317
6	0xbc0315c9	-0.008000799
7	0xbd3757e7	-0.044761565
8	0xbd6c03fd	-0.05762099
9	0xbe1655fb	-0.14681236
10	0x3e77078b	0.24123971
11	0x3e385ad7	0.18003403
12	0x3e373d32	0.17894438
13	0xbd96a508	-0.07355696
14	0x3d267c08	0.04064563
15	0x3e8bd02c	0.2730726
16	0x3fc34d76	1.5258014
17	0x400ded1d	2.2175972
18	0x3e78ae0e	0.24285147
19	0x3fa4db5c	1.2879443
20	0x3fede639	1.8585883
21	0x3f96292f	1.1731318
22	0x3ea8e4d3	0.3298708
23	0x3f3a63d1	0.7280856
24	0xbde497f0	-0.11161792
25	0xbdb9adf2	-0.090663806
26	0x3fbc5efa	1.4716485
27	0x3fd46130	1.6592159
28	0x3ffc711e	1.9722021
29	0x3ffca7f9	1.9738761
30	0x3fb5782b	1.4177297
31	0x3ffc76b2	1.9723723
32	0x3f243eed	0.6415852
33	0x3d8314c5	0.06400446
34	0xbeaed1ce	-0.34144443
35	0x3ed73913	0.42035732
36	0x3f09de96	0.53855264
37	0x3edd1e71	0.43187287
38	0xbee5112e	-0.4473967
39	0x3f0db788	0.5535817
40	0xbe734837	-0.23758017
41	0xbe1d79bc	-0.15378469
42	0x3ee1c939	0.44098833
43	0x3f0d1e03	0.5512392
44	0x3e046195	0.1292785
45	0x3f0f7b8f	0.5604791
46	0x3f2d09ae	0.67592895
47	0x3ed32483	0.41238794
48	0x3f263864	0.64929795
49	0x3f12e1d4	0.57375836
50	0x3dd95aab	0.10612997
51	0x3f2b21bd	0.66848356
52	0x3f4c369e	0.7977084
53	0x3d882394	0.06647411
54	0xbe963529	-0.29337433
55	0xbebbd765	-0.3668777
56	0xbe3ca897	-0.18423687
57	0xbe048d51	-0.12944533
58	0x3e0c5eca	0.13708034
59	0xbe762704	-0.24038321
60	0x3f6678ce	0.90028083
61	0x3e001b08	0.12510312
62	0xbe13dad7	-0.1443895
63	0x3f08ca9e	0.5343417
64	0x3e6273c5	0.22114475
65	0x3efd9784	0.4952966
66	0xbe23f4bb	-0.16011326
67	0x3f22aeb4	0.63547826
68	0x3e9cff87	0.30663702
69	0x3e1c6c72	0.15275744
70	0xbe28f0c4	-0.16498095
71	0xbd913acc	-0.07091293
72	0x3e8d04e3	0.2754279
73	0x3e50bb2f	0.20383905
74	0xbd4cdd98	-0.050016016
75	0x3f564a56	0.8370718
76	0x3e63701b	0.22210734
77	0xbea74abe	-0.3267421
78	0xbec85c68	-0.39133
79	0x3db83d70	0.08996093
80	0xbed4fbdc	-0.41598403
81	0xbe1a737c	-0.15083116
82	0xbbc70442	-0.0060735056
83	0xbf8e361a	-1.111026
84	0xbe9cc2d3	-0.3061739
85	0x3e423c05	0.18968208
86	0x3e3c5b4b	0.183942
87	0xbeea0c08	-0.45712304
88	0x3b399a56	0.002832075
89	0x3d847f92	0.064696446
90	0x3cbf07fc	0.023319237
91	0x3df0457a	0.117320016
92	0x3f131720	0.5745716
93	0x3f31715c	0.693136
94	0x3d96612f	0.07342755
95	0xbdb1b540	-0.08677149
96	0x3e238467	0.15968476
97	0x3f3ad9e0	0.729887
98	0xbe654d6e	-0.22392818
99	0x3ee9921f	0.45619294
100	0x3eb7326b	0.35780653
101	0x3e493377	0.19648539
102	0x3eea1a17	0.4572303
103	0x3f580123	0.84376734
104	0xbe6d2cdd	-0.23161645
105	0xbd430720	-0.047614217
106	0xbeaad96e	-0.3336901
107	0x3ce6c87b	0.028171768
108	0x3e70e895	0.23526223
109	0x3e93807a	0.28808957
110	0x3f87757c	1.0582728
111	0xbe7885b5	-0.24269755
112	0x3f2a3644	0.6648905
113	0xbec0eb0c	-0.37679327
114	0xbe58059f	-0.21095894
115	0xbe186142	-0.14880851
116	0x3e425429	0.18977417
117	0x3e842406	0.25808734
118	0x3cf1305f	0.02944201
119	0x3f11c437	0.56940025
120	0x3e797277	0.24360071
121	0x3e3cffcc	0.18456954
122	0x3d61ae4d	0.055097867
123	0x3e870495	0.26370683
124	0x3e5aafab	0.21356075
125	0xbdb44ab5	-0.08803312
126	0x3ee487cf	0.44634864
127	0x3eaa0aeb	0.33211455
128	0x3ee4996b	0.446483
129	0x3f3afca8	0.7304177
130	0xbe648c79	-0.22319211
131	0x3f12904e	0.5725144
132	0xbe861a63	-0.26192006
133	0xbe934ab9	-0.28767946
134	0xbe8f5fbb	-0.28002724
135	0xbe64f141	-0.22357656
136	0x3e8a6448	0.27029634
137	0x3da96347	0.08270889
138	0x3cde46d7	0.027133388
139	0x3db48e25	0.088161744
140	0xbea6fb77	-0.32613727
141	0xbe8aa621	-0.2707987
142	0xbe1d0cc5	-0.15336902
143	0xbe81e2ff	-0.25368497
144	0x3d474936	0.048653804
145	0x3f5e45c1	0.86825186
146	0xbee5d335	-0.448877
147	0x3f23c8b0	0.639781
148	0x3ea6416b	0.32471785
149	0x3e001f94	0.12512046
150	0x3b296a10	0.0025850572
151	0x3ea40d58	0.3204143
152	0x3e120444	0.1425944
153	0x3e0dab9c	0.13834995
154	0xbed9b202	-0.42518622
155	0x3e58ebda	0.2118372
156	0x3f8db83e	1.1071851
157	0x3efed1ed	0.49769536
158	0x3f247209	0.64236504
159	0x3ea2a7fc	0.31768787
160	0x3f4d1385	0.8010791
161	0xbe5460ae	-0.20740005
162	0xbdfe460b	-0.124157034
163	0x3e357bc8	0.17723
164	0x3e9dc652	0.3081537
165	0x3f0b7e16	0.54489267
166	0xbbd26409	-0.0064206165
167	0x3ecbb817	0.39788887
168	0x3dc1a0ff	0.09454536
169	0xbe30606d	-0.17224284
170	0x3f1e2431	0.61773974
171	0x3f03477e	0.51280963
172	0x3ecfaad1	0.4056001
173	0x3ee50837	0.4473283
174	0x3f06fbf2	0.5272819
175	0xbce6a73e	-0.02815592
176	0x3dcb4fc7	0.09927326
177	0x3e201cdb	0.15636007
178	0xbc1f52a1	-0.00972429
179	0x3d0dc7be	0.034614317
180	0xbe2e4da4	-0.17021805
181	0xbe5d632a	-0.2161986
182	0xbc95f1b7	-0.018303735
183	0xbeb887be	-0.36041063
184	0x3e8ca280	0.27467728
185	0xbdb5d605	-0.088787116
186	0x3e824919	0.25446394
187	0xbe0ff8f5	-0.14059813
188	0x3dcb4cda	0.09926768
189	0x3dee4482	0.116341606
190	0xbe59d7f1	-0.21273781
191	0x3e940986	0.28913516
192	0x3f1df8e0	0.6170788
193	0x3efa6f2d	0.48912945
194	0x3f397847	0.72449154
195	0x3ea3f410	0.32022142
196	0x3e917eef	0.28417155
197	0x3f3a39f7	0.727447
198	0x3f1f15e9	0.6214281
199	0x3f1c1891	0.60974985
200	0x3d01bc73	0.03167386
201	0x3dfcad96	0.123377964
202	0x3ec3dcdf	0.3825445
203	0x3ed5af44	0.4173528
204	0x3f1a186e	0.60193527
205	0x3f0f4e47	0.55978817
206	0x3f277d7d	0.65425855
207	0x3f320663	0.69540995
208	0x3dc732a6	0.09726457
209	0x3e957fad	0.2919897
210	0xbed77264	-0.4207946
211	0x3e3622a3	0.1778665
212	0x3cd815d7	0.026377602
213	0x3d98f681	0.07468892
214	0xbeaf028a	-0.34181625
215	0x3e2e03a5	0.16993578
216	0x3dc68357	0.0969302
217	0x3e601027	0.21881162
218	0x3dc1081c	0.09425375
219	0x3e636520	0.22206545
220	0xbe14715b	-0.14496367
221	0x3eb7fffd	0.3593749
222	0x3ed102ef	0.4082255
223	0xbed1583d	-0.40887633
224	0x3f120d61	0.57051665
225	0x3e615654	0.22005588
226	0x3edcb03c	0.43103206
227	0x3ecadc5b	0.39621243
228	0x3f44467a	0.7667004
229	0x3f589aad	0.84611017
230	0x3f21b6cb	0.63169545
231	0x3e57e7de	0.21084544
232	0x3d8178c1	0.0632186
233	0x3e25f40d	0.16206379
234	0x3eaa13b8	0.3321817
235	0x3f933f10	1.150362
236	0x3fb09712	1.3796103
237	0x3e800a1a	0.25007707
238	0x3f47e321	0.78080946
239	0x3fbc636c	1.4717841
240	0xbeb512ba	-0.3536585
241	0x3dc96342	0.09833385
242	0x3d93db08	0.07219511
243	0xbea339aa	-0.31879932
244	0x3e697375	0.2279795
245	0xbd6daf56	-0.05802854
246	0x3eb0e85f	0.34552285
247	0x3f0c385d	0.54773504
248	0x3e5ba256	0.21448645
249	0xbe3357e0	-0.1751399
250	0x3ead3b79	0.33834437
251	0xbea0e496	-0.31424397
252	0x3ed33baf	0.41256472
253	0xbd07303a	-0.033004977
254	0xbe972e67	-0.2952759
255	0x3eb88a94	0.36043227

se_block_event.2.2.bias f4 [64]
0	0xbd2ccf27	-0.042189743
1	0x3f692344	0.91069436
2	0xbdb2143f	-0.08695268
3	0xbe9394e9	-0.28824547
4	0x3e596b15	0.21232255
5	0x3da1c174	0.078982264
6	0xbf18ef38	-0.5974002
7	0x3da12ae9	0.078695126
8	0x3b07f556	0.0020745597
9	0x3eccdb4d	0.40011063
10	0xbe8d0da8	-0.2754948
11	0x3edc386f	0.43011805
12	0x3f1db38f	0.6160211
13	0xbe162a6f	-0.14664625
14	0x3f4766ef	0.7789144
15	0x3ded7388	0.115943015
16	0xbe4f7b6f	-0.2026193
17	0x3dff42b7	0.12463897
18	0x3d8be3da	0.068305686
19	0x3e0a85be	0.13527581
20	0x3e35395f	0.17697667
21	0xbde79b07	-0.11308866
22	0x400ef00f	2.233402
23	0xbad6077a	-0.0016329132
24	0xbe3055c4	-0.17220217
25	0x3f07e168	0.5307832
26	0x3e42e161	0.19031288
27	0xbda7550c	-0.08170518
28	0x3e4c2b67	0.19938432
29	0xbd5f0d65	-0.054456133
30	0x3db39d13	0.08770194
31	0x400bc2e3	2.18377
32	0x3d838f6a	0.064238384
33	0xbdb815df	-0.089885466
34	0xbe8bfe23	-0.27342328
35	0xbf36e0a0	-0.714365
36	0xbe80e8c6	-0.25177592
37	0x3e8ff741	0.28118327
38	0x3e6b3d82	0.22972682
39	0xbe0fc7d3	-0.1404107
40	0xbdbf9485	-0.093545
41	0xbeb3c4c0	-0.35111046
42	0x3e006493	0.12538366
43	0x3edcfd32	0.43161923
44	0x3d903836	0.070419714
45	0x3e040adf	0.12894772
46	0xbec1a348	-0.37819886
47	0x3cee4580	0.029085875
48	0xbefb8ec7	-0.49132368
49	0x3e424fbc	0.18975729
50	0x3f68442e	0.90729034
51	0xbf4c1dc2	-0.79732907
52	0x3edcca2d	0.43122998
53	0x3f7ae4c6	0.9800533
54	0xbe733485	-0.23750503
55	0x3fb439f0	1.4080181
56	0xbeb71bab	-0.35763296
57	0x3ecc9141	0.3995457
58	0xbee7e331	-0.4529052
59	0xbf3c49f4	-0.73550344
60	0x3e2da526	0.1695753
61	0x3eb367cd	0.3504013
62	0x3ea96cf0	0.33090925
63	0x3df33224	0.11874798
