parameters/deephit_model_CNN.pth (torch, 191863 bytes, 40 tensors)

se_block.0.weight f4 [4, 17]
00000000: 4d0b 98be 0032 55bd 9198 f9bb 301f 1ebe
00000010: 4f06 cd3c 5507 51bc dc76 1abd af09 aebd
00000020: dcbe c8bc fa84 a33d 8582 bb3c d22a 01be
00000030: 30de cdbd d369 a73c aae5 fc3c ca66 14be
00000040: 5bcb df3d a5dd 99bc c507 80bd 76d9 6bbe
00000050: daa0 c0bd fc5e 81be 3fdf 24be 179e 32be
00000060: 941b 8cbd 9e97 65be 0e39 4bbe e20c cc3d
00000070: 02d5 4abe c862 7dbe 2755 66bd ed8e bdbc
00000080: f3d6 5fbd 8147 9ebe be1f 53be 4e10 0d3e
00000090: da69 773e 3310 2abe d686 a9bd 0d79 70be
000000a0: 792d a23e 76f2 953d f25d a7be 1f69 fd3d
000000b0: 4ce6 afbc 603c 7f3e 1d6b 163f ba51 c23d
000000c0: 36af b7bd db9d 98be 75c8 063e 9506 f73d
000000d0: 3d2b 7a3e 9ad3 a73e b55e 203e bc2d 61bd
000000e0: 7405 c23d 8d56 a83e 08bf 423d 41e9 6d3d
000000f0: ef6c 5b3e 1a98 1e3d 0d01 f33b 4760 0a3f
00000100: 1223 203d 131f 873c c1c0 f23d a68a cabb
-0.29696122 -0.052049637 -0.0076170643 -0.15441585 0.025027422 -0.012758096 -0.03771101 -0.08497941
-0.024505071 0.07984348 0.022889385 -0.12613991 -0.100521445 0.020436203 0.030871231 -0.14492336
0.10927459 -0.018782446 -0.06251482 -0.23032174 -0.0940568 -0.2526778 -0.16100787 -0.17443119
-0.068411976 -0.22421119 -0.19845983 0.09963395 -0.19807819 -0.24744713 -0.05623355 -0.023139441
-0.05464835 -0.30913928 -0.20617577 0.13775751 0.24161473 -0.16607742 -0.08277671 -0.23483677
0.31675318 0.073216364 -0.32688862 0.12373566 -0.021472119 0.24925375 0.5875719 0.09488244
-0.08968966 -0.29807934 0.13162406 0.12061802 0.24430557 0.32778627 0.15661128 -0.054975256
0.09473696 0.32878533 0.047545463 0.058083776 0.21428274 0.038719274 0.0074158967 0.5405316
0.039095946 0.01649431 0.11853171 -0.006181079

se_block.0.bias f4 [4]
00000000: 6d0e 0ebd c0c4 d63c 1f52 5b3e bc0a a5bf
-0.034681726 0.026216865 0.21418045 -1.2893901

se_block.2.weight f4 [17, 4]
00000000: 9054 dabe a6ac d83e fe61 2bbc f338 d83c
00000010: a492 a1bd 5fc8 35be 2c57 59bf b4a5 5d3c
00000020: b828 4e3e 79fa e9be 92cb 923c d5ab 093e
00000030: d712 c6be b70c b53e 6ae5 fd3d 29c4 62be
00000040: 417a c53c 4614 acbe f55d 0cbd e54f 89be
00000050: 9ed1 9f3e 182e eebe a903 33be 8ad5 83be
00000060: accc bfbd 841d 85bd d1ba d83d 7a05 493f
00000070: 68e0 ad3e ebf3 df3d a4dd d83e 9a78 4cbe
00000080: fee2 bf3e 9150 ec3e c1c0 c63d cd2a 4bbe
00000090: da29 d93d 7d96 92be a0e1 c13c 213e debd
000000a0: b646 073e 18bd f63d 255e 323c e261 4cbe
000000b0: 6c74 6fbe db9f dfbd b270 a23c 969f 25be
000000c0: 7b50 b53e 776e 0d3f c2b9 253f cce3 b03f
000000d0: 1d26 18bd 1035 593e 228f 4e3d ffd2 46be
000000e0: 81ea dcbd 60a3 893d eb5f f2bc 192b 98be
000000f0: 1a86 803e 0a05 68be 3b9d cebd f34a 0bbe
00000100: 7b41 043f 9f9f 0e3f 940b 013e 77bc 25be
-0.4264264 0.4231922 -0.010460375 0.026394343 -0.078892976 -0.17752217 -0.8489864 0.013528276
0.2013272 -0.45698908 0.017919336 0.13444455 -0.3868625 0.35361263 0.12397273 -0.22145142
0.024106147 -0.33609217 -0.034269292 -0.26818767 0.31214613 -0.46519542 -0.17481865 -0.25748855
-0.0936521 -0.0649977 0.105825074 0.7852398 0.3396027 0.109351955 0.42356598 -0.19967881
0.3747787 0.46155217 0.09704734 -0.19840546 0.10603686 -0.28630438 0.023667157 -0.10851694
0.13210568 0.120477855 0.010886704 -0.19959214 -0.23384255 -0.10919162 0.019829128 -0.16174158
0.35412964 0.5524668 0.6473657 1.3819518 -0.037145723 0.21211648 0.05042947 -0.19416426
-0.107869156 0.067206144 -0.029586753 -0.2972038 0.2510231 -0.22658172 -0.10088583 -0.1360281
0.51662415 0.5571231 0.12602073 -0.16185175

se_block.2.bias f4 [17]
00000000: 1370 e9be 7714 533d 2fa3 103e 3a75 a83f
00000010: 707c ba3e 0f55 f73e 288c 453e 82ca 3a3e
00000020: 556e af3e f94a 703f 8eef 613e 3c37 f43e
00000030: 82e4 9f3f 8570 ab3e c0e3 303e 65e9 423d
00000040: 7c58 86be
-0.45593318 0.05153319 0.1412475 1.3160775 0.36423063 0.48307082 0.19291747 0.18241313
0.34263864 0.938644 0.22064039 0.4769839 1.249161 0.33484283 0.1727438 0.047585864
-0.26239383

se_block_event.0.0.weight f4 [16, 64]
00000000: 564c 3fbf 4798 f2be 353b b9bf 91c7 68bf
00000010: 6392 f73b b90a 99be dca9 9fbf ba12 10bf
00000020: 2d05 0dbe 6399 a4bf cbef 4bbe e9df 19bf
00000030: 5145 9abd 5239 febf 3cfd 57be b9a3 65bd
00000040: 64d0 0dbd 6060 57be 66e1 a6be 498f 0bbf
00000050: b6a1 023e b369 cebe be88 aabe 1098 76bd
00000060: 3c81 84bf 44f7 323d 056f abbe 60c9 57bf
00000070: a0b9 c3bd be1b aabe 3d9a 753d 7922 91be
00000080: 4e45 f3be c7ae 3f3f a857 41bf 6189 8a3d
00000090: 499f 80be 7507 77bf 5174 e7bf 4d04 16bf
000000a0: 7103 22bf f384 9fbe 2889 70bf 2cb8 af3c
000000b0: cc19 3c3e 98f4 edbe e3d0 8abe d32b 56be
000000c0: 482f 6ebf 3c1b 673d 683d b8bd 6fe1 2cbf
000000d0: 3d60 22bc eced a43e 5a05 30bf e0f0 24be
000000e0: 84be b9be 29b1 aabd 5999 80be 6295 5fbd
000000f0: d472 74be f0a7 88bd 1d79 093d 92cf 64bf
00000100: 1deb cebe 32b6 d23e fbde a83e 5121 903d
00000110: 9a00 5a3e 910e ca3e b762 423f e1d4 08bf
00000120: 700a b4bd 14f3 803e 1f2c 3bbf 166b 183f
00000130: 0b9a db3d 490e 423f d901 9ebd 2b2b d23e
00000140: 0c8c 3abb 405c b03e 77c1 14be d732 adbe
00000150: e319 aa3e 3e2c dcbe 4ed7 173f b081 c93c
00000160: 4405 b33e 53cd 343e 4df6 a53d 4ac9 91be
00000170: 8f09 303c a13d 62bb 9bd8 3a3e ad2a 613e
00000180: 3360 74bf f6a7 11be b1f6 7bbc 66f4 72be
00000190: 9a81 b83d 6dd9 18bf 1b30 123f 21ac eb3d
000001a0: 446b 1a3e ec1a d1be 0f68 ed3e 7939 93bd
000001b0: 7c90 da3e 3422 f73d b9b8 debe b8b4 7dbc
000001c0: 80c5 653f 7558 d7bd 8a10 65be f4f1 8bbd
000001d0: 4e34 14bf 1c03 1b3f c02e e1be fdc0 36bf
000001e0: be51 7bbb 5fb0 c7be 0fc7 8a3e cdbc b8be
000001f0: 5e3c bd3d bcb2 24bd f10f 2e3e f460 ae3e
00000200: e47f 83be af29 03bf 8387 47bf 3450 afbe
00000210: 7745 15bf 995e 41be a8ff 193f 1af4 8f3e
00000220: a04f a93d a484 2b3c 99dc 473f 1c22 a53d
00000230: 27eb 50be fcdd 113f fcba 213e 530c dbbc
00000240: 0caa 0ebd 4fd6 72bc 42cc abbd 2f2a df3e
00000250: 128b 3dbf 1136 ce3e 8047 8e3d b42d 6b3e
00000260: 4fa6 883e 1f9f 6dbd ee39 4dbf c65e 35bf
00000270: d04f a4be f0c5 09bf 1622 49be 7209 a53e
00000280: 40e8 0e3d 68b2 c83e f15b 89bd 541f 03be
00000290: f148 093e e9c3 cabe 0b8d 003f 8146 74be
000002a0: d9c8 883c e576 c7be f3c0 1b3c 4c3f b13c
000002b0: 5b75 0f3f 4bb9 89bd bec4 693c bbf0 323e
000002c0: 7550 0b3d 75f0 ad3e 93de 923d 67ed 483e
000002d0: 1e49 04bf 6cac 0dbf 33ac f93b 0cb7 b8bd
000002e0: af33 1cbe daf0 6e3e 0051 7bbe 3294 7fbe
000002f0: 1a84 a1be 1f89 cf3d ef56 9ebe 3ea8 f7be
00000300: 5daa aabe 3012 3abe c220 9ebe e39f 2cbf
00000310: c81d ddbd 3375 e1be daa8 f7be 9b1f ee3d
00000320: e792 10bd 136e 7bbf f96d 94be f62b b3be
00000330: 547b 44be 7a4f 83bf 5b30 b2be 5e9b 7f39
00000340: d61d ac3e 004c 20be 6583 50be edc4 13be
00000350: 35cb 3fbf 81c7 043f c85a 50be 408c a63e
00000360: 31a4 31bf fcf7 e2be 69d8 5ebf 940f 85bd
00000370: 8b35 6abe ad75 8ebe 5f74 a0bd 3d17 473b
00000380: d3a6 babe 37e4 6abe dcef ebbe 394c 443e
00000390: 12a1 32bf 97a3 9bbe 9763 55bf 7a88 7cbf
000003a0: 3d21 a8be 4334 adbe 6ca0 46bf 66ac febe
000003b0: 3011 a6be d0ac febe 1141 e9be 44d8 03bf
000003c0: b603 cbbe 2eef cebc ccea 00be 66a2 ffbe
000003d0: bc15 c43e 69b7 c3be c76c 39bf acf9 94be
000003e0: 52ca c93d 80b2 5fbe 4c44 923d 9ebe 7c3e
000003f0: 87a8 cebd d373 c0be 0ac0 81be 6185 3ebf
-0.74725854 -0.47381803 -1.4471194 -0.90929514 0.0075552925 -0.29890993 -1.2473712 -0.56278574
-0.13771506 -1.285931 -0.19915693 -0.60107285 -0.07532752 -1.9861243 -0.21092695 -0.05606434
-0.034622565 -0.21032858 -0.3259384 -0.5451551 0.12757 -0.40315017 -0.3330745 -0.06020361
-1.0351939 0.043692842 -0.3348314 -0.8429165 -0.095568895 -0.3322429 0.059961546 -0.28346613
-0.47513813 0.74876064 -0.7552438 0.06764484 -0.25121525 -0.96495754 -1.8082372 -0.5860031
-0.632865 -0.3115612 -0.93959284 0.021450125 0.18369216 -0.46475673 -0.27112493 -0.20915155
-0.93040895 0.056422457 -0.08996087 -0.67531484 -0.00991064 0.3221277 -0.68758166 -0.16107512
-0.36278164 -0.08334572 -0.25116995 -0.054585822 -0.23871928 -0.066726565 0.03356277 -0.8937923
-0.40413752 0.4115463 0.3298262 0.070376046 0.21289292 0.39464238 0.75931877 -0.5344983
-0.08791053 0.25185454 -0.731142 0.595384 0.10722741 0.7580305 -0.07715196 0.4104856
-0.0028464822 0.3444538 -0.14526926 -0.3382785 0.33222875 -0.43002504 0.59312904 0.024597973
0.34964955 0.1765645 0.08103619 -0.28473884 0.010744466 -0.0034521597 0.18246691 0.21988936
-0.9545929 -0.14224228 -0.01537864 -0.23726043 0.090090945 -0.59706765 0.57104653 0.1150744
0.15079981 -0.40840852 0.46368453 -0.071886964 0.42688358 0.120670706 -0.43500307 -0.015484981
0.89754486 -0.10514919 -0.2236959 -0.06833258 -0.5789231 0.6055162 -0.4398098 -0.71388227
-0.0038348283 -0.39001748 0.27104995 -0.36081544 0.0924003 -0.040209517 0.16998269 0.34058344
-0.2568351 -0.5123548 -0.7794115 -0.34240878 -0.5830912 -0.18883742 0.60155725 0.28115922
0.082671404 0.010468636 0.7807098 0.080631465 -0.20402204 0.56979346 0.15793985 -0.026739275
-0.034830138 -0.014821603 -0.083885685 0.4358687 -0.7404033 0.40275624 0.06947231 0.22966653
0.26689383 -0.058013078 -0.8016652 -0.7084774 -0.32092142 -0.53817654 -0.19641909 0.3223377
0.03488946 0.39198613 -0.067069896 -0.1280492 0.13406731 -0.39602593 0.50215214 -0.2385502
0.016697334 -0.38957897 0.009506452 0.021636628 0.56038445 -0.06724795 0.014268098 0.17474644
0.034012277 0.33972517 0.07171359 0.19621812 -0.5167407 -0.5534122 0.0076194047 -0.090192884
-0.1525409 0.23334065 -0.24542618 -0.24958876 -0.31546098 0.10133576 -0.309257 -0.48370546
-0.33333102 -0.18171 -0.30884367 -0.6743147 -0.10796696 -0.44034728 -0.4837101 0.11627122
-0.035296347 -0.98214835 -0.28990152 -0.34994477 -0.19187671 -1.0258629 -0.34802517 0.00024376574
0.33616513 -0.15653992 -0.20362623 -0.1443059 -0.74919444 0.5186692 -0.2034713 0.32528877
-0.6939116 -0.44329822 -0.87048966 -0.06497112 -0.22871988 -0.27824154 -0.07834696 0.0030378841
-0.36455402 -0.2293862 -0.46081436 0.19169702 -0.69777024 -0.30398247 -0.8335509 -0.98645747
-0.3283786 -0.33828935 -0.77588534 -0.49740905 -0.32434988 -0.4974122 -0.45557454 -0.5150187
-0.3965127 -0.025260534 -0.12589568 -0.49928588 0.38297832 -0.38225868 -0.72431606 -0.29096735
0.09853043 -0.21845436 0.07141933 0.2468209 -0.10090738 -0.37588367 -0.25341827 -0.7442227

se_block_event.0.0.bias f4 [16]
00000000: b715 03bf fa5e 76bd a22c 02bf 13f9 59be
00000010: a3d2 823f 3b0d 87be 98a9 583e 61bc b53c
00000020: bf2f 2abf dbe2 c1be cbac 26bf cc8f d33d
00000030: e09b b3be 191f 013f 3615 063d a0a8 6dbe
-0.5120501 -0.06014917 -0.50849354 -0.2128642 1.0220531 -0.26377282 0.21158445 0.022184553
-0.66479105 -0.3786839 -0.6510741 0.103301615 -0.3507986 0.50438076 0.032735072 -0.23208857

se_block_event.0.2.weight f4 [64, 16]
00000000: 3f9b 0dbe f859 fe3b ced9 d63e e9e4 823c
00000010: 155e 95bb a0de b33e 1860 053d a1e0 b73f
00000020: b418 a73e 33e6 eb3e 398f c6bd 0d9a 083e
00000030: 5a11 c9be 6d48 813d 11b1 923d 871c af3e
00000040: faea f13e d81c 46bf 049e e43e b602 033e
00000050: 5bbf d9be c8e1 373e 28e7 88bf 53f2 56be
00000060: bbbd c3bd 59ce ae3e c7f6 e23e b3c9 513f
00000070: 7409 053f c127 a5be d5c2 53bf 4c81 683f
00000080: 2051 293f 713c 793e 6bb1 533f 250d 473f
00000090: 6497 bc3e 3147 d83d 8e17 cf3f 5520 f03f
000000a0: 7138 3b3d 87d8 353f 4583 563f a1c8 903f
000000b0: f7b7 453f 8572 e03d 348b 1240 cc0f d53e
000000c0: 4b0d 8b3e f7e3 983f 6f3a 793f 76e2 153f
000000d0: ba37 8b3f 556e d23d d62a 8a3f 343a ce3f
000000e0: d826 383f 0f82 113f d3ed 873e 87d1 913f
000000f0: baec 993c f847 b23f 55c9 873f 4634 283e
00000100: 9f43 0840 8a99 2e40 f617 d53f 0ebd ac3f
00000110: b908 0640 a33e 333d c0d9 6340 e3b9 ba3f
00000120: e78c 3440 c24d f43f 7d44 bd3f adc3 433f
00000130: 09ba 453f 798b fe3f fa45 5440 1c10 1d3f
00000140: d81a 743c 140d 2b3e 22c5 783e f2c2 483e
00000150: 5652 503d f88a 193e 37dc 0cbe fddf 79be
00000160: cc76 87be ea25 bb3e c7b6 303f d0fc 833e
00000170: 3fa6 303d d11d 90be 869d 94be 9184 563e
00000180: 574a 3d3f a2ae cf3f 2e0f 8f3f ed4e 1a3f
00000190: 9d45 ff3f 7c7b 1e3d 1b23 2440 23dd 8740
000001a0: 3650 833f b15d 453f 2530 313f 3bd6 ab3e
000001b0: a0fc 723f 1109 e63f 4004 2840 7b05 193d
000001c0: 8cbb 7cbe 70e1 0c3f a1f2 d63e e9f0 3fbe
000001d0: c7c8 4a3f 97d3 87bd 2910 233f 9e3f 4c3f
000001e0: 1be8 033f 31b1 833d 5fc8 fe3d 3b68 1b3e
000001f0: 87d3 073f d55d 703e 9b04 2a3f d804 35be
00000200: 5b65 863e b620 17bf ef06 703d a8b2 8a3d
00000210: 21b6 c5bd 7a08 1bbe 2a1d 66be 0e4a 60bf
00000220: 9fee 1ebf a9c2 42bd 0815 a8be 1138 37be
00000230: 95a2 5c3e 00a9 f6be ad0d 09bf 4c41 39bd
00000240: a8a6 9f3e 0824 943b a1d6 b8be e538 17be
00000250: d195 5e3e 1f11 2c3e 67c1 083f a396 183e
00000260: 7aba cbbe 260f 3abd 7393 5abe bcb0 5e3e
00000270: 4529 e4bd 1532 033f 3570 593f 1a50 0bbe
00000280: 7267 ff3e 42b6 f03e 3a74 203d 1523 953d
00000290: ac64 823e fbfc b63d e4ab 053f 48b2 d8be
000002a0: 7a75 3bbb 9349 83be 262e 8c3e cacc f4bd
000002b0: 8f01 f83e 950a d03e 8344 453d 18ba f93e
000002c0: 76a7 d93e 6384 0c40 6448 4a3f 69b7 1f3f
000002d0: a30a 0040 ebbf c4bd 2b74 0c40 ea2f 2240
000002e0: 68dd 9f3f 8827 693f eb98 483f 777c 393f
000002f0: a105 4f3f 530d bb3f 19eb da3f c86d 5e3e
00000300: c9da 473e 4e82 023f eb7c 023f c397 fe3e
00000310: 201f dd3e a119 303d 4ace 213e 4f12 953e
00000320: e77e 633b aec3 9a3e 6456 053f a34a f23e
00000330: 7219 bf3e 306a ef3e a1b6 fb3e 8881 b83e
00000340: c7b3 8c3f 5270 8a3f 4a0e 8d3f 305c 683f
00000350: 57e4 0a40 6b44 9d3e c69b 0a40 9ad6 b240
00000360: 0da4 a63e 3e96 573f f602 593f 9c69 863f
00000370: 9db0 6a3f 45ff 0140 8f5f da3f cce5 213f
00000380: a5f2 023f 41c8 aebd 1698 413f beea be3e
00000390: 87bd 433f 4d8d b63e cdad 8c3e 2fe4 b73f
000003a0: f9b2 943e 8fc0 db3e d676 acbc efd0 3c3f
000003b0: ff44 8e3e a467 1f3f fb51 3d3f bd8a b9bd
000003c0: 2544 88be e5ba 823e 4da3 2ebe 5018 a7be
000003d0: b970 9fbe c890 233e a651 803d af6e 5c3f
000003e0: dce4 bcbe 25fe f6be e8ed 6ebf d2dc 84bf
000003f0: b358 55bc ed50 07bd ec5b c23e ac0f 2bbf
-0.13828753 0.00776219 0.41963047 0.015978293 -0.0045583346 0.35130787 0.032562345 1.4365426
0.32636034 0.46074066 -0.09695286 0.13340016 -0.3927105 0.06312642 0.07162679 0.34201452
0.47249585 -0.7738776 0.44651806 0.12794003 -0.42528805 0.17957222 -1.0695543 -0.20990877
-0.095576726 0.34141806 0.443289 0.81948394 0.5196755 -0.32256892 -0.82719165 0.9082229
0.6613941 0.24339463 0.82692593 0.7775443 0.36834252 0.10560454 1.6179063 1.8759867
0.045708124 0.7103352 0.8379405 1.1311227 0.77233833 0.10959343 2.2897463 0.41613615
0.2715858 1.1944569 0.9735479 0.58548677 1.0876381 0.102749504 1.0794322 1.6111512
0.7193427 0.5683908 0.26548633 1.1392068 0.018789638 1.3928213 1.0608317 0.1642619
2.1291273 2.7281213 1.6647937 1.3495195 2.0942824 0.043760907 3.5601654 1.4587978
2.8211 1.908623 1.4786526 0.7647045 0.7723699 1.9886314 3.316771 0.61352706
0.014898978 0.16704208 0.2429395 0.19605616 0.05085977 0.14994419 -0.1375588 -0.24401851
-0.26457822 0.36552364 0.69028896 0.25778818 0.043127295 -0.28147748 -0.2902643 0.20949008
0.7394156 1.6225169 1.1176507 0.6027668 1.9943119 0.038691983 2.5646427 4.245744
1.0258853 0.77096087 0.6921409 0.33561882 0.94916725 1.7971517 2.6252594 0.037358742
-0.24680918 0.5503149 0.41981986 -0.18744244 0.7921261 -0.066321544 0.63696533 0.7978457
0.5152604 0.06430281 0.124405615 0.1517648 0.5305714 0.23473294 0.6641328 -0.17677629
0.26249203 -0.5903429 0.058600362 0.06772357 -0.09653879 -0.15139952 -0.22472063 -0.87613
-0.62082857 -0.047548924 -0.32828546 -0.17892481 0.21546395 -0.48175812 -0.5353649 -0.045228288
0.31181836 0.004520897 -0.3610125 -0.14767797 0.21736838 0.16803406 0.5342011 0.14901213
-0.39790708 -0.045424603 -0.2134531 0.21747106 -0.11140684 0.51248294 0.8493684 -0.13604775
0.4988361 0.47014052 0.039173342 0.07282082 0.25467432 0.08934971 0.5221541 -0.42323518
-0.0028603957 -0.2564207 0.27378958 -0.11953123 0.4843869 0.40633073 0.04816104 0.4877479
0.42510575 2.1955802 0.7901671 0.62389237 2.0006492 -0.09606918 2.1945903 2.5341744
1.2489443 0.91075945 0.78358334 0.72455543 0.80867964 1.4613441 1.7102996 0.21721566
0.19517054 0.5098008 0.5097186 0.4972516 0.4318781 0.04299319 0.1580135 0.2911553
0.003471309 0.30227417 0.52084947 0.47322568 0.373241 0.46760702 0.49162772 0.36036325
1.0992364 1.0815527 1.1019986 0.90765667 2.1701868 0.3071626 2.1657577 5.5886965
0.32547036 0.84213626 0.84770143 1.050098 0.9167574 2.0312054 1.7060412 0.6324127
0.51151496 -0.08534289 0.7562269 0.3728847 0.7646107 0.3565468 0.2747635 1.4366511
0.29042795 0.42920348 -0.02105276 0.7375631 0.27787015 0.6226752 0.7395322 -0.09059665
-0.2661449 0.25533214 -0.17054482 -0.32635736 -0.31140688 0.15973198 0.06265573 0.8610639
-0.36893356 -0.48240772 -0.93331766 -1.0379889 -0.013021636 -0.03303616 0.37960756 -0.6682079

se_block_event.0.2.bias f4 [64]
00000000: 461a b1bd 4d31 34bf 107e 983e 6527 b53f
00000010: 5639 3c40 cf92 12bf f493 b23f d2d9 ec3e
00000020: 7872 023e b772 893e 4f1b 95bd 7273 e33f
00000030: 93ed b9bd 33d5 0a3f a905 b5be c301 51be
00000040: 18b5 3c3e 0d23 45bf 8bcb 30bf 616f 163f
00000050: 916a 8c3f 929b 84be 1ee2 d93f c887 8c3f
00000060: 43d7 0a3f 13d1 ea3f 9abc 153f 1c48 c73f
00000070: b89e 0640 21df 913f d461 593e bdde c73f
00000080: ae2e a8be 8fc6 1a3f 0c7e 733e 63e9 9d3e
00000090: e0dd febe 13e7 673f 8891 103f f6eb ab3f
000000a0: de8e 263f 5c2c 6cbf 1b7e b83f 3acd 0040
000000b0: 3cc7 cb3f 425c 63be 38d3 343f 61ca cc3f
000000c0: 295d a33e 555d 1d3f 4728 473f de7c 993e
000000d0: b944 02bf 9fb4 393f 9455 893e 6cfe 1140
000000e0: 8c9b 55be bb80 7a3e d9c6 f73d d48c 413f
000000f0: 668f 123f 5e39 fa3e b08e 8a3f 6fc6 b73e
-0.086475894 -0.7038773 0.29783678 1.4152647 2.9409995 -0.5725526 1.3951402 0.46259934
0.12738979 0.26845333 -0.07280599 1.7769606 -0.09078517 0.54231566 -0.3535588 -0.20410828
0.18428457 -0.7700661 -0.6906058 0.587637 1.0970021 -0.2589994 1.702213 1.0978937
0.54234713 1.8345054 0.5849091 1.5568881 2.1034374 1.1396219 0.21228725 1.5614849
-0.32848114 0.60459226 0.23778552 0.30842122 -0.49778652 0.90586966 0.56472063 1.3431385
0.6506175 -0.9225519 1.4413484 2.012526 1.5920177 -0.22203162 0.70634794 1.5999261
0.31907013 0.6147054 0.77795833 0.2997808 -0.5088611 0.7254123 0.26823103 2.2811537
-0.20860118 0.2446317 0.12098474 0.7560551 0.5725006 0.48871893 1.0824795 0.3589358

se_block_event.1.0.weight f4 [16, 64]
00000000: 79d0 893e 7369 44be 7eb6 103e 2fe4 2d3e
00000010: 7a21 b03e 33df c13e d264 73be 8226 843e
00000020: 8e21 a93e cfd9 a63e 64b0 3b3e 3a85 9cbd
00000030: 8900 7d3c 270d 3f3c 40d4 ac3e 5439 96be
00000040: 3544 81be edb4 89bd 18c7 9fbc 0da2 033e
00000050: ad78 afbd ba20 c8bd 4a81 0b3f 7cb8 bdbe
00000060: e9a2 c5be bd50 42be d772 1b3f d566 7c3e
00000070: 66ac 193e 780e ccbd 9b08 e23c dd30 a83e
00000080: 85bc 783e d159 ea3c 09d6 6ebd fdda 99be
00000090: f7df 853d 809a 8ebd bb46 febd c83e 453f
000000a0: 4168 cebd 364b d83d 82ff 883e 6af3 5bbd
000000b0: 7ac4 edbd fd3e 83be b8e1 c5be b9fb c63e
000000c0: 1cea c13e 3d81 9abd ec6a 79be f1a1 623e
000000d0: 2400 81be e12a 2fbd 146f d83e 7b29 0fbe
000000e0: 2959 1dbd 73fe 843e 8787 eabe 7e0e 9cbd
000000f0: 6102 1c3f bd73 543f 36a2 ba3d 36cc 36be
00000100: 0c4a d93e 8bb4 1abf f3e1 913e dfca 023f
00000110: 0241 9cbe f60e 0dbc d4a0 3cbc 99ab 863e
00000120: 9df4 12bd 4748 34bf 6352 28bd e7ba 71ba
00000130: 4bdb a93d 66ba 4abd 15c3 2e3f b2de 44be
00000140: 0eed 5cbe a705 153e dae1 c4be dce7 803d
00000150: 8336 973d 024e 963e ed04 39be 3e5e 063e
00000160: 2a71 643d d12c 8e3e 8bf2 913e c91e a4bd
00000170: fff7 1fbe 7ad8 17bf aca9 c9be ccdc 84bd
00000180: 609f cfbb fdb9 883d 8891 973d eeff a13e
00000190: 0872 9c3e ff5c e7be 33ee a43e 6437 e3be
000001a0: 9c82 2f3e feb2 69bc 74aa 7c3e 4c5a 113e
000001b0: 5741 e2bd 6fdb 84bf 3108 943e c569 80be
000001c0: f1f8 393f 028f d13d d45f 8dbe f27c 5c3d
000001d0: 0bef 803d 77ee 253e 8003 573d d433 e4be
000001e0: 25b3 35be 4962 3cbc 1bbf 06bf 2dfb ef3d
000001f0: 91e6 dabe 3f46 3b3e 0ac2 74bd 693f 6cbe
00000200: 945b f83e abc6 dc3e 5d8f 103f 8a2f 603e
00000210: 48e1 ec3c 196a a73e 09e6 ae3e a1cf 0cbe
00000220: 05ee 603e 6c95 8c3e 1af8 b6bd e38e 81be
00000230: 8608 a33d 5c7e 0dbe 1044 fbbe 54f9 5c3f
00000240: 50ca c5bd c782 5b3e ea38 053f 42aa 9bbe
00000250: 91f4 f73c a2c4 b7be 5390 a6bc 07fb dcbd
00000260: 338b 8abd 7724 40be b577 1d3e eb2f af3e
00000270: de72 2e3e 7bfe 683e df32 62be d9aa 86be
00000280: 1114 c0bd fcab 47bd 9e6e a93e 4504 32bd
00000290: 6849 e8bd 5f75 833e a70d b23e 763b 673b
000002a0: 5849 ab3e 2cd5 bdbd 03e7 df3e e6bc c5be
000002b0: b30f ab3b 9f59 dd3d 0afd f9be b054 353e
000002c0: 3f78 f73d 05ff 14bf a36a 413e edb9 08bd
000002d0: b7fe f83a a291 0b3e 5c86 fb3c c839 253e
000002e0: 66bb 8d3e c4b2 c73d 1dee adbe cdbf 31be
000002f0: f32b 8cbe f009 42be 6bf0 363d 90e7 6abd
00000300: 8c74 8cbe 80e4 a4be ab2f aabe 2a71 dd3d
00000310: 87fc 753e 67c5 823e 57e2 2cbe 5e54 bf3d
00000320: af12 f5be e215 3c3e 608a 213e 358b 4fbf
00000330: bd9c 47be d6a0 29be 8624 dfbe 9b6d 31bf
00000340: 0a22 39bc a72e 463e b017 cbbe 5f60 aa3d
00000350: 7120 81be 25c3 d93d 8045 e5be 2177 283e
00000360: 9887 ad3c 741a 4abf 7249 89bb e523 33bf
00000370: 6700 cebe 8652 09bf 0b3d 9f3e cc06 00bf
00000380: feb1 a03d 7b25 e7bb 2bd1 3b3d 586c af3e
00000390: 11fd 1a3e 2b77 633e 454d 45bf fc1c 03bf
000003a0: cbc2 87be 8bb0 b83d de71 18bf f804 29bf
000003b0: 437d 93be 0598 84be d42d 153e b5b0 b0be
000003c0: 6a4f 0b3c d613 2c3f 6b05 1cbe dfa6 9d3e
000003d0: 248a 70bb 5479 523d e8c8 1dbf 6014 50bc
000003e0: 30a4 38bf 7858 b53e eddd 173f d6e5 34be
000003f0: 9132 143f a5d6 1c3e f8de 29bf 5d05 eabe
0.26916865 -0.1918085 0.14132115 0.16981576 0.3440054 0.378656 -0.23768929 0.2581063
0.33033413 0.3258805 0.18329006 -0.076425985 0.015442022 0.011660851 0.33755684 -0.29340613
-0.2524735 -0.06723962 -0.019504115 0.12854786 -0.08567939 -0.09771867 0.54494154 -0.37054813
-0.38600853 -0.18976112 0.60722107 0.24648602 0.15007171 -0.09963697 0.027591994 0.3284978
0.24290664 0.02860728 -0.05830959 -0.30049887 0.065368585 -0.06963062 -0.124158345 0.7704892
-0.100784786 0.1056122 0.26757437 -0.053698935 -0.116097406 -0.25633994 -0.38648772 0.38863924
0.37873924 -0.075441815 -0.24357194 0.22132088 -0.2519542 -0.042765502 0.42272246 -0.13980667
-0.038415108 0.2597538 -0.45806524 -0.07619952 0.6094113 0.829891 0.091129705 -0.17851338
0.42439306 -0.60431737 0.28492698 0.51090807 -0.30518347 -0.008609524 -0.011512954 0.26302794
-0.035877813 -0.70422786 -0.041094195 -0.0009221271 0.0829378 -0.04949417 0.6826642 -0.19225577
-0.21574804 0.14552937 -0.3845356 0.06294224 0.07383444 0.2935639 -0.18068285 0.13121888
0.055771984 0.27768567 0.28505358 -0.08013684 -0.15621947 -0.5931469 -0.39387262 -0.06487426
-0.0063361377 0.066760994 0.07400805 0.3164057 0.3055575 -0.45188138 0.32212982 -0.44378197
0.17139667 -0.0142638665 0.24674398 0.14194602 -0.11047619 -1.0379466 0.289125 -0.25080696
0.7264548 0.10232355 -0.27612174 0.053830095 0.06295594 0.16204248 0.052493572 -0.44570792
-0.1774412 -0.011498042 -0.52635354 0.1171783 -0.42754033 0.18288516 -0.059755363 -0.23071064
0.4850737 0.43120322 0.56468755 0.21893135 0.028916016 0.32698134 0.34159878 -0.13751079
0.21965797 0.2745775 -0.0893404 -0.25304326 0.0796061 -0.13817734 -0.49075365 0.86317945
-0.09657729 0.21436606 0.5203997 -0.30403334 0.030267986 -0.35892206 -0.020332491 -0.10790067
-0.067648314 -0.1876391 0.15377696 0.34216246 0.17036006 0.22753327 -0.22089718 -0.2630222
-0.09378827 -0.048748 0.33092207 -0.043461103 -0.11342126 0.25675485 0.3477604 0.0035283244
0.33454394 -0.09269175 0.43730935 -0.3862068 0.0052203774 0.108081095 -0.48825866 0.17708087
0.12083482 -0.5820163 0.18888335 -0.033380438 0.0018996809 0.13629773 0.030703716 0.16135323
0.27682036 0.09750894 -0.3397073 -0.17358322 -0.2737728 -0.18949103 0.044662874 -0.05734974
-0.27432668 -0.32205582 -0.33239493 0.108126 0.24022113 0.2554123 -0.16883217 0.09342264
-0.47865817 0.18367723 0.15775442 -0.8107179 -0.19493385 -0.1656526 -0.43582553 -0.6930787
-0.011299619 0.19353734 -0.3966651 0.083191626 -0.25220063 0.10632924 -0.44779587 0.16451694
0.02118282 -0.78946614 -0.0041896636 -0.69976646 -0.40234682 -0.53641546 0.3110126 -0.5001037
0.07846449 -0.0070540286 0.045853775 0.34262347 0.151356 0.22213428 -0.7707103 -0.512161
-0.26515803 0.09018048 -0.5954875 -0.66023207 -0.28806505 -0.25897232 0.14568263 -0.34509817
0.0085028205 0.6721777 -0.15236442 0.30791375 -0.0036703432 0.05138524 -0.61634684 -0.01270017
-0.7212553 0.3541906 0.59323007 -0.176658 0.5788966 0.15316255 -0.6635585 -0.45707217

se_block_event.1.0.bias f4 [16]
00000000: 00db 92bf 3129 71bf d49e 04bf 1f54 203e
00000010: 5985 3cbe 0563 e63e 9164 90bd 354c 893c
00000020: b6dc 0fbe f48f 36bd f330 293f f2be 51bf
00000030: 418f 1bbf a5db a93e b4eb 57bf 48b6 15be
-1.1473083 -0.9420348 -0.5180485 0.1565709 -0.18410243 0.4499742 -0.070504315 0.016759971
-0.14049038 -0.04457088 0.66090316 -0.81931984 -0.60765463 0.33175388 -0.8434403 -0.14620316

se_block_event.1.2.weight f4 [64, 16]
00000000: fc04 313e f082 c23f 1097 913f a18f 433f
00000010: d021 593f b7a2 823f e97c 6f3f 009a c23e
00000020: 3737 513f 4adc 453f ba81 b53f 5565 b33e
00000030: 5615 153f 0ac2 673f cc9f e93e 7f05 c13f
00000040: c6f9 c63e 49da ea3f bc75 0240 12e1 1c40
00000050: 6339 d33f c5a2 3b40 a946 713f f0ea e03f
00000060: 61c2 2240 afd1 2e40 bff9 0a40 5826 363f
00000070: 5ac3 1740 2d3f c63f ea35 343f cc17 c13f
00000080: 6e27 be3f aa87 d13f 9329 e43f ee7c 6fbe
00000090: 395b fc3e 6298 3a3f 8dd8 933e f7c0 553e
000000a0: cbe6 2c3f 96f2 0c3f c400 39be e44a 303f
000000b0: 85a9 873e 24b1 0d3f 4d42 213f d84d a23f
000000c0: 3f09 b93e 568c 983f 83aa d93f 555a 0d3f
000000d0: ad5a 993f 6c15 8e3f 1397 463f 45f5 6f3f
000000e0: 0b1b 583f efca 3b3f 0c1b 783f 002a 583f
000000f0: 11e9 7f3f a73e 263f ee8c ae3e accd 6a3f
00000100: 6471 bc3f e9a9 d73f f2bb 923e bc4d 4e3f
00000110: 7225 c23e 4f46 d6bd 3985 aebc cf19 cabe
00000120: a567 e8bd 9ec8 abbe 97a1 363f 23f8 f03c
00000130: d049 31bf 2245 233f 1621 9d3e 00f0 e43e
00000140: 2c23 3c3f 0659 fd3f 3ca1 c13f 8634 0e40
00000150: be9e be3f 1521 1640 8657 e93e 6127 b23f
00000160: b8a6 0240 7917 2140 a8b9 dd3f 0e35 7c3f
00000170: 4918 0c40 ef4a e13f ce47 2a3f 017c 983f
00000180: b6d3 873e cecd 573f 3d42 f53f a4a1 2040
00000190: 8e64 3c3f fca5 1e40 c580 363f eb8e c53f
000001a0: 312a 0540 790d 2c40 d6d3 fb3f 339a 853f
000001b0: 342b 2340 7d1d c43f b585 68bd 1bcd a33f
000001c0: b05d 443f 2725 21bd 56e0 6e3f ce53 77bd
000001d0: bd52 e3bb b4c8 493f adad a13f b841 aa3f
000001e0: 2585 213d 3929 0ebf 40b0 7f3f 0eb0 3a3f
000001f0: 43dc e93d 418e d53f 8407 043f 36ac 973e
00000200: e179 8c3e 26a7 0f3e 9543 5ebf d475 0d3f
00000210: 2d17 0a3f 1b0c 263f cbbf af3d 82db 883f
00000220: 186d ad3e 6782 ecbd 62fe 573f dac4 533f
00000230: bde1 cc3d 758c ba3f 9c05 853f 4bbf 783e
00000240: 21d0 4f3f 735c e73f 0c61 5b40 2dd0 0740
00000250: 9187 953f e268 2140 6c3d ac3f 6ba4 ac3f
00000260: 5d54 3740 60d7 fa3f b54a 2740 039e 883f
00000270: 7484 e33f 60a5 1d40 6712 213f 8961 a73f
00000280: 1a2e 9b3d 7fcb f23d baa6 6abd 83db c8bb
00000290: 9cce 27bf a8e2 493f b42c d83e 956a 193f
000002a0: 9fc8 453f 9a64 40bd 06e5 6f3f de54 b1bd
000002b0: a926 06bd 195f ea3d c2cf 29bd 85e7 3c3e
000002c0: ff0b 963e 46d1 5b3f 54a0 833f 38e9 7a3f
000002d0: 7a70 f53f 6bde f53f b61d 4e3f db4d e73f
000002e0: b735 bb3f 88fb e03f 0951 3740 f935 813f
000002f0: cb01 f03f cb81 1040 7255 8b3f 2d0d 2a3f
00000300: 3284 c93e 5758 1c3e bcb8 ad3e d095 893e
00000310: e568 5d3f ef1a c13e e864 9e3e 2a30 123f
00000320: 1e65 633d 0f2d 9a3e cca1 873f e326 603e
00000330: f1ef f53e 9877 cc3e f257 ea3e 4f21 cc3e
00000340: 9813 ecbb 41cd 6a3f 4c23 ec3f 831d 3040
00000350: c266 e63e ab44 1440 7dc4 fd3e eb18 be3f
00000360: fb28 1140 12e9 1c40 4151 f93f 1c27 a73f
00000370: 0a13 0c40 e641 f53f bf6f b83e 7dfc b33f
00000380: a11f 1cbd 67f3 223e 977d a53e e3a5 4f3e
00000390: a212 b13f bf48 de3e e773 193f fe9b 9a3f
000003a0: a240 c83e 6f5d b0bc 3ac6 3f3f 6a77 3c3f
000003b0: ca4a 6d3f e201 043f 128d 493f cf88 a53e
000003c0: 24b4 933f abfc dc3f 647d 0d40 673a bc3f
000003d0: 31f0 df3f 502d 1340 3ffa ae3f 39ad f43f
000003e0: af14 dd3f a91a dd3f 4caf 1440 365a 2a3f
000003f0: 495c d23f 14ad 9d3f 5d5b 9c3f 4105 bc3f
0.17287058 1.5196209 1.1374226 0.76391035 0.8481722 1.0205907 0.9354997 0.38008118
0.81724876 0.7728926 1.4180214 0.35038248 0.5823568 0.90530455 0.45629728 1.5079802
0.38862437 1.8347865 2.038436 2.4512372 1.6501888 2.9318097 0.94248444 1.7571697
2.543114 2.731548 2.1714933 0.7115226 2.3712983 1.548803 0.70394766 1.5085387
1.4855783 1.6369526 1.7825187 -0.233875 0.49288347 0.7288877 0.28876153 0.20874391
0.6753966 0.55057657 -0.18066698 0.68864274 0.2649652 0.5534842 0.6299179 1.2680006
0.36139867 1.1917827 1.7005161 0.5521596 1.1980797 1.1100287 0.7757427 0.93733627
0.84416264 0.7335653 0.9691627 0.84439087 0.99965006 0.6493935 0.34091896 0.9172008
1.4722104 1.6848727 0.28659016 0.80587363 0.37919194 -0.10462629 -0.02130376 -0.39472815
-0.113478936 -0.33551496 0.71340317 0.029415196 -0.69253254 0.63777363 0.30689305 0.44714355
0.7349117 1.9792793 1.512733 2.2219558 1.4892194 2.3457692 0.45574588 1.3918267
2.0414257 2.5170577 1.7322283 0.98518455 2.1889822 1.7600993 0.66515815 1.1912843
0.2652871 0.8429841 1.9160839 2.5098658 0.73590934 2.478881 0.71290237 1.543424
2.0807002 2.6883223 1.9674022 1.0437683 2.549512 1.5321499 -0.056768138 1.2796968
0.76705456 -0.03934207 0.9331106 -0.060382657 -0.0069373534 0.78821874 1.2631127 1.3301306
0.039433617 -0.5553165 0.9987831 0.7292489 0.11418965 1.6684037 0.5157397 0.29623574
0.27436736 0.14028606 -0.8682187 0.55257916 0.53941613 0.6486222 0.085815035 1.0691988
0.33872294 -0.1154831 0.8437253 0.82722247 0.10003994 1.4574114 1.0392337 0.24291722
0.81176955 1.8075088 3.4277983 2.122081 1.1681997 2.5220265 1.3456244 1.3487676
2.8645241 1.9596977 2.6139348 1.0673221 1.7774796 2.4632187 0.62918705 1.307664
0.075771526 0.1185522 -0.05728791 -0.0061296835 -0.65549636 0.78861475 0.42221606 0.59928256
0.7725925 -0.04697094 0.9370884 -0.08658765 -0.032751713 0.1144392 -0.0414579 0.18447693
0.29306027 0.858662 1.0283303 0.98012114 1.917495 1.9208502 0.80514085 1.8070635
1.4625767 1.7576761 2.864321 1.0094596 1.8750547 2.257922 1.0885451 0.66426355
0.3935867 0.15268074 0.33930004 0.2687211 0.8648818 0.3771586 0.3093636 0.5710474
0.055516355 0.30112502 1.0596251 0.21889834 0.48034623 0.39934993 0.45770222 0.39869162
-0.007204484 0.9171944 1.8448272 2.7518013 0.45000273 2.3166912 0.4956397 1.4851354
2.2681262 2.4517255 1.9477922 1.305881 2.188662 1.9160736 0.36022756 1.4061428
-0.0381161 0.15913163 0.3232238 0.20278125 1.3833811 0.43414876 0.5994248 1.2078855
0.3911181 -0.021528928 0.74911845 0.7361971 0.92692244 0.5156537 0.7873088 0.3233094
1.153935 1.7264608 2.2107782 1.4705323 1.7495176 2.2996407 1.3670119 1.9115363
1.7271937 1.7273761 2.3231993 0.665439 1.6434413 1.2318444 1.2215382 1.4689103

se_block_event.1.2.bias f4 [64]
00000000: 8c53 973f d72b 3540 2218 c03f 7f9f 9a3f
00000010: 3f9f 433f c978 1840 6499 3940 afb4 313d
00000020: f7cd 893e 7055 6940 fb08 9abd b585 1940
00000030: 7193 d83d 7893 4640 f7e7 683f 552d f03f
00000040: 171a ba3e 0f8c 873e 92ae 553e 8e55 e33e
00000050: ced0 463f f39a 00be 1155 243f 46b8 133f
00000060: d786 3a40 965a db3f 4ced 113f f97b 2640
00000070: e53d 1540 a47a 1a40 e707 0c3f 4626 d23f
00000080: bd21 7e3d 81fc 33bf c1bb e63f 1c88 a1bb
00000090: 70a8 963d df36 ed3f 05df f83e 8363 3e40
000000a0: 74ac 0e40 742a e1bb 812c 363e abf7 773e
000000b0: 32f7 3a3e 9e5d e23e abda b13e a00a f23f
000000c0: bd55 563e 1629 033e c268 81be e5b6 f33e
000000d0: 1aea 5a3e 9e64 1540 7b08 f83c fd79 ef3e
000000e0: 8522 8d3d 8d13 c93d b749 2d40 b50b 31be
000000f0: 8a8e 3a40 71f3 7f3f 37e3 823e 8768 1040
1.1822371 2.8308008 1.5007365 1.2079924 0.76414865 2.3823721 2.8999872 0.043385204
0.2691495 3.6458397 -0.07521244 2.3987858 0.10574997 3.1027508 0.9097895 1.8763834
0.3634803 0.26474044 0.20867375 0.4440121 0.7766236 -0.12559108 0.641923 0.57703054
2.91448 1.713702 0.5700271 2.6013167 2.3319027 2.4137354 0.5469956 1.641793
0.062043894 -0.70307165 1.8026048 -0.0049295556 0.07356346 1.853237 0.4860765 2.9748237
2.2292757 -0.006871516 0.17790414 0.24215572 0.1825836 0.4421205 0.34737143 1.8909492
0.20931144 0.12808642 -0.25275236 0.47600475 0.21378365 2.3342662 0.030277481 0.46772757
0.0689135 0.09818182 2.7076242 -0.17289622 2.91495 0.9998084 0.25563976 2.2563798

se_block_event.2.0.weight f4 [16, 64]
00000000: aa45 c4be b86b e4be 73f1 4dbe f0aa 9a3d
00000010: 51de 34be 5925 75be 8719 373e 5cf2 5bbd
00000020: ae7e 1f3e 966c 15be 5ae9 9d3e 80d0 89bb
00000030: 7450 11bd 88dc ec3d 3251 413d 004b bcbe
00000040: 351d 903e 197b 883e 6c50 a1be c61b 08bf
00000050: fbfd b93c def8 44be 30a5 74bf cf77 483e
00000060: dae6 1a3c 046d c1bd 1639 693e a2d2 a8bd
00000070: 27cb b1be 5fba 55be 922e 883e e838 8abe
00000080: 3faf 74be b374 99bd ab1b 5a3f a989 45be
00000090: 64d3 cdbc 1f0f ec3d 0f73 193d 38c1 aa39
000000a0: 90f9 2bbe 327c 693e 27e1 6e3e 3b83 debd
000000b0: c622 34bd f0cd 363e 07dc b6bc 3e77 113d
000000c0: b34f aabe 572b bc3d 4440 d4bd 73de 3abe
000000d0: da39 febd 2f61 96be ab6f ddbd 9162 ea3e
000000e0: a7f1 3d3e 6b50 03bf 9bbc 923e ddbe debe
000000f0: 2308 223f b175 9a3e fa7a 10bf f1ae 5ebe
00000100: 3a08 113f d9c9 0cbe 8cf7 643e 9f18 113f
00000110: 3651 0e3e 77aa 02be b6eb ed3d 1a3c 883e
00000120: 6000 c73c cc19 5b3d 6bb1 863d 3c78 7f3d
00000130: fa81 423e a258 a33e a9c9 e13d 97e1 143e
00000140: 0d5f 69bd b407 dfbd a9a4 843e ad41 f93e
00000150: 1e8f febd e337 ba3e 113a 3d3e 4f19 0dbe
00000160: 0029 efbd c683 0ebd 7d3d eb3e 8e3f 3f3e
00000170: c0f9 f2bd 8699 cb3d 9efa b9be 9c6a 303e
00000180: b9b0 bb3c 376f 853d 8c5b 823f de79 89be
00000190: 143d 20bf a22f 103f 8de0 0c3f 54a5 303e
000001a0: 1f15 1e3f 146a 8d3e 22dc 033d 92df 9abd
000001b0: cca6 88bd 6edc b43e ff1f 813d f1c7 28be
000001c0: 519b 653f c505 033d 7119 b33e ad65 073e
000001d0: ed23 36be 3163 0d3f 73df 993e cf31 5bbe
000001e0: 42e3 9d3e c1b0 303d aeb3 32be 4e9a f43c
000001f0: 1e4e 823e 2cb4 6f3f 0b63 1fbe a432 78bc
00000200: fa91 93be 7ebe 163d 4e99 933e b5d6 363e
00000210: b032 c53b 863a 8a3d 33e9 ed3e bb0b 28bf
00000220: ceff bfbe 48b1 0fbd 869f 05bf 2870 f7bc
00000230: 7582 25be 78a0 1b3f 9b0b 9ebe 4002 5abf
00000240: 8c05 c23e 27be 13bf 73e8 1ebe 0ced a9bf
00000250: f908 7d3d 3d4f a6bf 95a8 1ebd 7178 693e
00000260: 67a9 e23d 76f5 083f 5bf1 69be ee5f 57be
00000270: 6574 f63e 57df 6abe 03a9 2ebd 2912 b03e
00000280: acaa 2a3d b87f a3be a378 0ebf 655a 00bf
00000290: ba66 bcbe d93d 043f 0dbb 3f3e f39b 443e
000002a0: 7784 ee3d fbd3 2cbe e8d9 963e 50b7 263f
000002b0: d988 0d3f 3132 f5be c3fe 263d 1c34 2dbe
000002c0: 8d66 61be c40b e0bc 5a45 2b3f aa16 33bf
000002d0: 46ef 36bf a994 2b3f 0426 22bf b135 8dbe
000002e0: ffd0 1cbf 43ba 7ebe 2ad5 12bd 5469 ad3e
000002f0: 533a b63b b82d 05bf 1524 873e 902e 6abd
00000300: 74a0 273f 5c37 2abe a48d 423e 114b b33e
00000310: 59c8 e23d e34f cd3e 5b08 1bbe da9e 1f3d
00000320: e242 2dbe 39ca 71bd ee3e 54be b164 eb3d
00000330: b500 6b3d 3f23 053e dafd 5a3f 5951 70bd
00000340: 2ee1 d23d 832f 8ebe 2b4d 003c 4de9 8b3e
00000350: 82d4 19bd 4930 e0bb a90d 013d b227 5fbe
00000360: 6b87 4bbe 2207 59be 6c45 5c3f 89a8 9fbe
00000370: 9b1a 02be 0559 063f 790f c2be 9f13 f53e
00000380: 1f0d d53d 9210 853b 2da4 1e3f ff2f f1bc
00000390: 6a3e 74bd e30e 2f3e 5ff3 53be 5ff2 ab3e
000003a0: bdb9 743e 9276 843e 084f 0d3e 4593 10bc
000003b0: d5ab a13d 4c45 973e 09df 8b3b 4f2f 74be
000003c0: b891 ba3d 04df 163e 638b 353e 18b4 803e
000003d0: 4f18 3a3d 8211 a13d e055 fe3e 21af 853e
000003e0: 3a4f 913e e9e8 7f3e 866d 11bd 2596 70be
000003f0: 360f 043f d09d 8f3f a110 97bd 56c0 a2be
-0.383344 -0.44613433 -0.20111637 0.07552135 -0.17662932 -0.23940028 0.17880832 -0.05369793
0.15575668 -0.14592203 0.30842096 -0.0042057633 -0.035477117 0.115655005 0.047196575 -0.3677597
0.28147283 0.26656416 -0.3150667 -0.5316738 0.022704115 -0.1923556 -0.95564556 0.19576953
0.009454453 -0.09444621 0.22775683 -0.082433 -0.34725305 -0.20871876 0.2659803 -0.2699654
-0.23894976 -0.07492962 0.8519847 -0.19290794 -0.025125213 0.115263216 0.037463244 0.00032568886
-0.1679442 0.22801283 0.23328076 -0.10864874 -0.043978475 0.17851996 -0.022321714 0.03551411
-0.3326393 0.09187954 -0.1036382 -0.1824892 -0.12413378 -0.2937102 -0.108123146 0.45778325
0.18549214 -0.51294583 0.2865952 -0.43504992 0.63293666 0.30167916 -0.5643765 -0.21746422
0.5665318 -0.13748874 0.22360057 0.56678194 0.13898167 -0.1276034 0.11617224 0.26608354
0.024292171 0.0534914 0.065768085 0.062370524 0.18994895 0.3190356 0.11024792 0.1453918
-0.056975413 -0.10890141 0.25906876 0.4868292 -0.12429641 0.36370763 0.18479182 -0.13779186
-0.11677742 -0.034793638 0.4594535 0.18676588 -0.11864042 0.09941392 -0.36324018 0.17228168
0.022911416 0.06515353 1.0184188 -0.2685079 -0.625932 0.5632268 0.5503014 0.17250568
0.6175098 0.27619994 0.032192357 -0.07562174 -0.06672439 0.35324425 0.06304931 -0.16482522
0.8969012 0.031987924 0.34980348 0.1322238 -0.17787142 0.5522948 0.3005329 -0.21405719
0.30837446 0.043137316 -0.17451355 0.029858734 0.25450224 0.93634295 -0.15565126 -0.015148792
-0.2882231 0.03680276 0.288279 0.17855342 0.0060180053 0.06749444 0.4646698 -0.656429
-0.3749985 -0.035081178 -0.5219654 -0.030204847 -0.16163047 0.6079173 -0.3086823 -0.85159683
0.37894857 -0.57712024 -0.1551836 -1.3275466 0.061776135 -1.2992932 -0.03873499 0.22799851
0.11067467 0.53499544 -0.22845976 -0.21032688 0.48135677 -0.2293676 -0.04264165 0.34388855
0.04166667 -0.3193338 -0.5565283 -0.5013793 -0.36797124 0.5165687 0.18723698 0.19200115
0.116463594 -0.16877739 0.29463124 0.6512346 0.5528694 -0.47889856 0.040770303 -0.1691441
-0.22011776 -0.02734936 0.669027 -0.6995646 -0.7145885 0.6702371 -0.6333926 -0.27580026
-0.612564 -0.2487574 -0.03584782 0.3386942 0.005561152 -0.52022886 0.26394716 -0.05717331
0.6547921 -0.1662268 0.18999344 0.3501821 0.110733695 0.4010001 -0.15139906 0.038969852
-0.16920045 -0.059030745 -0.20727131 0.11493815 0.05737372 0.13001727 0.85543597 -0.05867133
0.10296856 -0.27770624 0.007830898 0.27326432 -0.03755618 -0.0068416935 0.031507168 -0.21792486
-0.19875877 -0.21194127 0.8604343 -0.3118327 -0.12705462 0.52479583 -0.3790243 0.47866532
0.10402893 0.004060813 0.6196926 -0.029441832 -0.059629835 0.17095523 -0.20698307 0.33583352
0.23898979 0.25871712 0.1379968 -0.008824174 0.078941025 0.29545057 0.004268531 -0.23846172
0.09109825 0.14733511 0.17728953 0.251374 0.04543334 0.078646675 0.49674892 0.26110175
0.28380758 0.24991192 -0.03550484 -0.23494776 0.5158571 1.1220036 -0.073762186 -0.31787366

se_block_event.2.0.bias f4 [16]
00000000: 4bbe 283f b261 95bf c1e3 b03c 3b07 77bf
00000010: ff0a 00bf 1cf7 083f 28b6 41bf cc81 cebe
00000020: 427e 6abd b13d f6bd b64c 10bf 3b7d 54be
00000030: 4516 c13e c54d b0bf c398 3c3d ad6f 9b3d
0.65915364 -1.1670439 0.021592977 -0.9649541 -0.5001678 0.5350206 -0.75668573 -0.40333402
-0.057249315 -0.120234855 -0.5636705 -0.20750897 0.37712303 -1.3773733 0.046044122 0.0758966

se_block_event.2.2.weight f4 [64, 16]
00000000: 1d5b b73f 5d93 193e d409 533f 8955 f53e
00000010: ade7 fc3d 24b3 6a3f afda 133f ab05 5b3f
00000020: d012 2a3f aa19 7f3f 4f9f 763f 9292 8e3f
00000030: dc67 8e3f 6b33 133f 89ff b23f b723 cf3f
00000040: 4fa4 893f f567 0740 717d 0840 b46b d23f
00000050: a7ed 783f 48db 913f 17ff 553f 61b7 8c3f
00000060: 7386 413f 27be cf3f aa57 df3f 4e0d 37be
00000070: b4d9 9d3f 62bb 2040 3903 22be a60d b43f
00000080: 33b4 0740 2551 023f df07 813f 91d5 e33e
00000090: 6d37 153f ef7d c53f 2cef 0d3f a94e 2c3f
000000a0: df98 b93f 12c2 0a3f b5af 163f 871b c93f
000000b0: 8833 b63f 89bd fd3e 8329 ed3f a532 cc3f
000000c0: 4d3b 5f3f 05e0 8cbd b7d8 a93f f647 f13e
000000d0: 1f21 f53e 3f6d 8a3f bebc 783e c6ad 653f
000000e0: ae42 5b3f e196 873f d7f0 a53f e023 213f
000000f0: 4242 993f 3e75 c23e 4f35 2b3f 40b9 9b3f
00000100: 4e8b 0c40 d55e 423e 3bcb edbd 2c75 d13b
00000110: 9c40 413f 36ba ee3f 3918 c23f d887 353f
00000120: ebc0 ad3f 7c93 b33f b0a1 b63e 9e05 953f
00000130: f322 aa3f 749a 6a3e a4b3 0f40 8dfd d13f
00000140: e691 c13f 3366 c43e 5ee2 983f f12a b23c
00000150: 0c87 1c3f 192a 833f 909b 013f faf4 443f
00000160: 345a 843f 3e51 9d3f f84a fa3e 4376 1540
00000170: 7d63 8e3f f33a ad3e e056 2d40 3ddc d63f
00000180: 848e a13f 592e fb3e ad11 b93e f733 88be
00000190: 2501 74bd 5ad8 693f eef4 983e c69a 8f3f
000001a0: 833c e33e fc29 883e ce47 8f3f c210 633f
000001b0: c34d 433f a8d2 463d 9b92 6d3f 9c53 803f
000001c0: a507 d13e 2de3 bb3d fd86 5c3e c9dc c43d
000001d0: 459f 0e3e 4dfd ad3f ea38 f73e bc95 e33e
000001e0: 6792 3d3f e6cb a13e 4ee3 053f b57e 2dbd
000001f0: e2ed d13f 6a8d e73e 256d f5bd 9dc8 533f
00000200: 0610 bc3f 0e9b 493f 65b9 f43f 5d52 853f
00000210: 2d1d 523f 50d0 f23f af33 2c3f cf83 cb3e
00000220: d2a7 883f 27aa b43f 22cc 233f 8843 0abe
00000230: 461e b93f 8404 903f 5543 35be 61f6 8b3f
00000240: c0c9 833f 5f15 713f acf6 fabe 5c64 fb3e
00000250: c763 413f 2914 033f d9fb a63f 9f55 963e
00000260: 27d1 e03e 3e19 e13e 1469 a3be 6319 4abe
00000270: 871b 143f 2d7b 353f f336 413e 439c 623f
00000280: 3751 0e3f 6988 0fbe e0e3 aabe 38eb 90bb
00000290: 308a 6b3f 4133 3f3f 11fe 383e 2543 ca3e
000002a0: 80b2 38be b1f7 943d d05b 593e c0f4 953d
000002b0: 2981 6b3f e963 aab9 2c6d 65be 8b71 dbbd
000002c0: 6405 373e 369d 2c3f f1a6 423e a493 8e3f
000002d0: 6d94 1d3e 4e92 583e 2941 523f 8e22 48bf
000002e0: 7d15 98be 0c92 c4be d0cd 0abf 389b 69be
000002f0: e96e f5bd 65bb c03f ab5a a0bd fbe1 493e
00000300: e313 f43e b5fd c93e 8dc8 243f 32cc c53e
00000310: 1f81 1b3f d4d6 103f a10c ad3e 97a4 713f
00000320: 19a9 d93e dd04 2a3f 0375 ad3e a06b 023f
00000330: c286 973f 20dc 183d 5237 1d3f 92fe 693f
00000340: 190b 58bd 7a8d ce3e 9099 163c 98ee 52be
00000350: 7092 433f d931 0b3f 23e1 053e 1b3d 5c3f
00000360: 5ae8 953e 4214 333f 16d1 8d3e 757c 81be
00000370: 3084 fa3e 5adb 713e ccce 96be e97e ff3d
00000380: 5e8f 963c 713f 873d 68c0 15be f9bc 533d
00000390: 2415 b0bd e380 013f 4878 4f3f e728 ba3c
000003a0: 79df c63e 75ce 323f 082e c33d 57ff 2b3e
000003b0: cb64 a0be eed5 51be 9ccd 2b3d da2e e73e
000003c0: 317e ce3f 4bd2 213f 2ddd 673f 9c64 883e
000003d0: d77a 323f 0aea e13f be36 943f 14e7 e03e
000003e0: a8ca c43f c193 bc3f 9f7e 813f c3b2 1940
000003f0: 1d19 d03f 47fe a93e 2fcc 1040 e3d4 da3f
1.432468 0.14997621 0.8243687 0.4791682 0.12348876 0.91679597 0.5775556 0.85555524
0.66434956 0.99648535 0.96336836 1.113848 1.1125445 0.5750033 1.3984233 1.6182774
1.0753268 2.11572 2.1326563 1.6439118 0.9723763 1.1395044 0.8359236 1.0993463
0.7559578 1.6229905 1.7448628 -0.17876169 1.2332063 2.511437 -0.15821542 1.4066665
2.1203735 0.50905067 1.0080527 0.44498876 0.582877 1.5429057 0.5544307 0.67307526
1.4499778 0.5420238 0.5886186 1.5711526 1.4234476 0.49558666 1.8528293 1.5952955
0.8719986 -0.06878666 1.3269261 0.47125214 0.47876832 1.0814589 0.2429075 0.8971828
0.8564862 1.059292 1.2964123 0.62945366 1.1973345 0.37980074 0.6687822 1.2165909
2.1960025 0.18981488 -0.11611029 0.006392142 0.7548921 1.8650577 1.5163642 0.70910406
1.3574499 1.4029384 0.35670233 1.1642339 1.3291916 0.22910482 2.2453394 1.6405503
1.512265 0.38359222 1.1944082 0.021748992 0.61143565 1.0247222 0.50627995 0.76936305
1.0340028 1.2290418 0.48885322 2.3353431 1.1124111 0.33834037 2.7084274 1.6785961
1.2621617 0.49058798 0.36146298 -0.26602146 -0.059571404 0.9134575 0.29874367 1.1219108
0.44382104 0.26594532 1.1193788 0.88697445 0.7629053 0.04854074 0.9280183 1.0025516
0.40826145 0.0917419 0.21535869 0.09612424 0.13927944 1.3592926 0.4828561 0.44450176
0.7405152 0.31600875 0.52299964 -0.042357165 1.6400721 0.45225078 -0.11983708 0.82727987
1.469239 0.7875222 1.9119078 1.041576 0.8207577 1.8969822 0.6726636 0.39749
1.0676215 1.4114426 0.63983357 -0.13502324 1.4462364 1.1251378 -0.17701466 1.0934564
1.0295944 0.94173235 -0.4901632 0.49100006 0.75542873 0.51202637 1.3045608 0.293622
0.4390957 0.4396457 -0.31916106 -0.19736247 0.57854503 0.70891076 0.18868618 0.88519686
0.55592674 -0.1401688 -0.3337698 -0.0044225715 0.9200773 0.7468758 0.18065669 0.39504352
-0.18036842 0.07273806 0.2122643 0.07322073 0.9199396 -0.00032499366 -0.22404927 -0.10715016
0.1787315 0.67427385 0.19008996 1.1138806 0.15388651 0.21149561 0.82130677 -0.78177726
-0.29703894 -0.38392675 -0.54220295 -0.22813118 -0.11984045 1.5057188 -0.078297935 0.19715111
0.47671422 0.39451376 0.64368516 0.3863235 0.607439 0.565778 0.33798698 0.9439177
0.42511824 0.6641367 0.33878335 0.5094547 1.1838 0.037319303 0.6141254 0.9140407
-0.05274496 0.40342313 0.009191886 -0.20598829 0.7639532 0.54372936 0.13074164 0.8603074
0.29278833 0.69952786 0.27698582 -0.25290266 0.48928976 0.23618832 -0.29454648 0.12475378
0.01837891 0.06603897 -0.14624178 0.05169389 -0.08597782 0.5058729 0.8104291 0.022724582
0.3884237 0.6984628 0.09530264 0.16796623 -0.313269 -0.20491764 0.04194413 0.45152932
1.613226 0.63211507 0.9057186 0.2663926 0.6971869 1.7649548 1.1579206 0.439263
1.5374346 1.4732591 1.0116767 2.4015357 1.6257664 0.3320181 2.2624624 1.7096218

se_block_event.2.2.bias f4 [64]
00000000: 0376 a03f 1fbf 553f 2cdb fa3f 433b 993f
00000010: 5037 0540 ece4 1940 04bb b73f e453 a33d
00000020: a16a 293f 22c0 4c3f a366 4bbe 2471 4d3f
00000030: 025c 103f 630d 223f 52a4 873e 6721 1840
00000040: 173f 3d3e a571 243f fdf6 113f e829 9c3f
00000050: fb74 023f 15f2 d63e 085a cb3e b9c9 c23e
00000060: f2d1 3d40 5550 533f 53f4 d93e 0d1b f53f
00000070: 05d8 973f 832c f83f 09b2 323f fcc4 1b40
00000080: 3d09 02bd 1ad3 c73d 3d50 913f 1faf 36be
00000090: e478 15be db56 ec3f ddbe 193e e266 1540
000000a0: f372 1040 fc1f 06bf 7ce9 1f3e f943 fc3e
000000b0: adda 89be 57eb 0f3e 6c4b b6be 86f8 ea3f
000000c0: 4c56 8c3f 9e0c 913d a1af 1ebf ef3c 6b3f
000000d0: e65f 05bf 3b4d 1940 b4b6 cebe 88dc 573e
000000e0: eca4 09be 2e4d e13e 315f 1a3e 9b36 0cbf
000000f0: 955f 1c40 77e9 963f d927 043f 6f4c ec3f
1.2536014 0.8349475 1.9598136 1.197121 2.081501 2.4045973 1.4353948 0.07974985
0.6617833 0.7998067 -0.19863372 0.80250764 0.5639039 0.63301677 0.26492554 2.3770387
0.18481098 0.6423591 0.570175 1.2200289 0.5095975 0.4198157 0.39717126 0.38044527
2.965939 0.8254445 0.42569217 1.914888 1.1862799 1.9388584 0.6980291 2.433898
-0.03174709 0.09757061 1.1352612 -0.17840241 -0.14596897 1.8464006 0.15014215 2.3344045
2.257016 -0.52392554 0.15616411 0.4927061 -0.2692465 0.14054619 -0.35604417 1.8357093
1.0963836 0.07082485 -0.6198674 0.9188985 -0.52099454 2.3953388 -0.40373766 0.2108022
-0.13441819 0.44004196 0.15075375 -0.5477082 2.4433339 1.1789998 0.516233 1.8460826
