parameters/deephit_model_Concat.pth (torch, 208241 bytes, 32 tensors)

se_block.0.weight f4 [4, 17]
000000 cd b2 7a be 76 ca 13 be 7b dd 82 3c 20 8f 8e bd
       -0.2448227 -0.14432701 0.01597475 -0.06960893
000010 c5 44 b8 bd 72 d3 02 be 4d bd 31 bd ed 60 d8 bd
       -0.08997492 -0.12775972 -0.043393422 -0.10565362
000020 b6 e7 9f 39 40 0a 1c 3d c6 80 79 be 8f 6a 02 bd
       0.0003049948 0.038095713 -0.2436553 -0.031839903
000030 83 d3 f8 bd d4 ff 14 3d ed e6 63 3d 37 3c ea bd
       -0.12149718 0.03637679 0.05564015 -0.11437266
000040 4c 10 9f 3e 85 35 3f bd 2c 94 bd 3d a5 85 3b be
       0.3106712 -0.0466819 0.09256777 -0.183127
000050 2f a4 18 be 5d c2 30 be 2b c7 a5 bd 78 1b 44 be
       -0.14906381 -0.17261644 -0.08094629 -0.19151103
000060 db 90 b0 bd 67 54 72 be 8c cc d5 bd 34 49 52 3d
       -0.08621379 -0.2366501 -0.10439405 0.051339343
000070 42 67 53 be 6c 5d 81 be 9a 78 03 bd 47 2b 39 3d
       -0.20644858 -0.25266588 -0.032097436 0.045207288
000080 c4 5b 92 bd 60 72 77 bd 94 2c ba be 26 a8 d6 bd
       -0.07146409 -0.06041181 -0.36362135 -0.104812905
000090 59 63 0b 3d 56 7b 46 bd f7 4a 60 bd e8 c7 53 be
       0.034030292 -0.048457466 -0.054758992 -0.20681727
0000a0 f0 d2 63 3e e6 82 70 3e c3 f7 6b bd c7 69 bf 3d
       0.22248435 0.23487434 -0.05760933 0.09346347
0000b0 b4 b3 78 bd 16 eb 15 3f f8 f5 b0 3e 56 05 d5 3d
       -0.060718253 0.5856184 0.3456266 0.104014084
0000c0 bf 33 a1 bd 5f 30 04 bf 60 da aa 3e 3b 37 51 3d
       -0.07871198 -0.5163631 0.33369732 0.051078063
0000d0 b7 3c e0 3c 4b 8c f3 3e 8f b9 1e 3e 70 73 20 bd
       0.027372701 0.47567973 0.15500472 -0.03917259
0000e0 b4 62 e2 3d 6d 05 c2 3e 36 98 6c 3d c2 38 58 3d
       0.110539824 0.37894765 0.057762347 0.052788503
0000f0 95 d5 0e 3e ce dd 4b 3d 32 f9 c2 3c 27 9e 22 3f
       0.13948663 0.049772076 0.023800466 0.6352257
000100 9b 17 2a 3d 72 26 c2 3c 1b a6 3c 3d 72 72 e5 3c
       0.04152642 0.023699973 0.046056848 0.028008673

se_block.0.bias f4 [4]
000000 48 88 87 bc a9 e2 14 3c bb 1d bc bc 87 cc 93 bf
       -0.016544476 0.009087243 -0.022963395 -1.1546792

se_block.2.weight f4 [17, 4]
000000 06 15 cc be a6 05 a7 3e 08 67 1c bd 5d cd fe bd
       -0.3985979 0.32621497 -0.038184196 -0.12441514
000010 4c 7b 85 bd 75 44 61 be c6 be c3 be b6 ab fc bd
       -0.06517658 -0.2199877 -0.38231486 -0.12337439
000020 f3 a9 84 3e 36 fe c4 be 78 75 08 bd 53 fc 1d 3e
       0.2591091 -0.38475198 -0.033315152 0.15428285
000030 22 fd dc be 41 2c a6 3e 38 a0 82 bd b1 32 5a be
       -0.43161875 0.32455638 -0.063782156 -0.213084
000040 2f 96 89 bd af 59 c4 be 6d dd 2b 3e b6 1d 6d be
       -0.06718098 -0.38349673 0.16783686 -0.23155865
000050 7b f3 51 3e ad 2a e4 be d4 50 2f 3e 5f 9c 72 be
       0.20503037 -0.4456381 0.17120677 -0.23692463
000060 51 1f b8 bd f0 ab 59 bd aa 22 65 3f 27 6f ac 3e
       -0.08990348 -0.053142488 0.8950602 0.33678553
000070 a7 00 82 3e 8c 27 21 3e c0 50 a2 bd 5c 87 41 be
       0.25391123 0.15737742 -0.07925558 -0.18899292
000080 a1 59 c6 3e 51 c1 bb 3e 4f 71 91 3d 80 a3 36 be
       0.38740256 0.36670926 0.0710169 -0.17835808
000090 5a 9b 1b 3e e9 2c a7 be 21 29 22 3f 6d ef 8d 3f
       0.1519598 -0.3265145 0.6334401 1.1088692
0000a0 b7 77 37 3e 54 af 29 3e ac b3 81 bd c8 07 0e be
       0.17916761 0.16570789 -0.06333098 -0.13870156
0000b0 03 22 ab be 91 6e cb 3b fb 99 47 3c 44 da 39 bd
       -0.33424386 0.006208249 0.012182708 -0.04537417
0000c0 fd c3 8e 3e d2 62 f6 3e 67 c3 5e 3e 84 dc a4 3f
       0.27883902 0.4812227 0.21754228 1.2879796
0000d0 d1 ab b8 bd 68 7c 97 3e 73 3d e7 bd 51 19 56 be
       -0.090171464 0.29587102 -0.112910174 -0.20908095
0000e0 9e 17 a6 bd 1d da 82 bc b8 e4 84 be 13 21 63 be
       -0.08109973 -0.015973145 -0.2595575 -0.22180586
0000f0 73 c0 44 3e 3b 00 fe bd 2b 36 e0 bd c8 90 44 be
       0.19214039 -0.12402388 -0.10947832 -0.19195855
000100 0c 82 04 3f cd 7e e7 3e 1c d8 ba 3f 1e 0b 61 be
       0.51760936 0.4521393 1.4597201 -0.21976897

se_block.2.bias f4 [17]
000000 19 2a 48 be 1b 46 96 bd 18 f1 63 3e a0 2c b5 3f
       -0.19547309 -0.0733759 0.22259939 1.4154243
000010 e4 b2 b2 3e c6 d1 1a 3f 05 03 c6 be a6 85 14 bd
       0.34902108 0.6047634 -0.3867418 -0.03626027
000020 88 d0 49 3e 0b 27 a0 3f ee b2 12 bf b1 96 34 bc
       0.19708455 1.2511915 -0.57304275 -0.011022256
000030 04 3c 78 3f 98 f9 ea 3e 8e 4e dd bd 98 47 36 3e
       0.96966577 0.4589355 -0.10805999 0.17800748
000040 3a 61 84 be
       -0.25855428

se_block_event.0.0.weight f4 [16, 64]
000000 80 00 22 be 70 92 82 be a9 22 46 3f bf ff 3a 3e
       -0.15820503 -0.25502348 0.7739664 0.18261622
000010 34 b3 23 bf a0 f1 e1 3e 31 67 43 3d f6 06 ad 3e
       -0.6394532 0.44129658 0.047705833 0.33794373
000020 a4 01 a7 3d e4 ca 90 3e 5f f5 38 be 8e 59 a9 3e
       0.0815461 0.28279793 -0.18062352 0.33076137
000030 a6 ba 3b 3e c5 54 a6 bc 00 dd 7a 3e 9d a4 c1 be
       0.1833292 -0.020304093 0.24498367 -0.37820902
000040 11 f6 7a be 96 21 67 3c aa d6 f3 bc ca 19 f4 3d
       -0.2450793 0.014107129 -0.029765446 0.119189814
000050 df 4d 29 3f bb 65 69 3f 80 ce 88 be 13 32 8f be
       0.66134447 0.91170853 -0.26720047 -0.2796789
000060 1f 72 10 bf 5d 7d 98 3e 1c 88 b2 bd 7a 0b 08 be
       -0.56424135 0.29783145 -0.08717367 -0.13285628
000070 9b c1 81 bd e3 d7 0b 3e 85 d7 28 3d 6e 00 43 bd
       -0.063357554 0.13656573 0.04122116 -0.04760783
000080 7f 5c 14 be 1d c9 3d 3f ed f7 5c 3c 30 75 e4 3c
       -0.1448841 0.74135 0.0134868445 0.02788791
000090 2b 43 bb 3e b9 50 fe 3d aa 7d 24 bf b5 8a 86 3d
       0.36574683 0.124177404 -0.6425425 0.06569425
0000a0 07 96 48 be c5 b7 ae 3d 05 24 52 3d db b4 54 be
       -0.19588481 0.08531145 0.051303882 -0.20772116
0000b0 73 f6 ae 3e de 0e 9c 3e 18 55 7a 3e a0 7f 90 3e
       0.341724 0.30480093 0.24446523 0.2822237
0000c0 2f 4c b6 3e 87 61 90 3e 9e ef 01 3f c4 af dc be
       0.35604998 0.28199407 0.5075625 -0.4310285
0000d0 b5 11 ac 3d ad c1 0e be dd 84 14 be 10 30 b5 be
       0.08401815 -0.13941069 -0.14503808 -0.3538823
0000e0 15 fb 00 be 67 43 93 bd 07 13 99 3f 89 6d 7d 3d
       -0.1259578 -0.0719059 1.1958932 0.06187204
0000f0 62 35 1f 3e 3d ba ea 3d 82 50 03 3f 2d 6f f0 be
       0.15547708 0.114613034 0.5129472 -0.4695982
000100 80 c6 e3 3e 13 1c 0b be a4 b2 48 3f 6b 05 30 3e
       0.4448738 -0.13584928 0.78397584 0.17189567
000110 87 f0 8e 3e 5f d4 6e 3e 1b 4c 6e bd 28 be f0 3e
       0.27917883 0.233232 -0.05817805 0.47020078
000120 a6 47 73 3e 16 eb ff be 15 57 fa 3d b2 5c 4f 3e
       0.237578 -0.49984044 0.12223641 0.20250204
000130 04 e3 a9 3d 60 a8 51 3c 94 de 28 bf b9 c9 52 3f
       0.08295253 0.012796491 -0.6596463 0.82339054
000140 d6 f5 1f 3e 90 be 5c 3e 78 ec e4 3e 19 bc 54 3e
       0.15621123 0.21557069 0.4471166 0.20774879
000150 e7 ca 34 3d 6c 18 cd 3f 16 b0 da 3e 37 f2 18 be
       0.044138815 1.6023078 0.42712468 -0.14936148
000160 60 64 14 3e cc 1f 40 3f cf 72 b3 3e a0 85 04 3e
       0.14491415 0.7504852 0.3504853 0.12941599
000170 c0 65 65 3f 1a da 06 3f 57 d0 54 3f 5b a6 dd 3e
       0.89608383 0.52676547 0.831304 0.43290982
000180 71 ec f8 3d c2 60 6d be 23 76 3d 3f 41 a0 8c 3e
       0.121544726 -0.23181441 0.7400839 0.27466014
000190 63 0c 17 3e 42 c1 90 3e 2f 1a 1b 3e 05 85 06 3e
       0.14750819 0.28272444 0.15146707 0.1313668
0001a0 4b 4d 82 3e a7 72 20 3e e1 40 b9 3e bb f1 83 bd
       0.25449595 0.15668736 0.3618231 -0.06442591
0001b0 67 e2 49 3f ff 84 ca 3e c8 c6 21 bd fc 4e 58 bc
       0.7886109 0.39554593 -0.039496213 -0.013202425
0001c0 01 aa d9 3e 45 bc c2 3e 2f fe 56 3d 95 60 98 be
       0.42512515 0.38034263 0.052488502 -0.29761186
0001d0 79 22 b1 3e c6 db bd 3f e2 02 84 3e f7 43 27 be
       0.34596613 1.4832695 0.2578345 -0.1633452
0001e0 c8 d7 55 3d 9f 5f 63 3f 48 57 81 3f 64 e6 ad bd
       0.05220774 0.8881778 1.0104761 -0.08491209
0001f0 c5 c8 4e 3e 3f 2c 07 3f 22 0b 0c 3f aa 53 19 bd
       0.20193775 0.5280189 0.5470449 -0.037433304
000200 67 94 04 bd a3 2b a5 3e 85 7b b3 be 20 8a 69 3e
       -0.03236809 0.32259855 -0.35055175 0.22806597
000210 ce 97 9f be 8e e0 2a be 1e 71 6e be 93 25 50 be
       -0.31170505 -0.16687223 -0.23285338 -0.20326833
000220 53 0b e5 3e 3e ed a9 3e 71 18 ad 3e ee 53 bd 3d
       0.44735202 0.33188814 0.3380771 0.09244524
000230 d5 5a 4d 3f 42 44 f6 bd 46 85 0f 3e 85 53 87 3e
       0.80216724 -0.12024738 0.14015684 0.26430908
000240 17 56 51 3e 14 4f c5 be e4 d8 a2 3b 3c b0 5b be
       0.20442997 -0.38536894 0.004969703 -0.21453947
000250 b2 33 47 be 67 1a 3b bf b0 4d be 3e d4 fa ac 3e
       -0.19453314 -0.7308716 0.37168646 0.33785117
000260 9d bb 98 bc f6 04 06 be ee 07 49 bd f8 e2 86 3e
       -0.018644148 -0.1308783 -0.049079828 0.26345038
000270 4a 34 12 3f 96 6f 8b 3d 82 99 00 bf 49 e5 b8 3d
       0.57111037 0.06808393 -0.50234234 0.09028108
000280 5a d0 14 3f 21 49 bc be b9 66 aa bb a6 1c f0 be
       0.5813042 -0.36774543 -0.005200234 -0.46896857
000290 9f 1c 59 3f 26 01 20 bf 22 c1 9f bc 8d 4b 48 3e
       0.848093 -0.6250175 -0.019501273 0.1956007
0002a0 f7 12 8d bb 7d c9 63 3f fb 74 55 3e 65 74 1f 3e
       -0.0043052393 0.8897932 0.20845406 0.15571745
0002b0 40 74 11 3f 12 d3 18 bf 42 07 df 3d 76 04 ad 3d
       0.5681801 -0.5969707 0.10890056 0.084481165
0002c0 1d 94 a4 be c5 e5 bc 3d dc da 1f 3f c2 21 93 3e
       -0.3214425 0.092235126 0.6244333 0.28736693
0002d0 f2 af 00 3e 45 5e 17 3f 65 65 c8 3b f4 2b f9 3e
       0.12567118 0.5912822 0.006115603 0.48666346
0002e0 93 59 a9 3e 7d b6 58 3f db 9e ac be de 3b 74 be
       0.33076152 0.84653455 -0.33714947 -0.23850963
0002f0 25 ea 66 3d 48 36 48 bd 56 f4 12 bf c3 54 75 bd
       0.05637564 -0.04887989 -0.5740408 -0.05989529
000300 4d 19 2a be d0 40 fe bb 23 0f e3 be 78 e7 a8 3c
       -0.16611214 -0.007759191 -0.44347486 0.020618185
000310 97 74 c0 bc fb ad 1c 3e c7 5e c1 3e 19 dc d6 be
       -0.023493094 0.15300743 0.37767622 -0.41964796
000320 3c 0d e0 3e 7a 4c af 3e 99 ee 31 bf d7 4e 34 3f
       0.43760097 0.34238034 -0.69504696 0.704328
000330 71 32 24 3e 12 b2 89 bd f5 72 f6 bd de 2f 1b bc
       0.16034867 -0.06723417 -0.12033645 -0.009471862
000340 61 c3 0e 3f e3 10 29 be ce 8a 24 3e f5 64 f5 3d
       0.55766875 -0.16510348 0.16068575 0.11982147
000350 a0 23 a2 3e 0e 97 94 3d f4 50 14 3c c9 ef 62 3e
       0.31667805 0.07255374 0.009052504 0.22161783
000360 46 2f 01 3e bb ec 68 bf 55 ee 0f be a2 d2 d8 be
       0.1261569 -0.9098622 -0.1405576 -0.423482
000370 d7 65 a0 3d 82 1f 28 3e 9f 47 d0 be 61 78 b2 3c
       0.078319244 0.1641827 -0.40679643 0.021785917
000380 89 75 03 3f 10 bf c8 bc 01 55 c9 3e 89 b5 f4 be
       0.5135122 -0.024505168 0.39322665 -0.4779475
000390 f1 b2 d3 3c 37 f1 d0 be 34 59 e0 3e d4 24 88 3e
       0.025842162 -0.40809032 0.43818057 0.26590598
0003a0 3a 14 a8 3e 3f b6 83 be 16 18 a7 3e 69 61 84 3e
       0.32827932 -0.2572498 0.32635564 0.25855568
0003b0 8d a7 09 3f 04 f9 24 bf c5 6e b9 3e fe ab 87 be
       0.5377129 -0.6444247 0.36217323 -0.26498407
0003c0 8d 2f d1 bd a9 a2 7a be 98 27 a9 3e f7 02 02 3f
       -0.10214148 -0.24476112 0.3303802 0.50785774
0003d0 40 21 20 bc 3a 5b bd be 8f e6 9c 3c b0 c9 ea 3c
       -0.009773552 -0.36983663 0.019152908 0.028660625
0003e0 54 8d b5 3e 4a ab c2 3c 8b d1 cd bd 6d 62 89 3e
       0.35459387 0.023763318 -0.10049733 0.26832905
0003f0 b5 fd 8c bc fe a0 50 3c bb 68 1a be 1b 2d 21 be
       -0.01721082 0.012733696 -0.15079014 -0.15739863

se_block_event.0.0.bias f4 [16]
000000 39 17 85 be fc 18 11 bf ae 70 58 be 08 32 68 3d
       -0.2599428 -0.5667875 -0.21136734 0.05668834
000010 c1 c3 62 3e ac d9 6c 3e 19 fd e9 3e a1 e4 16 3f
       0.22144987 0.2312991 0.4570091 0.5894261
000020 16 28 64 3f da 21 49 bd ec 5a 70 3f b0 20 c3 be
       0.89123666 -0.04910455 0.93888736 -0.38110876
000030 8a 38 86 3f ca 85 27 3e cc cd 06 bf 04 a2 f5 3d
       1.0486004 0.1635963 -0.5265777 0.11993793

se_block_event.0.2.weight f4 [64, 16]
000000 fb ba b6 bd 52 19 1f bf 15 ec 29 be 88 37 8c be
       -0.089223824 -0.6214801 -0.16593964 -0.27386117
000010 e4 7e 49 3d 4e c1 ac 3e 85 eb bd be c9 ea bd bd
       0.049193278 0.3374123 -0.3709375 -0.09273297
000020 05 48 42 be 27 a5 f6 bd 45 19 9e 3e 28 ed 69 bd
       -0.18972786 -0.12043219 0.30878654 -0.057110935
000030 93 1c b7 3e d0 cc 52 bf 71 f4 5d bf 51 ba 6b 3e
       0.35763988 -0.8234377 -0.86701113 0.23020293
000040 d7 03 b3 be 9c 8e 7c be 26 24 49 3e 65 51 06 3e
       -0.34963867 -0.24663776 0.19642696 0.13116987
000050 2c d8 b3 3e 60 af e1 3e 2a 67 b3 bc 08 bf 1f 3e
       0.35125864 0.44079113 -0.021899778 0.15600216
000060 59 b8 88 be 4f 1d bc bd 5e 46 a0 be 08 d9 4f 3e
       -0.26703146 -0.09185278 -0.31303686 0.20297635
000070 d9 18 08 3d 3c 76 15 3e f5 a0 03 3c 07 82 33 be
       0.03322682 0.14595884 0.008033981 -0.1753007
000080 30 49 c2 3e b7 0f 02 3f a1 a4 0e 3f fb 9f 05 3f
       0.37946463 0.5080523 0.55719954 0.52197236
000090 cd e5 35 be 11 da 64 bf c1 17 b8 3d f2 09 cc be
       -0.17763443 -0.8939524 0.08988906 -0.39851338
0000a0 95 7e 30 be 10 3c c9 3e 9a 70 9e 3e 5e 6d dd 3e
       -0.17235787 0.39303637 0.30945283 0.43247503
0000b0 16 cd 77 be 45 79 3f 3f e1 9d 62 3f 34 c5 7a 3e
       -0.24199328 0.7479442 0.88522154 0.2448929
0000c0 99 f5 a5 be 2d 1a 9f be d4 dd d8 be 3c 16 51 bd
       -0.3241394 -0.31074658 -0.4235674 -0.051046595
0000d0 da 3c 40 be 77 13 80 bf bf a2 41 bf dd d5 25 bf
       -0.18773213 -1.000594 -0.75638956 -0.64779454
0000e0 1b 9a 34 bf 86 19 4d be bd 64 95 be df 3b 89 bd
       -0.70547646 -0.20029268 -0.2917842 -0.06700873
0000f0 14 86 d7 3d f4 2a 2e be 59 6b 40 3e cc ff 1f be
       0.1052362 -0.17008573 0.1879095 -0.15624923
000100 34 fb bf 3f 3c 70 9d 3f d9 cd 1d 40 b4 57 ff 3f
       1.4998536 1.2299876 2.465689 1.994864
000110 4f 3e f0 3f 24 35 80 3f b7 e3 13 40 02 a7 06 40
       1.8769015 1.0016217 2.3107736 2.1039433
000120 1b 9c 0d 40 20 56 ef 3f af ee 1f 40 09 7d 08 3f
       2.212653 1.8698158 2.498943 0.5331579
000130 68 71 bc 3f 2d 1f e7 3f ff 28 c9 3f fb f5 d1 3f
       1.4722109 1.8056389 1.5715636 1.6403192
000140 f5 55 c8 be d1 82 ed bc fc 15 95 bc 96 db b3 be
       -0.3912808 -0.028993042 -0.01819896 -0.35128468
000150 5b 7d 78 3e 19 4d 9c 3d 3b 3d 36 3f c0 10 84 be
       0.2426657 0.07631893 0.7118718 -0.2579403
000160 99 01 05 be ee 43 58 be fb 19 09 3e e4 25 5d be
       -0.1298889 -0.21119663 0.13388817 -0.21596485
000170 9f 56 a6 3f 31 94 09 3e ae a7 88 bd 1d 0f e9 be
       1.2995185 0.13435437 -0.06672607 -0.45519343
000180 1a 02 1e 3d 29 7e de 3e d8 2f 2f 3f 3f 55 d5 3e
       0.038576223 0.43455628 0.6843238 0.416666
000190 06 1f 39 3e 8a 62 ab 3e 23 21 09 3f 0e e7 a0 3e
       0.18078241 0.33473617 0.5356619 0.3142628
0001a0 eb 45 42 3f 27 8d 0f 3e 09 47 71 3f c2 4d fe 3d
       0.75887936 0.14018689 0.94249016 0.12417175
0001b0 4f 26 f6 3e c2 7d ab 3e 97 41 df 3e 9a 10 e9 3e
       0.48076102 0.33494383 0.4360473 0.45520478
0001c0 94 d6 8d 3f e3 08 b6 be 70 ef c8 3f 7c d9 13 3f
       1.1081109 -0.35553655 1.569807 0.5775373
0001d0 f7 37 51 3f 1f 1a c4 bc 51 3b 19 be cd 01 97 3e
       0.8172602 -0.023938237 -0.14964034 0.2949356
0001e0 f7 2e b6 3e 78 0d 39 3f 98 5c 9a 3f b0 5a 98 3f
       0.35582706 0.72286177 1.2059507 1.1902676
0001f0 c7 9b 52 3f 39 f3 3b 3c 71 c3 ff bd f1 4e 7d 3f
       0.8226895 0.011471563 -0.12488449 0.9894858
000200 86 cd 36 be 26 34 bd be 0e 4c 88 3d 8c 68 ae ba
       -0.17851838 -0.3695385 0.06655131 -0.0013306304
000210 5f 0b 10 3f 4c 99 07 be 4d 09 8a 3f be 94 61 3e
       0.5626735 -0.13242072 1.0784088 0.22029397
000220 01 77 43 be aa 2c 44 be 9e ae 3f be e3 f1 a5 be
       -0.19088365 -0.19157663 -0.18718955 -0.32411107
000230 d4 72 56 3f 90 1c 63 3f cc 9d 10 bd c6 2e df be
       0.83768964 0.8871546 -0.035306737 -0.43590373
000240 b5 0e 86 3e e0 e4 53 bd 1d 4a aa 3c ef f9 06 3f
       0.26183096 -0.051731944 0.020787293 0.5272512
000250 c3 48 f1 3d 71 b1 18 3f f9 36 8e 3e c9 5f 73 3e
       0.11781456 0.59645754 0.27776316 0.23767008
000260 4b dd f2 bb 1b 95 f1 3e 6e 6a 00 3e 4c b9 e5 3c
       -0.007411634 0.4718407 0.125406 0.028042458
000270 76 89 6a 3e 1b 8d 60 3e 69 1e 6f 3e 3f 5e fa 3e
       0.22904 0.21928827 0.23351444 0.4890003
000280 95 ff b7 3e cf e2 dc be 19 d5 6a bf 79 fc 9f 3c
       0.3593718 -0.4314179 -0.9173141 0.019529568
000290 bc 7e 16 3f 4d e2 b8 3d c0 1b 55 be 77 6d 9f 3e
       0.5878713 0.090275384 -0.20811367 0.31138203
0002a0 11 e4 53 3c 9f 1f 4d 3e 89 4f 04 3f 21 28 13 3f
       0.012932793 0.20031594 0.5168386 0.57483107
0002b0 00 78 5d 3f 5c 20 99 3e 80 95 3e be 9a 92 95 3e
       0.8651123 0.299075 -0.18611717 0.2921341
0002c0 6c 2d 4a 3e 19 1a 67 bb 11 e6 82 3e 72 dc 29 3f
       0.1974389 -0.0035263358 0.25566152 0.66352
0002d0 d2 be 22 3e a5 f8 8e 3e 28 5e 75 3e 0b 50 9b 3e
       0.15893105 0.27924076 0.23961699 0.30334505
0002e0 c5 80 55 3e 65 aa 86 3d 55 1e b5 3e 92 91 71 3e
       0.20849903 0.06575469 0.35374704 0.23590687
0002f0 07 a3 3b 3d 23 dd bb 3d b8 b9 18 be ef ea d4 3e
       0.045809772 0.09173038 -0.14914596 0.4158549
000300 22 65 8b be 13 6a d8 3e fd dc 23 3f 53 65 de 3e
       -0.27225596 0.42268428 0.64009076 0.4343668
000310 39 22 8d 3e 9d d6 d3 3e 6b a8 d4 3e 60 66 31 3f
       0.27565172 0.41374674 0.41534743 0.69296837
000320 48 51 ad 3e 92 7b bf 3e 73 f1 7e 3f 52 e0 fc bc
       0.33851075 0.37398964 0.9958717 -0.030868683
000330 af be ed 3e c2 f0 31 3f 43 a9 9b bd f2 5d fc 3e
       0.46434543 0.6950799 -0.076006435 0.49290425
000340 ee 37 19 be 7f 5f 35 3e a5 05 40 3d e4 10 31 3e
       -0.14962742 0.1771221 0.046880383 0.172916
000350 c6 06 9a 3d 84 94 0b 3e 6a 70 67 3e 21 4d 72 3e
       0.07520823 0.13630873 0.22601476 0.23662235
000360 c5 91 1b be e4 8f e9 bd cd 38 aa bd d8 f8 7b be
       -0.15192325 -0.11404398 -0.08311615 -0.24606645
000370 24 44 c6 bd ee dd fb bd 27 ae 0a be 58 85 0d 3d
       -0.096809655 -0.12298189 -0.13542996 0.034550995
000380 2d 14 1b 3f 4d 62 1c 3e 83 64 1e 3f aa 8d 4a 3f
       0.6057766 0.15271874 0.6187212 0.7912241
000390 6c 98 d8 3e 93 68 ce 3e fb 14 98 3e 2a 1e 62 3f
       0.4230379 0.4031416 0.29703507 0.88327277
0003a0 5c 1c a0 3e b5 0b 10 3f 7d ac 91 3d b8 8d dc 3e
       0.31271636 0.56267864 0.07112978 0.43076873
0003b0 a7 1a 18 3f 53 d7 5a bd b9 c9 8a 3e 4c a7 66 3f
       0.5941567 -0.053428005 0.27107027 0.90099025
0003c0 f6 b6 ab 3d d3 5e a5 be 04 37 94 3e 6a d5 48 be
       0.083845064 -0.32298908 0.28948224 -0.19612661
0003d0 f9 c8 da be 08 0e aa 3e 4a 97 a2 3d a5 21 c8 3d
       -0.42731455 0.3321383 0.07939012 0.09772042
0003e0 d2 09 8a 3e 04 95 45 bf f9 c1 cb 3c 5d 12 56 3e
       0.26960617 -0.77180505 0.024872767 0.20905443
0003f0 fc a9 02 bf b9 62 1e 3e e2 5d da 3e 8f 03 f4 be
       -0.51040626 0.15467347 0.42649752 -0.47658965

se_block_event.0.2.bias f4 [64]
000000 00 44 df 3c 3b 75 99 be 77 9a 47 be 4d f8 5f 3e
       0.027254105 -0.29972252 -0.19492517 0.21872063
000010 ac 18 1e 40 74 8a 3e 3f a0 51 16 3f 2c f8 73 3e
       2.4702559 0.7443001 0.587183 0.23825139
000020 1c 03 4c be 3f ba 2e be 64 43 52 3f 78 15 ab bd
       -0.19923061 -0.17063235 0.8213408 -0.08353704
000030 cd ad 91 3e f5 56 0c 3e 57 4f 9d 3c 4d 91 f9 bd
       0.28452912 0.13705046 0.019202871 -0.12185917
000040 a1 00 b8 be 39 7e 98 be 2b 49 cd 3e 42 1a da bb
       -0.3593798 -0.297838 0.40094885 -0.006655962
000050 a4 2f b5 3f e3 41 9d be 76 5b fe 3e 79 75 08 bc
       1.4155164 -0.3071433 0.49679154 -0.008328789
000060 37 2d 1e 3f 85 fe 7b be b3 f1 11 be a0 fd 22 3f
       0.6178774 -0.2460881 -0.14252357 0.6366825
000070 bf 84 2e 3f 2c 37 da 3e 75 01 98 be 13 2f 03 3e
       0.68171304 0.42620218 -0.29688612 0.12810926
000080 0e 9c 07 3c fd be a8 be c6 e5 4c 3f 4b 5d b8 bb
       0.008276952 -0.32958212 0.80038106 -0.0056263558
000090 0d 22 75 3e f3 37 8d be 5f 02 94 be 60 a7 ef 3d
       0.2393877 -0.27581748 -0.2890806 0.11701846
0000a0 fb 85 fa 3d 85 4c b8 3d 1d 0a 71 3e 28 5d aa 3e
       0.12232586 0.0899897 0.23539014 0.33274198
0000b0 76 f2 0f 3e 14 bf c7 be 20 6e 0c 3f 90 91 8e 3f
       0.14057335 -0.3901297 0.5485554 1.1138172
0000c0 98 31 30 be fb 25 ba 3e 98 c4 21 3f be c8 75 3e
       -0.17206419 0.36357102 0.63190603 0.24002358
0000d0 f4 df cd 3c eb e8 27 3f 7a 70 c8 3e 8f b9 a8 3e
       0.025131203 0.6558978 0.39148313 0.3295407
0000e0 15 55 05 3f 93 e9 cc 3e 04 6d 17 bd 60 3f ce 3e
       0.5208295 0.40021953 -0.0369692 0.40282726
0000f0 2b 02 03 3e 4d 41 78 be 9d e9 ee 3d b3 82 cf 3e
       0.12793796 -0.2424366 0.11665652 0.40529403

se_block_event.1.0.weight f4 [16, 64]
000000 2b 14 ae 3d 0c 3a 4d 3d d5 e9 d9 be d4 9b b1 3c
       0.084999405 0.050104186 -0.42561212 0.02168075
000010 bb 69 6e be 05 9c 48 3e 5b ba ac 3e 8d 2f 6f 3e
       -0.2328252 0.19590767 0.33735928 0.23357983
000020 5a b8 a7 be 79 e8 b3 be 1b a2 f8 3e 70 03 0f bf
       -0.32757837 -0.351383 0.48561177 -0.5586462
000030 44 93 e6 3d a4 a2 f1 bd b7 8c 84 be 07 3e c9 3e
       0.112585574 -0.11798599 -0.25888607 0.39305136
000040 c5 01 28 3c 92 8e 1a be 36 71 df 3d e1 53 8b 3d
       0.010254328 -0.15093449 0.10910265 0.06803108
000050 f1 5d c3 3c a5 3e 16 be 1c 5e 3a 3e bb cd 09 be
       0.023848506 -0.14672334 0.18199962 -0.13457386
000060 05 af ff 3d 89 63 77 be b7 c1 1c 3f 2c ca 96 3e
       0.12484554 -0.24159063 0.61233085 0.2945112
000070 26 fd 31 3f 98 11 bf 3e e3 12 9c 3d 30 4c 30 3f
       0.695269 0.3731811 0.0762079 0.6886625
000080 75 93 9d 3e ec b9 76 bd 2c a3 7f 3c 4b 78 8b 3e
       0.30776563 -0.060235903 0.015602868 0.27240214
000090 82 82 c9 3e 80 a8 e0 bc 57 3a 2c bf 01 c5 c9 3d
       0.39357382 -0.027424097 -0.6727652 0.09852029
0000a0 f8 dc d5 3d b9 cc 93 3e c4 4c e3 3e ac f4 67 3e
       0.10442537 0.28867128 0.44394505 0.22651929
0000b0 bc 9b be 3e 0b 1d 81 bc a3 47 fd 3e c8 bd aa 3e
       0.3722819 -0.01576092 0.49468717 0.33347917
0000c0 06 19 ec bc d6 50 a2 3e f6 9f 61 3e 7a ee 4d be
       -0.028820526 0.31702298 0.22033677 -0.20110503
0000d0 40 ac a1 be 44 d6 e2 3e 79 1d d7 3e 64 61 ce be
       -0.3157673 0.44304097 0.42014673 -0.40308678
0000e0 3f 40 83 3e 42 75 88 3e b3 9b 38 3d e9 43 04 be
       0.25634953 0.2665196 0.04507036 -0.1291653
0000f0 21 b0 3f 3e 0b 7e e1 3e e4 75 61 3d aa ea 0a bd
       0.18719532 0.44041476 0.05504407 -0.0339152
000100 e2 7f 7a 3d 66 df 82 3e c7 50 0e 3f f9 1a bd 3d
       0.061157115 0.25561064 0.55592006 0.0923366
000110 d9 f5 0b 3e 8c d2 8f 3d 50 f8 88 3e 61 65 32 bd
       0.13668002 0.070225805 0.26751947 -0.043553714
000120 8e db ce bc 3c f1 59 3e 53 ea 92 bc 7b ae a0 3e
       -0.025251176 0.2128343 -0.017934 0.31383118
000130 7a eb 23 3f 46 70 a9 bd b7 4a df 3e 2d bb 38 3e
       0.64031184 -0.082733676 0.4361169 0.18040152
000140 df 7d c1 3e ee 14 39 be d7 7a a6 3a 92 fd 67 3d
       0.37791345 -0.1807439 0.0012701404 0.056638308
000150 6e fb a7 3e fc 81 25 bd 65 a8 ec 3d c2 a3 6c 3f
       0.32809013 -0.040407166 0.11555556 0.92437375
000160 4e 82 82 bd b1 1e 6b 3d 9f ee 43 3f e8 2d 0e 3e
       -0.0637251 0.057402316 0.7653598 0.138847
000170 53 15 b8 3d 05 96 72 bd 98 b3 ab be 48 95 24 be
       0.08988442 -0.0592251 -0.33535457 -0.16072571
000180 ba 95 02 3f 0c 43 44 3e dd f1 71 3e 1e ee d5 be
       0.51009715 0.19166201 0.2362742 -0.41783231
000190 38 6a 9d 3e 95 ae 4b bd 3c 82 f8 3e ab e5 89 bc
       0.307451 -0.04972704 0.4853686 -0.016833147
0001a0 4c 34 ff 3c e4 9b 5a be d9 f2 06 3e 6c c7 b5 3e
       0.031152867 -0.2134853 0.13178577 0.3550371
0001b0 e7 98 bd 3e 72 dc 6f bd 64 e6 03 3f c8 57 80 3e
       0.37030718 -0.058559842 0.51523423 0.25066972
0001c0 db d3 fb 3e bb cf 54 be d2 fc 29 3f 78 a1 b1 3e
       0.4918507 -0.20782368 0.664014 0.34693503
0001d0 bd e1 ba 3c dd 52 6d 3e e2 f9 a4 3d 41 e9 0d 3f
       0.022812719 0.23176141 0.08055474 0.5543404
0001e0 45 b0 05 3f 29 b4 9b 3d d7 ea d5 3e f2 20 4e 3f
       0.5222209 0.07602722 0.4178073 0.8051902
0001f0 26 56 8e be e9 1f b3 3d ff 1a 9d bd d5 85 b5 3e
       -0.278001 0.08746321 -0.07671165 0.35453668
000200 bc 28 69 3e 1d 4d 08 3f b0 e5 0e 3f 86 2d 2e bd
       0.22769445 0.53242666 0.55819225 -0.042523883
000210 7e be 96 3e 2b c5 5e 3e 3f 2f 03 3f 20 bc 5d bc
       0.2944221 0.21754901 0.51243967 -0.013533622
000220 46 a1 16 3e 73 34 df 3e e8 c6 39 bd 5f 60 95 3e
       0.14709958 0.43594703 -0.045355707 0.29175088
000230 ba 40 a4 3e 2b b7 1c 3e 3d 0b 95 3e 2b 47 13 3e
       0.32080632 0.15304248 0.29110137 0.14382617
000240 36 b5 71 3e e6 57 0d be 10 fa f0 be b2 01 40 be
       0.23604283 -0.13803062 -0.47065783 -0.18750647
000250 c1 52 36 3e bc 05 ee 3e a9 a1 0f 3e ae 23 b2 bd
       0.17805006 0.4648875 0.14026512 -0.086982116
000260 36 6e 29 3e 2e d1 24 3e 39 1f 14 be 95 15 55 bd
       0.16545948 0.1609542 -0.14465035 -0.052022535
000270 9c 9b b0 3e b9 26 f8 bd ef 9c ff bd 4e eb 2f bf
       0.3449372 -0.12116761 -0.124811046 -0.6871842
000280 b2 69 ca 3e 37 41 82 3d 90 a6 2c 3e 25 be 8e 3e
       0.39533764 0.06360095 0.16860414 0.27879444
000290 fe ee 96 bd 0c 71 ad 3e be 09 a9 3e 67 24 94 be
       -0.07369803 0.3387531 0.33015245 -0.28934023
0002a0 6b d8 0c be 48 49 f1 be 87 b9 a7 be 1c 36 76 3e
       -0.13754432 -0.47126222 -0.32758734 0.24044079
0002b0 d1 93 9e 3f 33 61 63 be 6e 4f 60 3f c8 d5 e6 bd
       1.238886 -0.22205047 0.876212 -0.11271244
0002c0 5a 95 ff 3e 12 c2 7e be 3b 17 ce 3e 24 e1 3e 3e
       0.49918634 -0.2487872 0.40252098 0.18640572
0002d0 ba 2a b7 3e 74 d4 87 3e 30 a0 3a 3e 18 51 31 3e
       0.35774785 0.26529276 0.18225169 0.17316091
0002e0 4c f0 18 3f 6c 78 50 3e 88 ff c4 3e 29 b6 74 3e
       0.59741664 0.20358437 0.38476205 0.23897614
0002f0 c2 25 27 be c4 b7 d6 be b0 cd 8c 3e 4b b5 ab 3b
       -0.16322997 -0.41937077 0.27500677 0.0052401177
000300 86 d3 a0 bd 22 af b5 3e 53 8c b9 3e 2a f2 08 bf
       -0.07852845 0.35485178 0.3623987 -0.53494513
000310 c1 2b 3f be db 8b 05 3e 42 92 4a 3f 1e 26 51 3e
       -0.18669035 0.13041632 0.7912942 0.20424697
000320 e2 ab 6a 3e 1c c8 f7 3e b4 d1 70 be 28 c4 f7 bd
       0.2291713 0.4839486 -0.23517495 -0.12097961
000330 2c e5 02 3f cd 96 5b 3d 12 e6 09 3e 28 dd c2 3d
       0.5113094 0.05361061 0.13466671 0.095148385
000340 a0 18 ba be 12 ba 4f 3c e9 97 21 3e 36 f4 85 be
       -0.36346912 0.01267864 0.15780605 -0.2616288
000350 19 44 04 3d 81 29 9a 3e de 95 95 be fc 21 18 3e
       0.032291505 0.3010979 -0.29215902 0.14856714
000360 af 10 b3 3e 14 cc 29 3e 60 9a 07 bf 24 7e 73 be
       0.34973666 0.16581756 -0.5296993 -0.23778588
000370 92 08 50 3e 08 68 8c bd f6 2e e0 3e 34 43 2b bf
       0.2031577 -0.0685578 0.43785828 -0.6689942
000380 4e f5 bc 3e 4a 2a 16 bd 0a 86 6b 3e 8d c6 af be
       0.36905903 -0.036661424 0.2300035 -0.3433117
000390 48 91 fb 3d a2 5e 08 be 58 ee c7 3e 9a c3 59 3e
       0.122835696 -0.1331735 0.3904903 0.21266022
0003a0 d1 34 16 bd f0 7e a0 3e ad f0 35 3e 40 de 2e 3f
       -0.036671463 0.31346846 0.17767592 0.68307877
0003b0 9c 06 af 3f a7 b2 85 be 08 09 27 3f 56 b9 e7 be
       1.3673892 -0.26112863 0.65248156 -0.45258588
0003c0 b4 80 e2 3d 9b d7 87 3e 00 b4 71 bd 3d 62 4a 3d
       0.110597044 0.2653168 -0.059009552 0.049410094
0003d0 7c a2 51 be ab 3b 0c 3f 89 05 90 bd c1 2e 7f be
       -0.20472139 0.54778546 -0.07032306 -0.24920179
0003e0 ab 06 4e 3d 81 a4 38 3e 5e bd 27 3f 49 a7 97 3e
       0.050299328 0.18031503 0.65523326 0.29619816
0003f0 a1 1f b2 3d 42 95 20 bd ce 7b 17 bf 4e 7e 80 3d
       0.08697439 -0.039204843 -0.59173286 0.06274091

se_block_event.1.0.bias f4 [16]
000000 7d 64 6e be 4f 01 9a bf 74 15 6c bf 42 bf 54 be
       -0.2328052 -1.2031649 -0.92220235 -0.20776084
000010 3b 31 ad bf f0 92 06 bf c9 31 95 be ef aa c8 be
       -1.3530649 -0.5256796 -0.29139546 -0.39192912
000020 ab 97 ad bf 4c 77 f6 be 1f db 2b bf 06 1b 20 bf
       -1.356191 -0.4813789 -0.6713123 -0.62541234
000030 e5 b6 b2 bf fe aa 15 be c3 fc 58 bf 53 a3 86 be
       -1.3962065 -0.1461601 -0.84760684 -0.26296481

se_block_event.1.2.weight f4 [64, 16]
000000 ae 1a 0a bf c3 13 b6 be 92 1c 03 3f ae 28 8b 3e
       -0.5394696 -0.35561952 0.5121547 0.27179474
000010 72 66 79 be dc 30 63 3e 21 38 5b be 99 10 36 be
       -0.24355486 0.22186607 -0.2140813 -0.17779769
000020 0d fb 05 3e 13 c5 ff 3e 0f 4d 00 be 45 f8 a4 be
       0.1308405 0.49955043 -0.12529396 -0.32220665
000030 ba b8 70 bd 8a cf a7 be c9 77 4c 3d cf 77 2d bf
       -0.05876992 -0.32775527 0.049918924 -0.6776094
000040 ec e1 af 3e c4 9c 17 3f ef e8 d4 3e d7 bf 72 3f
       0.34352052 0.5922358 0.41583964 0.94823974
000050 af 5e 89 3f 9d da 05 3f 49 78 3d 3f 54 a3 5e 3f
       1.073202 0.522867 0.74011666 0.8696797
000060 73 bd 84 3f 66 24 2e 3f 77 e8 8a 3f 26 44 48 3f
       1.0370315 0.6802429 1.0852193 0.78228986
000070 ad fb 73 3f 68 02 1f 3f 9e 0e 72 3f 57 dd 8b 3f
       0.953059 0.62113047 0.94553554 1.0926923
000080 ac 7e 2b 3f 96 49 2b bf 61 f1 b1 3e 97 d6 5b 3e
       0.6699016 -0.6690916 0.3475447 0.21468578
000090 27 09 42 bf 57 62 7d bd b5 d1 13 3f 8e c1 f1 3c
       -0.75795215 -0.061861362 0.5774186 0.02951124
0000a0 9f 9c 11 bc ca ab be be 75 15 79 bf 13 7e 0c be
       -0.008887439 -0.3724044 -0.97298366 -0.13719968
0000b0 0e 1e cd bf 51 e3 c9 3e 41 d6 1f bf 69 88 1c 3f
       -1.6024797 0.3943124 -0.624363 0.61145645
0000c0 57 bc 39 bf 9e ff 01 3f 64 b2 0d 3f 4a 3e c5 3e
       -0.7255301 0.50780666 0.5535033 0.38524085
0000d0 de 80 b5 3e cb cf 68 3f 7f e8 9a 3e 01 f9 7f be
       0.3544988 0.90942067 0.30255505 -0.24997331
0000e0 6f 7a 47 be 2d ab 1f 3f 96 f0 0e 3e cc 98 e5 3e
       -0.19480298 0.6237057 0.13958964 0.44843137
0000f0 be 4b c8 3d 95 94 ae be d6 12 c3 be c5 ed 8d 3e
       0.09780072 -0.34097734 -0.38100308 0.27720466
000100 ac df 56 be d3 b2 03 3f 02 b4 ca 3e 59 39 47 be
       -0.20983762 0.5144474 0.3959046 -0.1945547
000110 ef 4a e6 3d cd 00 5d 3e 89 9c e9 be 24 34 92 3e
       0.11244761 0.21582337 -0.4562724 0.28555405
000120 6c 86 45 3e 18 71 7a be c4 62 a0 be bf ad 4f bd
       0.19289559 -0.24457204 -0.31325352 -0.050702807
000130 7a 3d 8c 3e c1 cd 08 be 45 ae 01 3e b6 08 83 be
       0.27390653 -0.13359739 0.12664135 -0.25592583
000140 78 73 17 3e c1 07 fe 3e 90 4f 1b bf cf 00 b7 be
       0.14790142 0.4961529 -0.6066828 -0.35742804
000150 71 16 9e 3e 09 ec 82 3f 5c ae e2 3e 8f 90 c6 be
       0.30876496 1.0228282 0.4427365 -0.38782164
000160 e2 21 0f 3d af 24 f5 bb 7a 59 fd be 4b f0 63 3f
       0.034944423 -0.0074811797 -0.49482328 0.8903853
000170 0f b0 2c 3d 06 a0 7c 3e 73 f0 90 3e 17 5e 64 3e
       0.04216009 0.24670419 0.28308448 0.22301517
000180 8b d6 51 3f 7c 5a f0 3e 17 ab 05 3f bc 99 09 3f
       0.8196799 0.46944034 0.5221419 0.53750205
000190 4a 86 35 3f 82 eb 01 3f d8 09 4c 3f aa 2c 6a 3f
       0.70908034 0.5074998 0.7970252 0.914744
0001a0 55 09 16 3f 78 70 6f 3f ef f6 bd 3f 80 f1 5a 3f
       0.5860799 0.9353099 1.4840983 0.8552475
0001b0 ec 5c 16 3f 8b 4c 7c 3f 52 4d 73 3e e5 da 14 bd
       0.5873554 0.98554295 0.23759964 -0.036341567
0001c0 c4 85 f8 bd 5f 10 e4 3e a1 2a 12 3f e7 0a e0 3e
       -0.12134889 0.4454374 0.57096297 0.43758318
0001d0 fc 90 0a bd db 4b 73 3f fc b6 02 bc 93 ae eb bd
       -0.033829674 0.9503762 -0.007978197 -0.11507907
0001e0 9a 40 fb 3d 07 06 d5 bd cc c4 ac 3d 0a 61 c1 3e
       0.12268181 -0.1040154 0.084359735 0.37769347
0001f0 d9 ad b5 3e b9 83 50 3f ac 27 1f 3f a2 2d a1 3e
       0.35484198 0.8145099 0.6216991 0.31480128
000200 e3 b3 f4 3e 65 e7 f6 3e fb d1 26 bf b3 c5 24 bf
       0.47793493 0.48223415 -0.65164155 -0.64364165
000210 d3 a9 9c 3e a7 b7 44 3f fd db 95 be 7d 85 ea be
       0.30598316 0.7684273 -0.292694 -0.45804968
000220 a0 4a 96 3e 73 ae 87 be 04 e3 59 be 30 77 6d 3f
       0.2935381 -0.26500282 -0.21278006 0.9275999
000230 65 80 87 bd 5e e3 86 3e b1 98 29 3f 76 d1 35 bf
       -0.06616286 0.26345342 0.66248614 -0.7102274
000240 0b 80 9a 3e 44 d8 9d 3e cc f5 f2 3e db f1 13 3f
       0.30175814 0.3082906 0.47453153 0.5779092
000250 b6 f7 63 3f 97 33 e0 3e 2d f0 b9 3e 22 89 1d 3f
       0.8904985 0.4378936 0.36316052 0.61537373
000260 c4 4c 21 3f ac 58 ef 3d fd 3d 00 3f 63 5f 95 3f
       0.6300776 0.11686835 0.50094587 1.1669735
000270 10 0a 83 3e 17 2f 0e 3f 0e 79 e7 3d e9 ed 0f 3f
       0.25593615 0.55540603 0.11302386 0.562224
000280 e5 03 eb be 94 fd f8 3d 76 aa 35 3e a2 18 25 3f
       -0.4590141 0.12157741 0.17740807 0.6449071
000290 d0 c8 38 3e a2 5e 36 3f ed 62 b8 bd 57 5d 87 38
       0.18045354 0.7123815 -0.090032436 6.4546875e-05
0002a0 8a bc 35 be 7f 45 66 bc e8 4b 52 be df af 0c 3e
       -0.17747703 -0.014054655 -0.20536768 0.13738964
0002b0 32 fd 3f 3e fc f0 01 3f 30 68 00 3f e2 44 b2 3e
       0.1874893 0.5075834 0.5015898 0.34818178
0002c0 ba 90 98 3f b8 73 1f 3d 2c 59 42 3e 87 c1 e2 3e
       1.1919167 0.038928717 0.18979329 0.44288275
0002d0 79 ad 46 3e 63 d9 e9 3e e2 d0 73 3f b5 2f 0a 3f
       0.19402112 0.45673665 0.95240605 0.53979045
0002e0 9e db 18 3f 3e 00 b1 3e fa 1c 43 3f 10 83 c8 3e
       0.5971011 0.34570497 0.7621609 0.39162493
0002f0 49 4f 58 3f 81 37 45 3f f9 c7 50 3f 57 f5 be 3e
       0.8449598 0.7703782 0.81555134 0.37296554
000300 2b 61 94 3f 95 d4 08 3f b8 4f 49 3f e9 fd e9 3e
       1.1592153 0.53449374 0.78637266 0.4570153
000310 5f 83 a8 3e cb 47 88 3f 05 2b 67 3f e0 d8 63 3f
       0.32912728 1.064691 0.9030002 0.890028
000320 c1 e9 0f 3f 18 23 ec 3e dd 55 77 3f ee 61 33 3f
       0.56216055 0.46120524 0.9661539 0.70071304
000330 28 50 b3 3e 9f e6 ab 3f f7 7c 7f 3f 9f 03 35 3f
       0.35022092 1.3429755 0.99800056 0.7070865
000340 0e b0 8b be a6 de 47 3e 38 fa 01 be d0 99 a1 bd
       -0.27282757 0.19518527 -0.12693107 -0.078906655
000350 09 a4 af bc f5 47 ce bd ee 68 6a bd 71 e4 17 3d
       -0.021440523 -0.100723185 -0.057228975 0.037083093
000360 e0 56 c9 3d 89 04 05 3e 79 65 ed ba b8 39 13 3e
       0.09831023 0.12990011 -0.0018111906 0.14377487
000370 45 3e c4 3d bb 49 65 3e 04 00 46 3e 0a e7 9c 3d
       0.095821895 0.22391407 0.19335943 0.07661255
000380 a9 71 bc 3e 5a 8f b6 3e c6 82 62 3f 67 50 3d 3f
       0.36805466 0.35656244 0.88480794 0.7395081
000390 65 22 4d 3f 1a 27 f4 3e 48 28 40 3f f3 7a 6e 3f
       0.80130607 0.47686082 0.75061464 0.93156356
0003a0 12 89 fe 3e 06 0f bb 3e 0a 5a 95 3f bf 3a 46 3f
       0.4971395 0.365349 1.1668103 0.7743339
0003b0 c2 01 0e 3f fa d1 42 3f 71 fe 89 3f 11 8c f6 3e
       0.5547143 0.7610165 1.0780774 0.48153737
0003c0 4c ff 40 bd 0c 61 37 be 10 35 11 3f 8e 6b 83 be
       -0.04711847 -0.17908114 0.5672159 -0.25667995
0003d0 23 28 43 3e cd e6 7c 3f 47 f0 1b 3f fb 67 08 3e
       0.1905828 0.98789674 0.6091351 0.13320915
0003e0 be df 02 3e e4 b4 42 be 7a c5 f5 3e 35 49 68 3e
       0.12780663 -0.19014317 0.48002225 0.22684176
0003f0 e2 c6 48 3e 94 56 cd be 27 37 48 3e c3 91 4c 3f
       0.19607118 -0.40105116 0.19552289 0.79909915

se_block_event.1.2.bias f4 [64]
000000 68 08 9a be c0 64 36 3d 94 3a 5a 3e 29 dd 70 be
       -0.30084538 0.044529676 0.21311408 -0.23521866
000010 81 4a 02 bd 3b e7 49 bf bf bd 90 3f da af 2f 3d
       -0.031809334 -0.78868455 1.1307906 0.042892314
000020 75 06 4c 3e 8f ae 25 3f 6d 8a 19 be 1f b7 8d 3f
       0.19924338 0.6471948 -0.14994211 1.1071509
000030 e7 7f 4b 3f 28 a8 ed bc 0e 15 2d 3f d4 74 b3 be
       0.7949204 -0.029010847 0.6761025 -0.3505007
000040 36 76 78 3f a9 d9 d9 bd 44 66 08 bf 5b 7e ec be
       0.97055376 -0.106372185 -0.53281045 -0.46190152
000050 50 16 14 3f d4 ec 3d 3f ee 6f 14 3f 46 68 87 3f
       0.57846546 0.74189496 0.5798329 1.0578697
000060 71 75 d6 bd 95 e3 93 3b 06 9e 10 3e 1d ca ed bc
       -0.10471619 0.004513214 0.14122781 -0.02902704
000070 2d 84 9a 3e 94 19 33 3e 76 fd 8c 3e 51 f6 cc be
       0.30178967 0.17490226 0.27537125 -0.40031675
000080 ca 6f e5 3e 69 bd d6 be fa ee e1 3e 8a 8d 5d 3d
       0.4481185 -0.41941383 0.44127637 0.05409006
000090 62 fe 1e bf d3 f7 a6 be 3e 80 49 3f cf 30 51 3f
       -0.6210691 -0.3261095 0.7871131 0.817151
0000a0 1f 9f 80 3e cd 15 ab bd 5e ce 9d be bd d8 aa 3e
       0.251214 -0.083537675 -0.30821508 0.33368483
0000b0 3f 1a 97 3e 54 58 31 be a9 3c 29 3f 9b 87 51 3e
       0.29512212 -0.17318851 0.66108185 0.20461886
0000c0 08 56 0e 3e ad a7 1e bf 6a 25 44 3e 92 99 84 3f
       0.13900006 -0.619746 0.19154897 1.0359366
0000d0 3f a4 8f 3f 0e 57 e6 3e a1 32 ac 3d 38 a6 8e 3f
       1.1221999 0.44988292 0.08408094 1.1144476
0000e0 02 c7 2b 3f 38 74 a9 3e c4 e2 14 3f 27 6f 7e 3f
       0.67100537 0.3309648 0.58158517 0.99388355
0000f0 c1 a5 c6 be a3 c6 8a 3c 6d cf 20 be 98 2d 3e 3f
       -0.38798335 0.01694042 -0.15704127 0.7428832

se_block_event.2.0.weight f4 [16, 64]
000000 af 5e 10 bd 63 58 d8 3e a2 7e ea bd f2 71 53 3d
       -0.035246547 0.42254934 -0.114499345 0.05162234
000010 02 35 1f 3b 04 83 8c bc ab 81 4b 3f 19 d0 2f 3e
       0.002429307 -0.017152317 0.7949473 0.17169227
000020 41 e2 82 bc 88 88 b2 3e d4 39 28 3d bc aa 94 3e
       -0.015977027 0.3486979 0.041070774 0.2903651
000030 11 e4 2f 3e d0 21 9a bd 87 7d 31 3f c7 64 96 3d
       0.17176844 -0.075259805 0.69332165 0.073434405
000040 4c 3f 7e 3e 78 1c 5b be 20 af be be ef 63 39 3e
       0.24828833 -0.21397579 -0.37242985 0.18104528
000050 0f 33 0d 3e 91 e8 c9 bd 4d 87 5f 3e 45 78 bd 3e
       0.13789009 -0.09858812 0.21828957 0.3700582
000060 27 2b 08 bd a0 46 0e bd 7a 0f 55 3e ce cd 90 bd
       -0.03324428 -0.034735322 0.20806685 -0.07070504
000070 f7 33 58 3d 0d bd 0d bd b9 ae b1 3c 64 93 f9 3b
       0.052783933 -0.03460412 0.02168976 0.0076164473
000080 a9 8d a3 3e e8 ca 58 3a 8a c8 fa 3e d0 eb 50 be
       0.31944016 0.00082699815 0.48981124 -0.20402455
000090 b4 66 15 bd 89 2d 6a bd 33 3f 0b 3f ff a0 42 bd
       -0.0364749 -0.057172332 0.5439331 -0.04751682
0000a0 92 f1 21 bd 5c db 4c be b7 d6 f3 bd 66 65 04 3f
       -0.03953702 -0.20005554 -0.11906188 0.5171722
0000b0 2d e9 12 3f 4c 1c 10 be e8 63 c1 3e 91 71 50 3e
       0.5738705 -0.14073294 0.37771535 0.20355822
0000c0 f8 39 8c be f6 28 96 3e dc 1e e5 3e ac 33 fa 3d
       -0.27387977 0.29328126 0.44750106 0.12216887
0000d0 ec 43 9a 3e 89 bf 17 3e 46 23 f6 bc b6 39 cc 3e
       0.30129945 0.14819159 -0.030046117 0.3988778
0000e0 94 3a f3 3e f9 d3 87 3e 6b d0 1a bd 1e fe 16 3f
       0.4750563 0.2652891 -0.03779642 0.589815
0000f0 01 a4 a4 be e8 61 06 3c 1c 70 e9 bd 53 38 3a 3e
       -0.32156375 0.008202054 -0.11398336 0.18185548
000100 98 a5 fd bd c1 7c 0f 3f 6e f6 85 3e 81 ff ae 3d
       -0.123851 0.56049734 0.26164573 0.08544827
000110 ee 07 d0 3c 96 13 25 3d 1e 8d 19 3f 18 9e c2 be
       0.025394406 0.04030188 0.5998095 -0.3801124
000120 1d b4 2e be 32 ec 1a 3d 30 48 87 3c aa 9d 82 3e
       -0.17060895 0.03782291 0.016513914 0.25510913
000130 92 4a cc 3f fe fa 14 3e b2 8d 41 3f f8 89 9a 3d
       1.5960257 0.14548871 0.75606835 0.07545847
000140 26 38 8b 3c 96 b1 d6 bd 01 b2 eb 3d 62 e8 39 3e
       0.016994547 -0.104830906 0.11508561 0.18155053
000150 c7 df d0 bd 4c 4c 13 3f e5 9b 2c bf ad 1c c6 3e
       -0.10198932 0.57538295 -0.67425376 0.38693753
000160 b9 70 41 bf ba 95 76 be 51 7a 88 3b ae be 1a 3e
       -0.75562626 -0.24080554 0.004164972 0.15111801
000170 f2 3d ff 3e 85 55 23 3e f9 e1 28 ba c3 79 3d be
       0.49851948 0.15950592 -0.0006442364 -0.1850348
000180 dd 1f 75 3e 67 c1 40 be 40 f0 05 3e 16 cf 5a bc
       0.23937936 -0.18823777 0.1307993 -0.013355037
000190 3c 9d 3f 3e 0a 0c c5 be 45 ee c9 3e 10 f4 04 3f
       0.18712324 -0.38485748 0.39439598 0.5193491
0001a0 39 4f f9 3d c5 47 fc 3d 69 1a d6 bb d4 10 2a 3e
       0.12173314 0.123183765 -0.00653391 0.16607982
0001b0 54 48 e2 3e 54 c1 88 be 6b 72 85 3e b0 84 cd be
       0.44195807 -0.26709998 0.26063856 -0.40140295
0001c0 e1 e5 ee bd 95 fc a6 3e 82 5b c0 be a5 7f ee 3e
       -0.1166494 0.3261458 -0.37569815 0.4658176
0001d0 86 7a 82 3f cc 8c 15 3d ce 46 ae be 86 1a 8e 3f
       1.0193641 0.036511227 -0.34038395 1.1101844
0001e0 f3 01 38 3f ff e8 85 3e 04 67 3e be 4e d5 6f 3f
       0.71877974 0.26154324 -0.18593985 0.9368485
0001f0 2b cb 55 3e db 4f c5 bc 3e aa ad bd d3 09 ce 3e
       0.20878284 -0.02408593 -0.08479737 0.4024187
000200 4a e1 a5 3e 3b b2 3c 3e e9 66 dc 3e 1d 75 25 3e
       0.32398444 0.18427365 0.43047264 0.16157956
000210 e2 79 78 3e 1e 30 ba be 10 36 92 3f 70 56 6c 3b
       0.24265245 -0.36364836 1.1422749 0.0036062263
000220 64 80 17 bc 49 ee 74 3e f6 f4 01 be 2b 5d c5 bc
       -0.009246919 0.23919024 -0.12691101 -0.024092278
000230 1c 54 c6 3e 37 ff e7 3d f3 56 3c 3f 70 53 97 3e
       0.38736045 0.11327975 0.73570174 0.29555845
000240 f6 47 a7 3e 50 96 2f bb e6 15 ba be 24 8a ca 3d
       0.3267209 -0.0026792474 -0.36344832 0.098896295
000250 70 34 60 3e e6 05 dd bd 22 0b ac be 45 1a 11 3f
       0.21895003 -0.10792141 -0.33602244 0.5668071
000260 dc d3 cc bd 44 3f aa 3d 6c 03 ae 3e c3 6b a9 bd
       -0.100013465 0.08312848 0.33986986 -0.08272507
000270 f7 51 05 be e9 d8 16 3d e9 e2 84 3e 85 09 92 be
       -0.13019548 0.036827955 0.2595437 -0.28522888
000280 b6 4e 97 3d d8 41 17 bd 54 90 99 3e 7c c6 b3 3e
       0.0738806 -0.036928028 0.29992926 0.3511237
000290 f7 dd 63 bc 4e 99 72 bd 2a f1 39 3e fd ee 83 3e
       -0.013907901 -0.059228234 0.18158403 0.2576827
0002a0 02 58 84 be 66 3a 0f 3e 71 64 da be 13 c4 a9 bc
       -0.25848395 0.13987121 -0.42654756 -0.020723378
0002b0 d6 c2 3b 3e d8 58 a0 be b8 ac ba 3e f2 b3 f2 bc
       0.18336043 -0.31317782 0.364599 -0.02962682
0002c0 84 97 fa bb 1a 2e ee 3e 33 a2 04 3f 02 1b 86 3e
       -0.0076474566 0.46519548 0.51809996 0.2619248
0002d0 ae ea 02 3f 3b a7 46 bd 63 b4 89 3d 05 22 93 3f
       0.5113934 -0.048499327 0.06723859 1.1494757
0002e0 c5 6d cd bb 8c 0e 66 bd 2b d1 31 3e ef 1f 99 3f
       -0.006269189 -0.056166217 0.17364947 1.196287
0002f0 49 fd 02 3e 32 23 7d 3e 21 c4 32 3e ae 2a 7e be
       0.12791933 0.24720457 0.1745763 -0.24820969
000300 ce c5 47 3e 3f 74 d0 3c ad 33 83 3f 5e e8 90 3d
       0.1950905 0.025446055 1.0250145 0.070755705
000310 3b 25 c4 be 76 64 05 3e fd 0c 1f 3f 4e 65 ce be
       -0.38309655 0.13026604 0.62129194 -0.40311664
000320 9d 39 87 3e 74 27 34 be 88 95 31 be 6b 68 e6 3e
       0.26411143 -0.17593175 -0.17342198 0.4500154
000330 b4 bc 59 bd c7 61 da bd 6a df 80 be c1 e6 a1 3e
       -0.053158477 -0.10663181 -0.2517045 0.31621364
000340 b3 df c1 3d 2f 49 40 3e 2a 30 44 3d d6 b9 58 3e
       0.09466495 0.18777917 0.047897495 0.21164641
000350 69 bb 48 be 49 ec 89 3f 05 4c 3b be 90 c1 98 bd
       -0.19602741 1.0775234 -0.18290718 -0.07458794
000360 31 14 6c 3e 2f 1c 6a 3f c1 3d cb 3e 29 3c 75 be
       0.23054577 0.91449255 0.39695552 -0.2394873
000370 f3 b6 f3 be e7 f3 26 be 7c d2 9f 3e 9c 45 8c bd
       -0.47600517 -0.16303979 0.31215274 -0.068492144
000380 4c 6d 46 3e 93 ac 99 3e 00 5e 3b 3d a6 bb cb 3e
       0.19377631 0.30014476 0.045743942 0.39791602
000390 d2 d5 80 3e 11 ad ce 3e 60 09 94 3e 33 af 30 be
       0.25163132 0.40366414 0.28913403 -0.17254333
0003a0 2b 29 40 3e 45 3a 88 3e 62 f7 8c 3d 2b e4 54 3e
       0.18765704 0.26606956 0.06883122 0.20790164
0003b0 a9 0e 83 3e 17 c1 b1 3d 36 5a 11 3f a7 a8 55 be
       0.25597122 0.08679407 0.56778276 -0.20865117
0003c0 e7 08 1e 3f a3 55 07 3f 2b 12 e5 3e c7 fe cc be
       0.61732334 0.52865046 0.44740424 -0.4003813
0003d0 e0 08 d4 bc c1 49 83 3e 5c 41 8a be 7f 42 03 3e
       -0.025883138 0.25642207 -0.2700299 0.12818335
0003e0 29 d3 38 3e 2d f5 58 3e 9d f6 7e 3f b1 c1 4f 3c
       0.18049301 0.21187277 0.9959505 0.012680457
0003f0 8a 6f 18 be ad c9 4d 3e af f6 81 be 1b 5e d9 3b
       -0.14886299 0.20096464 -0.25383517 0.0066335327

se_block_event.2.0.bias f4 [16]
000000 b0 6d 87 bf 0e b9 2f be 12 32 74 be 18 90 a8 3d
       -1.0580349 -0.17160437 -0.23847225 0.08230609
000010 fb c1 fd be d2 58 c7 3d 53 9a 3d be 59 db 51 bf
       -0.49562058 0.09733738 -0.18515901 -0.8197532
000020 9d b3 ea be fd 7c 05 bf 97 d4 26 bf 57 68 7e bd
       -0.4584016 -0.5214384 -0.65168136 -0.062111225
000030 70 25 b5 bd 50 cb 3e bf 87 f5 7a be e5 bf 0d bf
       -0.08845031 -0.7452898 -0.24507724 -0.5537093

se_block_event.2.2.weight f4 [64, 16]
000000 e3 0e 73 3d 28 b9 9e be 54 39 eb 3d 15 b4 30 be
       0.05934037 -0.31000638 0.11485544 -0.17256196
000010 7c 53 e1 bd 66 05 1d bf 24 1c 2a bf cc 13 1e 3f
       -0.110022515 -0.6133636 -0.6644919 0.6174896
000020 1d e0 f1 bd 7a 0d b6 be b8 78 83 be c1 04 e7 be
       -0.11810324 -0.35557157 -0.2567804 -0.45120814
000030 a2 ba 44 be f3 bf 28 3e c7 67 94 3e 24 69 03 3f
       -0.1921182 0.16479473 0.28985426 0.51332307
000040 50 06 2a 3f af a4 9f 3f b7 34 86 3e 8d aa 74 3e
       0.6641588 1.2472132 0.26212093 0.23893185
000050 b0 e8 ec 3e 63 b1 48 3f 3d e7 d3 3e f5 75 0e 3f
       0.46271276 0.7839567 0.41387358 0.5564874
000060 18 87 05 bd f4 d7 20 3f 30 c1 6c 3f e1 98 1d be
       -0.03259954 0.6282952 0.9248228 -0.1539035
000070 01 11 11 3f 59 e5 20 3f ff 21 3d 3f 06 38 22 3f
       0.5666657 0.62849957 0.7388 0.63366735
000080 36 a1 f0 3e d1 92 1f 3f 2f bb 84 3e ac cf fe 3e
       0.46997994 0.623334 0.2592406 0.49767816
000090 55 7c 6a bd b7 a2 4a 3f 93 a2 f7 be 0c 9e 08 3e
       -0.05724748 0.79154533 -0.48366222 0.1334154
0000a0 6c fb da bc 2f 6a 99 3e 56 58 07 be fd bf 10 3f
       -0.026731215 0.29963824 -0.13217291 0.5654295
0000b0 b9 cb fb 3e 68 a2 19 3e 80 e3 3e 3f 9b 7e c6 be
       0.49178866 0.1500336 0.7456589 -0.38768467
0000c0 67 0c 9c 3e 2a 2e b2 3e 66 59 b7 3d e8 f0 83 3c
       0.30478212 0.34800845 0.08952598 0.016106084
0000d0 2a a4 7b 3e 11 4e bf be af 12 a9 bd 3a 23 fb 3d
       0.24574342 -0.37364247 -0.08255517 0.12262578
0000e0 87 e0 13 be 82 75 28 3e 17 ef b2 3e 17 51 e9 be
       -0.14441119 0.16451076 0.34948036 -0.4556968
0000f0 d5 20 e7 3d 76 45 26 3f ca ce 19 3f ae a1 ba 3c
       0.11285559 0.6494974 0.6008116 0.022782173
000100 64 10 15 3f 9b 11 38 be f7 1e 98 bc 2f 39 4b be
       0.58228135 -0.17975466 -0.018569453 -0.19846033
000110 b7 b5 96 3d 67 b9 9a 3e 05 89 97 be a8 81 de 3e
       0.07358878 0.30219576 -0.29596725 0.43458295
000120 b5 dd 82 3d 89 c3 5d 3d 6f 24 ab be 95 4d 2a be
       0.063899435 0.054141555 -0.33426234 -0.16631158
000130 b7 1b 7f be 3b c8 d9 3e 4d ba 5a 3e fc c2 a0 3e
       -0.24912916 0.42535576 0.2136013 0.3139876
000140 c9 6c 0e 3f 5a e7 1e 3e 57 b8 37 3f 54 10 35 bf
       0.5563474 0.15517941 0.71765655 -0.7072804
000150 36 b2 ff 3e df 91 1b 3f bb 87 35 3f 1d 30 20 3e
       0.49940652 0.60769457 0.70910233 0.15643354
000160 51 dd af 3d cd cc 24 bf df ff ce 3d 53 0d 83 be
       0.08587135 -0.64375 0.10107397 -0.25596103
000170 64 6f 62 3e 32 fe ee 3e 03 d1 12 3f 8d 28 ea 3d
       0.22112805 0.4667831 0.57350177 0.11433516
000180 ad a6 6a 3e 59 f6 86 3f 54 0e 81 3f 87 6c 23 3f
       0.22915144 1.0543929 1.0082498 0.63837475
000190 53 fa c7 3c ad b1 e9 3e 24 29 3e 3f 3d 7a 16 3f
       0.024411356 0.45643368 0.74281526 0.5878027
0001a0 95 9c e2 bd bf 5f 08 3f 84 06 6d 3f ab 0e 5a 3f
       -0.11065022 0.53271097 0.9258807 0.8517863
0001b0 af f7 85 3e 7b 1a 30 be 45 3e da 3e 04 52 d2 bd
       0.2616553 -0.17197601 0.42625633 -0.102695495
0001c0 48 84 07 3f 0c a8 49 bd 5f 89 d5 3e 85 af cf 3e
       0.5293622 -0.049232528 0.41706368 0.40563598
0001d0 f8 3c ba 3e e9 5c f8 3e 6f 8a 81 3d 3d 2e b6 be
       0.3637464 0.48508385 0.06325232 -0.35582152
0001e0 ec e5 ae 3d 4e 7b 6b 3e a1 3e 91 3e 77 8d 94 bc
       0.08539948 0.22996256 0.28368095 -0.018133862
0001f0 cf 48 7b 3e 09 17 01 be 3a 3a 6e bd f4 ff 9d 3e
       0.24539493 -0.12606443 -0.058160998 0.3085934
000200 85 b5 a8 3e 7d f0 cd bb 40 ef 3e 3e 78 3b 2e bf
       0.32950988 -0.006284772 0.18645954 -0.6805949
000210 5e 46 ce 3e e6 7e 3a 3f 7f ed d9 3e 73 a8 3e bd
       0.4028806 0.7284988 0.42564008 -0.046547364
000220 2c 10 cd 3e 86 b4 d6 be d4 58 cd be 48 86 5f bd
       0.400514 -0.41934603 -0.40106833 -0.05457142
000230 47 18 11 3e fe db 57 3e 51 10 5e 3f 37 34 5b 3e
       0.14169417 0.21080014 0.86743647 0.21406637
000240 1f 1f 00 3f 17 3e 02 3e d3 86 df 3d 0a 45 59 3e
       0.5004749 0.12718998 0.109143876 0.21217743
000250 08 48 df 3d 01 ae 3c 3e 67 db 5f 3f 4a e9 d4 3e
       0.10902411 0.18425752 0.87444156 0.41584235
000260 f4 0e 84 3e 57 a0 22 3f fd 7a 0d 3f 4c 92 9f 3e
       0.25792658 0.6352591 0.5526579 0.31166303
000270 c3 56 9f 3e 51 a9 28 3f 4d fc 2c 3d 3f 97 c3 3e
       0.3112088 0.65883356 0.0422328 0.3820133
000280 db de d2 3e 1a 15 4b 3e f6 b0 0f bf 98 cd c6 3e
       0.4118565 0.19832268 -0.56129396 0.3882873
000290 5a a5 23 3f 8a 40 55 3e 6e 5e 27 be 32 8e 81 bc
       0.6392418 0.20825401 -0.16344616 -0.015814874
0002a0 9a fe d8 bd 9a e9 93 3e 65 e0 0d bf da ac 80 be
       -0.105954364 0.2888916 -0.55420524 -0.25131875
0002b0 e2 40 6d 3e 59 04 86 bd 4c f9 8a bd 1f e2 45 bc
       0.23169282 -0.06543798 -0.06785831 -0.012077837
0002c0 fd 1f 12 3f dc ed bd 3f a6 7c 69 3e 4e c4 12 3f
       0.5708006 1.4838214 0.22801456 0.5733079
0002d0 48 2e 0b 3f 9d 73 8d 3f 88 2b 13 3d 7a 7b 2b 3e
       0.54367495 1.1050907 0.035930187 0.16746321
0002e0 f7 81 db 3c a6 02 dd 3e 95 c8 13 3f bd 76 89 3e
       0.02679537 0.43166083 0.5772794 0.26848403
0002f0 a0 e1 88 3e 08 a2 6a 3e 4c b4 4f 3f 0b 69 77 bd
       0.26734638 0.22913373 0.81134486 -0.06040291
000300 26 37 3a 3f ec ef ad 3f 63 e2 2d 3f 7c 9a e2 3e
       0.727404 1.3588843 0.67923564 0.44258487
000310 95 ca 85 3f 8f 77 67 3f 69 de c8 3e 54 70 a2 3e
       1.0452448 0.90416807 0.39232185 0.31726325
000320 28 5f f0 3c a9 d9 a4 3e 32 d1 aa 3d 9c c4 4d 3d
       0.029342249 0.32197312 0.08340682 0.05023633
000330 ed a8 8e 3f f9 05 b8 3e df ef 85 3f 8f 4a 73 3e
       1.1145302 0.35942057 1.0463828 0.2375891
000340 22 05 35 be b6 db 87 bc 3e 53 09 be d5 cb 2c 3e
       -0.1767774 -0.016584259 -0.1341066 0.16874631
000350 43 c4 0a be 7d 2c 52 be 5f ff 49 be aa 16 3d 3e
       -0.1355143 -0.20524783 -0.19726323 0.18465677
000360 bb f8 18 3e 14 ab fe 3d 49 47 88 be 01 eb 37 be
       0.14938633 0.12434974 -0.26616886 -0.1796074
000370 6c 31 68 be 21 bc 18 bc c5 39 4e be 84 d5 84 bd
       -0.22675103 -0.009322197 -0.20139225 -0.064860374
000380 e9 68 d0 3d 0d 7d 23 3f 2e b7 5f 3f cc 50 92 3f
       0.1017626 0.6386269 0.87388885 1.1430907
000390 e4 5c a6 3e b5 a4 45 3f ce 3b 51 3f 08 2c 1d 3f
       0.32492745 0.7720445 0.8173188 0.6139531
0003a0 51 87 8e 3e ca 3e 9a 3f 88 ca 0c 3f 2d b7 7b 3f
       0.27837613 1.2050412 0.5499654 0.9832638
0003b0 17 cf 3f 3f 3d 97 4c 3e 06 c5 4a 3f b5 1d 52 3e
       0.7492537 0.19979568 0.79206884 0.20519145
0003c0 33 a0 81 3d 36 8f 81 3f b6 b9 07 3f a3 73 f7 bd
       0.06329384 1.012183 0.5301775 -0.12082603
0003d0 54 2c 1c 3f b1 66 f1 3e 8e 65 1d 3f 62 77 91 be
       0.6100514 0.4714866 0.61483085 -0.28411394
0003e0 7d 01 87 3d 1f 59 e4 bd 1b 0d 64 3e a1 ce 2a be
       0.06592081 -0.11149811 0.22270624 -0.16680385
0003f0 d4 dd 83 3f 76 f3 82 3d 1e bc 19 3f a5 c7 34 3e
       1.0302072 0.06394093 0.6005267 0.17654283
