parameters/deephit_model_2D_CNN_1014_ver3.pth (torch, 193330 bytes, 45 tensors)

se_block.0.weight f4 [4, 17]
0	0xbd554c7e	-0.0520749
1	0xbe913294	-0.283589
2	0xbecba755	-0.39776102
3	0xbd8cb182	-0.068697944
4	0xb9f019eb	-0.00045795678
5	0xb9b7c7c4	-0.00035053317
6	0x3ee6fe2b	0.4511579
7	0x3c983100	0.018578053
8	0x3d3c6002	0.045989998
9	0x3d1e3038	0.038620204
10	0x3d210768	0.039313704
11	0x3b5bb320	0.0033523515
12	0x3c327538	0.010892205
13	0xbca423fa	-0.020036686
14	0x3a19fb1e	0.0005873906
15	0x3e7565e9	0.23964657
16	0xbcd1c0ef	-0.025604693
17	0x3a57537a	0.0008214038
18	0x3ea17960	0.31537914
19	0x3e055b50	0.13023114
20	0xbc12ae81	-0.008952738
21	0xbdf8a30b	-0.12140473
22	0xbdbb14f6	-0.09134857
23	0x3d8ebb8e	0.06969367
24	0x3e7e551e	0.24837157
25	0xbe2e46ec	-0.17019242
26	0x3d6e8d98	0.058240503
27	0x3db2f82c	0.08738741
28	0x3e006541	0.12538625
29	0x3e856c65	0.2605926
30	0xbcda38ce	-0.026638415
31	0xbba17abb	-0.0049279607
32	0x3b1a755c	0.0023568487
33	0xbd006f02	-0.031355865
34	0xbd021a3a	-0.031763293
35	0x3dd23ddc	0.10265705
36	0x3e294210	0.16529107
37	0x3cb23e51	0.02175823
38	0x3df64cd4	0.120263726
39	0xbcfaa499	-0.030596064
40	0xbc6d98af	-0.014501735
41	0x3c75cecc	0.0150029175
42	0x3d4b6da3	0.049665105
43	0xbf38f453	-0.7224781
44	0x3cab88cd	0.020939255
45	0x3e0738d2	0.13205269
46	0x3e7a7738	0.24459541
47	0x3c2000ee	0.009765847
48	0xbad24acc	-0.001604402
49	0xbe3dbe3f	-0.18529604
50	0x3d82708e	0.06369124
51	0x3e82b505	0.25528732
52	0x3eaebb99	0.341275
53	0x3ea0fdec	0.31443727
54	0x3d8e704c	0.06955013
55	0xbc446451	-0.011986808
56	0x3e0c9d79	0.13731946
57	0x3ec0fa69	0.37691048
58	0x3cc071d9	0.023491787
59	0x3dd8a580	0.105784416
60	0x3e3c40ec	0.1838414
61	0x3dbc1063	0.09182813
62	0x3d3a08d3	0.04541857
63	0x3f06fa6f	0.5272588
64	0x3d4453e8	0.04793158
65	0x3c43ed75	0.01195847
66	0x3d4e4e27	0.0503675
67	0xbc151354	-0.009098846

se_block.0.bias f4 [4]
0	0x3e2fae57	0.17156349
1	0x3e44cf81	0.19219781
2	0xbe4b9463	-0.19880824
3	0xbea78df8	-0.327255

se_block.2.weight f4 [17, 4]
0	0xbed9bb2d	-0.42525616
1	0xbd1d149a	-0.038349725
2	0x3ddd2b5f	0.10799288
3	0x3eb1eff5	0.34753385
4	0x3d195c26	0.037441395
5	0xbf0d02a0	-0.5508213
6	0xbe2d8e13	-0.16948728
7	0x3d839f63	0.06426885
8	0x3f358c1c	0.70916915
9	0xbdd83f2b	-0.10558923
10	0x3dd57eed	0.104246
11	0x3e241b10	0.16025949
12	0xbe707f27	-0.23486005
13	0x3eacc2da	0.3374241
14	0x3e4e4ad7	0.20145737
15	0xbe85869f	-0.2607927
16	0xbf151bca	-0.5824553
17	0x3e0bec37	0.13664328
18	0x3da46eb8	0.080289304
19	0xbe33e283	-0.17566876
20	0xbf4272f1	-0.75956637
21	0x3d734fbf	0.059402224
22	0xbdd9afb3	-0.10629215
23	0xbe1290ab	-0.14312999
24	0xbd99d73e	-0.07511757
25	0xbd2c7780	-0.04210615
26	0xbdde223c	-0.108463734
27	0x3d87059e	0.06592868
28	0xbe973fe3	-0.2954093
29	0x3f0b19d0	0.5433626
30	0xbec6128e	-0.3868603
31	0xbe20fd3f	-0.15721606
32	0xbedb5b39	-0.42843035
33	0x3d728c29	0.0592157
34	0xbc786e79	-0.0151630575
35	0xbe010a22	-0.12601522
36	0x3ac752ca	0.0015207168
37	0x3de51ed3	0.1118752
38	0x3f2b955e	0.6702479
39	0xbdf6b2e5	-0.1204584
40	0xbd82efe9	-0.063934155
41	0xbe8143e7	-0.25247118
42	0xbd156312	-0.036471434
43	0xbe0355ed	-0.12825747
44	0x3e1612d4	0.1465562
45	0xbeb6db59	-0.35714224
46	0x3e92a6ca	0.28642875
47	0xbe34581f	-0.1761174
48	0xbdeb8676	-0.11500256
49	0xbd8a54d1	-0.06754459
50	0x3e030870	0.12796187
51	0x3e6b87c6	0.23001012
52	0x3d9b4b7d	0.075827576
53	0x3dcf0c5d	0.1010978
54	0x3d3425ef	0.04398149
55	0xbe43548a	-0.19075218
56	0xbeb6a022	-0.35669047
57	0x3e7326f1	0.23745324
58	0xbdf9d02b	-0.12197908
59	0xbe6a9dfe	-0.22911832
60	0x3e418cfd	0.18901439
61	0xbd0ed067	-0.034866717
62	0xbce9a583	-0.028521305
63	0xbe395e6d	-0.18102427
64	0x3e011ceb	0.12608688
65	0x3d0b7ca4	0.034054413
66	0xbd0616f4	-0.032736734
67	0xbe172539	-0.14760293

se_block.2.bias f4 [17]
0	0x3de761fa	0.112979844
1	0xbde01405	-0.109413184
2	0x3ed33d85	0.41257873
3	0x3f590ce9	0.84785324
4	0xbd277734	-0.040885165
5	0x3e8f1289	0.2794383
6	0xbe405214	-0.1878131
7	0xbd75e765	-0.06003513
8	0xbc9e2340	-0.019303918
9	0x3e1a56fe	0.15072247
10	0xbe0a06d4	-0.13479167
11	0x3ebb3596	0.3656432
12	0xbdc890d4	-0.09793249
13	0xbd5a49fb	-0.05329321
14	0xbe347eb2	-0.17626455
15	0xbe2c2ebe	-0.16814706
16	0xbe201091	-0.1563132

se_block_event.0.0.weight f4 [16, 64]
0	0x3d9aa9c9	0.07551915
1	0x3ca2d328	0.019876078
2	0x3ddaa22b	0.10675462
3	0x3e10ad65	0.14128645
4	0x3e0a6078	0.13513362
5	0xbe02055c	-0.12697357
6	0xbe7fd4db	-0.24983542
7	0x3db162e8	0.08661443
8	0x3e216440	0.15760899
9	0xbd9a007a	-0.07519622
10	0x3c145eef	0.009055837
11	0xbcb68085	-0.02227808
12	0x3db68368	0.089117825
13	0x3d580862	0.05274237
14	0x3d1d5006	0.038406394
15	0x3d8960c9	0.067079134
16	0x3da4a0d5	0.08038489
17	0xbdd29622	-0.10282542
18	0x3bcb7c6a	0.0062098997
19	0xbe2e9a34	-0.17051011
20	0x3df1bb22	0.11803271
21	0xbcb8813e	-0.022522565
22	0x3dc26a55	0.094929375
23	0xbe522b9a	-0.20524445
24	0x3d885680	0.066571236
25	0x3bbe3519	0.0058046696
26	0xbe4181c2	-0.18897155
27	0x3e0e0c2d	0.13871832
28	0x3e057f38	0.13036811
29	0x3e4ef487	0.20210467
30	0xbde33093	-0.11093249
31	0x3d4bbf21	0.04974282
32	0x3d2b907a	0.04188583
33	0x3b79f6f5	0.0038141583
34	0x3d08ce5a	0.033399917
35	0xbd029226	-0.03187766
36	0x3e0c146d	0.13679667
37	0x3c9903d9	0.018678593
38	0xbe4c9f7c	-0.19982713
39	0x3df766f5	0.12080184
40	0x3d3023f5	0.04300304
41	0xbbaf3b5d	-0.005347653
42	0x3e479fc2	0.19494537
43	0xbd04568a	-0.032309093
44	0xbd9ee362	-0.077582136
45	0x3dab112c	0.08352885
46	0xbcf858f2	-0.03031585
47	0x3d37ce41	0.044874433
48	0x3d010621	0.031499986
49	0x3d22746d	0.039661814
50	0x3d810ace	0.06300889
51	0xbe771043	-0.24127297
52	0x3d8312a3	0.06400039
53	0x3e067905	0.13132103
54	0xbc9474e5	-0.018122146
55	0xbbf05ed4	-0.007335523
56	0x3e4d6340	0.20057392
57	0x3d195d3f	0.037442442
58	0x3e061ff7	0.13098131
59	0xbe40e831	-0.18838574
60	0x3dd2aad6	0.102864906
61	0xbc73fa0b	-0.014891158
62	0xbc39299c	-0.011301424
63	0x3d6ddc43	0.058071386
64	0xbdd4e87f	-0.103959076
65	0x3e341457	0.17585884
66	0xbdc2ae56	-0.09505908
67	0xbdddcd00	-0.10830116
68	0xbe2a8a07	-0.16654216
69	0xbdbce4a5	-0.09223298
70	0xbca08bc0	-0.019597888
71	0xbd24871c	-0.040167913
72	0x3dbc342f	0.09189641
73	0xbcb9dd54	-0.022688545
74	0x3db5f328	0.08884269
75	0x3da068ce	0.0783249
76	0xbc160f3a	-0.009158904
77	0x3e0bffa0	0.13671732
78	0x3c940755	0.018069902
79	0xbe0ca991	-0.1373656
80	0x3e246785	0.16055115
81	0x3e793520	0.24336672
82	0xbe18ff06	-0.14941034
83	0xbb19248f	-0.0023367738
84	0x3d67d3d6	0.056598507
85	0xbc20ee43	-0.009822431
86	0x3d9f561b	0.07780095
87	0xbca1c02c	-0.019744955
88	0xbe0f5093	-0.1399558
89	0xbd35bac8	-0.04436758
90	0xbd514f6a	-0.051101126
91	0xbd05c321	-0.032656793
92	0xbdd03eef	-0.10168254
93	0xbdf4ec2d	-0.119591095
94	0x3d3e74de	0.046498172
95	0x3e09036d	0.13380213
96	0xbe3d528c	-0.1848852
97	0xbbb734ce	-0.0055910116
98	0xbd8e9926	-0.069628045
99	0xbc861b21	-0.016370358
100	0xbc6d873e	-0.014497576
101	0x3cdeeeb5	0.027213434
102	0x3d9be455	0.0761191
103	0xbddf3a6d	-0.10899816
104	0xbbeeb697	-0.00728495
105	0xbe0bca1b	-0.13651316
106	0x3ebbb10e	0.3665852
107	0xbd8a8fc3	-0.067657016
108	0x3dabcdf2	0.0838889
109	0x3c42ae42	0.011882367
110	0xbd11c232	-0.03558559
111	0x3cea36ff	0.028590677
112	0x3de5532e	0.11197506
113	0x3d838f0f	0.06423771
114	0x3ce969c5	0.028492818
115	0xbe01c442	-0.12672523
116	0xbe831ceb	-0.25608
117	0xbda053d0	-0.07828486
118	0xbcd0a2b0	-0.0254682
119	0x3d9cec1a	0.0766222
120	0x3d0a0d77	0.033704247
121	0xbd960786	-0.07325654
122	0x3e400fd2	0.18756035
123	0x3d8f07eb	0.06983932
124	0x3d1ae62d	0.03781717
125	0xbc351212	-0.011051672
126	0x3e0b6cfd	0.13615794
127	0x3d4780fa	0.048706986
128	0x3cb20e41	0.021735312
129	0xb97c1578	-0.0002404059
130	0x3a3d6c56	0.0007225921
131	0x3e43f0e8	0.19134867
132	0x3e49617c	0.19666094
133	0x3daf3ef4	0.08556929
134	0xbd153232	-0.036424823
135	0x3dc1831d	0.09448836
136	0x3dd96f5f	0.106169455
137	0x3d93103c	0.07180831
138	0xbb505bfb	-0.0031793106
139	0x3d2a4e5a	0.041578628
140	0x3d3568fb	0.04428957
141	0xbdfb1b0e	-0.1226102
142	0x3ca6af57	0.02034728
143	0x3dc9eccd	0.09859619
144	0x3b1bb18e	0.0023756954
145	0x3d847987	0.06468492
146	0x3df3c198	0.119021595
147	0x3d0df82b	0.0346605
148	0x3e188639	0.14894952
149	0x3d112c4c	0.035442635
150	0xbdc803bf	-0.097663395
151	0x3dcbe54f	0.099558465
152	0x3bd59e1e	0.006519093
153	0x3d7c6e7e	0.06162881
154	0x3e533271	0.2062471
155	0xbb3fb239	-0.0029250516
156	0x3d35ff32	0.044432826
157	0x3e3f1492	0.1866019
158	0x3d9d38ee	0.07676874
159	0xbcc13143	-0.02358306
160	0x3da8893a	0.08229299
161	0x3cae3da2	0.021269623
162	0xbad0c7b0	-0.0015928652
163	0x3d4c5e9e	0.04989492
164	0x3e6fcfb7	0.2341908
165	0xbd27f5b1	-0.041005794
166	0xbe037a1a	-0.12839547
167	0xbd7db9b9	-0.061944697
168	0xbd61808a	-0.055054225
169	0x3d6e1ee0	0.058134913
170	0x3c7cb6aa	0.01542441
171	0x3d10932a	0.035296597
172	0x3dc6414f	0.096804254
173	0xbb9eb4f7	-0.00484335
174	0x3c607fd9	0.013702356
175	0xbc5a45ab	-0.013322274
176	0xbd86cec9	-0.0658241
177	0x3dff489b	0.1246502
178	0x3de88580	0.11353588
179	0x3e842b86	0.25814456
180	0xbeb6f6a2	-0.3573504
181	0x3e59d1da	0.21271458
182	0x3d2f0779	0.042731736
183	0x3e426e84	0.18987471
184	0x3e5c7011	0.21527125
185	0xbd36d1ff	-0.04463386
186	0x3d56b435	0.052417953
187	0x3de03c5f	0.10949015
188	0xbd9ac81f	-0.07557701
189	0x3c67ae14	0.014140625
190	0xbe903596	-0.28165883
191	0x3dc2bdd3	0.09508862
192	0x3b9102dc	0.0044253897
193	0x3b120563	0.0022281043
194	0xbd74a306	-0.059725784
195	0x3dbfd445	0.09366659
196	0xbcf6a689	-0.030108707
197	0xbe16a011	-0.14709498
198	0xbd0289e5	-0.031869788
199	0x3d8c1c5d	0.06841347
200	0xbbc67337	-0.006056215
201	0x3c257b4d	0.010100198
202	0xbdc78a14	-0.09743133
203	0xbcf6b9ef	-0.030117957
204	0xbd3e4e4a	-0.04646138
205	0xbd4ad858	-0.049522728
206	0x3cbc1235	0.0229579
207	0x3c5c4de3	0.013446304
208	0xbdf49aa3	-0.11943557
209	0xbdd2ed24	-0.10299137
210	0x3db0f463	0.08640363
211	0x3d4d5916	0.050133787
212	0x3d637e49	0.055540357
213	0x3c88e5de	0.016711172
214	0xbdc3776c	-0.09544262
215	0xbdb8e5d9	-0.09028215
216	0x3e093b31	0.13401486
217	0x3d9d0b03	0.07668116
218	0xbd0f1ac0	-0.03493762
219	0xbd13e9a2	-0.03611148
220	0x3d9fa818	0.07795733
221	0x3d101f0c	0.03518586
222	0xbe4f1296	-0.20221934
223	0x3c9e9859	0.019359754
224	0xbc26ec42	-0.010188164
225	0x3bd05bb6	0.006358589
226	0x3a373bc8	0.0006989804
227	0xbc33ce4d	-0.010974479
228	0xbd5726f2	-0.052527376
229	0x3d22caec	0.039744303
230	0xbe061639	-0.13094415
231	0xbdbd4b1b	-0.09242841
232	0x3d8f51f0	0.0699805
233	0xbe22fc3a	-0.1591653
234	0x3d065d97	0.032804098
235	0x3d09b6d3	0.03362162
236	0x3ca77b5f	0.02044457
237	0xbcb21b3b	-0.0217415
238	0x3b873a61	0.0041268324
239	0x3c4b6f76	0.012416711
240	0x3d7bf98f	0.061517294
241	0xbd471dad	-0.048612285
242	0xbc738a18	-0.014864467
243	0xbd49f231	-0.049303237
244	0x3e46bfd4	0.19409114
245	0x3d8055ee	0.0626639
246	0x3b66709f	0.0035162342
247	0x3ce884f8	0.028383717
248	0x3dadb50b	0.08481797
249	0x3c7a471f	0.015275746
250	0xbccf6146	-0.025314938
251	0xbc95ebf9	-0.018300997
252	0x3e44f5f5	0.1923445
253	0xbc60d817	-0.013723395
254	0xbe87e771	-0.26543763
255	0xbda8b4cb	-0.082376085

se_block_event.0.0.bias f4 [16]
0	0xbde0fdad	-0.10985885
1	0x3e9ac442	0.30227858
2	0x3d604321	0.05475152
3	0x3a241936	0.000625986
4	0xbe23e8d2	-0.16006783
5	0xbce06abb	-0.027394643
6	0xbce8fb2f	-0.028440086
7	0x3d83f6a1	0.06443525
8	0x3b82ec61	0.0039954637
9	0x3e3782ca	0.17920986
10	0x3d3f89b7	0.046762194
11	0x3c08f3b5	0.0083588855
12	0xbe382253	-0.17981844
13	0xbe867ea4	-0.26268494
14	0x3e71fc8f	0.236315
15	0x3df753bb	0.12076517

se_block_event.0.2.weight f4 [64, 16]
0	0xbd805aa7	-0.062672906
1	0xbce3ee38	-0.027823552
2	0xbd3193a9	-0.04335371
3	0x3c84e21f	0.016221104
4	0xbcb6f231	-0.022332283
5	0x3cce18da	0.025158335
6	0xbd838522	-0.064218774
7	0xbd540f00	-0.051772118
8	0xbd62fa2f	-0.055414375
9	0x3d49ffd9	0.04931626
10	0x3c767161	0.01504168
11	0x3d2d2280	0.04226923
12	0xbab6a0bd	-0.0013933402
13	0xbd05d8e4	-0.032677546
14	0x3d284cf7	0.041089024
15	0x3dcc65dd	0.099803664
16	0xbdbfb593	-0.093608044
17	0xbe51c698	-0.20485914
18	0x3e3f1cf6	0.18663391
19	0x3e5991fb	0.21247093
20	0x3d1f67d2	0.03891737
21	0x3dadd75d	0.08488343
22	0x3d1ca237	0.038240638
23	0xbc80fe18	-0.015746161
24	0xbd75aa51	-0.05997688
25	0xbc86ee12	-0.016470943
26	0xbe8a2c9a	-0.26987153
27	0x3e625110	0.22101235
28	0x3e8244cd	0.25443116
29	0xbcbf87e0	-0.02338022
30	0xbe7e28df	-0.24820279
31	0x3eca77c7	0.39544508
32	0xbd638478	-0.055546254
33	0xbc679108	-0.014133699
34	0xbce7b178	-0.028282866
35	0x3d1b9c9d	0.037991155
36	0x3d8edd13	0.0697576
37	0x3da5529b	0.08072396
38	0x3d5e7c74	0.054317906
39	0x3c698a74	0.014254201
40	0x3b5b75d6	0.0033486984
41	0x3d97b263	0.074070714
42	0x3d52c8df	0.051461097
43	0x3dca3d08	0.09874922
44	0x3ca6285b	0.020282915
45	0x3d8716e6	0.065961644
46	0xbbfd27fb	-0.0077257133
47	0x3e1797d7	0.14804016
48	0xbddb96a5	-0.107220925
49	0xbda1c364	-0.07898596
50	0xbdab4652	-0.08363022
51	0x3af344ae	0.0018559897
52	0x3d262be5	0.040569205
53	0x3d9b3170	0.07577789
54	0x3d952b2c	0.07283625
55	0xbb98fdad	-0.0046689124
56	0x3cb071f5	0.021538714
57	0x3dbf39e5	0.093372144
58	0x3b634b10	0.0034682192
59	0x3dd593e3	0.10428598
60	0xbc3be39a	-0.011467839
61	0x3d88a2c6	0.066716716
62	0xbd655866	-0.055992506
63	0x3e43f492	0.19136265
64	0x3d12c858	0.035835594
65	0xbcc0d7f4	-0.023540474
66	0xbc1f4200	-0.0097203255
67	0x3d2db714	0.042410925
68	0xbc487076	-0.012233844
69	0xbded54c3	-0.11588433
70	0x3cfe010a	0.031006355
71	0xbd742b3d	-0.059611548
72	0x3ce2b5d2	0.02767459
73	0xbd78efd3	-0.06077559
74	0xbc90bacf	-0.017667202
75	0x3ddac476	0.10682003
76	0xbc40d6f7	-0.011770002
77	0xbce1e7bf	-0.027576325
78	0x3cfbe0e5	0.030746887
79	0x3e21c3f8	0.15797412
80	0x3c188077	0.009307972
81	0x3d888c5d	0.06667397
82	0x3e07294f	0.13199352
83	0xbb9399fe	-0.0045044413
84	0x3b73cea7	0.0037202032
85	0xbc8fe0d4	-0.017563261
86	0x3cb43218	0.021996543
87	0x3ca2c68b	0.019870063
88	0xbbb870e6	-0.005628693
89	0xbc91d898	-0.017803475
90	0x3e259c0b	0.16172807
91	0xbc998d3d	-0.018744105
92	0xba3f892a	-0.0007306511
93	0xbcbf39d0	-0.023342997
94	0x3ce988fb	0.0285077
95	0xbd9811dc	-0.074252814
96	0xbd65f7bc	-0.05614446
97	0xbe034c4e	-0.12822077
98	0x3dd73c2c	0.10509524
99	0x3e49afb5	0.19695933
100	0x3dd8ff1a	0.10595532
101	0xbde94e92	-0.11391939
102	0x3ddad892	0.10685839
103	0x3dea1e60	0.11431575
104	0xbc97b897	-0.018520636
105	0xbcf6e9c2	-0.030140761
106	0x3cff2d2f	0.031149475
107	0x3dde3d41	0.10851527
108	0x3deffe72	0.117184535
109	0x3e827623	0.25480756
110	0xbd4dbde5	-0.050229926
111	0x3dc47699	0.09592933
112	0xbc7e1c54	-0.015509684
113	0xbca2260d	-0.019793535
114	0x3d9c68a1	0.07637144
115	0xbe72a9b3	-0.23697548
116	0xbc8cb67a	-0.017176855
117	0x3dfa5990	0.12224114
118	0x3c4897bf	0.01224321
119	0x3c29fb3b	0.010374839
120	0x3d1020dd	0.03518759
121	0x3e0ea468	0.13929904
122	0xbd458f9a	-0.048232652
123	0x3d5d7919	0.054070566
124	0x3bfe34ba	0.0077577503
125	0x3aa05dd6	0.0012234997
126	0x3d12e82d	0.03586595
127	0xbc3fd646	-0.011708802
128	0xbe285f4f	-0.16442607
129	0xbc8c8a53	-0.017155802
130	0xbdce6c93	-0.10079303
131	0xbd6b4329	-0.057437096
132	0x3e520af6	0.20511994
133	0x3e54489f	0.20730828
134	0x3c612937	0.013742737
135	0xbda3d646	-0.07999854
136	0xbe38b284	-0.18036848
137	0x3eaa80b4	0.33301318
138	0xbec093bc	-0.37612712
139	0x3d6ec11d	0.058289636
140	0xbcc980d9	-0.024597572
141	0x3d6ede15	0.058317263
142	0x3d96ca63	0.07362821
143	0x3e1a8763	0.15090708
144	0x3c801ea7	0.015639616
145	0x3c148859	0.009065711
146	0x3d204989	0.03913263
147	0x39eb708c	0.00044906547
148	0xba1db4d6	-0.00060160214
149	0xbb0c4b3f	-0.0021407155
150	0x3ba20673	0.0049446165
151	0x3c43f809	0.011960992
152	0x3cdb374e	0.02675977
153	0xbb0775d9	-0.0020669608
154	0x3e3e5fb9	0.18591203
155	0xba48fd50	-0.0007667141
156	0x37f12589	2.8746917e-05
157	0x3ad33c59	0.0016116007
158	0x3923f792	0.00015637118
159	0x3c9e9f60	0.019363105
160	0xbd96f44e	-0.07370816
161	0xbcd24946	-0.025669705
162	0xbbc3e567	-0.0059782746
163	0x3e0f40ab	0.13989513
164	0x3dd538e0	0.10411239
165	0xbcecae47	-0.028891696
166	0x3d288869	0.041145716
167	0xbc8a0d4b	-0.016852042
168	0xbd71876b	-0.058967035
169	0x3d640a45	0.055673856
170	0x3bce7310	0.0063003376
171	0x3d98f1ee	0.074680194
172	0xbc8e049b	-0.01733618
173	0x3db9bba0	0.0906899
174	0x3cc6c200	0.024262428
175	0x3e183d84	0.14867216
176	0x3cd2cd8f	0.025732784
177	0xbe07c9a5	-0.13260515
178	0xbe05d220	-0.13068438
179	0x3c39b8a2	0.011335524
180	0x3babc15a	0.005241555
181	0x3dae4bd5	0.085105576
182	0x3c04e81c	0.00811198
183	0x3bf045af	0.0073325257
184	0x3cce3bcd	0.025175
185	0xbc8306a6	-0.015994381
186	0x3dd76ec1	0.105191715
187	0x3e06f174	0.13178045
188	0xbca84a65	-0.020543287
189	0xbc9f213c	-0.019425027
190	0xbe9af7ab	-0.3026708
191	0x3e267c8b	0.16258447
192	0xbccd15c3	-0.02503479
193	0xbce16076	-0.027511816
194	0xbd220aad	-0.039560962
195	0x3ce0fd18	0.027464435
196	0xbcda72e9	-0.026666122
197	0xbc9bb4c4	-0.019007094
198	0x3dfa9a4d	0.12236462
199	0xbe06aee9	-0.1315266
200	0x3d0921ec	0.033479616
201	0x3bfa7044	0.0076427776
202	0x3dfcec65	0.12349776
203	0x3e37983a	0.17929164
204	0xbc9607fd	-0.018314356
205	0x3caaba59	0.02084081
206	0xbd111e1a	-0.035429098
207	0x3e5d30c6	0.21600637
208	0x3db15a76	0.08659832
209	0xbc823c49	-0.015897887
210	0x3e480ec0	0.19536877
211	0x3e853619	0.26017836
212	0xbcf37d78	-0.029722914
213	0x3da2e1c6	0.07953219
214	0x3d15c7d8	0.03656754
215	0x3de61ada	0.1123559
216	0x3e072ce2	0.13200715
217	0xbd93be4b	-0.0721403
218	0xbdf76d21	-0.120813616
219	0x3da576bf	0.0807929
220	0x3e05d767	0.1307045
221	0xbd2f195b	-0.04274879
222	0xbe515a7b	-0.20444672
223	0x3eed627a	0.46364194
224	0x3d4e37ec	0.0503463
225	0x3d1ac68c	0.037787005
226	0xbd918098	-0.071046054
227	0x3e38303a	0.17987147
228	0x3d21010d	0.039307643
229	0x3e27105d	0.16314836
230	0x3ed5deb7	0.4177148
231	0x3c9a2893	0.018818175
232	0xbe04704d	-0.12933464
233	0x3e51e4ea	0.2049748
234	0xbecc5450	-0.39908075
235	0xbe6015b4	-0.21883279
236	0x3d17b4b3	0.037037563
237	0xbc5fa513	-0.013650197
238	0x3e965c9f	0.2936754
239	0xbc3807c2	-0.011232318
240	0xbd098074	-0.033569768
241	0xbcfbb9ab	-0.030728182
242	0x3bb64b28	0.0055631585
243	0x3cc8328c	0.024438165
244	0xbbdb6cc3	-0.006696315
245	0xbcd978da	-0.026546884
246	0x3bc0ad02	0.005879999
247	0xbd2c0977	-0.042001214
248	0xbcc8a2cb	-0.024491688
249	0xbc1d23e5	-0.009591077
250	0xbb3e6dfb	-0.0029057253
251	0x3c3c3cc3	0.011489096
252	0xbaffc82b	-0.0019514611
253	0xbcdbba58	-0.026822254
254	0x3c896df7	0.016776068
255	0x3cdad6d5	0.026713768

se_block_event.0.2.bias f4 [64]
0	0x3c8f5c6a	0.017500121
1	0xbc47ed6a	-0.0122026
2	0xbd8bc65d	-0.06824944
3	0xbdf36f30	-0.11886442
4	0x3df07735	0.11741487
5	0x3d1fd3a3	0.039020192
6	0xbe1f715e	-0.1557059
7	0xbc9d362f	-0.019190876
8	0xbdf9805d	-0.121826865
9	0x3beeb247	0.007284436
10	0xbdd3332b	-0.10312494
11	0xbb33772c	-0.0027384264
12	0x3cce2983	0.025166279
13	0x3e5e7bb8	0.21726882
14	0xbdec0f05	-0.11526302
15	0x3c194571	0.009354935
16	0xbded9ae2	-0.11601807
17	0xbd9a3687	-0.075299315
18	0xbbf56d3e	-0.0074898293
19	0x3e10b8df	0.14133023
20	0xbe3629b4	-0.17789346
21	0x3cf2147f	0.029550789
22	0xbda0bf1d	-0.07848952
23	0x3e18bc63	0.14915614
24	0x3c9e5a2d	0.019330109
25	0x3ba00a9f	0.0048840786
26	0x3e2e88f4	0.17044431
27	0x3dfcd837	0.12345927
28	0x3d7f76a0	0.06236899
29	0x3de1840e	0.110115156
30	0x3da5db5a	0.080984786
31	0x3e4032ff	0.18769453
32	0x3cebd1ad	0.028786505
33	0x3c608c94	0.013705391
34	0x38cb1515	9.683721e-05
35	0x3c463ff3	0.012100208
36	0x3c744e90	0.014911309
37	0xbc0095f0	-0.007848248
38	0x3daa2807	0.08308416
39	0x3c9abd3a	0.018889058
40	0x3d3d98a7	0.04628816
41	0x3dca04f0	0.09864223
42	0x3d5849bf	0.052804705
43	0x3d290021	0.04125989
44	0xbd51bc60	-0.05120504
45	0xbd0f121a	-0.034929372
46	0x3c4a6d7d	0.012355206
47	0xbc067485	-0.008206491
48	0x3ddd4470	0.10804069
49	0xbd22dd1a	-0.03976164
50	0x3c8581a6	0.016297173
51	0x3d80032f	0.06250607
52	0xbe83794f	-0.2567849
53	0xbdb4dc6a	-0.08831103
54	0x3d14286f	0.036171373
55	0xbd55fe91	-0.052244727
56	0x3d0a62d5	0.03378566
57	0xbd219a3b	-0.039453726
58	0xbd5f0a7f	-0.05445337
59	0x3ea13451	0.31485227
60	0xbd17dad6	-0.037073933
61	0x3c2df1c5	0.010616724
62	0x3ce9583e	0.02848446
63	0x3de1ae38	0.11019558

se_block_event.1.0.weight f4 [16, 64]
0	0xbdc5ddea	-0.096614674
1	0x3dcc7286	0.09982781
2	0xbdb00914	-0.085954815
3	0xbdc1a5f0	-0.09455478
4	0xbdb94134	-0.0904564
5	0xbb8ebbe9	-0.0043558967
6	0x3e3f5bb2	0.18687323
7	0xbdb0591e	-0.08610748
8	0xbf113633	-0.56723326
9	0xb98ebeb1	-0.00027226427
10	0x3df32eea	0.118741825
11	0x3dbdba47	0.09264045
12	0x3ca4316a	0.020043094
13	0xbd9083df	-0.070564024
14	0xbeda0379	-0.42580774
15	0xbd995680	-0.07487202
16	0x3d1ee4e6	0.038792513
17	0xbe524c6e	-0.20536968
18	0xbd398ef4	-0.045302346
19	0xbd0ce82e	-0.03440111
20	0x3be67483	0.0070329322
21	0xbb40e31a	-0.0029432238
22	0x3dbad61b	0.091228686
23	0x3db13de1	0.086543806
24	0xbe289c7a	-0.16465941
25	0xbd64fd14	-0.055905417
26	0xbcf76e7a	-0.030204047
27	0xbd80dc58	-0.06292027
28	0xbd991cb6	-0.07476179
29	0xbcc2734e	-0.023736622
30	0xbb0339c8	-0.0020023454
31	0x3eb72c7d	0.3577613
32	0x3bb3eef6	0.005491133
33	0xba58f783	-0.0008276628
34	0x3bbe6637	0.005810525
35	0xba79e6f3	-0.00095330103
36	0xbbcf488b	-0.0063257865
37	0x3c6ceaaf	0.01446025
38	0xbda31f73	-0.07964983
39	0x3dba98f6	0.09111206
40	0xbdad5e07	-0.084652
41	0x3d991af6	0.074758455
42	0x3eacde56	0.3376338
43	0xbd8b378a	-0.067977026
44	0x3d3bded5	0.045866806
45	0x3d0c1625	0.034200806
46	0xbc1cd399	-0.009571933
47	0xbca3c775	-0.01999257
48	0xbd74f718	-0.05980596
49	0xbe08a18a	-0.13342872
50	0xbe8ff0af	-0.28113315
51	0xbaa3aff0	-0.0012488347
52	0xbf09d30f	-0.53837675
53	0xbd6d27f8	-0.057899445
54	0xb926cf20	-0.00015908154
55	0x3dea03da	0.11426516
56	0xbe23614d	-0.15955086
57	0x3de6ee48	0.11275917
58	0xbd6527a2	-0.055946
59	0x3e95098c	0.29108846
60	0xbbfc90a3	-0.0077076717
61	0xb9345a01	-0.00017199667
62	0x3e343db3	0.17601661
63	0xbbadc579	-0.0053030816
64	0xbe05d322	-0.13068822
65	0xbe66d5cf	-0.22542499
66	0xbe26a1c4	-0.16272646
67	0xbe5293b9	-0.20564164
68	0xbe2932f2	-0.1652334
69	0xbde3e4f2	-0.11127652
70	0x3d901d1e	0.07036804
71	0xbc21d841	-0.009878219
72	0x3cb24b18	0.021764323
73	0xbd296302	-0.041354187
74	0xbd75ccb0	-0.06000966
75	0x3e4ea278	0.20179164
76	0xbdd1189d	-0.10209773
77	0x3dbacd9d	0.09121249
78	0x3d083e5c	0.033262596
79	0xbda99fc6	-0.082824275
80	0xbd1d770f	-0.03844362
81	0x3d56d983	0.05245353
82	0x3cef2662	0.029193107
83	0xbd63c7e9	-0.05561057
84	0xbb62fb30	-0.0034634583
85	0x3ced574b	0.028972289
86	0xbddd020d	-0.10791407
87	0x3d6a2819	0.057167146
88	0x3d93c194	0.072146565
89	0x3cc5e291	0.024155887
90	0x3e2c2837	0.16812216
91	0xbd321e5e	-0.04348599
92	0xbbd3015e	-0.006439372
93	0xbe00cd8f	-0.12578414
94	0x3c921331	0.017831417
95	0x3a90a2a2	0.0011034796
96	0xbd453c33	-0.048153114
97	0x3b8b3c5a	0.004249138
98	0xbbc1de40	-0.005916387
99	0xbcbfb452	-0.023401413
100	0x3d043aef	0.032282766
101	0x3cc63c29	0.024198608
102	0x3d84ca86	0.06483941
103	0xbd61f8e3	-0.055168997
104	0xbd26750f	-0.04063898
105	0x3cae7388	0.021295324
106	0x3dbd4fac	0.09243712
107	0x3ddb9741	0.10722209
108	0xbd63b758	-0.055594772
109	0xbde62c52	-0.11238922
110	0x3d678083	0.056519043
111	0xbcfcc13d	-0.030853862
112	0x3dcc4806	0.09974675
113	0xbd820e6d	-0.06350408
114	0xbc8662a3	-0.016404456
115	0xbd8f82da	-0.0700738
116	0x3d99f349	0.07517106
117	0xbe3a58a7	-0.1819788
118	0xbdd1c9f8	-0.102436006
119	0xbd76d2b9	-0.060259555
120	0x3d564d2d	0.052319694
121	0xbba7f457	-0.005125563
122	0xbc522dec	-0.012828331
123	0x3dafc1a7	0.08581858
124	0xbde29eb0	-0.110654235
125	0xbd54ae91	-0.051924292
126	0x3d3c1022	0.045913823
127	0x3d3b2443	0.04568888
128	0xbd5fc9cb	-0.054635804
129	0xbd5a0179	-0.05322406
130	0xbddb4586	-0.1070662
131	0xbe13dfce	-0.14440843
132	0xbd58063d	-0.052740324
133	0x3b5e14bb	0.0033886868
134	0xbd0597e3	-0.032615554
135	0xbd0eba25	-0.03484549
136	0x3d84f9f5	0.06492988
137	0x3c5912f1	0.013249145
138	0xbb112936	-0.0022149808
139	0x3cfc4e06	0.030798923
140	0xbe33bfee	-0.17553684
141	0xbce7ed33	-0.028311348
142	0xbd891f97	-0.066954784
143	0xbd1b36a8	-0.03789392
144	0xbda36886	-0.07978921
145	0xbcba01b1	-0.022705885
146	0x3d74b156	0.059739433
147	0xbd42406d	-0.047424722
148	0x3d3539c3	0.04424454
149	0x3d18a9a5	0.03727116
150	0x3d9ec99f	0.077533
151	0x3daccc59	0.08437414
152	0x3d30223e	0.043001406
153	0xbca4ad69	-0.02010222
154	0x3db61870	0.0889138
155	0xbd568b6d	-0.05237906
156	0x3abde20e	0.0014486925
157	0xbd85e825	-0.06538419
158	0xbd2a0f4d	-0.0415185
159	0xbd599c76	-0.05312773
160	0xbdddcfe5	-0.10830668
161	0x3c962f5c	0.01833313
162	0xb9c182ec	-0.00036909373
163	0x3d11a00e	0.03555303
164	0xbdae153a	-0.085001424
165	0xbb9cba37	-0.0047829407
166	0x3d4f8d85	0.050672073
167	0xbe0fae14	-0.1403125
168	0xbd8fdec1	-0.07024909
169	0x3d27a42f	0.040928062
170	0x3dd734ed	0.10508142
171	0x3d99b597	0.07505339
172	0x3c5792cc	0.013157558
173	0xbd5da5dd	-0.054113258
174	0x3d58232a	0.05276791
175	0xbbdf6bcd	-0.006818271
176	0xbd511f79	-0.051055405
177	0xbe00e3e3	-0.12586932
178	0x3e4cd2ba	0.20002261
179	0x3da79ec2	0.081845775
180	0xbe5beb0f	-0.21476386
181	0xbd8f6d83	-0.070033096
182	0xbd4958b0	-0.049156845
183	0x3dc724fb	0.0972385
184	0xbdf55f88	-0.11981112
185	0x3dcb7337	0.09934085
186	0x3c4cd642	0.012502255
187	0x3dc1d5ef	0.09464633
188	0xbe91168a	-0.28337508
189	0xbc9c3851	-0.019069823
190	0x3d7b4526	0.061345242
191	0xbd25732f	-0.04039305
192	0xbcce7340	-0.02520144
193	0x3e6c8ac8	0.23099816
194	0xbdcb98b3	-0.099412344
195	0xbdf541ed	-0.11975465
196	0xbd97914e	-0.074007615
197	0x3d32c088	0.043640643
198	0xbcd4f7b9	-0.02599703
199	0x3dfc482b	0.123184524
200	0x3e4fac53	0.2028058
201	0x3c8e5d30	0.01737842
202	0xbe032cb7	-0.12810026
203	0xbdab4b84	-0.08364013
204	0xbde09e2f	-0.10967671
205	0x3e3ca6f1	0.18423058
206	0x3edf6427	0.43631098
207	0xbd41b06c	-0.04728739
208	0xbdbedf34	-0.09319916
209	0x3efdd20b	0.49574313
210	0x3c38a2a3	0.011269244
211	0xbe12ddaf	-0.14342378
212	0xbc072925	-0.008249556
213	0xbbd04d8a	-0.0063568996
214	0xbe1f42b8	-0.15552795
215	0x3d9cb850	0.07652342
216	0xbced36db	-0.028956821
217	0xbd762f09	-0.06010345
218	0x3e7cc34f	0.2468388
219	0x3e3d057b	0.18459122
220	0x3d1287ba	0.03577397
221	0xbd8301b8	-0.06396812
222	0x3dfee1b9	0.12445397
223	0xbe61eefd	-0.22063823
224	0xbcfaef12	-0.030631576
225	0xbaa130a7	-0.0012297825
226	0xbd56b765	-0.052420992
227	0x3ab0ac3d	0.0013479065
228	0x3dddda70	0.10832679
229	0xbd8f6524	-0.07001713
230	0xbdec41d2	-0.11535992
231	0x3c134712	0.008989112
232	0x3d136aac	0.035990402
233	0x3db8a79d	0.09016345
234	0x3da3779b	0.07981797
235	0xbcf7bedd	-0.030242378
236	0x3d46c1c1	0.048524622
237	0xbd72ea21	-0.059305314
238	0xbc9006fb	-0.017581454
239	0xbd6be93b	-0.057595473
240	0x3e2de23b	0.16980831
241	0xbe20f0b0	-0.15716815
242	0x3e6854b7	0.22688566
243	0x3cb4a4bd	0.02205121
244	0x3eeffc9a	0.46872407
245	0xbdc3aae2	-0.09554078
246	0x3ce2b3d5	0.027673641
247	0x3cc65073	0.024208283
248	0x3e86dee0	0.26341915
249	0xbd9dfa68	-0.07713777
250	0x3eab09d9	0.3340595
251	0x3ea0c50c	0.31400335
252	0xbb54b818	-0.0032458361
253	0x3c53dfe0	0.012931794
254	0xbd7aa1ef	-0.06118959
255	0x3c4e5872	0.012594329

se_block_event.1.0.bias f4 [16]
0	0xbe069b57	-0.13145195
1	0x3eea371a	0.45745164
2	0x3e0c3bab	0.13694637
3	0x3f1945f7	0.5987238
4	0x3ea2ad48	0.31772828
5	0xbd2e9d31	-0.04263038
6	0xbe72c524	-0.23708016
7	0x3dd8ff1c	0.10595533
8	0xbddbbb34	-0.107290655
9	0xbe145384	-0.14484984
10	0x3ea9b6fe	0.33147424
11	0xbdf00a34	-0.11720696
12	0x3e9bda2a	0.30439883
13	0x3f1ea482	0.6196977
14	0x3e9272df	0.28603265
15	0xbdd62d20	-0.10457826

se_block_event.1.2.weight f4 [64, 16]
0	0x3dc4ee68	0.09615785
1	0x3be7bb0a	0.0070718573
2	0x3ba3a129	0.004993577
3	0x3dd3592e	0.10319744
4	0x3cf20799	0.029544638
5	0xba39dae5	-0.0007089808
6	0x38eee1ac	0.00011390759
7	0xbd8d579a	-0.06901474
8	0x399930d1	0.00029218805
9	0x3db67f8a	0.08911045
10	0x3d2de83b	0.0424578
11	0x3cecddc1	0.028914334
12	0x3d2f8f3b	0.042861205
13	0xb9f54631	-0.00046782338
14	0x3da74b88	0.08168703
15	0x3e089459	0.1333784
16	0xbe7b4b10	-0.24540353
17	0x3e503071	0.20330979
18	0x3dc669a1	0.09688116
19	0x3ec2c72b	0.38042578
20	0x3c2c4202	0.010513784
21	0x3d8b20d6	0.06793372
22	0xbe3613d1	-0.17780997
23	0x3d44a261	0.04800642
24	0xbde4f15f	-0.111788504
25	0xbd916ba4	-0.07100609
26	0x3e734da5	0.23760088
27	0x3cab1c44	0.020887502
28	0x3e5820b6	0.21106228
29	0x3ea75e11	0.32688954
30	0x3def5b8a	0.116873816
31	0x3c1186b9	0.008882218
32	0xbce61da2	-0.028090302
33	0x3c8047e4	0.01565928
34	0x3ca6b1ee	0.020348515
35	0x3dda2080	0.1065073
36	0x3b39b392	0.0028335792
37	0x3bb51246	0.00552586
38	0x3bb36baa	0.005475481
39	0xbd199115	-0.037491877
40	0x3b375fc9	0.0027980676
41	0xbb845816	-0.004038821
42	0x3d29641a	0.04135523
43	0xbc3774af	-0.011197253
44	0x3d9f9378	0.07791799
45	0x3bd17665	0.0063922876
46	0x3d2f0a1f	0.04273426
47	0xbc39f7c0	-0.011350572
48	0x3d4c04eb	0.049809378
49	0x3d6732d6	0.056444965
50	0x3c4a9f65	0.012367104
51	0x3d50b410	0.05095297
52	0x3b498113	0.00307471
53	0xbc1c0758	-0.009523235
54	0xbc15e921	-0.009149821
55	0xbb56cd3c	-0.0032776138
56	0xbb2ab71f	-0.002604909
57	0x3d0583b2	0.032596298
58	0x3da97580	0.082743645
59	0xbc079fef	-0.008277877
60	0x3dfb275d	0.12263367
61	0x3cb9cf0b	0.022681734
62	0x3d36ac19	0.04459772
63	0xbd40686d	-0.04697459
64	0x3e321c49	0.17393602
65	0x3d27c62d	0.04096048
66	0x3c2e283e	0.010629712
67	0x3c820060	0.01586932
68	0x3d33189f	0.043724652
69	0xbc879209	-0.016549127
70	0xbae22997	-0.0017254826
71	0xbd055fee	-0.03256219
72	0xba1c2c3f	-0.0005957521
73	0x3de5a0ea	0.112123325
74	0x3d252f1b	0.040328126
75	0xbcda92f5	-0.026681403
76	0x3d7586e5	0.0599431
77	0x3c9b6eeb	0.018973788
78	0x3d5e13bb	0.054218035
79	0x3d8c983f	0.06864976
80	0xbaf10819	-0.0018389254
81	0x3b17e92e	0.0023179757
82	0xba7ca84a	-0.0009638114
83	0x3e2320c9	0.15930475
84	0x3cdb5609	0.026774423
85	0x3a818cc0	0.0009883866
86	0x00055800	4.90746e-40
87	0x3d1034b1	0.0352065
88	0x38353abb	4.320846e-05
89	0x80055a05	-4.9147e-40
90	0x3d0759e1	0.0330447
91	0xb9d50b15	-0.00040634783
92	0x3da9e277	0.08295148
93	0xb96b21b6	-0.00022423905
94	0x3b928176	0.0044709994
95	0x3ddcc3e9	0.107795544
96	0xbdae561f	-0.0851252
97	0x3cd6c703	0.026217943
98	0x3e58d30d	0.2117426
99	0x3d3aff4c	0.045653626
100	0x3e90a818	0.28253245
101	0x3d6944d7	0.056950416
102	0x3dd44165	0.103640355
103	0x3dc1767e	0.09446429
104	0x3e5de059	0.21667613
105	0x3eb7a78e	0.35870022
106	0xbc7f1607	-0.015569217
107	0x3e73f59a	0.23824158
108	0x3e68c884	0.2273274
109	0x3ece7ac6	0.40328044
110	0x3e490367	0.19630204
111	0xbe8a7f29	-0.2705014
112	0xbe19761f	-0.14986466
113	0x3daa3448	0.08310753
114	0x3dc545ef	0.096324794
115	0xbd4f85e3	-0.050664794
116	0x3e28689b	0.16446154
117	0xbcdf7890	-0.027279168
118	0xbd0b1a20	-0.03396046
119	0x3bda8fbc	0.0066699665
120	0xbcc4751a	-0.02398162
121	0x3d210ecd	0.039320756
122	0x3b9a6423	0.0047116443
123	0x3d83eeac	0.064420074
124	0x3d8eb1de	0.06967519
125	0xbd8627e0	-0.06550574
126	0xbe0c8567	-0.13722764
127	0xbdcdb94d	-0.10045109
128	0xbe49dbab	-0.19712703
129	0x3ec8068b	0.39067492
130	0x3dc3237d	0.09528253
131	0x3c9c15d7	0.019053383
132	0x3d891e03	0.066951774
133	0xbd94d27d	-0.0726671
134	0xbf109d2b	-0.5648982
135	0xbdf33e9c	-0.11877176
136	0xbcf247ca	-0.029575247
137	0xbecc9c3e	-0.39962953
138	0xbcd8488a	-0.026401777
139	0xbeb7cf7b	-0.35900483
140	0xbe54f56c	-0.20796746
141	0x3e943b66	0.28951567
142	0x3e0399c3	0.12851624
143	0xbe3b89c8	-0.18314278
144	0xb9414c49	-0.00018434333
145	0x3bb6667d	0.005566417
146	0x3a501635	0.00079378794
147	0x3dd43a5c	0.10362694
148	0x3bd4ea4d	0.0064976574
149	0xbab3f80a	-0.0013730538
150	0x8005627c	-4.94507e-40
151	0x3cb877eb	0.022518119
152	0xb8e34206	-0.00010836501
153	0xb6a630ff	-4.9528894e-06
154	0x3cbd6824	0.023120947
155	0xbb5e485b	-0.003391764
156	0x3d6d4ec8	0.05793646
157	0xba21d9fc	-0.0006174145
158	0x3a23a128	0.00062419707
159	0x3d831d7e	0.064021096
160	0x3e74741c	0.23872417
161	0x3d0c94f6	0.034321748
162	0x3d86098c	0.0654479
163	0x3d1bc3d8	0.038028568
164	0x3d4176c3	0.0472324
165	0x3ca0612d	0.019577587
166	0x3e2af99a	0.16696778
167	0x3d133aaf	0.035944637
168	0x3d1eddff	0.03878593
169	0x3d9bd49a	0.0760891
170	0x3cfdf788	0.031001821
171	0x3db543ea	0.08850844
172	0x3d55dc75	0.052212197
173	0x3cff6ce5	0.031179855
174	0x3d57ad10	0.05265528
175	0x3d9dd819	0.07707233
176	0xbd9278bd	-0.07151935
177	0x3e154396	0.14576563
178	0x3eee33db	0.46523938
179	0xbc469f58	-0.012122951
180	0xbc7cf78c	-0.015439879
181	0x3e52da3e	0.20591065
182	0x3ec9d3d8	0.39419436
183	0x3c67edcf	0.014155819
184	0x3eb7b629	0.35881165
185	0x3e4cc58e	0.19997236
186	0x3e793d8f	0.24339889
187	0x3e78074a	0.2422153
188	0x3deb391f	0.11485504
189	0x3e9d354a	0.3070472
190	0x3d9ea03c	0.07745406
191	0xbf028042	-0.50976956
192	0x3d9c9e04	0.076473266
193	0x3d252d1e	0.04032623
194	0x3d363815	0.044487078
195	0x3da5a371	0.080878146
196	0xbc7e8ec2	-0.015536966
197	0xbb95ad90	-0.0045678094
198	0xbddb4250	-0.107060075
199	0xbb4eaa61	-0.003153466
200	0xbd520091	-0.05127007
201	0x3d91048e	0.07080947
202	0x3db4375b	0.08799621
203	0x3d19e087	0.03756764
204	0x3e0bb0d1	0.13641669
205	0x3ca65f7b	0.0203092
206	0x3d0bdf4c	0.0341485
207	0xbbd97913	-0.0066367476
208	0x3d8f66a0	0.07001996
209	0x3f0ab09a	0.5417572
210	0x3ea0e3e9	0.31423882
211	0xbe3981af	-0.18115877
212	0x3e1fced4	0.15606242
213	0x3d2499fa	0.040185906
214	0x3ec31e81	0.3810921
215	0xbb1b02c4	-0.0023652771
216	0x3da97eeb	0.08276161
217	0x3e6671b5	0.22504313
218	0x3f0bbbcf	0.5458345
219	0x3e09fc85	0.13475235
220	0x3eb43b43	0.35201463
221	0x3e94120d	0.28920022
222	0x3c9fd2e2	0.019509736
223	0xbe087fb0	-0.13329959
224	0xbd4a2e64	-0.049360648
225	0xbcbb4355	-0.022859255
226	0xbd10fee4	-0.035399333
227	0x3eb45ae1	0.35225585
228	0x3dc0c5ca	0.09412725
229	0xbbb34f76	-0.005472119
230	0xbd0d7b40	-0.03454137
231	0x3cc4cef2	0.02402446
232	0xbb312773	-0.002703157
233	0xbb452a6c	-0.00300851
234	0x3c70e7b2	0.014703678
235	0xbd00a235	-0.031404693
236	0x3d65d271	0.056108896
237	0x3d09732e	0.03355711
238	0x3da121d0	0.07867777
239	0x3eaf381d	0.342225
240	0x3e052e2f	0.13005899
241	0x3c3f5153	0.011677104
242	0x3b34a8bd	0.0027566396
243	0x3c90f1da	0.017693449
244	0x3d55ae23	0.052168023
245	0xbc24aae8	-0.010050513
246	0xb9f2556a	-0.00046221475
247	0xbd786f17	-0.06065282
248	0xbb1b09c3	-0.0023656941
249	0x3ddfea3a	0.10933347
250	0x3c0e3f21	0.008682043
251	0x3cd421c9	0.025895016
252	0x3d2f315e	0.04277169
253	0x3b85efc2	0.0040874192
254	0x3da87b90	0.08226693
255	0x3de08455	0.1096274

se_block_event.1.2.bias f4 [64]
0	0x3b5a1ebb	0.0033282477
1	0x3e6f6f25	0.23382242
2	0xbbcb53c8	-0.006205056
3	0xbd85221b	-0.06500646
4	0xbd939f73	-0.07208147
5	0x3c499972	0.012304651
6	0x3e8f52a1	0.27992728
7	0xbd3af426	-0.045642994
8	0x3f121514	0.5706341
9	0x3b7fa4dc	0.0039008176
10	0x3cb9462a	0.022616465
11	0x3e2f7f7e	0.17138478
12	0xbd02c429	-0.031925354
13	0x3e52c70a	0.2058374
14	0x3daa95b7	0.08329337
15	0xbd017bbd	-0.031612147
16	0x3d4487bc	0.04798101
17	0x3d7895b1	0.06068963
18	0x3b96de26	0.004604119
19	0xbab98dcc	-0.0014156639
20	0x3e72ae61	0.23699333
21	0x3bc43452	0.0059876824
22	0x3d182ad4	0.03715022
23	0x3a07705c	0.0005166584
24	0xbd8b9f90	-0.068175435
25	0xbb9d7c46	-0.0048060743
26	0x3e0806c7	0.13283835
27	0x3e38e252	0.18055084
28	0x3dfa2213	0.122135304
29	0x3c6d5870	0.014486417
30	0x3c3c7de7	0.011504627
31	0x3d8a7fcf	0.06762659
32	0xbd0c0d6f	-0.0341925
33	0x3b50065c	0.0031742072
34	0xba9f9a35	-0.0012176695
35	0x3c00f4fb	0.007870908
36	0x3c7e475b	0.015519942
37	0xbb965f72	-0.0045890147
38	0x3c0e9830	0.0087032765
39	0x3eb83844	0.35980427
40	0x3d5f4447	0.054508474
41	0xbd0745d6	-0.033025585
42	0x3ed61cd4	0.4181887
43	0x3a4a8457	0.00077254087
44	0x3eca6a51	0.39534238
45	0x3d3687de	0.044563167
46	0x3beac2df	0.0071643437
47	0x3c6c0bbe	0.014407096
48	0x3ededa2e	0.43525833
49	0xbca1ecaa	-0.01976617
50	0xbdc408d5	-0.09571997
51	0x3bec4ea7	0.0072115245
52	0x3e0c77a8	0.1371752
53	0xbbf27c54	-0.007400075
54	0x3c112083	0.008857849
55	0x3ed56e53	0.41685733
56	0x3e90e792	0.28301674
57	0x3cefbeb8	0.029265746
58	0x3e3d9874	0.18515188
59	0xbe30a29a	-0.17249528
60	0x3f0c9a29	0.5492273
61	0x3baf288d	0.00534541
62	0x3dfc417e	0.12317179
63	0x3db75b87	0.08953004

se_block_event.2.0.weight f4 [16, 64]
0	0x3d061c32	0.032741733
1	0x3d66268b	0.0561891
2	0x3d16b0da	0.036789753
3	0x3ca1239e	0.019670304
4	0x3ced3ae9	0.028958755
5	0x3dbea2f8	0.093084276
6	0xbcabf33a	-0.020990003
7	0xbcb4eb2c	-0.022084795
8	0xbc32f68c	-0.010923039
9	0x3d6e333d	0.058154333
10	0x3be91873	0.0071135103
11	0xbd1b6bf2	-0.03794474
12	0x3ceeffed	0.02917477
13	0xbbd29985	-0.0064269924
14	0x3c8e9353	0.017404234
15	0x3c2e20f6	0.010627976
16	0xbcc3c469	-0.023897367
17	0x3cebc89c	0.028782181
18	0xbb807155	-0.00391976
19	0xbd23aaf7	-0.039957967
20	0x3cdcb103	0.026939875
21	0x3d5e0d29	0.05421177
22	0x3c81f7dc	0.015865259
23	0x3d5ee2bd	0.054415453
24	0x3c866084	0.016403444
25	0xbb430fb7	-0.0029764005
26	0x3d69a933	0.057046127
27	0xbd18b6b0	-0.0372836
28	0xbd0a2e4a	-0.03373555
29	0x3c21359d	0.009839443
30	0x3da97f19	0.08276195
31	0x3d56fcd4	0.05248721
32	0xbdca3563	-0.09873464
33	0x3d36986c	0.044578955
34	0xba07955c	-0.00051720976
35	0x3d78d931	0.060754005
36	0x3d59806c	0.05310099
37	0x3bdf89fc	0.006821869
38	0xbce3df72	-0.027816508
39	0x3d30612a	0.043061413
40	0xbd9c05bc	-0.07618281
41	0x3ca4453a	0.020052541
42	0xbd092dd6	-0.03349098
43	0x3d2f5210	0.04280287
44	0x3d026d5f	0.031842586
45	0xbca938dd	-0.020656997
46	0x3d405f5f	0.046965953
47	0x3bd0cd6c	0.0063721444
48	0xbc931a5c	-0.017956905
49	0x3d859000	0.065216064
50	0xbbb86c36	-0.005628134
51	0x3dcb6938	0.09932178
52	0xbb3b56c8	-0.0028585661
53	0x3ce30f0e	0.02771714
54	0x3cba1eee	0.022719827
55	0x3cfc2c35	0.030782798
56	0xbbfb9b05	-0.007678392
57	0x3d199906	0.03749945
58	0x3d0ee3d2	0.034885235
59	0xbb86bed2	-0.004112103
60	0x3c8bfa33	0.017087078
61	0x3d80feb7	0.06298583
62	0x3c2ff54c	0.010739636
63	0xbdbce240	-0.09222841
64	0x3ce3f32f	0.02782592
65	0xbdd85be3	-0.10564401
66	0x3d8360c2	0.064149395
67	0x3cd36767	0.025806142
68	0xbcddc16b	-0.027069768
69	0x3e034918	0.12820852
70	0xbc0c17d3	-0.008550602
71	0xbd34c8e6	-0.044136904
72	0x3a5d9924	0.00084533007
73	0x3e1f0ab3	0.15531425
74	0x3d58cf5c	0.05293213
75	0x3d261de2	0.040555842
76	0x3e009a1c	0.12558788
77	0x3e606804	0.21914679
78	0x3c82c606	0.015963566
79	0xbac8f602	-0.0015332105
80	0x3d22e7e3	0.039771926
81	0xbc43bae2	-0.011946412
82	0x3d676906	0.056496643
83	0x3d19ce2a	0.03755013
84	0x3d12ddcf	0.035856064
85	0x3e192519	0.14955558
86	0x3dacb115	0.08432213
87	0x3e5c1e7f	0.21496008
88	0xbc467248	-0.012112208
89	0x3d0f6168	0.035005003
90	0x3e244801	0.16043092
91	0xbd3941a0	-0.0452286
92	0xbb4e7ae6	-0.0031506359
93	0x3d1d6d31	0.03843421
94	0x3e381a69	0.17978825
95	0xbcbda617	-0.023150487
96	0xbd690f37	-0.056899276
97	0x3e01cc34	0.12675554
98	0x3d0c262a	0.034216084
99	0x3e39ab4f	0.18131755
100	0x3d32cfe8	0.043655306
101	0x3d27b01e	0.040939443
102	0x3dc5ebc8	0.09664112
103	0x3d6b6a5f	0.05747449
104	0xbd978591	-0.07398523
105	0x3df39bd1	0.11894954
106	0xbc17e2cf	-0.009270384
107	0x3dda8182	0.10669233
108	0x3d0f5129	0.03498951
109	0xbc6d55e5	-0.014485811
110	0x3df6191f	0.1201651
111	0x3cf6cedd	0.030127937
112	0x3d8a0f8b	0.06741246
113	0x3ddd628f	0.10809814
114	0x3c419a1b	0.011816527
115	0x3e50b950	0.20383191
116	0xbca95f3c	-0.020675294
117	0x3d8092b0	0.062779784
118	0x3d4fc0b7	0.050720897
119	0xbc40684f	-0.011743619
120	0x3d5e37aa	0.054252304
121	0x3d7ebe19	0.06219301
122	0xbe0dd245	-0.13849743
123	0xbb88680f	-0.0041627954
124	0x3d9947d8	0.07484406
125	0x3e2b77a1	0.16744854
126	0xbc0080b4	-0.007843185
127	0xbe3e3ee3	-0.18578677
128	0xbd4848db	-0.048897605
129	0x3e41dc43	0.1893168
130	0xbd6ada4b	-0.057337087
131	0xbd789f45	-0.060698766
132	0xbd2dacf7	-0.04240128
133	0xbd753e5c	-0.059873924
134	0x3de8e081	0.11370946
135	0x3e283467	0.1642624
136	0x3e23767e	0.1596317
137	0xbd85898d	-0.06520376
138	0xbd3a724c	-0.04551916
139	0xbc0f5835	-0.008749058
140	0xbdb8ade6	-0.090175435
141	0x3d9f4ff4	0.07778922
142	0x3dbbcfa7	0.09170466
143	0xbc919e8e	-0.0177758
144	0xbd6c17e2	-0.057639964
145	0x3dbfca9c	0.093648165
146	0xbdafae06	-0.08578114
147	0x3da96ea8	0.08273059
148	0x3d387562	0.04503382
149	0xbd885f8d	-0.0665885
150	0xbdf8af32	-0.12142791
151	0xbd7884aa	-0.060673393
152	0xbcf649ab	-0.030064424
153	0xbd6f2d67	-0.05839291
154	0xbbc71748	-0.0060757734
155	0x3dfdfaca	0.1240135
156	0xbbba0003	-0.005676271
157	0xbd92e737	-0.07173007
158	0xbdbad730	-0.09123075
159	0x3eaee736	0.34160775
160	0x3dad33fc	0.08457181
161	0xbd3d59d9	-0.046228264
162	0xb96de504	-0.00022687396
163	0xbd92ea1b	-0.07173558
164	0xbc58f812	-0.013242738
165	0xbc9587c8	-0.018253222
166	0x3c24e8ef	0.010065301
167	0x3bd6c856	0.0065546436
168	0x3d6b522e	0.05745142
169	0xbda002e5	-0.07813052
170	0x3e4d77f2	0.20065287
171	0xbd74dc4d	-0.059780408
172	0x3db2aec8	0.08724743
173	0xbc4d0272	-0.01251279
174	0xbd4225b8	-0.047399253
175	0xbcf8b8d3	-0.030361569
176	0x3db954c4	0.09049371
177	0xbdcc89f4	-0.0998725
178	0x3d52ccfa	0.051465012
179	0xbde7914f	-0.11307012
180	0x3e2a5f57	0.16637932
181	0xbd3beb28	-0.04587856
182	0xbc9cdbcb	-0.019147774
183	0x3e55daf6	0.20884308
184	0xbd827314	-0.06369606
185	0xbda24665	-0.07923583
186	0x3d49fd4e	0.049313836
187	0xbdf7ed5c	-0.121058196
188	0x3db36d0c	0.087610334
189	0xbd932a10	-0.07185757
190	0x3de16ab0	0.11006677
191	0x3d74f2ec	0.05980198
192	0xbc705580	-0.014668822
193	0x3d68381d	0.05669414
194	0x3cfa2aa3	0.030537909
195	0xbca5eeba	-0.020255435
196	0xbba0091a	-0.0048838975
197	0x3dff05fb	0.124523126
198	0xba911548	-0.0011068964
199	0xbd309f27	-0.04312053
200	0xbc1895fd	-0.009313104
201	0x3d8651d7	0.065585785
202	0x3c9934dc	0.018701963
203	0x3d2d4e89	0.042311225
204	0xbba014bf	-0.0048852856
205	0x3d189c6e	0.037258558
206	0x3d96d5a2	0.07364966
207	0xbc5613ea	-0.013066271
208	0x3c2a6cf9	0.010401958
209	0x3db83d48	0.089960635
210	0xbb1437f9	-0.002261637
211	0xbd4bb728	-0.04973522
212	0x3cc49d99	0.02400093
213	0x3d704b85	0.05866577
214	0x3c587b24	0.013212953
215	0x3e033198	0.12811887
216	0xbaf55355	-0.0018716851
217	0xbb756306	-0.0037443056
218	0x3daf9827	0.08573943
219	0xbd2ef190	-0.04271084
220	0xbd692566	-0.05692043
221	0xbcca388c	-0.024685167
222	0x3df78e89	0.12087733
223	0x3dbbfe72	0.09179391
224	0xbdede5fd	-0.116161324
225	0x3d458cd8	0.048230022
226	0x39d31b9d	0.0004026563
227	0x3d902e62	0.07040097
228	0x3d883334	0.06650391
229	0x3cd5c44c	0.026094578
230	0x3c66aee3	0.014079782
231	0x3d81bc1b	0.063347064
232	0xbdee9464	-0.11649397
233	0x3cc50c58	0.024053738
234	0x3bf9ef9d	0.007627441
235	0x3d77538c	0.06038241
236	0x3d6c8005	0.057739276
237	0xbc8b187e	-0.016979452
238	0x3d5c2c32	0.053753085
239	0x3c4a4416	0.0123453345
240	0xbd09ecfa	-0.033673264
241	0x3d3010db	0.042984825
242	0x3cf14ccc	0.029455565
243	0x3df6ec86	0.12056832
244	0x3c85a11a	0.01631217
245	0x3c95cb4e	0.01828542
246	0x3cc72411	0.02430919
247	0x3b88f4c1	0.0041795676
248	0xbc728009	-0.014801034
249	0x3c80e33f	0.01573336
250	0x3d1be024	0.038055554
251	0xbabec12d	-0.001455342
252	0xbd4bc2fd	-0.049746502
253	0x3d8bce95	0.06826512
254	0xb8e64a6d	-0.000109811175
255	0xbdea4799	-0.114394374

se_block_event.2.0.bias f4 [16]
0	0xbe93cc08	-0.288666
1	0xbf1d7585	-0.61507446
2	0x3e9780c1	0.2959042
3	0xbe65c70e	-0.22439215
4	0x3ea71eb8	0.32640624
5	0xbe81749d	-0.2528428
6	0xbd0e0f77	-0.034682717
7	0xbdb85bad	-0.09001861
8	0xbedb0e5c	-0.42784393
9	0x3e51f971	0.2050531
10	0xbee976fd	-0.45598593
11	0xbea2f99f	-0.3183107
12	0xbe6c2693	-0.2306159
13	0xbe7a88ba	-0.2446622
14	0xbd96c69b	-0.073621
15	0xbe82bd86	-0.2553522

se_block_event.2.2.weight f4 [64, 16]
0	0x3cc2847c	0.023744814
1	0xbd246686	-0.040136836
2	0xbc6d26b1	-0.014474557
3	0x3d61dc07	0.055141475
4	0xbc1b4399	-0.009476566
5	0x3c83494e	0.016026165
6	0x3cbc6e08	0.023001686
7	0x3cfbc589	0.03073384
8	0x3cb513e9	0.02210422
9	0x3a16ff25	0.00057600654
10	0xbcbd0cab	-0.02307733
11	0x3c1ac13f	0.0094454875
12	0x3b06266f	0.0020469686
13	0x3d109aca	0.03530387
14	0x3bd25ca9	0.0064197374
15	0xbab304c1	-0.0013658033
16	0x3e1f2ad9	0.15543689
17	0x3cc5666d	0.024096692
18	0xbdb0cd1e	-0.08632873
19	0x3e108ede	0.14117
20	0xbe3afa3b	-0.18259518
21	0x3e48b792	0.19601277
22	0x3e113fa9	0.1418444
23	0x3dc1e0fe	0.09466742
24	0x3e6a0270	0.22852492
25	0xbe3f3bd9	-0.18675174
26	0x3e8ad5ac	0.27116144
27	0x3e6ef6fe	0.23336408
28	0xbdba17a0	-0.09086537
29	0x3dd58b92	0.104270115
30	0x3dae04bc	0.08496997
31	0x3e7d8d21	0.24760868
32	0x3bbeca28	0.0058224387
33	0x3ba3f9d9	0.0050041494
34	0x3b27801b	0.0025558535
35	0x3cf3eeec	0.029777013
36	0xbc3475c4	-0.011014406
37	0x3cb127a1	0.021625342
38	0x3bf82217	0.007572423
39	0x3ccb40b0	0.024811119
40	0x3c01d4a1	0.00792423
41	0xbb74cf68	-0.003735507
42	0x3ce0d44f	0.027444987
43	0x3c4ba949	0.012430497
44	0x3c5b5028	0.01338581
45	0x3bee4647	0.0072715613
46	0x3ab18812	0.001354458
47	0x3b81e5df	0.0039641703
48	0x3b096c57	0.0020969117
49	0xbca9ca66	-0.020726394
50	0x3c68679a	0.014184857
51	0xbb657b13	-0.0035015985
52	0xbbb8d275	-0.005640323
53	0xbc0b5427	-0.00850395
54	0x3d169dae	0.03677147
55	0xbb421f70	-0.002962079
56	0xb9c3a4d9	-0.0003731612
57	0xbd2cffac	-0.042236015
58	0xbd42a2b9	-0.047518466
59	0xbbf141e2	-0.00736259
60	0xbd7e369b	-0.062063795
61	0x3ae97c89	0.0017813604
62	0x3aa13741	0.0012299792
63	0x3b26a6ff	0.0025429127
64	0x3d4f8398	0.050662607
65	0xbd9d95a5	-0.07694558
66	0xbd77cf7b	-0.060500603
67	0x3d8ae998	0.06782836
68	0xbc5f4ccb	-0.013629149
69	0x3d822a2a	0.063556984
70	0x3d00a04c	0.03140287
71	0x3d85a2a9	0.065251656
72	0x3d939b04	0.07207301
73	0x3b35c27b	0.0027734328
74	0xbaf2952f	-0.0018507595
75	0x3d3b5ead	0.045744587
76	0x3d412dc8	0.0471628
77	0x3d428db4	0.04749842
78	0x3c9131e4	0.017723985
79	0xbc86013e	-0.016358014
80	0x3b80f621	0.003935591
81	0x3c779fa3	0.015113744
82	0x3d58cd93	0.052930426
83	0xbbfea669	-0.0077713025
84	0xbd34238b	-0.04397921
85	0x3b8a5aee	0.0042222654
86	0x3c8f8f56	0.017524403
87	0x3c05e63e	0.00817257
88	0x3c4f5893	0.012655395
89	0xbc1557aa	-0.009115139
90	0x3baa333e	0.005194097
91	0x3b87cd46	0.0041443435
92	0x3de50089	0.11181743
93	0x3a5eb1f8	0.00084951473
94	0x3b05fa93	0.0020443543
95	0x3c9a83d1	0.018861683
96	0xbc392c8f	-0.0113021275
97	0x3c6a841c	0.014313724
98	0xbded7efc	-0.11596486
99	0x3b1be8bf	0.002378985
100	0xbdd395ca	-0.10331304
101	0xbc42b220	-0.011883289
102	0x3d57d4a5	0.052693028
103	0xbbe1f1ce	-0.0068952804
104	0xbbbb074d	-0.0057076574
105	0xbe012a03	-0.12613682
106	0xbc8cbd12	-0.01718
107	0xbb865457	-0.0040994096
108	0x3dda773a	0.10667272
109	0xbc17138c	-0.009220969
110	0x3bfa5141	0.0076390808
111	0x3d3be04a	0.045868196
112	0xbc7d022a	-0.0154424105
113	0x3dde8dff	0.10866927
114	0xbd2bb8a3	-0.04192413
115	0xbdd7d4fc	-0.105386704
116	0x39d22b22	0.00040086458
117	0xbc8edc94	-0.017439164
118	0x3ccf96be	0.025340434
119	0xbd335c69	-0.0437893
120	0xbd436b64	-0.047709838
121	0xbd18dea6	-0.03732171
122	0x3dcb2b75	0.09920398
123	0xbd125bf3	-0.03573222
124	0x3e24ff9f	0.16113137
125	0xbcc8ea58	-0.024525806
126	0xbc6f5794	-0.014608283
127	0x3db9b704	0.090681106
128	0x3d95eca1	0.07320524
129	0x3e94f6ab	0.29094443
130	0x3d303cc9	0.04302672
131	0x3e0afa22	0.1357198
132	0xbe6e5c89	-0.23277487
133	0x3e1dde60	0.1541686
134	0x3e88d187	0.26722357
135	0xbbaa3274	-0.0051940028
136	0x3ea5bb9a	0.3236969
137	0xbdb17667	-0.086651616
138	0x3e907d6a	0.28220683
139	0x3e5cac7f	0.21550177
140	0xbe48e40d	-0.19618244
141	0x3d36758e	0.044545703
142	0x3d96eee5	0.07369784
143	0x3e7085ba	0.23488513
144	0x3aed702a	0.0018115093
145	0x3b28516f	0.0025683304
146	0x3c5e9895	0.013586183
147	0x3be386f9	0.00694358
148	0x3dbd1f5c	0.09234497
149	0x3a5509ba	0.00081267545
150	0x3b56b324	0.0032760585
151	0x3b0626e0	0.0020469949
152	0x39e2314f	0.00043142817
153	0x3d66577c	0.056235775
154	0x3a8bc499	0.0010663449
155	0x3a8120f9	0.0009851746
156	0x3c293891	0.010328428
157	0x3b433d70	0.0029791258
158	0x39bfa6e4	0.00036554702
159	0x39ed8cb1	0.00045308986
160	0xbba7e0bf	-0.0051232274
161	0x3af951a6	0.0019021526
162	0xbd80b2dc	-0.06284115
163	0xbbbbebf6	-0.005734916
164	0xbddcaf02	-0.107755676
165	0xbbf9dec6	-0.0076254336
166	0x3a5b6af4	0.0008370124
167	0xbbdf791d	-0.0068198578
168	0xbbdf5fdc	-0.0068168472
169	0xbdd2c38a	-0.10291202
170	0xbc309933	-0.010778713
171	0xbbb9824e	-0.0056612855
172	0x3ca1aef1	0.019736739
173	0xbb98edef	-0.004667036
174	0x3a4824f3	0.00076349004
175	0x3c2289d0	0.009920552
176	0x3ce4691f	0.027882157
177	0x3d364bee	0.044506006
178	0xbe324072	-0.17407396
179	0xbc43b958	-0.011946045
180	0x3dbe829c	0.093022555
181	0xbdb60485	-0.08887581
182	0x3d761717	0.060080614
183	0x3c25d2bb	0.010121043
184	0xbe11cd9c	-0.1423859
185	0xbdd50a96	-0.1040241
186	0xbdd934d6	-0.10605781
187	0xbda2df27	-0.07952719
188	0x3e68838a	0.22706428
189	0x3cf2b8ab	0.029629072
190	0x3c896df9	0.016776072
191	0x3c9fdf58	0.019515678
192	0x3ca2e528	0.01988466
193	0x3c7d2f08	0.015453108
194	0xbc902933	-0.01759777
195	0x3b01aede	0.0019788067
196	0x3ba8f21d	0.0051558153
197	0x3d02a155	0.03189214
198	0xbd06936f	-0.032855447
199	0x3c3588eb	0.011080007
200	0x3c1c4773	0.009538519
201	0xbd05c842	-0.032661684
202	0x3d08b81f	0.033378717
203	0x3cfb0ed3	0.030646717
204	0x3d3c2d05	0.04594137
205	0x3c3b98c3	0.011449995
206	0x3c2ee794	0.01067533
207	0xbc8f062c	-0.017458998
208	0x3d7355b8	0.05940792
209	0x3e021d87	0.12706576
210	0xbe3e7e3c	-0.18602842
211	0x3d3fb1bb	0.046800356
212	0xbe4ea9af	-0.20181917
213	0x3dda880c	0.1067048
214	0x3dbfca11	0.09364713
215	0x3d0cc1d3	0.034364533
216	0x3ddbc0e9	0.10730154
217	0xbde801a9	-0.11328442
218	0x3e0548e1	0.13016082
219	0x3e0c5dd7	0.13707672
220	0x3e15fd58	0.14647424
221	0x3d18c60e	0.037298255
222	0x3d70a51c	0.05875121
223	0x3e0a0441	0.13478185
224	0x3c6914c0	0.014226139
225	0x3e108072	0.14111498
226	0xbb728e0c	-0.0037010936
227	0xbb9e679f	-0.00483413
228	0xbe5df4dd	-0.21675439
229	0x3d5c39ed	0.05376618
230	0x3e7e7442	0.24849036
231	0xbd18b3e8	-0.037280947
232	0x3db7019c	0.08935854
233	0x3d63b4b5	0.055592258
234	0x3ddba633	0.10725059
235	0x3d1acf28	0.037795216
236	0x3e8aceb4	0.27110827
237	0xbc0d55e7	-0.008626438
238	0x3ad36000	0.0016126633
239	0x3e75d987	0.24008761
240	0x3c0f7bf2	0.008757578
241	0x3be71eb7	0.007053222
242	0x3bcd12ba	0.006258336
243	0x3cb4a7b6	0.022052627
244	0xbcafccbd	-0.021459932
245	0x3cb5458b	0.022127887
246	0x3ce43d1b	0.027861169
247	0x3c4e9c94	0.012610573
248	0x3c0e4391	0.008683101
249	0xbc80c9f9	-0.015721308
250	0x3d23bffe	0.03997802
251	0x3c7c8009	0.015411385
252	0x3a8774a2	0.0010334442
253	0x3c358e44	0.011081282
254	0x3b655426	0.0034992783
255	0x3c7569df	0.014978855
