parameters/deephit_model_original_Deephit.pth (torch, 142365 bytes, 12 tensors)

shared.0.weight f4 [128, 17]
0	0xbe4ee9db	-0.20206396
1	0xbd41d447	-0.047321584
2	0x3c8187c9	0.015811818
3	0xbddfa66d	-0.10920415
4	0xbcbf8e8a	-0.023383398
5	0xbd7a8c2f	-0.061168846
6	0x3c33be35	0.010970642
7	0xbdc2ef88	-0.09518343
8	0xbbde95ae	-0.0067927456
9	0x3d8ee176	0.06976597
10	0xbd936fe8	-0.07199079
11	0xbc58deef	-0.013236745
12	0xbdce6d6c	-0.10079464
13	0x3d54402c	0.05181901
14	0x3c957ef7	0.018249018
15	0xbdb810b8	-0.08987564
16	0x3e276688	0.16347706
17	0xbce9cfcb	-0.028541466
18	0x3e105b2e	0.14097282
19	0xbe345e1a	-0.17614022
20	0xbdeeb40f	-0.11655437
21	0xbe5d5093	-0.21612768
22	0xbdfee3dd	-0.12445805
23	0xbe2cd9a2	-0.16879895
24	0xbd860bd0	-0.06545222
25	0xbe6014b2	-0.21882895
26	0xbdb3a85f	-0.087723486
27	0x3d9a7f0e	0.07543765
28	0xbe53357e	-0.20625874
29	0xbe6705fa	-0.22560874
30	0xbcd8d9f9	-0.026471125
31	0x3d8cb02b	0.06869539
32	0xbd4b8eb3	-0.049696635
33	0xbdafb330	-0.08579099
34	0xbf15aeac	-0.58469653
35	0xbe65408c	-0.22387904
36	0xbe09de24	-0.13463646
37	0xbd761864	-0.060081854
38	0xbadd9c7b	-0.0016907597
39	0xbe1d7281	-0.15375711
40	0x3c5ed1fb	0.013599868
41	0x3cd3aadc	0.025838308
42	0x3d76f2fd	0.060290325
43	0x3ddb8296	0.10718267
44	0x3db57758	0.08860654
45	0x3f13b183	0.57692736
46	0x3e81b068	0.253299
47	0x3d89207e	0.066956505
48	0x3cb217c1	0.021739842
49	0xbf076dce	-0.52901924
50	0x3ee5fd9f	0.4492006
51	0x3d27e54a	0.04099015
52	0xbe5049b2	-0.20340613
53	0xbdf290a3	-0.118439935
54	0xbe69a583	-0.22817044
55	0xbe7b24be	-0.24525735
56	0xbdc3ad4b	-0.095545374
57	0xbacfaee4	-0.0015844968
58	0xbeb76adb	-0.35823712
59	0x3daef256	0.08542316
60	0xbe81884f	-0.25299308
61	0x3d63e491	0.0556379
62	0x3d9e2764	0.07722357
63	0x3cf92084	0.030411012
64	0xbdf756c7	-0.12077098
65	0xbe5eae04	-0.21746069
66	0xbd359737	-0.044333663
67	0x3dabb724	0.08384541
68	0x3ca80cf0	0.020513982
69	0x3d732080	0.059357166
70	0xbe435816	-0.19076571
71	0xbdeaf766	-0.11472969
72	0xbe5d5fc4	-0.21618563
73	0x3e694f38	0.22784126
74	0x3dadc640	0.08485079
75	0x3e3c44e0	0.18385649
76	0xbd83272a	-0.06403954
77	0xbd84ac48	-0.064781725
78	0xbd76693c	-0.060158953
79	0x3d8358f8	0.06413454
80	0x3dc1cd2c	0.094629616
81	0xbe22176c	-0.15829247
82	0xbdda7398	-0.10666579
83	0xbe091510	-0.13386941
84	0xbe25857f	-0.16164206
85	0xbe87c254	-0.26515448
86	0xbf1b510a	-0.6067053
87	0xc056b120	-3.3545609
88	0xbd8788ed	-0.066179134
89	0xbe55dd20	-0.20885134
90	0xbd07815c	-0.03308235
91	0x3c29238d	0.010323417
92	0xbde61ade	-0.11235593
93	0xbe314717	-0.17312275
94	0xbfcabded	-1.5839211
95	0x3ec3ad53	0.38218173
96	0x3f71834d	0.94340974
97	0xbfe4ac27	-1.7865037
98	0xbd22c7c3	-0.03974129
99	0x3e0d1a9f	0.13779686
100	0x3e7c239d	0.2462296
101	0x3e760eb0	0.2402904
102	0xbec0e600	-0.37675476
103	0xbf3c2529	-0.734942
104	0x3f2c3a07	0.6727604
105	0xbb92673c	-0.004467873
106	0x3d310a07	0.043222453
107	0xbd96c881	-0.07362462
108	0xbdd2a0dc	-0.10284588
109	0x3dc679f3	0.09691229
110	0x3d322e2b	0.04350106
111	0xbdd7e87c	-0.1054239
112	0x3d8098fc	0.062791795
113	0x3eaec29f	0.3413286
114	0xbe66d0a9	-0.22540535
115	0xbc590b0d	-0.013247264
116	0xbcb4c26e	-0.022065368
117	0xbeb03239	-0.34413317
118	0x3da04bf9	0.07826991
119	0xbef64c53	-0.48105106
120	0x3eb1bafc	0.3471297
121	0x3d742835	0.059608657
122	0xbe0dc03a	-0.1384286
123	0xbd41ed92	-0.047345705
124	0xbddb4826	-0.107071206
125	0x3e07cb23	0.13261084
126	0xbdf99d7c	-0.12188241
127	0xbdc337fe	-0.09532164
128	0x3dad04e0	0.084481955
129	0x3d329fdb	0.04360948
130	0x3ed78239	0.4209154
131	0xbe77a52e	-0.24184105
132	0x3e825137	0.25452587
133	0xbd6fec77	-0.05857512
134	0xbf09ffa6	-0.53905714
135	0x3eceb60a	0.4037326
136	0xbe1b8065	-0.15185697
137	0x3f8da363	1.1065487
138	0xbf4d503d	-0.8020056
139	0x3e70b9c2	0.23508361
140	0xbc0162c7	-0.0078970855
141	0xbc64806a	-0.013946632
142	0x3eb5a287	0.3547556
143	0xb84b0479	-4.8403137e-05
144	0xbdcf5d17	-0.10125177
145	0x3d23beef	0.03997701
146	0xbc8626d2	-0.016375933
147	0xbe07d6e4	-0.13265568
148	0xbd2c5e6f	-0.042082246
149	0x3d99fab7	0.07518523
150	0x3ce3305a	0.027733017
151	0x3e9b053a	0.30277425
152	0x3eb89ca5	0.3605701
153	0xbef5a922	-0.479806
154	0xbf4ee157	-0.8081259
155	0xc034bab6	-2.823896
156	0xbd8d627f	-0.06903552
157	0xbd57366e	-0.052542143
158	0xbe0811b8	-0.13288009
159	0x3e2fe9b5	0.17178996
160	0xbdca7165	-0.098849095
161	0xbd0af0dc	-0.033921108
162	0xbf2b60d5	-0.6694463
163	0x3e6d7e08	0.23192608
164	0x3f994587	1.1974343
165	0xbfb7d194	-1.4360833
166	0x3d81f347	0.063452296
167	0xbdadbd20	-0.08483338
168	0x3e4bc882	0.19900706
169	0xbe1e9aed	-0.15488787
170	0xbe7f1de9	-0.24913754
171	0x3c49f613	0.012326735
172	0xbc839c5d	-0.01606577
173	0x3c137aeb	0.009001474
174	0xbc89a4db	-0.016802242
175	0xbe27ed1f	-0.16399048
176	0xbe83ea6c	-0.25764787
177	0xbe15dd39	-0.14635171
178	0x3e91b5d4	0.28459036
179	0xbdc1fe64	-0.09472349
180	0xbf99bb6d	-1.2010323
181	0xbe1e03af	-0.15431093
182	0xbe823538	-0.25431228
183	0xbd5fb150	-0.054612458
184	0xbdc6c68c	-0.097058386
185	0xbda7b8b9	-0.0818953
186	0x3e2b0abb	0.16703312
187	0xbcfa8d51	-0.030584963
188	0x3e2a7e0e	0.16649649
189	0x3f048a29	0.51773316
190	0xbdb1e202	-0.08685686
191	0xbc93683d	-0.01799404
192	0x3db5be22	0.088741556
193	0xbe654652	-0.22390106
194	0xbc93e1d2	-0.018052015
195	0xbecd2a25	-0.40071216
196	0xbd0c5163	-0.034257304
197	0xbf322638	-0.6958957
198	0x3d5ee971	0.054421846
199	0xbf63f772	-0.89049447
200	0x3cb595d0	0.022166163
201	0x3aeb644e	0.001795897
202	0xbc79cdf2	-0.015246855
203	0xbe0575f6	-0.1303328
204	0xbea59c7e	-0.32345957
205	0xbedf96d8	-0.43669772
206	0x3f026fe8	0.50952005
207	0xbdf7fe70	-0.12109077
208	0xbe98b0b6	-0.2982232
209	0x3cfef9e2	0.031125013
210	0xbe93b859	-0.28851584
211	0xbdb0f456	-0.086403534
212	0xbe4af6ab	-0.19820659
213	0xbf0e3fdc	-0.5556619
214	0xbed2cf7a	-0.41173917
215	0xbe82b726	-0.25530356
216	0xbeae13ac	-0.33999383
217	0xbc9deedb	-0.019278934
218	0xbdce6cca	-0.100793436
219	0x3e32369a	0.17403641
220	0x3dfc063c	0.123058766
221	0xbbb3bd1f	-0.0054851915
222	0x3ea533e6	0.32266158
223	0xbf21c69a	-0.63193667
224	0xbc339c7f	-0.010962605
225	0x3e64c674	0.22341329
226	0x3e07922d	0.13239355
227	0xbe6c8d1c	-0.23100704
228	0xbdcd4799	-0.10023422
229	0x3f12c97a	0.5733868
230	0xbb862bce	-0.0040945774
231	0xbf857c9e	-1.0428655
232	0xbd78c28a	-0.060732402
233	0x3e9104ec	0.28324068
234	0xbc6016eb	-0.013677339
235	0xbaa6ad98	-0.001271653
236	0xbe0d832e	-0.13819572
237	0x3dbc6c59	0.09200353
238	0x3e17fe65	0.14843138
239	0x3f2d8110	0.6777506
240	0x3da9e43f	0.082954876
241	0x3cd2ab18	0.02571635
242	0x3e57bb97	0.21067654
243	0xbcf30868	-0.029667094
244	0x3dad02fc	0.08447835
245	0x3c902149	0.017593997
246	0xbeeb9f9a	-0.46020204
247	0x3e32694c	0.1742298
248	0xbe67058f	-0.22560714
249	0xbd066741	-0.032813314
250	0xbf0881ed	-0.5332325
251	0x3dc3c6aa	0.095593765
252	0x3ccddcff	0.025129793
253	0xbaf899cd	-0.0018966735
254	0xbe3cf780	-0.18453789
255	0xbe209bbd	-0.1568441

shared.0.bias f4 [128]
0	0xbdda97d2	-0.10673489
1	0x3d13ee26	0.036115788
2	0xbae42fc2	-0.0017409252
3	0xbe8c23dc	-0.2737111
4	0xbe72f08c	-0.23724574
5	0xbc79cdb9	-0.015246802
6	0xbe5b4e7a	-0.21416655
7	0x3d16be37	0.036802497
8	0x3ec9ac0a	0.39389068
9	0x3e362b03	0.17789845
10	0xbec1bba7	-0.3783848
11	0xbff819b1	-1.938284
12	0xbfb6c881	-1.4279939
13	0x3f76ed3b	0.96455735
14	0xbfaa3f3d	-1.3300549
15	0xbf8b936c	-1.0904365
16	0x3dd51077	0.10403531
17	0x3f1b08cc	0.605603
18	0x3ed38093	0.41309032
19	0x3e744332	0.23853758
20	0xbf0b3726	-0.54381025
21	0x3f01cb22	0.5070058
22	0x3e257951	0.1615956
23	0xbef33a3d	-0.4750537
24	0x3eab9e1b	0.33519062
25	0x3e4ee792	0.20205525
26	0xbd7e10b3	-0.062027644
27	0xbfbc88af	-1.4729213
28	0x3f27ad38	0.65498686
29	0x3d5442c4	0.051821485
30	0x3e01dd8d	0.12682171
31	0xbe5a9b22	-0.21348241
32	0x3e2a888c	0.16653651
33	0x3ebcb158	0.36854053
34	0x3d9422f0	0.07233226
35	0x3f39ca23	0.7257406
36	0xbcf3049b	-0.029665282
37	0x3e4dd88e	0.2010214
38	0x3de4c01a	0.11169453
39	0x3f0762c0	0.52885056
40	0xc005da78	-2.0914593
41	0xbe64c332	-0.22340086
42	0x3f21dee9	0.6323076
43	0xbe686f42	-0.22698691
44	0xbf9d83a3	-1.2305797
45	0xc02f69b8	-2.7408276
46	0xbdc42d38	-0.09578937
47	0x3e2800c0	0.16406536
48	0xbc450636	-0.012025407
49	0x3f5b16a7	0.8558144
50	0xbfdeba6a	-1.7400639
51	0x3ee506a0	0.44731617
52	0xbf31b8ae	-0.69422424
53	0xbcf05168	-0.029335693
54	0xbdf99a92	-0.12187685
55	0xbe3e90cf	-0.18609928
56	0x3ed8acf1	0.42319444
57	0xbf9abcd0	-1.2088871
58	0x3e0cd724	0.13753945
59	0x3fa942ee	1.322355
60	0x3ec358c1	0.3815365
61	0xbf795d7e	-0.9740828
62	0x3f6cfadc	0.9257028
63	0x3b264d12	0.0025375527
64	0xbd986e3a	-0.07442899
65	0xbe5738f3	-0.21017818
66	0xc00112ca	-2.0167718
67	0xbe75e196	-0.24011835
68	0x3e4b909a	0.1987938
69	0xbfb2dfdc	-1.3974566
70	0x3f86dd63	1.0536312
71	0xbf93bd1d	-1.1542088
72	0xbf6fa187	-0.93605846
73	0xc003c6e5	-2.0590146
74	0xbddc2625	-0.10749463
75	0xbe8fed41	-0.28110698
76	0x3e180a00	0.14847565
77	0xbe6c6837	-0.2308663
78	0xbf9c5f20	-1.221653
79	0xbe836127	-0.2566006
80	0xbd2319ab	-0.0398194
81	0xbfcdc4c2	-1.6075671
82	0xbe2ce8bf	-0.1688566
83	0xbd06d8a0	-0.032921433
84	0xbff33aaf	-1.9002284
85	0x3e362c5a	0.17790356
86	0xbf65e7b3	-0.8980667
87	0xbf8756bf	-1.0573348
88	0x3ecb7b69	0.39742592
89	0x3e0dd9d2	0.13852623
90	0x3e4cf954	0.20016986
91	0x3ed466a3	0.41484556
92	0xbfa6f250	-1.3042698
93	0xbe99ede9	-0.30064324
94	0xbef954f8	-0.4869764
95	0xbed8e6d5	-0.4236361
96	0xbdd42779	-0.10359091
97	0xbdf724ee	-0.12067591
98	0xc0183f71	-2.3788722
99	0x3e469930	0.19394374
100	0x3ed8a3e4	0.4231254
101	0x3e2864dc	0.16444725
102	0x3e238de4	0.15972096
103	0x3e5b27dc	0.21401924
104	0x3dc95b89	0.09831912
105	0x3fc17b95	1.5115839
106	0x3f4934b9	0.78596073
107	0xbfc76b09	-1.557954
108	0x3e55f3bc	0.20893759
109	0x3e886076	0.26636094
110	0xbe075da0	-0.13219309
111	0x3eb06b50	0.34456873
112	0x3d9d8f59	0.07693357
113	0xbe6acb5c	-0.22929138
114	0x3e9d1124	0.3067714
115	0x3de3e139	0.11126942
116	0xbdc8a7da	-0.0979764
117	0xbfa8b51d	-1.3180271
118	0x3e1a028d	0.15040036
119	0x3cc06c5a	0.023489166
120	0x3d9c21f5	0.07623664
121	0xbda2df32	-0.079527274
122	0xbfcf8627	-1.6212815
123	0xbe0639b3	-0.13107948
124	0x3e0be36d	0.13660975
125	0xbdfd7409	-0.123756476
126	0xbe0e8bac	-0.13920468
127	0x3ec01906	0.3751909

shared.3.weight f4 [64, 128]
0	0xbb7cdb34	-0.0038582804
1	0x3d0cd486	0.034382366
2	0xbf766c25	-0.96258765
3	0x3c8e4b63	0.017369932
4	0x3b1b0460	0.002365373
5	0xbbe3fde1	-0.006957755
6	0xbc5e396a	-0.013563493
7	0xbf0a26ef	-0.5396566
8	0xbe8088ae	-0.25104278
9	0xbde9a0c1	-0.114076145
10	0xbe9baf8e	-0.30407375
11	0x3d96f8d1	0.07371677
12	0xbd918fdb	-0.071075164
13	0xbd90e683	-0.070752166
14	0x3d2f034c	0.042727754
15	0x3c982cbb	0.018576017
16	0xbc864cf9	-0.016394125
17	0xbe3a9311	-0.18220164
18	0xbeef522b	-0.46742377
19	0xbd877513	-0.06614127
20	0x3de0d661	0.109783895
21	0xbf83bda2	-1.0292246
22	0xbe8939b4	-0.26801836
23	0x3d085b62	0.033290274
24	0xbdffc62e	-0.12488972
25	0x3c91cf7c	0.017799132
26	0x3dfe5b61	0.12419773
27	0xbb8081b7	-0.003921713
28	0xbf8e09b0	-1.1096706
29	0xbd652b7f	-0.055949684
30	0xbd5b0d21	-0.053479318
31	0xbe338ced	-0.17534228
32	0x3da978b7	0.08274978
33	0xbdfa7f72	-0.122313395
34	0x3cc0d5de	0.02353948
35	0xbd395465	-0.0452465
36	0xbc74dcc1	-0.01494521
37	0x3c13e16d	0.009025914
38	0x3d08be23	0.033384454
39	0xbfa2c2bd	-1.271568
40	0x3e3ddf53	0.18542223
41	0xbd8125c4	-0.06306031
42	0xbf331eda	-0.6996895
43	0x3b244888	0.0025067646
44	0x3d148802	0.03626252
45	0x3c1d4149	0.009598085
46	0xbd68c285	-0.056826133
47	0xbf12fd24	-0.5741751
48	0xbf0617c4	-0.52380013
49	0xbe393a48	-0.18088639
50	0x3e354595	0.17702325
51	0xbcfd0b2f	-0.030889122
52	0xbb99577e	-0.0046796193
53	0x3e2fb6de	0.17159602
54	0xbd69198f	-0.05690914
55	0x3e06db09	0.13169493
56	0xbf885403	-1.0650638
57	0x3df7e59b	0.12104341
58	0xbe519d80	-0.20470238
59	0xbd18aba3	-0.03727306
60	0xbce088d2	-0.027408991
61	0xbd198c8b	-0.037487548
62	0xbe050c68	-0.12993014
63	0xbeb80d17	-0.35947487
64	0x3b90bd92	0.00441713
65	0xbcb01b8d	-0.021497512
66	0xbe53d21c	-0.20685619
67	0x3e5db22a	0.21649995
68	0x3d688026	0.056762837
69	0x3dc77214	0.097385556
70	0xbfadc225	-1.3574873
71	0x3df8b0d4	0.12143102
72	0xbe17df45	-0.14831264
73	0xbe9c301d	-0.30505458
74	0xbf6d51c3	-0.92702883
75	0xbee1362c	-0.43986642
76	0xbc51d942	-0.012808146
77	0x3d66d226	0.056352757
78	0xbed52c12	-0.41635185
79	0xbd331907	-0.04372504
80	0xbeac4a7d	-0.3365058
81	0xbd035ac1	-0.03206897
82	0xbd5d5d2f	-0.054043945
83	0xbd0cb83d	-0.03435539
84	0x3d08e1bc	0.033418402
85	0xbdefc73b	-0.11707922
86	0xbebdf09f	-0.37097642
87	0x3e473813	0.19454984
88	0xbf8d924e	-1.1060274
89	0xbe84a119	-0.25904158
90	0xbe1e2770	-0.15444732
91	0xbf0124cc	-0.5044677
92	0x3df5a412	0.119941846
93	0x3d6e71dd	0.058214057
94	0xbeebb617	-0.4603736
95	0xbe6dd4f0	-0.2322576
96	0xbf4b562b	-0.79428357
97	0xbf6c3ae1	-0.9227734
98	0xbbe7006a	-0.00704961
99	0x3d36b5bd	0.044606913
100	0xbfc92add	-1.5716206
101	0x3e271364	0.1631599
102	0xbb4b98a0	-0.0031066313
103	0xbfa79fbb	-1.3095621
104	0x3da3e8f0	0.08003414
105	0xbe04a439	-0.12953271
106	0xbdbdd246	-0.09268622
107	0xbe53b879	-0.2067584
108	0xbd05250d	-0.032506038
109	0xbfbd0479	-1.476699
110	0xbf734161	-0.95021635
111	0xbf1f402e	-0.62207305
112	0xbf64046a	-0.89069235
113	0xbd0a11a0	-0.033708215
114	0x3c9eb24e	0.019372132
115	0x3cdc8e99	0.026923465
116	0xbbb4bb73	-0.0055155098
117	0xbcb20903	-0.021732813
118	0xbd7f8a8d	-0.06238799
119	0xbe0e23fd	-0.13880916
120	0xbe110ac6	-0.14164266
121	0xbe8adfcb	-0.27123865
122	0xbe64c350	-0.22340131
123	0xbdd42db1	-0.103602774
124	0x3d9891ba	0.0744967
125	0xbd997b28	-0.07494193
126	0xbd2ce8d4	-0.04221423
127	0xbefdd41a	-0.49575883
128	0x3d78af03	0.06071378
129	0xbd664972	-0.056222387
130	0xbf25c523	-0.6475393
131	0xbb93c728	-0.0045098253
132	0x3d75c146	0.059998773
133	0xbcb7703c	-0.022392385
134	0xbd42f3ab	-0.04759566
135	0xbec09b3a	-0.37618428
136	0xbe8a6346	-0.27028865
137	0xbdc4fc10	-0.096183896
138	0x3a832daa	0.0010008116
139	0xbcd56374	-0.0260484
140	0xbdd36cee	-0.10323511
141	0xbeac54e5	-0.3365852
142	0x3ce0d889	0.027447002
143	0x3cb930e7	0.022606326
144	0x3ccdcad6	0.025121134
145	0xbf004ec8	-0.5012021
146	0xbf24ca19	-0.64370877
147	0xbe09a450	-0.13441586
148	0xbd91071d	-0.07081435
149	0xbf223a1e	-0.6336993
150	0xbf0453c6	-0.5169033
151	0xbe6daf18	-0.23211324
152	0x3ce964ef	0.028490512
153	0xbd62732d	-0.05528562
154	0xbd32521b	-0.043535333
155	0x3d95dfdf	0.07318091
156	0xbf8cec4c	-1.1009612
157	0x3d9f51df	0.077792875
158	0xbd5ba049	-0.053619657
159	0xbf4a496e	-0.79018295
160	0x3d2b9d0a	0.04189781
161	0xbd82e258	-0.06390828
162	0x3cf767e9	0.030200915
163	0xbf71dfbf	-0.94482034
164	0x3d6bca43	0.05756594
165	0xbd797454	-0.060901955
166	0xbdc68438	-0.096931875
167	0xbfc9c892	-1.5764334
168	0x3c9d07ba	0.019168723
169	0xbe1296e6	-0.14315376
170	0xbf986dd5	-1.1908518
171	0xbdb7c771	-0.08973587
172	0xbc4dd681	-0.012563349
173	0x3c6f5054	0.014606554
174	0xbea01f63	-0.31273946
175	0xbecdfebd	-0.40233412
176	0xbe14bb3a	-0.14524546
177	0xbe9665a2	-0.29374415
178	0x3de40e61	0.11135555
179	0x3c1af32c	0.009457391
180	0xbd7e58d1	-0.06209642
181	0xbeb1c61a	-0.34721452
182	0x3d3e85d2	0.04651434
183	0x3d02b0ca	0.03190688
184	0xbf879de5	-1.059506
185	0xbed78dc6	-0.42100352
186	0xbedcd11e	-0.43128294
187	0xbff57001	-1.9174806
188	0xbe03a8ca	-0.12857357
189	0xbdb3f7d5	-0.087875046
190	0xbfecc501	-1.8497621
191	0xbef246df	-0.47319695
192	0xbe048043	-0.12939553
193	0xbdb111ce	-0.08645974
194	0xbc8f3433	-0.017480945
195	0xbe95ba31	-0.29243615
196	0x3d69a372	0.05704064
197	0x3ca870fb	0.020561686
198	0xbf9494c3	-1.1607898
199	0xbf3ccdf1	-0.7375174
200	0xbd1e30de	-0.038620822
201	0x3db93337	0.090429716
202	0xbe9b4144	-0.3032323
203	0xbe7d9a9d	-0.24766012
204	0xbd50ba46	-0.050958894
205	0x3c2c8bc8	0.010531373
206	0x3e00c3e2	0.12574723
207	0xbdcce2d6	-0.10004203
208	0xbf3dab7f	-0.7408981
209	0x3d6d5806	0.057945274
210	0xbd2c56da	-0.042075016
211	0xbdf8b795	-0.121443905
212	0x3dad8a19	0.08473606
213	0xbe96b97b	-0.29438385
214	0xbf928e7a	-1.144973
215	0x3c8b842c	0.017030798
216	0xbf3af506	-0.73030126
217	0xbe7fc7d0	-0.24978566
218	0xbf058c2b	-0.52167004
219	0xc01d4b81	-2.4577334
220	0xbd572718	-0.052527517
221	0xbdcdef29	-0.10055382
222	0xbf11a312	-0.5688945
223	0xbf89005d	-1.0703236
224	0xbf8624f2	-1.0480025
225	0xbeed4b3e	-0.46346468
226	0x3c1139d3	0.008863884
227	0xbd5132cc	-0.051073834
228	0xbf8ce984	-1.1008763
229	0xbd967742	-0.073469654
230	0x3b6a0cc0	0.0035713166
231	0xbf6d05b1	-0.9258681
232	0x3cc320f4	0.023819424
233	0xc034f663	-2.8275383
234	0xc03a880c	-2.9145536
235	0xbce8a576	-0.02839921
236	0xbe0b3459	-0.13594188
237	0xc01e5519	-2.473944
238	0xbf3d3288	-0.7390523
239	0xbf4a0dcf	-0.7892732
240	0xbe5f1b0d	-0.21787663
241	0xbd4c257d	-0.04984044
242	0xbe10d014	-0.14141876
243	0xbdbd535c	-0.09244415
244	0xbdb01a41	-0.085987575
245	0x3dc1037a	0.09424491
246	0x3c1ea1e3	0.0096821515
247	0xbe16ca87	-0.14725696
248	0xbe83c11f	-0.25733277
249	0xbe3a3039	-0.18182458
250	0x3e32d42f	0.17463754
251	0xbd9cb136	-0.07650988
252	0x3c2f91f2	0.010715948
253	0xbd84158e	-0.06449424
254	0x3c71b310	0.0147521645
255	0xbef0f4b2	-0.47061688

shared.3.bias f4 [64]
0	0x3dd433b3	0.10361423
1	0xbe40327c	-0.18769258
2	0xbfb2dcce	-1.3973634
3	0xbfa43044	-1.282723
4	0xbf8714c5	-1.0553213
5	0xbf98c74c	-1.193582
6	0x3ea02c8d	0.3128399
7	0xbfa0674c	-1.2531524
8	0xbf6e97f9	-0.9320064
9	0xbfb9a6b6	-1.4504001
10	0xbfc73929	-1.5564319
11	0xbe3bbf2c	-0.18334645
12	0x3d386ecc	0.04502754
13	0xbe67de90	-0.22643495
14	0xbfd5ef60	-1.6713676
15	0xbfa02a9c	-1.2513003
16	0xbfa0923a	-1.2544625
17	0xbfb214ec	-1.3912635
18	0x3dd2b525	0.10288457
19	0x3ccaf27c	0.024773829
20	0xbe9f4f1b	-0.3111504
21	0xbf20f772	-0.6287757
22	0xbf7c3adb	-0.98527306
23	0xbf75f39c	-0.96074843
24	0xbfc9f7fa	-1.5778801
25	0xbf87f2f5	-1.062102
26	0xbf867d39	-1.0506965
27	0xbf95c001	-1.169922
28	0xbcbec4df	-0.023287235
29	0xbf6aa222	-0.91653645
30	0xbe9ab783	-0.30218133
31	0xbfa9673e	-1.3234632
32	0xbee3e8f8	-0.4451368
33	0xbf5ae34d	-0.85503083
34	0xbb9ef7f1	-0.0048513343
35	0x3f00e049	0.5034223
36	0x3e633031	0.22186352
37	0xbe8796cf	-0.26482245
38	0xbebbe315	-0.36696687
39	0x3ececd6b	0.40391096
40	0x3ee6ffa8	0.45116925
41	0x3dfdd658	0.123943985
42	0xbec71179	-0.38880518
43	0xbecee1d8	-0.4040668
44	0xbfbe3657	-1.4860333
45	0x3ec0f42c	0.37686288
46	0xbd6160b3	-0.05502386
47	0xbfd8c6a8	-1.6935625
48	0x3dcff361	0.10153843
49	0xbf7ac353	-0.9795429
50	0x3ddd46d4	0.10804525
51	0xbf06a9c1	-0.52602774
52	0xbdc725d6	-0.097240135
53	0xbfaa8d13	-1.3324302
54	0xbfccda3a	-1.6004097
55	0x3e875fd9	0.26440313
56	0xbf686524	-0.9077933
57	0x3f4f7a31	0.81045824
58	0xbf9caf62	-1.2241023
59	0x3e8d5a26	0.2760784
60	0x3ddddfd9	0.10833711
61	0xbfcf3c1b	-1.6190218
62	0xbf793ad3	-0.97355384
63	0x3d964b4c	0.073385805

heads.0.weight f4 [91, 64]
0	0xbe145452	-0.1448529
1	0x3d0cd96d	0.03438704
2	0xbf82a163	-1.0205501
3	0xbf9f712e	-1.2456415
4	0xbff60653	-1.922068
5	0xbf87ceeb	-1.0610021
6	0xc04cbf7d	-3.1991875
7	0xbfa51e0b	-1.2899793
8	0xc0ad3bd3	-5.4135528
9	0xbf80bfdc	-1.0058551
10	0xbfb1b18d	-1.3882309
11	0xbdd1d9ff	-0.102466576
12	0xc0c496cb	-6.1434073
13	0xc1471ec3	-12.44501
14	0xbfc602ee	-1.5469644
15	0xbf0827e4	-0.5318587
16	0xbf403d4c	-0.7509353
17	0xbf4f54c8	-0.8098874
18	0xc0a65fff	-5.1992183
19	0x3d7eda7a	0.062220074
20	0xc0e36ed4	-7.107279
21	0xbf26cf3e	-0.65159976
22	0xbf5b4650	-0.85654163
23	0xbf04b255	-0.51834613
24	0xbf990d85	-1.1957251
25	0xbf8a0724	-1.0783429
26	0xbeecface	-0.462851
27	0xbf4b9bbe	-0.7953452
28	0xbe238f3d	-0.1597261
29	0xbf0901bd	-0.5351828
30	0xbdc0579e	-0.09391712
31	0xbf0cebf2	-0.55047524
32	0x3d1ee47f	0.03879213
33	0xc05372a6	-3.3038726
34	0xbd2b4bb5	-0.041820247
35	0xbf84031a	-1.0313447
36	0xc086b1d1	-4.209206
37	0xbcdd824b	-0.027039668
38	0x3d5350aa	0.0515906
39	0xc04da464	-3.2131586
40	0xc068bdcc	-3.6365843
41	0xc04ada18	-3.1695614
42	0xbd1d8b0d	-0.038462687
43	0xc0825d8c	-4.0739193
44	0xbf922b06	-1.141938
45	0xc03f62ca	-2.9904046
46	0xc133056f	-11.188827
47	0xbfe22832	-1.7668517
48	0xbc965788	-0.018352285
49	0xbfa7ee7f	-1.3119658
50	0xc039f730	-2.9057121
51	0xc057bffa	-3.3710923
52	0x3d582386	0.052768253
53	0xbf6db9bc	-0.92861533
54	0xbf9f7be6	-1.2459686
55	0xbbc98677	-0.0061500627
56	0xbf4336c8	-0.76255465
57	0xbf81709f	-1.0112494
58	0xbf82d96d	-1.0222603
59	0xbe066e7e	-0.13128087
60	0xbf15f0de	-0.5857066
61	0xbf80e846	-1.0070884
62	0xbfb532ba	-1.4156106
63	0xc0efd5ca	-7.4948473
64	0xbdad6434	-0.08466378
65	0xbdfbbc08	-0.122917235
66	0xbf8177dc	-1.0114703
67	0xbf93d745	-1.155007
68	0xc014069d	-2.3129036
69	0xbfd61010	-1.6723652
70	0xc0658d81	-3.5867617
71	0xbfc9e011	-1.5771505
72	0xc0babf36	-5.835841
73	0xc00818ac	-2.1265059
74	0xbfe2817c	-1.7695765
75	0xbdb37c16	-0.08763902
76	0xc0bcd67f	-5.9011836
77	0xc1526caf	-13.151534
78	0xbfda4633	-1.7052673
79	0xbfaeeb12	-1.3665488
80	0xbf76ebf4	-0.96453786
81	0xbfdaa890	-1.7082691
82	0xc09d4878	-4.9150963
83	0xbe02bde7	-0.12767754
84	0xc0aa8ee1	-5.3299413
85	0xbf83eab0	-1.0305996
86	0xbfa103dd	-1.2579304
87	0xbf34057a	-0.70320857
88	0xbfc92d07	-1.5716866
89	0xbffccd64	-1.975018
90	0xbf3a0679	-0.72666126
91	0xbf8ad740	-1.0846939
92	0xbe23b99f	-0.15988778
93	0xbf9fb3da	-1.2476761
94	0xbd8b7376	-0.06809132
95	0xbfaef5c1	-1.3668748
96	0xbcec42df	-0.02884048
97	0xc0963303	-4.693727
98	0xbda3f270	-0.08005226
99	0xbf6fa676	-0.93613374
100	0xc0c3f15e	-6.123214
101	0xbdb91688	-0.090375006
102	0xbdd0fc5e	-0.10204385
103	0xc01c41b3	-2.44151
104	0xc0440ec6	-3.0634017
105	0xc08d301e	-4.4121237
106	0xbc911e9a	-0.017714787
107	0xc09cfa67	-4.9055667
108	0xbfc9a481	-1.5753328
109	0xc006a61b	-2.1038883
110	0xc16db694	-14.857075
111	0xc0061beb	-2.095454
112	0xbb4f3586	-0.0031617596
113	0xbfca6226	-1.5811203
114	0xc091811b	-4.54701
115	0xc0480fe1	-3.1259692
116	0xbd855b9c	-0.06511614
117	0xbfb3c554	-1.4044595
118	0xc02067cc	-2.5063353
119	0xbc68226a	-0.014168361
120	0xbfbe7ed3	-1.4882454
121	0xbf9ab2f6	-1.2085865
122	0xbfe243b0	-1.7676907
123	0xbe631568	-0.22176135
124	0xbf147410	-0.579896
125	0xbfa40f19	-1.2817107
126	0xbfc23c03	-1.5174564
127	0xc0c4216c	-6.12908
128	0xbdf2281a	-0.11824055
129	0xbe14944a	-0.14509693
130	0xbfa8a084	-1.3173985
131	0xbfb3c83e	-1.4045484
132	0xc004857d	-2.0706475
133	0xbfb33d7a	-1.4003136
134	0xc07ec53d	-3.9807885
135	0xbfc015a9	-1.500661
136	0xc0ba31f3	-5.8185973
137	0xbfb2be78	-1.3964376
138	0xc0645daf	-3.568218
139	0xbdea6202	-0.11444475
140	0xc09e6632	-4.949975
141	0xc165f395	-14.371968
142	0xbfd3510e	-1.6509111
143	0xbf8937b6	-1.0720127
144	0xbfe16ea2	-1.7611887
145	0xbfb4b256	-1.4116924
146	0xc0c0fa63	-6.030565
147	0xbebc3a9d	-0.36763468
148	0xc0aa2f47	-5.318271
149	0xbf8b2130	-1.0869503
150	0xbfb5cdb7	-1.4203404
151	0xbf0f6d21	-0.5602589
152	0xbfe725d8	-1.8058424
153	0xbfd967a3	-1.6984752
154	0xbfa76848	-1.3078699
155	0xbfb71996	-1.4304683
156	0xbe07c933	-0.13260345
157	0xbfa2e4d2	-1.272608
158	0xbd998a19	-0.07497043
159	0xc004a82a	-2.072764
160	0xbdd7d0d6	-0.10537879
161	0xc0592568	-3.392908
162	0xbdcb46d7	-0.09925621
163	0xbf475ee8	-0.7787919
164	0xc0bea30b	-5.9574027
165	0xbe49ae2e	-0.1969535
166	0xbe01012e	-0.12598106
167	0xc019c457	-2.4026086
168	0xc09c37ae	-4.881797
169	0xc057bf82	-3.3710637
170	0xbda1317e	-0.07870768
171	0xc09a0a1e	-4.813735
172	0xbfa2c4c4	-1.2716298
173	0xbfe6580a	-1.7995617
174	0xc16c5bfc	-14.772457
175	0xbfdde321	-1.7334939
176	0xbc7bbdb6	-0.015365055
177	0xbfdd7275	-1.7300555
178	0xc0ad8a51	-5.4231343
179	0xc084365b	-4.131635
180	0xbdde9ad3	-0.10869374
181	0xbfb21510	-1.3912678
182	0xc0356747	-2.8344285
183	0xbc49b44b	-0.012311052
184	0xbfdbc100	-1.7168274
185	0xbf872093	-1.0556816
186	0xbf9ea62a	-1.2394459
187	0xbea34eb7	-0.31895992
188	0xbf202702	-0.6255952
189	0xbfad2422	-1.3526652
190	0xbfbe0621	-1.484562
191	0xc0c5cb5c	-6.181074
192	0xbdcbdb0e	-0.09953891
193	0xbe92c0c3	-0.2866269
194	0xbfa90992	-1.3206046
195	0xbfa7148e	-1.3053148
196	0xc027c547	-2.6214159
197	0xbfd759ae	-1.6824243
198	0xc08351b0	-4.1037216
199	0xbfad5395	-1.3541132
200	0xc0c05eaa	-6.0115557
201	0xbff3cef4	-1.9047532
202	0xc00eb9bf	-2.230087
203	0xbe1241e8	-0.14282954
204	0xc0eaf803	-7.342775
205	0xc15a2f62	-13.636568
206	0xbff76299	-1.9326965
207	0xbf956548	-1.1671534
208	0xbfe85caa	-1.8153279
209	0xbfbbbf48	-1.466775
210	0xc0cad5a6	-6.33858
211	0xbec19432	-0.37808377
212	0xc0b2563d	-5.573027
213	0xbf9fce9a	-1.2484925
214	0xbff8be64	-1.9433103
215	0xbf38edf8	-0.7223811
216	0xbfb3b7ab	-1.4040426
217	0xbfbe3735	-1.4860598
218	0xbf82577d	-1.0182949
219	0xbfc77d5d	-1.5585133
220	0xbe155f7f	-0.1458721
221	0xbfd55023	-1.6665081
222	0xbddf7822	-0.109115854
223	0xc0217b24	-2.523141
224	0xbe6fbb75	-0.23411353
225	0xc0761b15	-3.845403
226	0xbe1d992c	-0.15390462
227	0xbf3c8e7f	-0.7365493
228	0xc0a9322e	-5.2873755
229	0xbe940689	-0.28911236
230	0xbe7565c4	-0.23964602
231	0xc01c33e3	-2.440667
232	0xc065eaee	-3.592464
233	0xc096dad1	-4.714211
234	0xbdd50452	-0.10401215
235	0xc09cda1c	-4.9016247
236	0xbfcb55a7	-1.5885514
237	0xbfe7c46e	-1.810682
238	0xc15d1756	-13.818197
239	0xc02d4244	-2.7071695
240	0xbda89216	-0.08230989
241	0xbfd1b713	-1.6383995
242	0xc0af605f	-5.480514
243	0xc04bfa8a	-3.1871667
244	0xbe355d87	-0.17711459
245	0xbfe1f043	-1.7651447
246	0xbfb9b6cf	-1.4508914
247	0x3c48bce1	0.0122520635
248	0xc004b196	-2.073339
249	0xbf86e024	-1.0537152
250	0xbffa251f	-1.9542578
251	0xbe958ed2	-0.29210526
252	0xbefab1e4	-0.48963845
253	0xbfe3e29f	-1.7803534
254	0xbfba9919	-1.4577972
255	0xc10ca3e5	-8.790013

heads.0.bias f4 [91]
0	0x3edd6b78	0.43246055
1	0xbb9535ab	-0.004553517
2	0x3d0ea08e	0.034821086
3	0x3e9ff815	0.3124396
4	0x3e63ac17	0.22233616
5	0x3e3acb49	0.1824161
6	0x3e859f58	0.26098132
7	0x3f047eb7	0.5175585
8	0x3f002b93	0.5006649
9	0x3ece2dcc	0.40269315
10	0x3f01ce2a	0.50705206
11	0x3ede2feb	0.43395934
12	0x3f2976ca	0.6619688
13	0x3eaf7ed0	0.34276438
14	0x3e9bd5d2	0.3043657
15	0x3ea65983	0.32490167
16	0x3ef48994	0.47761214
17	0x3dc7c69b	0.09754678
18	0x3e48bd20	0.19603395
19	0xbc194d9c	-0.009356882
20	0x3e7c1363	0.2461677
21	0x3e956104	0.2917558
22	0x3de82d6f	0.11336791
23	0x3ea0a582	0.31376272
24	0x3e30aaf2	0.1725271
25	0x3ddf525f	0.10904383
26	0x3d8d49c5	0.06898836
27	0x3e7a8fcc	0.24468917
28	0x3e2d32a8	0.16913855
29	0x3dd37d86	0.10326676
30	0xbdeb6a5e	-0.11494897
31	0x3df02e41	0.11727572
32	0xbd4396f6	-0.04775139
33	0xbbdd2dd8	-0.0067498498
34	0xbdbfb7e7	-0.093612485
35	0x3b85ac75	0.0040793964
36	0xbe0601d8	-0.13086641
37	0xbe7c4e69	-0.24639286
38	0x3cad8eef	0.02118632
39	0xbe029290	-0.12751222
40	0xb982e7f1	-0.00024968342
41	0x3e1c86b9	0.15285768
42	0xbdaadac2	-0.08342506
43	0xbe14f375	-0.14545996
44	0x3dc0a410	0.094062924
45	0xbe4808aa	-0.19534555
46	0x3db492ec	0.088170856
47	0xbe9db955	-0.3080546
48	0xbe3ec482	-0.1862965
49	0xbd57f08f	-0.05271965
50	0xbcb5a567	-0.022173597
51	0xbdaedcc7	-0.08538204
52	0x3df8a6cb	0.12141188
53	0xbd9ffbde	-0.07811712
54	0xbe06ae89	-0.13152517
55	0xbe5087da	-0.20364323
56	0x3e59cbdb	0.21269171
57	0xbe5b6e6a	-0.21428838
58	0xbd864061	-0.06555248
59	0xbee7c21f	-0.4526529
60	0xbe88848a	-0.2666362
61	0xbe8d4cb2	-0.27597576
62	0xbdc55ef1	-0.09637249
63	0xbd5d2ced	-0.053997923
64	0xbe883f29	-0.26610687
65	0xbed04952	-0.4068094
66	0x38836577	6.265466e-05
67	0xbe5394f1	-0.20662285
68	0xbe466440	-0.1937418
69	0xbee81e37	-0.45335552
70	0xbe123173	-0.14276676
71	0xbdf519ba	-0.119677976
72	0xbca04fe9	-0.019569354
73	0xbf13bb5e	-0.57707775
74	0xbd06a551	-0.0328725
75	0xbdaa3553	-0.08310952
76	0x3d6ca931	0.05777854
77	0xbdae0d84	-0.08498672
78	0x3e69ea7a	0.22843352
79	0x3e7b0dc3	0.24516968
80	0x3f87f2b7	1.0620946
81	0x3d93f470	0.07224357
82	0x3cf0021e	0.029297885
83	0x3f9a31f4	1.2046494
84	0x3ea966a6	0.33086127
85	0x3e92649f	0.28592393
86	0x3e852464	0.26004326
87	0xbea694e1	-0.3253546
88	0xbf345814	-0.70446897
89	0x3f012af6	0.5045618
90	0xbfc6007f	-1.5468901

heads.1.weight f4 [91, 64]
0	0x3d4e4d6e	0.05036681
1	0x3d4a618f	0.049409445
2	0xc01ec806	-2.4809585
3	0xbf8ccaf2	-1.0999434
4	0xc0268e6c	-2.6024427
5	0xc02dc586	-2.7151809
6	0xc0c3ec06	-6.1225615
7	0xc021a4fd	-2.525695
8	0xc0a6338f	-5.193794
9	0xc06b6f96	-3.6786857
10	0xc07ebf3b	-3.9804218
11	0xbe649e87	-0.22326098
12	0xc0c51de0	-6.159897
13	0xc12c3d62	-10.764986
14	0xc02c1615	-2.6888478
15	0xc0015e7f	-2.0213926
16	0xc080de67	-4.0271487
17	0xbfba1941	-1.4538957
18	0xc0fe06d3	-7.938333
19	0x3d472ab2	0.0486247
20	0xc0b4fb7b	-5.6556983
21	0xbff3e7ca	-1.9055111
22	0xc03dee60	-2.9676743
23	0xbfd3091e	-1.6487157
24	0xc0904f84	-4.5097065
25	0xc00ec4b4	-2.2307558
26	0xbfac164f	-1.3444308
27	0xc063e802	-3.5610356
28	0xbe99732e	-0.29970688
29	0xbfc6511a	-1.54935
30	0xbe40ad9b	-0.18816225
31	0xc0177f90	-2.3671608
32	0x3c05753a	0.008145625
33	0xc0cde9aa	-6.4347734
34	0xbe5198ff	-0.2046852
35	0xbf77b8ca	-0.9676634
36	0xc12f5ac8	-10.959663
37	0xbd41d922	-0.047326215
38	0x3d6d6ec3	0.05796696
39	0xc07df53b	-3.9680927
40	0xc10c31f1	-8.762193
41	0xc103239e	-8.196196
42	0xbd9865ef	-0.07441317
43	0xc0a74d89	-5.2282147
44	0xc0481d79	-3.1267989
45	0xc03cd504	-2.9505014
46	0xc16eedc9	-14.933053
47	0xc0768bdc	-3.8522863
48	0xbe0fd051	-0.1404431
49	0xbfa31777	-1.2741536
50	0xc116ecb7	-9.432792
51	0xc0a4448e	-5.1333685
52	0xbd307602	-0.04308129
53	0xc0132a65	-2.2994626
54	0xc09dc41c	-4.930189
55	0xbdf0d05d	-0.11758492
56	0xbff1913f	-1.887245
57	0xbf19f9aa	-0.6014658
58	0xc02d6a14	-2.7095995
59	0xbe4fa67c	-0.20278352
60	0xbf79aeb7	-0.9753222
61	0xc08baa4e	-4.364539
62	0xbffd9152	-1.9809973
63	0xc127642d	-10.461957
64	0x3d0c97c2	0.034324415
65	0xbe6e34f1	-0.23262383
66	0xc06d4627	-3.7074068
67	0xbf8bd0dd	-1.0923115
68	0xc0584698	-3.3793087
69	0xc02cdc80	-2.7009583
70	0xc0bf4a97	-5.977855
71	0xc089b83d	-4.30374
72	0xc0d0afec	-6.521475
73	0xc08dc413	-4.430185
74	0xc0e362d7	-7.1058154
75	0xbe44df36	-0.19225773
76	0xc15595ed	-13.349103
77	0xc114d8e3	-9.302951
78	0xc080b049	-4.021519
79	0xc029636b	-2.646693
80	0xc0511943	-3.2671669
81	0xc00d7ae7	-2.2106264
82	0xc11b1ef5	-9.695058
83	0xbeee9a3f	-0.46602055
84	0xc0e6cb52	-7.2123194
85	0xbfdbd967	-1.7175721
86	0xc0776ddb	-3.86608
87	0xc095d654	-4.682413
88	0xc09ec526	-4.961566
89	0xc07a6318	-3.9122982
90	0xc0429e35	-3.0409062
91	0xc08ef786	-4.4677153
92	0xbec49f79	-0.38402918
93	0xc00eca80	-2.2311096
94	0xbea1e296	-0.31618184
95	0xc090b451	-4.5220113
96	0xbd126c63	-0.035747897
97	0xc0aa32a2	-5.318681
98	0xbe8e9608	-0.2784884
99	0xbf571d30	-0.8402891
100	0xc1249013	-10.285174
101	0xbe54553f	-0.20735644
102	0xbe104c47	-0.14091597
103	0xc0398f52	-2.8993726
104	0xc0d17501	-6.5455327
105	0xc1217260	-10.090424
106	0xbdaf5aff	-0.08562278
107	0xc0e23094	-7.06843
108	0xc06c5b04	-3.6930552
109	0xbffdfee9	-1.9843417
110	0xc14d66ec	-12.837627
111	0xc08341a2	-4.101762
112	0xbc842c84	-0.016134508
113	0xc00789fb	-2.1177967
114	0xc0e1ef13	-7.060434
115	0xc0a422e3	-5.1292586
116	0xbea3b6eb	-0.31975493
117	0xc0851719	-4.1590695
118	0xc0be3853	-5.9443755
119	0xbdcfcbe2	-0.101463094
120	0xc0702bcf	-3.7526739
121	0xbf2a45b4	-0.6651261
122	0xc090d8cf	-4.526466
123	0xbea48990	-0.32136202
124	0xbf4aa2d6	-0.7915472
125	0xc0eda998	-7.4269524
126	0xc01807c9	-2.3754752
127	0xc0fd2d6e	-7.9117956
128	0x3cb7a9fe	0.022419926
129	0xbef39760	-0.47576427
130	0xc08d32ef	-4.4124675
131	0xbf60b5a2	-0.8777715
132	0xc04ca313	-3.1974533
133	0xc0863430	-4.1938705
134	0xc0d8f1e2	-6.7795267
135	0xc0880e6c	-4.2517605
136	0xc0ce1ce6	-6.4410276
137	0xc09d8788	-4.9227943
138	0xc0bc3e4e	-5.8826056
139	0xbee198e9	-0.44061974
140	0xc11766b2	-9.462572
141	0xc10fc154	-8.984699
142	0xc064c58c	-3.5745573
143	0xc016965c	-2.3529272
144	0xc052fe8e	-3.2967868
145	0xc0426ac4	-3.0377665
146	0xc135f832	-11.373095
147	0xbf611f8b	-0.87938756
148	0xc0e5a6c5	-7.1766076
149	0xbfffeeae	-1.9994714
150	0xc07f005d	-3.9843972
151	0xc0bc3142	-5.881013
152	0xc08d2a87	-4.4114413
153	0xbfffe940	-1.9993057
154	0xc03a32c9	-2.9093497
155	0xc0866471	-4.199761
156	0xbedb1b8c	-0.42794454
157	0xc018c661	-2.387108
158	0xbedbf2b4	-0.42958605
159	0xc06abf51	-3.667927
160	0xbe0bb4f4	-0.13643247
161	0xc0ad3845	-5.413119
162	0xbe9a50de	-0.30139822
163	0xbf8ed09b	-1.1157411
164	0xc1285b26	-10.522253
165	0xbf0aa72c	-0.54161334
166	0xbebd9bd8	-0.37032962
167	0xc0425c3f	-3.0368803
168	0xc12428d8	-10.259972
169	0xc18136b0	-16.151703
170	0xbcc39eac	-0.023879372
171	0xc0bd8890	-5.92292
172	0xc02c2b84	-2.690156
173	0xbfe42b5e	-1.7825735
174	0xc140da04	-12.053226
175	0xc076350a	-3.8469872
176	0xbde7b7d3	-0.113143586
177	0xbfe4fb38	-1.7889166
178	0xc127ad6b	-10.479838
179	0xc0ac6580	-5.38739
180	0xbeebc105	-0.460457
181	0xbfd882a4	-1.6914868
182	0xc08f0aeb	-4.4700828
183	0xbe80400f	-0.25048873
184	0xc0739e72	-3.8065457
185	0xbf4aa26f	-0.79154104
186	0xc0b198e0	-5.5499115
187	0xbed94abd	-0.42439833
188	0xbf720cee	-0.9455098
189	0xc0d9059f	-6.781936
190	0xc039ddf0	-2.904171
191	0xc13ea113	-11.914325
192	0xbc036240	-0.00801903
193	0xbed697a0	-0.41912556
194	0xc0407737	-3.0072763
195	0xbf4daac3	-0.80338687
196	0xc03ef767	-2.9838502
197	0xc05addf9	-3.4197981
198	0xc0abeebf	-5.372894
199	0xc05b4f58	-3.4267178
200	0xc112ae14	-9.1675
201	0xc05632eb	-3.3468578
202	0xc0852756	-4.1610518
203	0xbee71c18	-0.4513862
204	0xc169cba8	-14.612221
205	0xc10b07da	-8.689417
206	0xc0c27c2b	-6.077657
207	0xc003f965	-2.0620968
208	0xc05012e6	-3.2511535
209	0xc04a9d52	-3.165852
210	0xc169c077	-14.6094885
211	0xbee3cc0b	-0.4449161
212	0xc0fd906d	-7.92388
213	0xc000d2ef	-2.0128744
214	0xc05b3ed5	-3.42571
215	0xbfc19c80	-1.5125885
216	0xc091f279	-4.5608487
217	0xbfda4ff6	-1.7055652
218	0xc042be9d	-3.042884
219	0xc0338517	-2.8049982
220	0xbeff73f8	-0.49893165
221	0xbfca3ec2	-1.5800402
222	0xbefd3960	-0.49457836
223	0xc0d9badf	-6.8040614
224	0xbe0007a6	-0.12502918
225	0xc0ae3694	-5.4441624
226	0xbf0b3466	-0.5437683
227	0xbf7a36d9	-0.9773994
228	0xc13bb177	-11.730826
229	0xbee52fbe	-0.44762987
230	0xbe5b3783	-0.21407895
231	0xc0595c09	-3.3962424
232	0xc12d52a1	-10.832673
233	0xc14a7ecf	-12.655959
234	0xbdf46d25	-0.1193488
235	0xc0c58285	-6.1721826
236	0xc03b56a1	-2.9271624
237	0xbfe3b353	-1.77891
238	0xc150cc7e	-13.049925
239	0xc06f5ff7	-3.7402322
240	0xbe1a652b	-0.15077655
241	0xbfdd1155	-1.7270914
242	0xc1462c00	-12.385742
243	0xc0a3659c	-5.1061535
244	0xbf17bc32	-0.5927154
245	0xc0144adb	-2.3170688
246	0xc07dca17	-3.9654596
247	0xbe0e6796	-0.13906702
248	0xc0474ebf	-3.1141813
249	0xbf27de80	-0.65573883
250	0xc0adac10	-5.4272537
251	0xbe859abf	-0.26094624
252	0xbf8977d4	-1.0739694
253	0xc0d57822	-6.6709146
254	0xbffa1707	-1.9538277
255	0xc1718362	-15.094576

heads.1.bias f4 [91]
0	0xbfd835d8	-1.6891432
1	0xc0025ac5	-2.0367901
2	0xbfd5c527	-1.6700791
3	0xbfb59f08	-1.4189157
4	0xbf893ba7	-1.072133
5	0xbf92f2c3	-1.1480335
6	0xbf905987	-1.1277322
7	0xbf58919e	-0.84597194
8	0xbf5095f9	-0.8147884
9	0xbf330ea5	-0.6994422
10	0xbf15bb44	-0.5848887
11	0xbe8e44b0	-0.2778678
12	0xbeec8ce1	-0.46201232
13	0xbeef75f8	-0.4676969
14	0xbed98de1	-0.42491058
15	0xbef7c9ff	-0.48396298
16	0xbf252beb	-0.6452014
17	0xbf3529fe	-0.707672
18	0xbf49aeeb	-0.7878253
19	0xbf6600bf	-0.8984489
20	0xbf1990f3	-0.599868
21	0xbf0b1eb3	-0.5434372
22	0xbf29b2e7	-0.6628861
23	0xbf3af1f0	-0.7302542
24	0xbef28650	-0.47368097
25	0xbf1993e7	-0.59991306
26	0xbf08fe25	-0.53512794
27	0xbf26b7bd	-0.6512411
28	0xbeb5a8a8	-0.35480237
29	0xbf2a9d72	-0.6664649
30	0xbf189974	-0.5960915
31	0xbee09328	-0.4386227
32	0xbe8e28fd	-0.27765647
33	0xbe93e9d5	-0.28889337
34	0xbeb0021e	-0.34376615
35	0xbf0fd170	-0.5617895
36	0xbed83d4b	-0.42234263
37	0xbe93a760	-0.28838634
38	0x3daca29f	0.08429455
39	0xbe8311c6	-0.25599498
40	0xbeddccd1	-0.43320325
41	0xbe9efa55	-0.31050363
42	0xbe6d4e0f	-0.23174308
43	0xbea9e39c	-0.33181465
44	0xbe84f0bc	-0.25964916
45	0xbebca466	-0.36844176
46	0xbf044a1d	-0.5167559
47	0xbeb663e1	-0.35623077
48	0xbec82e4a	-0.39097816
49	0xbea797b5	-0.3273293
50	0xbea008b9	-0.31256655
51	0xbeba8f74	-0.3643757
52	0xbe2fac37	-0.17155538
53	0xbece5edf	-0.40306756
54	0xbe0eef90	-0.13958573
55	0xbe876d71	-0.26450685
56	0xbe5c3095	-0.21502908
57	0x3d1db16c	0.03849928
58	0xbd3b3e54	-0.045713738
59	0xbc4d497d	-0.012529728
60	0xbe3233c5	-0.17402561
61	0xbe83b255	-0.25721994
62	0xbe49215b	-0.1964163
63	0xbdad861e	-0.084728464
64	0x3de22403	0.11042025
65	0x3d0649fa	0.032785393
66	0xbe701c08	-0.23448193
67	0xbdf3dd7e	-0.11907481
68	0xbe7d0904	-0.2471047
69	0xbe994130	-0.29932547
70	0xbe848b27	-0.25887415
71	0x3d38b370	0.045093
72	0xbeff12c4	-0.49819005
73	0xbed72c87	-0.4202616
74	0xbe7b6380	-0.24549675
75	0x3e77c3d0	0.2419579
76	0xbdcc9a5c	-0.09990379
77	0x3e02bb04	0.12766653
78	0xbe97528a	-0.2955516
79	0x3f66f299	0.90213925
80	0x3ea785f5	0.3271939
81	0xbc3ebbc9	-0.011641451
82	0x3eaf5513	0.34244594
83	0xbdc48bac	-0.09596953
84	0xbe603bb3	-0.21897773
85	0x3f746e04	0.9548037
86	0xbf930a1e	-1.1487463
87	0x3e302786	0.17202577
88	0xbe53eda9	-0.20696129
89	0xbfc08083	-1.5039219
90	0xbfe2119d	-1.7661625

heads.2.weight f4 [91, 64]
0	0xbd97f276	-0.07419293
1	0x3d7d2801	0.06180573
2	0xc03bf79f	-2.9369886
3	0xbf808032	-1.0039122
4	0xc036d5b0	-2.8567924
5	0xc05ef365	-3.4836056
6	0xc0daf081	-6.8418584
7	0xc05c072d	-3.437938
8	0xc08a730e	-4.326545
9	0xc02974af	-2.6477468
10	0xc0a2aac9	-5.083348
11	0xbe418bcb	-0.18900983
12	0xc1433567	-12.200538
13	0xc0f252be	-7.5726004
14	0xc0961292	-4.689767
15	0xc00f242c	-2.2365828
16	0xc0715839	-3.7710097
17	0xc04539c9	-3.081652
18	0xc132cd88	-11.175179
19	0xbc65b8d5	-0.014021118
20	0xc0b26d05	-5.575808
21	0xbfa79367	-1.3091859
22	0xc05ad3c2	-3.4191747
23	0xbfd9d467	-1.7017945
24	0xc04f78fe	-3.2417598
25	0xc01ac767	-2.4184206
26	0xbf921abf	-1.1414412
27	0xc00105bd	-2.0159752
28	0xbe967ea7	-0.29393503
29	0xbfcba586	-1.5909889
30	0xbde20d88	-0.11037737
31	0xc08fc00f	-4.4921947
32	0xbc7da192	-0.015480416
33	0xc0a7a556	-5.2389326
34	0xbe9b703a	-0.3035906
35	0xbf867d4f	-1.0506991
36	0xc109a8ee	-8.603743
37	0xbd40f486	-0.047108196
38	0x3e02682c	0.12735051
39	0xc07bb775	-3.9330723
40	0xc0d7fb10	-6.7493973
41	0xc0df7fb7	-6.98434
42	0xbcc2c222	-0.02377421
43	0xc0c1a183	-6.050966
44	0xc051755e	-3.2727885
45	0xc02dd9b3	-2.7164123
46	0xc157ca46	-13.486883
47	0xc053003a	-3.2968888
48	0x3b3ec678	0.0029109996
49	0xc01d3fa4	-2.4570093
50	0xc100e501	-8.055909
51	0xc093a650	-4.614052
52	0xbe3e3c68	-0.1857773
53	0xc042cf65	-3.0439084
54	0xc08ff0d7	-4.4981494
55	0xbdae63f3	-0.085151576
56	0xc045c42c	-3.0900984
57	0xbf131a97	-0.5746245
58	0xc0197825	-2.397958
59	0x3b6fdc9f	0.0036600006
60	0xbedd85ad	-0.4326605
61	0xc056e9a4	-3.3580103
62	0xc0221e1f	-2.5330884
63	0xc1129939	-9.162408
64	0xbe020896	-0.12698588
65	0xbe8b2870	-0.2717929
66	0xc0836cab	-4.107015
67	0xbf835690	-1.0260792
68	0xc053a3c0	-3.3068695
69	0xc02eaa0c	-2.7291288
70	0xc0b8f197	-5.779491
71	0xc062dbbf	-3.5446622
72	0xc0b431fc	-5.6311016
73	0xc09488f3	-4.6417174
74	0xc0b52d93	-5.6618133
75	0xbe5dda2e	-0.2166526
76	0xc152c120	-13.17215
77	0xc1147852	-9.279375
78	0xc08f5ae2	-4.479844
79	0xc0079755	-2.1186116
80	0xc03365d7	-2.8030908
81	0xc037cb22	-2.8717732
82	0xc152a2ba	-13.164728
83	0xbedde11f	-0.43335816
84	0xc0bf5b7a	-5.9799166
85	0xc01a4f68	-2.4110966
86	0xc067e480	-3.6233215
87	0xc0492844	-3.1430826
88	0xc0894d16	-4.29066
89	0xc03f3ab2	-2.9879575
90	0xc00378a4	-2.0542383
91	0xc0159269	-2.3370612
92	0xbea5dc39	-0.3239458
93	0xc043c0d4	-3.0586443
94	0xbe4299ad	-0.19003935
95	0xc0835b10	-4.104866
96	0x3b013e48	0.001972096
97	0xc090f0a8	-4.529377
98	0xbed61edb	-0.41820416
99	0xbf60d892	-0.8783046
100	0xc109554e	-8.583326
101	0xbe6a7967	-0.22897874
102	0xbca60053	-0.020263826
103	0xc0511fdb	-3.2675693
104	0xc0fed20f	-7.963142
105	0xc111dca5	-9.116368
106	0xbd924cfe	-0.07143591
107	0xc0a278fa	-5.0772676
108	0xc01bbcc2	-2.4333959
109	0xbff4ea62	-1.9134028
110	0xc13bf862	-11.74814
111	0xc06837f1	-3.6284144
112	0x3cc3d3fa	0.02390479
113	0xbfff0c67	-1.992566
114	0xc1009c4f	-8.038161
115	0xc081c4af	-4.055259
116	0xbecb7002	-0.39733893
117	0xc07047ad	-3.7543747
118	0xc08d7d88	-4.4215736
119	0xbdb9ca1e	-0.09071754
120	0xc05ea883	-3.4790351
121	0xbf0afae5	-0.54289085
122	0xc094b359	-4.646893
123	0xbe4fd7b8	-0.20297134
124	0xbf179064	-0.592047
125	0xc09718bd	-4.72177
126	0xc034d3e3	-2.8254325
127	0xc11d3dbc	-9.827572
128	0xbe819434	-0.25308383
129	0xbe8f990a	-0.28046447
130	0xc090c392	-4.5238733
131	0xbf84ad66	-1.0365417
132	0xc057a438	-3.369398
133	0xc030f1ad	-2.7647507
134	0xc0e3548c	-7.1040707
135	0xc05eb7c3	-3.479966
136	0xc0e836fe	-7.256713
137	0xc0adb9c0	-5.4289246
138	0xc07b29c3	-3.924424
139	0xbec8008b	-0.39062914
140	0xc1291ee4	-10.570042
141	0xc112daa2	-9.178377
142	0xc0641648	-3.56386
143	0xc0364421	-2.8479083
144	0xc08e55fb	-4.4479957
145	0xc039fbdf	-2.905998
146	0xc15bb17e	-13.730833
147	0xbeb358f4	-0.35028803
148	0xc0d1419c	-6.539259
149	0xbfcc6b20	-1.5970192
150	0xc0234718	-2.5512142
151	0xc0ddadd5	-6.9274697
152	0xc068a6d3	-3.6351821
153	0xbff6034a	-1.9219754
154	0xc04b5687	-3.1771562
155	0xc0194c38	-2.395277
156	0xbf058172	-0.5215064
157	0xc03d9dc5	-2.9627545
158	0xbe45f4b5	-0.1933163
159	0xc037c7b9	-2.871565
160	0xbe481df8	-0.19542682
161	0xc0cb884c	-6.360388
162	0xbef5c3b4	-0.48000872
163	0xbf8193d1	-1.0123235
164	0xc10ea934	-8.916309
165	0xbed1160d	-0.40837136
166	0xbe03e9ea	-0.128822
167	0xc020cd36	-2.512525
168	0xc1028ed7	-8.159873
169	0xc186831f	-16.814024
170	0xbe05d243	-0.1306849
171	0xc097f81c	-4.749037
172	0xc00a87fc	-2.1645498
173	0xbfcabd6f	-1.583906
174	0xc13ad5ac	-11.677166
175	0xc0943eec	-4.632681
176	0xbd974986	-0.0738707
177	0xbff05e8b	-1.8778852
178	0xc10c57ab	-8.771403
179	0xc0aadf36	-5.3397474
180	0xbedc421d	-0.4301919
181	0xc0234753	-2.5512283
182	0xc0aad700	-5.338745
183	0xbe9e3a33	-0.30903777
184	0xc0576f0c	-3.3661528
185	0xbf1874d8	-0.5955329
186	0xc0a54340	-5.164459
187	0xbd26993b	-0.040673476
188	0xbf6509db	-0.89468163
189	0xc0b41ec7	-5.628757
190	0xc01232e9	-2.2843573
191	0xc131f792	-11.122942
192	0xbe6b520a	-0.22980514
193	0xbec0c598	-0.37650752
194	0xc04c6f2e	-3.1942859
195	0xbf887a53	-1.066233
196	0xc041a256	-3.0255332
197	0xc0388896	-2.8833365
198	0xc0a5d777	-5.182552
199	0xc07e61d4	-3.974721
200	0xc0f44a7f	-7.6340938
201	0xc0aba92c	-5.364401
202	0xc0d3d68c	-6.61994
203	0xbf05ddd1	-0.5229159
204	0xc1291564	-10.567722
205	0xc11b0528	-9.688759
206	0xc0b605dc	-5.6882153
207	0xc025d391	-2.591038
208	0xc0841caa	-4.128499
209	0xc0358f1a	-2.8368592
210	0xc1409462	-12.036226
211	0xbf25a372	-0.6470252
212	0xc0fef75b	-7.9676948
213	0xbff0d431	-1.8814756
214	0xc03cf23f	-2.9522855
215	0xc05c274e	-3.439899
216	0xc0a90693	-5.2820525
217	0xc03d563b	-2.958388
218	0xc062e07f	-3.5449522
219	0xc0918ccc	-4.548437
220	0xbeebb62d	-0.46037427
221	0xc06ce906	-3.7017226
222	0xbea822bc	-0.32839
223	0xc051fff4	-3.2812471
224	0xbe4b4739	-0.19851388
225	0xc0ba3935	-5.8194833
226	0xbf2763ad	-0.6538647
227	0xbf718a52	-0.94351685
228	0xc132d610	-11.177261
229	0xbf2e37f4	-0.6805413
230	0xbedf6aba	-0.43636113
231	0xc0587f88	-3.382784
232	0xc11829d9	-9.510217
233	0xc154722d	-13.277875
234	0xbe4743b7	-0.19459425
235	0xc0abe986	-5.3722563
236	0xc0812d2f	-4.0367656
237	0xbfc54bac	-1.5413718
238	0xc159679b	-13.587794
239	0xc08b59bf	-4.3547053
240	0xbe21ab5e	-0.15788028
241	0xbff20842	-1.890877
242	0xc16058fc	-14.021725
243	0xc0a74248	-5.226841
244	0xbedcd05b	-0.43127713
245	0xc040d808	-3.0131855
246	0xc08d6bb6	-4.4193983
247	0xbe342e71	-0.17595841
248	0xc04445c2	-3.0667577
249	0xbf2c46af	-0.67295355
250	0xc0a30ce2	-5.0953226
251	0xbe8a9ec3	-0.2707425
252	0xbf4f6e63	-0.8102781
253	0xc0a0301c	-5.0058727
254	0xc036c76a	-2.8559213
255	0xc174a6bf	-15.2907095

heads.2.bias f4 [91]
0	0xc000121a	-2.0011048
1	0xc00e8e85	-2.2274487
2	0xbfe3da61	-1.7801019
3	0xbfb6dc1d	-1.4285923
4	0xbfc75a4a	-1.5574429
5	0xbfabdcdc	-1.3426776
6	0xbf76f652	-0.96469605
7	0xbf623481	-0.88361365
8	0xbf40b3de	-0.75274456
9	0xbf39ccf6	-0.7257837
10	0xbf2ddecc	-0.67918086
11	0xbf276183	-0.65383166
12	0xbee5bb60	-0.44869518
13	0xbe9d5261	-0.30726913
14	0xbf074a02	-0.528473
15	0xbedac4e3	-0.42728338
16	0xbf0ea1fb	-0.5571591
17	0xbf1ba52a	-0.60798895
18	0xbf348afa	-0.7052456
19	0xbf12351a	-0.57112277
20	0xbf2f112c	-0.6838558
21	0xbeffde54	-0.4997431
22	0xbf29dba3	-0.66350764
23	0xbed8a960	-0.42316723
24	0xbf1c8351	-0.6113787
25	0xbf0e03b8	-0.55474424
26	0xbe390655	-0.18068822
27	0xbf23b236	-0.63943803
28	0xbee4991f	-0.44648072
29	0xbebe6945	-0.3718969
30	0xbeba7623	-0.36418256
31	0xbd8ec04a	-0.0697027
32	0xbeb13e64	-0.34617913
33	0xbdb50f5e	-0.08840822
34	0xbed4e80d	-0.4158329
35	0xbdd32582	-0.103098884
36	0xbdc356a7	-0.09538012
37	0xbe827b6f	-0.25484797
38	0xbe4715fc	-0.1944198
39	0xbd83ec35	-0.06441537
40	0xbe8bc636	-0.2729966
41	0xbd290e78	-0.041273564
42	0xbeae3c97	-0.340306
43	0xbe0fadc3	-0.14031129
44	0xbd39dfff	-0.045379635
45	0xbefbb35b	-0.49160275
46	0xbe322af7	-0.17399202
47	0xbdd0ba5d	-0.10191796
48	0xbd589021	-0.052871827
49	0xbebf23db	-0.37332043
50	0xbd486db8	-0.04893276
51	0xbde0a1c7	-0.109683566
52	0xbdfbc2ea	-0.12293036
53	0xbe755398	-0.2395767
54	0x3c572740	0.0131319165
55	0x3c168e35	0.009189178
56	0xbed7297b	-0.42023835
57	0xbdd17aa9	-0.10228474
58	0xbd2c43ed	-0.042056967
59	0xbe929412	-0.28628594
60	0x3a277eaa	0.0006389419
61	0xbe81a9ae	-0.25324768
62	0xbef85439	-0.48501757
63	0xbd326118	-0.043549627
64	0x3e0358b2	0.12826803
65	0x3dee2306	0.11627774
66	0x3bbdecae	0.0057960367
67	0xbe0c9108	-0.137272
68	0xbea4d6d2	-0.32195145
69	0xbd37e8f8	-0.04489991
70	0x3d42f3d5	0.047595818
71	0xbd41e941	-0.04734159
72	0x3db4d048	0.08828789
73	0xbc41afeb	-0.011821727
74	0xbe9fefb2	-0.3123756
75	0xbd07eef8	-0.033186883
76	0xbe569405	-0.20954902
77	0x3b994bec	0.00467824
78	0x3eb447ce	0.35211033
79	0x3ee65099	0.44983366
80	0x3f26aafe	0.65104663
81	0x3f6efc61	0.9335385
82	0xbf8302ce	-1.0235231
83	0xbbfb3c14	-0.007667074
84	0xbf5705b5	-0.83993083
85	0x3efb7291	0.49110845
86	0xbf056289	-0.5210348
87	0x3f41ec81	0.757515
88	0xbe3b4c7f	-0.182909
89	0xbda5d850	-0.08097899
90	0xbf3c34b6	-0.7351793
